index_advisor_selector/index_benefit_estimation/index_cost_lib/exp_res/exp_lib_job_tgt_ep500_bat1024/model/lib_LIB_200.pt (torch, 413135 bytes, 120 tensors)

S f4 [1, 1, 32]
-0.026714386 0.060401294 -0.014508396 0.106398836 -0.0929687 -0.11327209 0.10394051 -0.06708563
-0.08777431 -0.11230113 0.07721334 0.013833746 -0.11693438 0.00251803 -0.017754307 -0.27144977
-0.07098157 -0.06771173 -0.014674272 0.019341769 -0.012375187 0.0457996 0.10782578 -0.10623606
0.006287053 0.006368669 0.037799887 0.045502797 0.071968794 -0.09127408 -0.011915724 0.0006648867
00000000: 21d8 dabc 5967 773d a0b4 6dbc a2e7 d93d
00000010: 6066 bebd 33fb e7bd c3de d43d 3164 89bd
00000020: 04c3 b3bd 23fe e5bd 0722 9e3d f0a6 623c
00000030: 4b7b efbd 8905 253b 7b71 91bc 77fb 8abe
00000040: c95e 91bd 73ac 8abd 5c6c 70bc a172 9e3c
00000050: 4cc1 4abc 5d98 3b3d c3d3 dc3d 4b92 d9bd
00000060: a003 ce3b 45b0 d03b 0ed4 1a3d 2461 3a3d
00000070: 6064 933d e8ed babd 2b3a 43bc cb4b 2e3a

linear1.weight f4 [32, 12]
-0.18266742 0.031579804 0.21596788 0.22809243 1.6707989 -1.0978953 -0.506527 -0.5073631
0.18165208 0.93605155 0.122865535 -0.44663778 -0.07420784 -0.19734056 -0.17538795 -0.5202214
-0.25959805 0.083432086 0.13483639 -0.13244432 -0.050110932 -0.22054867 -0.3485462 0.3599912
-0.56836206 -0.37706572 -0.2236265 0.53650355 3.5591526 -0.36871132 -0.18583319 0.85444754
-0.751052 -0.6528359 0.46863684 0.55505055 -0.4364565 0.9516258 -0.20649572 -0.17649236
-3.681821 -0.54108685 0.51410145 -1.0668353 -0.53804344 -0.30817896 0.22948924 0.17198524
0.02667025 0.053605493 0.1820526 0.3792246 4.2197514 -0.28918383 0.5712679 -0.30423933
-2.8810785 -1.2376488 -0.28193107 0.2050327 -1.0201274 0.43746102 1.3402973 0.7601887
5.213848 -0.02507859 0.18880561 0.2714022 0.44476026 -0.78888714 -0.599127 0.79765105
0.81523085 -0.21340789 0.17328219 -0.22254606 2.7910879 -0.3125233 1.3044825 -0.4563322
0.115503356 -0.39706582 -0.14445727 -0.54215705 -1.4555062 0.4347081 0.7872081 0.4331003
-5.2845464 0.27467683 -0.25503194 1.0795746 0.6789385 0.22773309 0.1833971 0.06686188
0.97966254 -0.27662024 0.123109534 0.0665462 -4.6896987 -0.13502944 -0.10593579 0.62600064
-0.7146512 1.1824186 -0.11514088 -0.087758966 -0.1658545 0.19755745 0.077323146 0.064940736
-0.025168728 0.6872376 -0.038697768 -1.5384804 0.3601682 0.48066932 -0.52222216 0.5532342
-0.6887703 -0.5554629 0.03058809 0.27399874 4.6573215 -0.74204814 -0.65566427 -0.34007448
-0.28891006 -0.85584825 -0.27434656 -0.10538414 0.119263224 0.10153418 0.9618752 -0.30957007
0.41217658 0.03890319 0.15929773 0.041095935 0.5674722 -0.16968593 -0.16489394 -0.45190144
0.13583949 0.3205792 -0.8094387 -0.53568256 -0.19591923 -0.07307105 -0.015889267 -1.0803818
0.36468616 0.14424805 0.31112257 0.28436974 -0.15212455 -0.11165861 -0.32472807 0.13545954
3.564063 -1.2894585 -0.6457917 1.7978901 0.49783406 -1.1921854 -0.61083776 -0.062413864
-1.1675409 0.3877122 0.15512462 0.40494257 -4.779791 0.81881833 1.0647162 0.11541785
0.5309822 -0.25388113 -0.10427179 0.21108511 -0.40082923 0.6149042 0.41243124 -0.286531
0.28721946 0.39310825 0.17767274 0.31765857 0.8816752 0.34123132 0.07190571 0.67883784
-0.8723817 0.1475624 -0.88575107 0.47127837 2.0253103 -0.93338317 0.50477344 0.024043841
-0.116585076 -0.5904757 -0.27136618 -0.5330216 -1.0691289 0.20209108 -0.56309485 0.62312216
5.6791043 -0.864406 0.2962639 0.38477528 0.7336326 -1.0400575 -0.6685658 -0.29954457
0.10806063 0.52159876 -0.28562003 -0.4884248 3.0786347 -0.488235 0.11089685 0.9059867
-1.5794394 0.5179824 -0.7324494 0.3322808 -1.3614389 -0.36214215 -0.23579413 0.28826293
4.5694685 0.20795697 -2.2036111 -0.5418995 -1.0926315 -1.0367981 0.07159266 -0.38518238
-0.31049377 0.5029405 -1.3423421 -0.171924 4.714187 0.31891164 -0.18608578 0.021647083
-0.16121924 -1.7236274 0.08457596 -0.47794628 -0.8852611 -0.4678496 0.12441027 -0.5023393
00000000: 2b0d 3bbe d359 013d af26 5d3e 1091 693e
00000010: bddc d53f d587 8cbf c1ab 01bf 8ce2 01bf
00000020: 0103 3a3e 13a1 6f3f eda0 fb3d b5ad e4be
00000030: 48fa 97bd a513 4abe e698 33be 3b2d 05bf
00000040: 09ea 84be 71de aa3d 8d12 0a3e 7c9f 07be
00000050: 1f41 4dbd 83d7 61be a674 b2be c450 b83e
00000060: 2d80 11bf c20e c1be 58fe 64be 4c58 093f
00000070: 28c9 6340 bbc7 bcbe 0e4b 3ebe 13bd 5a3f
00000080: f244 40bf 4120 27bf 2bf1 ef3e cb17 0e3f
00000090: 3a77 dfbe c09d 733f 9d73 53be 6aba 34be
000000a0: f5a2 6bc0 ab84 0abf 279c 033f 0f8e 88bf
000000b0: 37bd 09bf a2c9 9dbe 3aff 6a3e e61c 303e
000000c0: 917b da3c 6f91 5b3d ff6b 3a3e ba29 c23e
000000d0: 3408 8740 e70f 94be 9d3e 123f 42c5 9bbe
000000e0: 9763 38c0 476b 9ebf 4559 90be 18f4 513e
000000f0: 8993 82bf e4fa df3e dd8e ab3f ba9b 423f
00000100: d8d7 a640 9d71 cdbc 4256 413e 3bf5 8a3e
00000110: 9eb7 e33e 82f4 49bf 6360 19bf dc32 4c3f
00000120: f8b2 503f 9987 5abe e370 313e 1de3 63be
00000130: 2fa1 3240 0e03 a0be 48f9 a63f 60a4 e9be
00000140: 068d ec3d 364c cbbe 9bec 13be ceca 0abf
00000150: 074e babf 0f92 de3e 7886 493f 53bf dd3e
00000160: 011b a9c0 71a2 8c3e 8c93 82be 802f 8a3f
00000170: eace 2d3f dd32 693e 73cc 3b3e e2ee 883d
00000180: 2acb 7a3f 2ba1 8dbe da20 fc3d 6049 883d
00000190: 0312 96c0 2845 0abe ddf4 d8bd 9441 203f
000001a0: 62f3 36bf 7e59 973f fbce ebbd f9ba b3bd
000001b0: c3d5 29be 804c 4a3e 995b 9e3d a6ff 843d
000001c0: a62e cebc ceee 2f3f 8d81 1ebd edec c4bf
000001d0: f767 b83e 4a1a f63e 5ab0 05bf c2a0 0d3f
000001e0: 4053 30bf d132 0ebf e093 fa3c 9049 8c3e
000001f0: c708 9540 def6 3dbf 9dd9 27bf 3e1e aebe
00000200: 05ec 93be df18 5bbf 2777 8cbe a4d3 d7bd
00000210: 4740 f43d 27f1 cf3d 743d 763f f87f 9ebe
00000220: cf08 d33e f458 1f3d f21e 233e 3654 283d
00000230: dc45 113f 26c2 2dbe f5d9 28be a05f e7be
00000240: 8219 0b3e f522 a43e 6037 4fbf 7e22 09bf
00000250: 0d9f 48be 46a6 95bd 352a 82bc f349 8abf
00000260: 25b8 ba3e c3b5 133e 754b 9f3e e998 913e
00000270: 8ac6 1bbe 45ad e4bd c242 a6be e8b5 0a3e
00000280: 9c19 6440 fa0c a5bf 9b52 25bf 4321 e63f
00000290: 1be4 fe3e 8899 98bf dd5f 1cbf aea5 7fbd
000002a0: fb71 95bf 3782 c63e fdd8 1e3e a254 cf3e
000002b0: 0cf4 98c0 149e 513f 9f48 883f 3260 ec3d
000002c0: 73ee 073f b5fc 81be 738c d5bd b226 583e
000002d0: 7d39 cdbe 5d6a 1d3f 302a d33e 31b4 92be
000002e0: 6e0e 933e 7c45 c93e d8ef 353e 25a4 a23e
000002f0: 77b5 613f dfb5 ae3e 4d43 933d 51c8 2d3f
00000300: 6854 5fbf 991a 173e 95c0 62bf 664b f13e
00000310: af9e 0140 33f2 6ebf d538 013f 97f7 c43c
00000320: 28c4 eebd 6a29 17bf 82f0 8abe 1b74 08bf
00000330: 37d9 88bf f7f0 4e3e fc26 10bf ef84 1f3f
00000340: 39bb b540 b649 5dbf e7af 973e 4401 c53e
00000350: 59cf 3b3f 9b20 85bf 2127 2bbf e85d 99be
00000360: e44e dd3d 7f87 053f ca3c 92be d112 fabe
00000370: 5a08 4540 f0f9 f9be e31d e33d bfee 673f
00000380: 122b cabf 7f9a 043f ce81 3bbf b620 aa3e
00000390: a143 aebf b26a b9be 0474 71be 3397 933e
000003a0: 1639 9240 acf2 543e f707 0dc0 edb9 0abf
000003b0: 59db 8bbf cdb5 84bf 2c9f 923d a036 c5be
000003c0: 0af9 9ebe b5c0 003f ded1 abbf d80c 30be
000003d0: 9fda 9640 6348 a33e 458d 3ebe 3955 b13c
000003e0: a816 25be d39f dcbf 2936 ad3d 60b5 f4be
000003f0: 79a0 62bf fc89 efbe d0ca fe3d 4f99 00bf

linear1.bias f4 [32]
0.06094817 -0.0986745 -0.010047328 0.25828257 -0.6692321 -0.77402455 0.27791417 0.8452135
0.08226908 -0.06059398 -0.3596215 -0.16568513 0.22046886 -0.450599 0.5231449 -0.057099923
-0.3339074 -0.5678593 -0.5292866 -0.24375099 -0.6960984 -1.1017207 -0.45817387 -0.063198015
0.43566662 -0.17677236 -0.16090506 0.1354739 0.41935152 0.12638335 -0.2442962 0.4546975
00000000: caa4 793d db15 cabd 8c9d 24bc 9d3d 843e
00000010: cb52 2bbf 7926 46bf c44a 8e3e e95f 583f
00000020: b17c a83d 6531 78bd 4f20 b8be 5da9 29be
00000030: 97c2 613e eab4 e6be d3ec 053f 9ce1 69bd
00000040: e9f5 aabe 3a5f 11bf 547f 07bf dc99 79be
00000050: 8133 32bf 2f05 8dbf c495 eabe f66d 81bd
00000060: b20f df3e d003 35be 4cc4 24be acb9 0a3e
00000070: 3eb5 d63e a36a 013e c828 7abe 1cce e83e

encoder.layers.0.self_attn.linears.0.weight f4 [32, 32]
-1.147744 -0.035414264 -0.14841224 0.02214957 0.6314679 0.5864219 -0.34292012 -1.0791757
-0.41535857 -0.07093584 -0.15314512 -0.030757606 0.13082077 0.013302409 0.3619093 0.40422097
-0.4837754 -0.108822204 -0.08217318 -0.64667743 -0.0754459 0.6211485 0.24190244 0.038198594
-0.95177096 0.18330157 -0.017070295 -0.451011 0.6352846 -0.61469346 0.86668086 -0.5801251
0.39243668 -0.12385046 -0.23434685 0.019880995 -0.4672406 -0.9457071 0.3156903 0.3748224
0.29463673 -0.5514351 0.2197429 0.06454737 -0.14745647 0.29861012 -0.6605062 -1.0819248
0.027292535 0.41140363 -0.21861652 0.42842785 0.02241727 -0.46523336 -0.033688728 -0.050443906
-0.13255873 -1.1590585 -0.023598041 0.2726163 -0.9165416 0.2531492 -0.21708784 0.38918015
-0.11689591 -0.0115428185 0.59440565 0.04231061 0.16853741 0.57652843 -0.09474271 1.1452796
-0.03118881 -0.012309176 0.6030454 -0.11026878 -0.05170421 0.6659659 0.3639226 0.26611683
-0.13157639 0.32042804 0.550206 0.3606606 0.055537533 0.6867004 0.17689177 -0.16947682
0.04668563 0.057313614 0.0096882535 -0.21885179 -0.8866073 0.33549437 0.27793372 -0.34687486
0.39355117 0.13507923 -0.18235601 0.013119866 -0.69582975 -0.62780434 -0.062816426 0.3611942
0.411488 1.206943 -0.21212275 0.010244074 -0.20597264 -0.98685914 -0.08133167 -0.61049575
0.4202007 -0.2743952 -0.36759835 0.28658137 -0.013716914 -0.72031486 -0.01824358 0.03900934
0.17393562 0.0832579 0.16923794 0.062099267 0.8477881 0.5296232 -0.7145303 -0.22451323
1.1990789 0.21497512 0.74730957 0.121100344 0.7611282 1.1334643 0.33054692 0.4393478
0.299797 0.90427315 0.684826 0.28040603 -0.036498643 0.78445935 0.5955952 0.25336078
1.1737167 0.85686684 1.5014526 -0.2764264 0.49596778 1.4631119 0.3887281 0.37876216
1.4356304 0.12418191 -0.113835536 -0.020797985 0.63280207 -0.10062202 -0.22394206 0.42827043
1.1110909 -0.06065358 -0.0838507 0.9216919 -0.25000656 -0.5085817 0.50119114 0.011418779
-0.84179527 -0.32992086 -0.062010344 -0.076736465 0.023429317 -0.5272128 0.11132833 0.31915596
1.4532799 0.02253861 -0.69006026 0.6999218 -0.22142 0.054929677 -0.39940035 0.059312567
0.05451531 -0.38275003 0.023250941 -0.0083409045 -0.30470467 0.30072752 -0.54862165 -1.0663165
-0.67895013 -0.070272475 0.08160488 -0.516096 -0.30176052 0.033386923 -0.058550585 0.7555635
0.3198789 0.43078023 -0.20556347 0.013778731 0.010306179 0.52465904 -0.1538659 0.95092225
-1.173468 0.6283427 -0.03626594 0.61434567 -0.03959741 -0.008490015 0.0904461 -0.23044117
0.23724325 0.9896266 -0.03276696 0.081253044 -0.23534049 -0.2390975 0.36275998 0.6037315
-2.3459587 0.14730546 -0.27818552 -0.7520156 -0.14968607 -0.6400566 -1.0275755 -0.9757823
-0.095293 0.099622495 -0.5613308 -0.1960823 0.2183299 -0.6564438 -0.12259254 -0.8798989
-3.182389 -1.4626019 -0.056565892 -1.1215272 -0.1983959 -0.73018414 0.30458158 -0.0372792
-2.433693 -0.513679 0.09092974 -0.14993748 0.3318078 0.04913019 0.49887395 -0.2166681
00000000: 47e9 92bf 8c0e 11bd 61f9 17be 0473 b53c
00000010: e1a7 213f bf1f 163f 3a93 afbe 6e22 8abf
00000020: e1a9 d4be cf46 91bd 13d2 1cbe 60f7 fbbc
00000030: e1f5 053e 59f2 593c 2d4c b93e 0df6 ce3e
00000040: 69b1 f7be 2dde debd 6a4a a8bd a78c 25bf
00000050: 6183 9abd 9703 1f3f 46b5 773e 2176 1c3d
00000060: 43a7 73bf 68b3 3b3e 01d7 8bbc eaea e6be
00000070: 03a2 223f 8d5c 1dbf ccde 5d3f 1483 14bf
00000080: 76ed c83e 4fa5 fdbd 9ff8 6fbe 78dd a23c
00000090: 293a efbe dc19 72bf 29a2 a13e b9e8 bf3e
000000a0: a0da 963e da2a 0dbf 4804 613e 6931 843d
000000b0: d4fe 16be 6de3 983e ef16 29bf 837c 8abf
000000c0: 9894 df3c 7fa3 d23e 02dd 5fbe e55a db3e
000000d0: 6ca4 b73c 1133 eebe 31fd 09bd 459e 4ebd
000000e0: 7abd 07be 075c 94bf ae50 c1bc 5d94 8b3e
000000f0: 78a2 6abf c69c 813e 464c 5ebe 9f42 c73e
00000100: 1f67 efbd 171e 3dbc f82a 183f e44d 2d3d
00000110: 1295 2c3e 5e97 133f 7708 c2bd 8698 923f
00000120: ad7f ffbc 6dac 49bc 2f61 1a3f 99d4 e1bd
00000130: cbc7 53bd be7c 2a3f 1054 ba3e 7740 883e
00000140: f6bb 06be 250f a43e 4dda 0c3f 82a8 b83e
00000150: 537b 633d 99cb 2f3f 1e23 353e 558b 2dbe
00000160: 6e39 3f3d aec1 6a3d 7bbb 1e3c af1a 60be
00000170: b2f8 62bf ebc5 ab3e 544d 8e3e 9599 b1be
00000180: 8a7f c93e 3652 0a3e 89bb 3abe b5f4 563c
00000190: e621 32bf c9b7 20bf e6a5 80bd 72ee b83e
000001a0: 8eae d23e 1c7d 9a3f b536 59be c3d6 273c
000001b0: 7eea 52be cda2 7cbf 3891 a6bd 7349 1cbf
000001c0: 8c24 d73e 877d 8cbe da35 bcbe cbba 923e
000001d0: e8bc 60bc 8e66 38bf 8f73 95bc 42c8 1f3d
000001e0: 2e1c 323e 1e83 aa3d b64c 2d3e cd5b 7e3d
000001f0: a408 593f 6395 073f 75eb 36bf cce6 65be
00000200: 6b7b 993f 7022 5c3e ae4f 3f3f 7503 f83d
00000210: 4cd9 423f 5c15 913f 723d a93e 32f2 e03e
00000220: fe7e 993e 727e 673f c250 2f3f 6191 8f3e
00000230: 9a7f 15bd 54d2 483f ed78 183f 81b8 813e
00000240: 593c 963f a05b 5b3f 992f c03f c387 8dbe
00000250: 7def fd3e 4047 bb3f 5f07 c73e 1ded c13e
00000260: bdc2 b73f 1653 fe3d 9b22 e9bd 8960 aabc
00000270: 51ff 213f eb12 cebd 1151 65be 4346 db3e
00000280: 3a38 8e3f e36f 78bd eab9 abbd 00f4 6b3f
00000290: dc00 80be 6932 02bf 104e 003f d515 3b3c
000002a0: e57f 57bf 63eb a8be 8ffe 7dbd 0228 9dbd
000002b0: d7ee bf3c 6bf7 06bf 1c00 e43d 6968 a33e
000002c0: 1305 ba3f e4a2 b83c caa7 30bf 132e 333f
000002d0: edbb 62be f1fd 603d 347e ccbe bcf1 723d
000002e0: 724b 5f3d d0f7 c3be c278 be3c 4aa8 08bc
000002f0: 4002 9cbe f5f8 993e 7872 0cbf 0f7d 88bf
00000300: adcf 2dbf 04eb 8fbd 7620 a73d de1e 04bf
00000310: 5b80 9abe bac0 083d bdd2 6fbd 9c6c 413f
00000320: 2bc7 a33e 3a8f dc3e 3b7f 52be 30c0 613c
00000330: 3fdb 283c 0e50 063f 068f 1dbe a46f 733f
00000340: 3334 96bf 11db 203f 988b 14bd c245 1d3f
00000350: e530 22bd b419 0bbc ce3b b93d c5f8 6bbe
00000360: e5ef 723e 2b58 7d3f a636 06bd ff67 a63d
00000370: 19fd 70be fad5 74be adbb b93e 268e 1a3f
00000380: 3024 16c0 3ed7 163e 556e 8ebe 1884 40bf
00000390: 4e47 19be c0da 23bf 9887 83bf decc 79bf
000003a0: fa28 c3bd e106 cc3d 60b3 0fbf ccc9 48be
000003b0: e091 5f3e b30c 28bf cc11 fbbd 0e41 61bf
000003c0: 43ac 4bc0 8a36 bbbf a3b1 67bd 348e 8fbf
000003d0: 4b28 4bbe 59ed 3abf 1ef2 9b3e 13b2 18bd
000003e0: a0c1 1bc0 7880 03bf 5f39 ba3d 3689 19be
000003f0: b6e2 a93e bd3c 493d 686c ff3e 3ede 5dbe

encoder.layers.0.self_attn.linears.0.bias f4 [32]
-0.41339475 0.17291032 0.082685895 0.6561584 0.31435263 -0.06660038 -0.3666078 -0.101872735
-0.34228915 -0.10359261 -0.56088984 -0.40823328 -0.3569065 -0.12324815 0.23399666 0.0017180385
-0.07399974 0.43924657 -0.45627144 -0.31195772 -0.17833684 -0.2879937 0.29473805 0.071734555
0.17469718 0.14507906 0.32791308 -0.044423245 -0.16597728 -0.5674291 -0.12836039 -0.21680394
00000000: 7aa8 d3be 670f 313e 3957 a93d fff9 273f
00000010: d4f2 a03e c865 88bd 04b4 bbbe a7a2 d0bd
00000020: 8640 afbe 5d28 d4bd 7a96 0fbf f403 d1be
00000030: 73bc b6be 8769 fcbd d29c 6f3e ce2f e13a
00000040: 2d8d 97bd ede4 e03e 699c e9be ecb8 9fbe
00000050: ef9d 36be e973 93be e8e7 963e 91e9 923d
00000060: d1e3 323e 9b8f 143e 39e4 a73e 26f5 35bd
00000070: f3f5 29be 0943 11bf e870 03be da01 5ebe

encoder.layers.0.self_attn.linears.1.weight f4 [32, 32]
-0.001218894 -0.08976286 0.3416106 -0.28570086 -0.4402338 0.22975418 -0.34967643 -0.25855276
0.7691815 -0.62276405 0.5093545 -0.03575423 -0.12895574 0.07396154 -0.4315325 0.29334256
-0.60099113 0.34983873 -0.014306289 0.16135374 0.18492533 0.4185522 -0.17650074 0.032487124
0.3680392 -0.6677543 -0.079517506 -0.06752534 -0.20730709 -0.2133248 -0.27395657 0.4304563
-0.46314853 0.31232673 0.06460488 -0.03478266 0.4482818 -0.22392261 0.24210218 0.0294204
-0.22044075 0.13844483 -0.52499944 0.45126766 0.3951199 -0.122518964 0.8177699 -0.053404514
0.27802542 -0.4007669 0.04846689 -0.5248092 0.10426608 -0.50006646 0.54437906 0.2633427
-0.38023162 -0.2592212 0.3077362 0.30999428 0.37370694 0.15710351 -0.18960562 -0.03490405
0.08131143 0.045031168 -0.23077436 -0.13810985 -0.5295393 0.44925988 0.0194553 -0.1610295
-0.5311352 0.48413092 0.06540694 0.10814699 0.013969417 0.20806952 -0.07750915 -0.8187101
0.16410477 0.16706094 -0.06988384 0.24284567 -0.36678156 0.6567991 0.1169504 0.062059928
-0.45966506 0.83395815 0.17690496 0.19854663 -0.3511134 -0.3157755 0.43351334 -0.8172212
-0.1496726 -0.18288867 -0.18507868 0.58902663 0.49862897 -0.2904923 -1.0892321 0.9359719
0.0102011645 0.27547595 0.027392635 -0.44970837 -0.45454103 -0.36055696 0.54298455 -0.11047198
0.12088133 -0.4502444 -0.06308641 0.2484458 -0.056026295 -0.7343148 -0.27216488 -0.23685986
-0.27352023 -0.28078887 -0.06432549 -0.37158927 0.090825185 0.8521129 0.3591593 -0.66744095
1.1645249 -0.28576115 -0.4210278 0.041748863 0.062003426 -0.33266306 -0.07907099 0.14264539
0.23530486 0.025486931 0.7142383 -0.086826585 -0.68113035 0.6468898 -0.47619408 -0.7235545
0.2803627 0.1546079 -0.5631205 1.0385453 0.19867142 -0.11023537 -0.07368517 -0.2994946
0.4840784 -0.48219427 -0.32170287 -0.048787013 0.40059772 0.04555888 -0.40052718 -0.06072531
-1.0656412 0.56048316 -0.14420205 -0.50792426 0.058223393 -0.1622666 0.084703445 -0.0327467
0.6887605 -0.15869166 -0.44859245 0.59361947 0.018574847 0.6211558 0.24944355 0.43330088
-0.34256962 -0.7979868 0.4267775 -0.50805384 -0.14380573 0.36379144 0.5949149 0.608283
-0.6666927 -0.12117162 0.4725094 0.56269103 -0.4315505 -0.40828505 0.56889457 0.13567667
-0.004558466 0.32692286 0.69568384 0.62724024 0.3146724 0.43107176 -0.45775488 0.46802887
-0.38989717 -0.050149053 0.5754822 0.09891821 1.0247631 0.17718968 0.2063665 0.6966002
-0.12613063 -0.24833354 0.37642807 -0.45268962 -0.34616515 0.0007122687 0.19639239 0.08366034
-0.31551424 0.7008275 0.46042377 0.31740645 -0.09063059 -0.14099178 0.5706587 -0.19354185
-0.9412033 0.44420594 0.6383208 0.23418999 -0.16939874 -0.10865853 0.10616652 -0.10668003
-0.37335336 0.091751225 -0.62364596 0.016783884 0.7163489 -0.54145116 0.52505594 0.50476515
-0.17668208 -0.33869937 0.46935397 -1.0882934 -0.3234564 -0.21452554 0.10405765 0.43236953
-0.26864234 0.5305938 0.37501967 0.039372105 0.0015446768 0.1933726 0.59110063 0.19932333
00000000: 4cc3 9fba 97d5 b7bd 96e7 ae3e 6247 92be
00000010: 5366 e1be ae44 6b3e ca08 b3be 0761 84be
00000020: 14e9 443f 776d 1fbf 0e65 023f 0773 12bd
00000030: f90c 04be 2679 973d d4f1 dcbe ff30 963e
00000040: 8eda 19bf 101e b33e ed64 6abc ea39 253e
00000050: 115d 3d3e 794c d63e 9cbc 34be 3811 053d
00000060: a26f bc3e f2f1 2abf 13da a2bd ba4a 8abd
00000070: 4f48 54be d171 5abe 0944 8cbe c564 dc3e
00000080: ce21 edbe 4ae9 9f3e 904f 843d 4378 0ebd
00000090: 3185 e53e f84b 65be a2e9 773e 0d03 f13c
000000a0: 38bb 61be 7bc4 0d3e 5d66 06bf 8e0c e73e
000000b0: 284d ca3e 39eb fabd 5e59 513f b1be 5abd
000000c0: 5959 8e3e 5231 cdbe 3885 463d e559 06bf
000000d0: 7489 d53d 5b04 00bf 6d5c 0b3f dbd4 863e
000000e0: b8ad c2be a4b8 84be 998f 9d3e 92b7 9e3e
000000f0: 8456 bf3e bedf 203e fa27 42be 8df7 0ebd
00000100: 9b86 a63d 9a72 383d 1d50 6cbe ab6c 0dbe
00000110: e38f 07bf 6405 e63e b960 9f3c ebe4 24be
00000120: 7af8 07bf 02e0 f73e 13f4 853d 2b7c dd3d
00000130: fbdf 643c 2d10 553e 1ebd 9ebd fc96 51bf
00000140: 150b 283e 0612 2b3e 421f 8fbd 89ac 783e
00000150: cbca bbbe fc23 283f b183 ef3d 8d32 7e3d
00000160: 3859 ebbe 487e 553f 9326 353e cf4f 4b3e
00000170: 23c5 b3be 54ad a1be 76f5 dd3e 6935 51bf
00000180: c643 19be 2b47 3bbe 4485 3dbe 73ca 163f
00000190: 4c4c ff3e 68bb 94be f56b 8bbf db9b 6f3f
000001a0: c922 273c 2f0b 8d3e 8566 e03c 2d40 e6be
000001b0: 9ab9 e8be ec9a b8be 0901 0b3f 223f e2bd
000001c0: a190 f73d 6f86 e6be 7333 81bd 9368 7e3e
000001d0: d47b 65bd 0efc 3bbf 3259 8bbe 648b 72be
000001e0: d80a 8cbe 8fc3 8fbe 15bd 83bd f340 bebe
000001f0: 8e02 ba3d 1224 5a3f bae3 b73e 69dd 2abf
00000200: 270f 953f 494f 92be f590 d7be db00 2b3d
00000210: 4ef7 7d3d d052 aabe f9ef a1bd a211 123e
00000220: c2f3 703e f8c9 d03c 52d8 363f 23d2 b1bd
00000230: 8f5e 2ebf 929a 253f b6cf f3be de3a 39bf
00000240: b38b 8f3e 8951 1e3e aa28 10bf 0def 843f
00000250: 8570 4b3e 15c3 e1bd 40e8 96bd 5b57 99be
00000260: 20d9 f73e 2be2 f6be 3db6 a4be e4d4 47bd
00000270: 251b cd3e f39b 3a3d e611 cdbe 1abb 78bd
00000280: ee66 88bf d37b 0f3f b4a9 13be 5307 02bf
00000290: a77b 6e3d 3729 26be 0079 ad3d 6721 06bd
000002a0: 9c52 303f 1180 22be e9ad e5be 72f7 173f
000002b0: 472a 983c 1104 1f3f 216e 7f3e 9dd9 dd3e
000002c0: 4965 afbe dd48 4cbf 9582 da3e d10f 02bf
000002d0: cf41 13be df42 ba3e 584c 183f 6fb8 1b3f
000002e0: 5fac 2abf d428 f8bd c1ec f13e 850c 103f
000002f0: 30f4 dcbe bd0a d1be 13a3 113f d3ee 0a3e
00000300: 2f5f 95bb 6f62 a73e 5618 323f d192 203f
00000310: be1c a13e 70b5 dc3e d95e eabe 7ba1 ef3e
00000320: 9aa0 c7be 1869 4dbd cd52 133f a195 ca3d
00000330: 702b 833f 3671 353e bd51 533e 6454 323f
00000340: 6328 01be 264b 7ebe 2ebb c03e efc6 e7be
00000350: 8f3c b1be 8bb7 3a3a 161b 493e 1d56 ab3d
00000360: 158b a1be 6e69 333f aabc eb3e 1983 a23e
00000370: 889c b9bd 2660 10be b016 123f d62f 46be
00000380: b3f2 70bf f66e e33e fe68 233f 80cf 6f3e
00000390: dd76 2dbe 5d88 debd d56d d93d 0f7b dabd
000003a0: 2c28 bfbe 11e8 bb3d 43a7 1fbf 5b7e 893c
000003b0: a462 373f 8b9c 0abf 116a 063f 4a38 013f
000003c0: 26ec 34be 016a adbe 2a4f f03e 334d 8bbf
000003d0: 149c a5be 95ac 5bbe 2d1c d53d 8a5f dd3e
000003e0: 7d8b 89be ffd4 073f 9402 c03e a544 213d
000003f0: c176 ca3a 7803 463e 5f52 173f 6a1b 4c3e

encoder.layers.0.self_attn.linears.1.bias f4 [32]
-0.46861818 0.32731208 -0.04882356 0.23542629 -0.33423057 0.19368617 -0.024492024 0.35674727
0.23233698 0.1731282 -0.0043296954 0.16503195 -0.17570299 -0.045176137 0.16710477 -0.2638671
-0.23018593 0.14934133 -0.043775965 -0.012671608 0.0004456853 -0.3035309 0.40885746 0.3065825
-0.23360248 -0.14957084 -0.04119439 0.175439 0.14496724 0.37408578 0.13969967 0.3173012
00000000: b9ee efbe 7395 a73e 37fb 47bd 9713 713e
00000010: 4520 abbe ab55 463e 7fa3 c8bc 94a7 b63e
00000020: bfe9 6d3e 8548 313e 1ee0 8dbb 23fe 283e
00000030: 7ceb 33be 9d0a 39bd 831d 2b3e 9719 87be
00000040: dcb5 6bbe efec 183e 6d4e 33bd 939c 4fbc
00000050: deaa e939 6768 9bbe c455 d13e 62f8 9c3e
00000060: 7d35 6fbe 1929 19be 73bb 28bd 48a6 333e
00000070: 4b72 143e 2c88 bf3e 6e0d 0f3e 4e75 a23e

encoder.layers.0.self_attn.linears.2.weight f4 [32, 32]
-0.26897755 0.1261852 -0.18561381 0.011371551 0.049287062 0.13250051 -0.032512188 0.022626344
-0.07154837 -0.11873494 -0.21525474 0.091028586 -0.2359256 0.19230439 0.29785725 -0.062251665
-0.16830528 0.20966361 -0.038186993 -0.03901826 0.44202906 0.1474911 -0.16245443 0.16643019
0.2633044 0.22173122 -0.05234637 -0.12256458 -0.36590123 -0.41142082 0.070789225 -0.18319589
-0.16372427 -0.24171716 0.048003227 -0.056164663 0.13262208 0.17129472 0.044963174 -0.19497357
0.25207794 -0.015925683 0.1206837 -0.025790786 -0.10375982 -0.13305159 -0.20892605 0.10127796
0.03847159 -0.05656641 0.12745698 0.16820985 0.24114132 0.17961499 0.0007399704 0.0144655015
-0.05547252 -0.59881115 -0.07451069 -0.12476885 0.17017457 0.23150808 -0.12365086 -0.03375641
-0.17420577 -0.018353002 0.073908776 -0.3911022 0.33331206 -0.03209482 0.12237126 -0.0459068
-0.3086113 0.33162725 0.28884223 -0.13653566 -0.12442772 -0.08237479 0.02958677 -0.41521198
0.03948386 -0.039564125 -0.2349424 0.21582103 0.26315376 0.24213216 0.006867927 -0.17159636
0.08107407 0.3785916 -0.03639235 0.045871824 -0.24152434 -0.083039634 0.06693179 -0.03142741
0.05375171 -0.24180791 -0.06513361 -0.28848252 0.13497691 -0.028815353 0.14857039 -0.3213538
0.20792073 0.58793867 0.0251598 -0.41710126 -0.21538194 -0.028207134 -0.28870374 -0.1875139
0.14377448 -0.08749437 0.2373294 0.41481996 -0.010809173 0.02215533 -0.12160737 -0.13554515
0.15831694 0.038280517 -0.050401427 -0.35635203 0.5133379 0.05458153 0.0009410619 0.07631795
-0.3868962 -0.11947441 -0.09540182 0.1224463 0.49443972 -0.70236146 0.01320392 -0.14099479
0.2629091 -0.08137932 0.11203774 -0.12241495 -0.18595016 0.61124223 -0.09533603 -0.119452216
0.37013352 0.35504228 0.107258156 0.48101166 -0.24325494 -0.2748806 0.7457746 -0.009541761
-0.27394587 0.3379852 -0.08703076 -0.030147223 0.24499965 -0.005642323 0.3342914 0.109342664
0.38868475 0.06333502 0.15651856 0.023507392 -0.3818996 -0.017090384 -0.011658381 -0.18710011
-0.11614786 0.26222637 0.01705437 -0.06140456 0.2170147 -0.013206601 0.042743932 0.124205686
0.271088 -0.27619788 -0.15878859 -0.12514815 -0.18842436 0.003653254 -0.097436026 0.036387008
0.29044494 -0.047160126 0.13632502 0.08934382 0.4132986 -0.5333601 -0.061877668 0.06450731
-0.12868339 0.022674086 0.042695202 0.31319654 -0.3135533 -0.15424493 0.24635103 0.58709097
0.056882724 -0.06266886 -0.07732791 0.13208458 0.50592566 0.4552031 0.026604146 -0.08730014
-0.3774987 0.1552777 0.041199792 -0.00021781634 -0.20327878 0.21327409 -0.5677286 -0.091753125
-0.23136127 -0.39773858 0.0103824 0.12200253 0.0645369 -0.17609589 0.061285842 0.34639302
0.18257304 0.16006225 0.28606957 -0.038258463 -0.5853713 -0.20248277 -0.040073056 0.0693166
-0.21610638 0.06879736 0.21770816 -0.028543502 0.47491944 0.17862318 0.055114206 -0.27177468
0.086735085 -0.24822564 -0.04017177 -0.34609586 -0.3095177 -0.0697786 0.5125663 -0.13167585
0.41528422 -0.23252758 0.19933811 0.29864237 0.33583668 0.12203585 -0.26665568 0.31493837
00000000: 6db7 89be b136 013e 8c11 3ebe be4f 3a3c
00000010: 3be1 493d 37ae 073e 802b 05bd e25a b93c
00000020: f487 92bd 4e2b f3bd bd6b 5cbe 326d ba3d
00000030: 7b96 71be 71eb 443e bf80 983e 9afb 7ebd
00000040: 3858 2cbe 0fb2 563e f769 1cbd 9cd1 1fbd
00000050: a251 e23e e807 173e 745a 26be ad6c 2a3e
00000060: d6cf 863e 820d 633e 2669 56bd 2303 fbbd
00000070: 6857 bbbe c0a5 d2be f1f9 903d b497 3bbe
00000080: 56a7 27be b484 77be 089f 443d eb0c 66bd
00000090: 15ce 073e e267 2f3e 4e2b 383d 27a7 47be
000000a0: 5c10 813e 9476 82bc 0429 f73d 3347 d3bc
000000b0: 0780 d4bd ad3e 08be b6f0 55be d26a cf3d
000000c0: 6394 1d3d 2eb2 67bd 1584 023e 343f 2c3e
000000d0: c0ed 763e feec 373e 93fa 413a b600 6d3c
000000e0: 2737 63bd b04b 19bf 1099 98bd d086 ffbd
000000f0: 3e42 2e3e 7410 6d3e a93c fdbd 2944 0abd
00000100: ff62 32be 0959 96bc 7c5d 973d 8c3e c8be
00000110: e1a7 aa3e dc75 03bd c89d fa3d c508 3cbd
00000120: 4d02 9ebe 0ccb a93e 21e3 933e 01d0 0bbe
00000130: f6d3 febd 1db4 a8bd f45f f23c aa96 d4be
00000140: d4b9 213d fe0d 22bd be94 70be 3000 5d3e
00000150: 17bc 863e 7ef1 773e 590c e13b f5b6 2fbe
00000160: 290a a63d c2d6 c13e 2510 15bd 18e4 3b3d
00000170: 2852 77be af10 aabd 8913 893d 07ba 00bd
00000180: c12a 5c3d 7e9c 77be c564 85bd fbb3 93be
00000190: 6337 0a3e 2d0e ecbc d622 183e 7c88 a4be
000001a0: 2ce9 543e 2683 163f ed1b ce3c 4c8e d5be
000001b0: 158d 5cbe a612 e7bc fad0 93be a503 40be
000001c0: 9e39 133e 4030 b3bd 7a06 733e 4863 d43e
000001d0: f518 31bc 187f b53c 490d f9bd 59cc 0abe
000001e0: d61d 223e 08cc 1c3d ba71 4ebd c673 b6be
000001f0: 1d6a 033f e290 5f3d 98b1 763a 964c 9c3d
00000200: 4217 c6be 00af f4bd 0862 c3bd 20c5 fa3d
00000210: 3427 fd3e f6cd 33bf 4155 583c f060 10be
00000220: 069c 863e 33aa a6bd 0b74 e53d b0b4 fabd
00000230: b869 3ebe 5f7a 1c3f 893f c3bd 5da3 f4bd
00000240: 2482 bd3e 1ac8 b53e 2aaa db3d 2947 f63e
00000250: d317 79be 26bd 8cbe 16eb 3e3f 0c55 1cbc
00000260: a242 8cbe 650c ad3e 2f3d b2bd 4ff7 f6bc
00000270: 30e1 7a3e 3ce3 b8bb 3e28 ab3e 0cef df3d
00000280: b001 c73e cab5 813d 6746 203e 9392 c03c
00000290: 5888 c3be 2201 8cbc cb02 3fbc 2c97 3fbe
000002a0: eede edbd 8942 863e 9bb5 8b3c 5983 7bbd
000002b0: 1a39 5e3e 8060 58bc 4314 2f3d 8d5f fe3d
000002c0: 0ccc 8a3e cf69 8dbe 7a99 22be d626 00be
000002d0: 51f2 40be 6e6b 6f3b 8a8c c7bd 8b0a 153d
000002e0: 33b5 943e fa2a 41bd c998 0b3e e5f9 b63d
000002f0: e09b d33e 4a8a 08bf 7073 7dbd 691c 843d
00000300: 94c5 03be 01bf b93c 2ae1 2e3d 4c5b a03e
00000310: 0f8a a0be 62f2 1dbe 7243 7c3e 984b 163f
00000320: dcfd 683d 8858 80bd 185e 9ebd 2e41 073e
00000330: 5884 013f 6110 e93e f0f0 d93c 6aca b2bd
00000340: 8247 c1be 1e01 1f3e 1dc1 283d a165 64b9
00000350: 5028 50be 8664 5a3e a956 11bf 10e9 bbbd
00000360: f8e9 6cbe 64a4 cbbe f11a 2a3c 76dc f93d
00000370: ec2b 843d 7b52 34be dd06 7b3d 6d5a b13e
00000380: 6df4 3a3e 5ce7 233e b677 923e e8b4 1cbd
00000390: e5da 15bf a557 4fbe a523 24bd ddf5 8d3d
000003a0: fe4a 5dbe a1e5 8c3d e3ee 5e3e 10d4 e9bc
000003b0: a428 f33e ffe8 363e 6fbf 613d 0d26 8bbe
000003c0: 2aa2 b13d dd2e 7ebe 278b 24bd 7a33 b1be
000003d0: 1b79 9ebe 15e8 8ebd 8c37 033f 09d6 06be
000003e0: 22a0 d43e b61b 6ebe 4a1f 4c3e a7e7 983e
000003f0: c9f2 ab3e efed f93d 1887 88be 9a3f a13e

encoder.layers.0.self_attn.linears.2.bias f4 [32]
-0.056519642 -0.013830512 -0.1426972 0.06467653 -0.2835713 0.04785082 -0.1097686 0.11588006
0.10805645 0.026085764 0.0029300298 0.12944019 0.0890228 -0.106150396 -0.07360048 0.037179183
0.06130941 0.04571356 0.12897338 -0.042837195 -0.1265786 -0.10819401 0.033541497 -0.15816368
0.020061363 0.119003296 0.09234295 0.055756647 -0.013862644 -0.07599223 0.04503781 0.046793614
00000000: 2481 67bd 5f99 62bc 371f 12be 2175 843d
00000010: 4230 91be 39ff 433d 5cce e0bd 8652 ed3d
00000020: b34c dd3d d0b1 d53c be05 403b f88b 043e
00000030: 9651 b63d 6165 d9bd d9bb 96bd 3349 183d
00000040: 931f 7b3d 243e 3b3d 9911 043e 0e76 2fbd
00000050: d29d 01be d294 ddbd cf62 093d a9f5 21be
00000060: ba57 a43c 00b8 f33d 4d1e bd3d 1561 643d
00000070: 2520 63bc d0a1 9bbd 9179 383d a9aa 3f3d

encoder.layers.0.self_attn.linears.3.weight f4 [32, 32]
-0.07237338 -0.08734862 -0.1856714 0.15326345 -0.4495679 0.0066357534 0.034923486 0.15818205
0.41352212 -0.18666549 0.22987357 0.44637132 0.17401512 0.091091596 -0.14907147 -0.085867085
0.15372983 -0.09857811 -0.07771059 -0.12828022 0.028635103 0.28711152 -0.044266995 0.08073985
0.15306881 -0.07346801 -0.11805127 -0.019817498 -0.0242169 -0.01266622 0.28293186 -0.037860822
-0.09445625 0.1331791 0.052436166 0.24327181 0.4252497 -0.17429988 0.23722237 -0.03444305
-0.20212372 0.22358996 0.15077184 0.09201503 0.18575561 0.06936637 -0.3431032 -0.288019
0.15471756 -0.026174627 -0.11461606 -0.2893567 -0.08117287 0.20909135 0.18913546 -0.06825201
0.021562634 -0.3275616 -0.100481495 0.54193974 -0.25153485 0.079123504 0.17489369 0.20201984
-0.067378804 0.054125674 -0.04728692 -0.14272328 -0.36021286 0.47230604 -0.027730472 -0.2024353
-0.091464415 -0.09590954 -0.24290174 0.038920034 -0.3755295 0.09818542 0.69161505 -0.13600446
0.29400045 0.07219547 -0.088444166 -0.64242345 -0.07599711 0.12586504 -0.20802373 -0.03660558
-0.18754148 -0.12866339 0.19695137 -0.3098304 -0.21345542 0.3577876 -0.14937519 0.18010345
-0.117342986 -0.007440003 -0.36597386 -0.041395277 0.28620416 -0.0816365 -0.6967234 0.088475645
0.06598952 0.23059553 -0.1074859 -0.21323559 -0.14379697 0.047278017 -0.36925012 -0.035817675
-0.078939 -0.18935183 -0.0049086027 -0.38224784 0.1548205 0.16422884 0.2252866 -0.059687972
0.024724267 -0.10307609 -0.20687038 0.10133525 -0.08866207 0.0054218434 0.09045837 -0.22765805
0.10630904 -0.057428107 0.2518102 -0.03819101 0.32021502 -0.19705978 -0.3737763 -0.01918667
0.06151615 0.1087933 -0.1572983 -0.1281779 -0.15176538 0.094421834 -0.17232402 -0.0077276505
-0.072853245 -0.0585125 -0.30913076 -0.38371262 0.04786303 -0.08811816 0.08567875 0.11289816
0.02053526 0.05388208 -0.043233026 -0.010171438 0.09706345 0.13413341 -0.115392566 -0.052404135
0.19514975 0.06298111 0.005462422 -0.060289044 0.21131065 0.18221094 -0.01706413 0.0229701
0.13500924 -0.28480706 -0.01141738 0.02023169 0.04674794 0.11206204 0.11020342 0.27608883
0.039499238 -0.07203863 0.05538106 0.17641217 -0.04230072 0.15310581 -0.08937913 -0.08215727
-0.1998899 -0.036727 0.12744278 0.0017469872 0.13859136 -0.2291494 0.071966 0.0063283737
-0.39372072 -0.28406224 0.18868363 0.33678567 0.052779764 -0.12428685 0.17061758 0.1317267
-0.29210904 0.09457505 -0.0028701844 0.16620019 -0.063737325 -0.009856785 0.48897916 0.16905653
-0.013763402 0.17407939 0.15052825 -0.35654098 0.035108127 0.37397337 0.17923199 0.25594875
0.014780892 0.040935 0.131809 0.19502956 -0.10090659 -0.038699076 -0.30277354 -0.14653826
-0.0684854 0.14144947 0.06851194 0.14788124 -0.027858384 -0.078298576 -0.09615843 -0.23878849
-0.05465472 -0.009410748 -0.041710194 -0.26490676 0.1561836 0.051398322 -0.37884194 -0.21065107
-0.27821824 -0.010625977 0.12638693 -0.07680826 0.26814887 -0.110925004 0.073221914 0.2175727
0.13836126 0.10204668 0.13793878 0.065918915 0.12942475 0.09544762 -0.047597446 -0.099768125
00000000: 7f38 94bd d5e3 b2bd a520 3ebe 18f1 1c3e
00000010: c42d e6be bc70 d93b ee0b 0f3d 7afa 213e
00000020: 2cb9 d33e 3d25 3fbe fa63 6b3e c88a e43e
00000030: 0531 323e 3b8e ba3d 31a6 18be 15db afbd
00000040: 5a6b 1d3e 52e3 c9bd bb26 9fbd e45b 03be
00000050: 2a94 ea3c 4800 933e 4f51 35bd ef5a a53d
00000060: 12be 1c3e 6576 96bd ddc4 f1bd 4e58 a2bc
00000070: 8562 c6bc fa85 4fbc 72dc 903e f313 1bbd
00000080: 4772 c1bd 1a60 083e 4ec7 563d 3f1c 793e
00000090: 54ba d93e ab7b 32be 6cea 723e 2814 0dbd
000000a0: 85f9 4ebe c4f4 643e ef63 1a3e 6072 bc3d
000000b0: b836 3e3e f50f 8e3d 39ab afbe 3a77 93be
000000c0: 486e 1e3e 2c6c d6bc d3bb eabd 9026 94be
000000d0: f63d a6bd 0b1c 563e baac 413e b6c7 8bbd
000000e0: 1fa4 b03c 27b6 a7be 3ec9 cdbd 90bc 0a3f
000000f0: 2dc9 80be 810b a23d 5517 333e 4ade 4e3e
00000100: e6fd 89bd e2b2 5d3d eeaf 41bd 0d26 12be
00000110: d26d b8be 19d2 f13e 042b e3bc 334b 4fbe
00000120: b251 bbbd 396c c4bd 3cbb 78be 9d6a 1f3d
00000130: 6745 c0be 7015 c93d af0d 313f c144 0bbe
00000140: 3a87 963e 38db 933d 3722 b5bd dd75 24bf
00000150: 5fa4 9bbd c4e2 003e 2c04 55be bcef 15bd
00000160: e00a 40be 56c0 03be 9fad 493e 17a2 9ebe
00000170: 0f94 5abe f02f b73e cff5 18be 0a6d 383e
00000180: 8551 f0bd 45cb f3bb ed60 bbbe 188e 29bd
00000190: 5a89 923e 0a31 a7bd 775c 32bf b832 b53d
000001a0: 8325 873d 3c21 6c3e 9121 dcbd 6e5a 5abe
000001b0: 833f 13be 98a6 413d 5a0e bdbe 8eb5 12bd
000001c0: c5aa a1bd 72e5 41be 58d8 a0bb fdb5 c3be
000001d0: 4489 1e3e 9b2b 283e 88b1 663e 607b 74bd
000001e0: 8c8a ca3c 8f19 d3bd d4d5 53be db88 cf3d
000001f0: 7694 b5bd b8a9 b13b 3d42 b93d 311f 69be
00000200: 8eb8 d93d bc39 6bbd 44ed 803e 2d6e 1cbd
00000210: 39f3 a33e 0aca 49be 9b5f bfbe 5d2d 9dbc
00000220: 5cf8 7b3d 06cf de3d ce12 21be 1141 03be
00000230: 6268 1bbe 3c60 c13d b575 30be 3b38 fdbb
00000240: 1534 95bd ceaa 6fbd 6346 9ebe fb75 c4be
00000250: 060c 443d 4b77 b4bd 5778 af3d 2737 e73d
00000260: 9039 a83c 75b3 5c3d 1d15 31bd 1aa6 26bc
00000270: 34c9 c63d 455a 093e f052 ecbd b8a5 56bd
00000280: 56d5 473e 3dfc 803d 1efe b23b a5f1 76bd
00000290: d261 583e 8195 3a3e 13ca 8bbc cb2b bc3c
000002a0: dd3f 0a3e 3bd2 91be f60f 3bbc eebc a53c
000002b0: c57a 3f3d c880 e53d 55b2 e13d 845b 8d3e
000002c0: f4c9 213d fd88 93bd 40d7 623d 64a5 343e
000002d0: 8543 2dbd c5c7 1c3e 680c b7bd 1242 a8bd
000002e0: f0af 4cbe 0d6f 16bd 5c80 023e 2afb e43a
000002f0: e5ea 0d3e 24a6 6abe e962 933d 3f5e cf3b
00000300: c395 c9be 9b70 91be 4836 413e 2c6f ac3e
00000310: 982f 583d 1b8a febd 60b6 2e3e 5de3 063e
00000320: 518f 95be 90b0 c13d b419 3cbb 6230 2a3e
00000330: b788 82bd 5a7e 21bc 7a5b fa3e 281d 2d3e
00000340: e47f 61bc de41 323e 1424 1a3e 8a8c b6be
00000350: 8acd 0f3d 7079 bf3e 9788 373e b70b 833e
00000360: 8e2b 723c 75ab 273d f0f8 063e d4b5 473e
00000370: 1da8 cebd ec82 1ebd 2205 9bbe 200e 16be
00000380: 1342 8cbd 21d8 103e fd4f 8c3d 2e6e 173e
00000390: 4437 e4bc 015b a0bd b6ee c4bd f884 74be
000003a0: a1dd 5fbd 8a2f 1abc 4fd8 2abd dca1 87be
000003b0: 98ee 1f3e 0c87 523d 92f7 c1be eab4 57be
000003c0: 9f72 8ebe 9418 2ebc 936b 013e a64d 9dbd
000003d0: cf4a 893e a62c e3bd 5ff5 953d 61cb 5e3e
000003e0: 93ae 0d3e dafd d03d d33f 0d3e 7f00 873d
000003f0: ec87 043e 0b7a c33d 8af5 42bd 3b53 ccbd

encoder.layers.0.self_attn.linears.3.bias f4 [32]
-0.05367434 0.002183077 0.16820876 0.14391895 -0.11955182 0.090448156 -0.003944897 0.027821714
0.053327706 -0.036692932 0.13579407 0.2546547 -0.14521207 -0.052140858 0.075968616 -0.104427084
0.00893363 -0.068839796 -0.020347334 -0.054207664 -0.18328689 -0.092468336 -0.17666267 0.08579602
0.0898213 -0.26947972 0.08803835 0.04235074 -0.034358736 -0.06136893 -0.29805455 0.09841609
00000000: a0d9 5bbd f411 0f3b eb3e 2c3e 7d5f 133e
00000010: 96d7 f4bd e23c b93d 3244 81bb 5dea e33c
00000020: 276e 5a3d 544b 16bd 9a0d 0b3e 1a62 823e
00000030: 79b2 14be a791 55bd 6f95 9b3d dedd d5bd
00000040: 5c5e 123c e1fb 8cbd 74af a6bc db08 5ebd
00000050: 8faf 3bbe 0a60 bdbd 0fe7 34be d3b5 af3d
00000060: 3bf4 b73d 3ff9 89be 734d b43d f877 2d3d
00000070: bfbb 0cbd fd5d 7bbd 9b9a 98be 608e c93d

encoder.layers.0.feed_forward.w_1.weight f4 [128, 32]
0.31408116 0.11582921 0.24287607 -0.59898627 -0.358182 0.058608755 0.22047076 -0.03318004
0.21186747 0.26946267 -0.396855 0.056316536 0.52357197 -0.0052213287 0.19071864 -0.07566827
0.29890543 0.21425398 -0.36497283 -0.06273364 0.17345935 -0.1493356 -0.062672995 -0.18064372
0.40801957 -0.24366142 -0.07046845 0.12015765 0.505032 -0.3046907 -0.26512673 0.32219777
-0.1700967 0.1029435 0.1791393 0.38923198 -0.4221271 0.01836248 0.064351566 -0.14477105
0.1239083 0.08590967 -0.114560165 0.8251618 -0.24483573 -0.0056351083 0.113412164 0.17610301
0.24310529 -0.27083185 0.13648802 -0.293524 0.07409832 0.28521988 -0.27626812 0.25504807
-0.02381812 -0.10574879 0.09469049 0.38745427 -0.06739683 0.47135296 -0.17496838 -0.06457333
-0.03359786 -0.43061027 0.0917835 0.50460404 -0.27100965 0.2099125 -0.39899734 0.40009254
0.44205877 -0.08072208 0.20936982 -0.26144913 -0.16991588 0.044936594 0.13451146 0.31408817
0.030123673 -0.030245414 0.1655802 -0.99313563 -0.690121 0.030292336 -0.42008603 0.55375636
0.03574892 -0.205448 0.4832225 0.28773007 0.4531499 -0.10336472 -0.049080245 -0.36732352
0.41316682 0.12899217 0.061578423 -0.9583404 -0.10099832 0.1662183 -0.11697142 -0.09062697
-0.5514394 0.5146308 0.10844271 -0.08084219 0.21176293 0.16032039 -0.40672112 0.04663591
-0.101347655 0.15883987 -0.07787659 -0.015346395 0.21341328 0.36028168 0.20740013 -0.16224147
0.030081531 -0.117946684 0.08609338 0.18555418 -0.21384457 -0.32821035 0.27251914 -0.24086769
0.1894167 0.1813962 -0.099202044 0.0814815 0.44464263 -0.09526084 -0.5625102 0.24187854
-0.4062763 0.08396062 -0.11229885 -0.4508156 0.4079824 -0.2619707 0.018651599 0.08685607
0.07312668 0.09406238 0.17043665 0.316235 0.09470743 0.2476518 0.51173097 -0.053055752
-0.39315188 0.25603932 -0.038418923 0.113073744 0.00539956 0.59523684 0.31193826 0.025382873
0.23436525 0.29734486 0.053660247 -0.3771925 -1.065865 0.42448488 -0.2355836 -0.33343732
0.44040644 0.46621165 -0.70320415 -0.066311255 0.084839575 -0.41017413 0.08829052 -0.0600048
-0.023998994 -0.082650185 -0.64975005 -0.029211028 0.20325162 -0.18038507 -0.06158505 0.15123671
0.41558203 -0.06288506 -0.022531675 0.06530036 0.2572312 -0.47930357 -0.16695173 0.09175829
-0.1791388 -0.04845236 -0.121904746 0.20761886 -0.102401495 -0.15179463 -0.1276018 0.7891823
0.5372125 -0.29937485 -0.07056644 -0.1626389 0.2192381 0.0560156 0.08504737 0.1502364
0.18962651 0.08048706 -0.2310109 0.10052962 -0.6041423 -0.9582042 0.1481037 0.08952991
-0.2184874 0.12576975 0.21192817 0.27318996 0.74129146 0.3273336 0.11738526 0.13662507
0.21353224 0.116043106 0.15169351 -0.30636886 -0.3675134 0.04337514 0.5065006 0.3026207
-0.018234402 -0.1827479 -0.30396312 0.13936438 0.25622937 -0.0764205 -0.029302463 -0.21869622
-0.27773622 0.12900597 -0.30293202 0.3259382 0.14396147 0.06319552 -0.08691066 0.017040873
0.08337096 -0.25979286 0.08844325 0.19025782 0.65533847 -0.40468124 -0.36685002 0.48586908
00000000: 3fcf a03e dd37 ed3d 81b4 783e 2a57 19bf
00000010: a263 b7be bc0f 703d 16c3 613e cbe7 07bd
00000020: c9f3 583e 03f7 893e 9430 cbbe 2bac 663d
00000030: d008 063f ae17 abbb bf4b 433e f7f7 9abd
00000040: 220a 993e 6565 5b3e b8dd babe 7f7a 80bd
00000050: 549f 313e 6eeb 18be b35a 80bd abfa 38be
00000060: f1e7 d03e 6182 79be c351 90bd 3715 f63d
00000070: c749 013f 6b00 9cbe b1be 87be 1bf7 a43e
00000080: d42d 2ebe 0bd4 d23d 4b70 373e 6a49 c73e
00000090: 0b21 d8be e96c 963c c1ca 833d dd3e 14be
000000a0: a3c3 fd3d 69f1 af3d 859e eabd ce3d 533f
000000b0: 38b6 7abe b7a6 b8bb a344 e83d 5954 343e
000000c0: 98f0 783e 79aa 8abe 84c3 0b3e c748 96be
000000d0: dcc0 973d 5708 923e 0473 8dbe a995 823e
000000e0: 381e c3bc d292 d8bd 16ed c13d 6860 c63e
000000f0: 5907 8abd 2d55 f13e e92a 33be 063f 84bd
00000100: e99d 09bd f378 dcbe fdf8 bb3d bb2d 013f
00000110: c7c1 8abe 4df3 563e 6149 ccbe eed8 cc3e
00000120: 8755 e23e 9e51 a5bd 0b65 563e a9dc 85be
00000130: 6efe 2dbe 6f0f 383d 5fbd 093e 2ad0 a03e
00000140: ecc5 f63c 3bc5 f7bc db8d 293e 233e 7ebf
00000150: c5ab 30bf a227 f83c 8415 d7be fac2 0d3f
00000160: 766d 123d f660 52be f168 f73e 5b51 933e
00000170: 4403 e83e e2b0 d3bd 5e08 49bd d411 bcbe
00000180: 9a8a d33e 8616 043e a839 7c3d cc55 75bf
00000190: 35d8 cebd 2135 2a3e b68e efbd a29a b9bd
000001a0: 222b 0dbf d8be 033f 3617 de3d 9790 a5bd
000001b0: 62d8 583e 072b 243e c03d d0be 4c05 3f3d
000001c0: 5c8f cfbd eba6 223e c37d 9fbd 726f 7bbc
000001d0: 0389 5a3e d776 b83e b360 543e a122 26be
000001e0: 8b6d f63c 088e f1bd ba51 b03d ea01 3e3e
000001f0: 12fa 5abe 300b a8be a187 8b3e 05a6 76be
00000200: 74f6 413e edbf 393e 712a cbbd c6df a63d
00000210: 33a8 e33e 1e18 c3bd ab00 10bf 02af 773e
00000220: 7203 d0be 8cf3 ab3d f1fc e5bd 4dd1 e6be
00000230: 12e3 d03e 0621 86be 3dcb 983c 98e1 b13d
00000240: 71c3 953d c7a3 c03d f286 2e3e 8ee9 a13e
00000250: f8f5 c13d 6f98 7d3e cd00 033f fd50 59bd
00000260: 344b c9be 9617 833e 295d 1dbd 3593 e73d
00000270: cbee b03b 7161 183f 5fb6 9f3e beef cf3c
00000280: 72fd 6f3e 963d 983e d9ca 5b3d 601f c1be
00000290: 446e 88bf 1556 d93e d43c 71be 4cb8 aabe
000002a0: f47c e13e 4bb3 ee3e 3005 34bf 32ce 87bd
000002b0: 5fc0 ad3d 5802 d2be a9d1 b43d 98c7 75bd
000002c0: 8a99 c4bc 8044 a9bd 0556 26bf f74b efbc
000002d0: 3121 503e ddb6 38be 9b40 7cbd ccdd 1a3e
000002e0: 2bc7 d43e e2c9 80bd 5994 b8bc 32bc 853d
000002f0: cfb3 833e 4767 f5be 65f5 2abe c5eb bb3d
00000300: 2970 37be fb75 46bd 32a9 f9bd 0a9a 543e
00000310: e0b7 d1bd 0d70 1bbe 0caa 02be da07 4a3f
00000320: c286 093f a947 99be 2385 90bd d08a 26be
00000330: f47f 603e 9d70 653d 512d ae3d 92d7 193e
00000340: 742d 423e 66d6 a43d 1f8e 6cbe 79e2 cd3d
00000350: 12a9 1abf df4c 75bf 7fa8 173e 755b b73d
00000360: 29bb 5fbe c9c9 003e b303 593e 8edf 8b3e
00000370: 47c5 3d3f 4598 a73e af67 f03d 71e7 0b3e
00000380: 32a8 5a3e 02a8 ed3d 8b55 1b3e 61dc 9cbe
00000390: b72a bcbe 21aa 313d 06aa 013f 1af1 9a3e
000003a0: 5060 95bc 4422 3bbe 0ea1 9bbe 89b5 0e3e
000003b0: 7f30 833e 5a82 9cbd b80b f0bc e7f1 5fbe
000003c0: 7133 8ebe 241a 043e e819 9bbe 5fe1 a63e
000003d0: a36a 133e a76c 813d 37fe b1bd 4d99 8b3c
000003e0: 65be aa3d 9203 85be bc21 b53d f2d2 423e
000003f0: 43c4 273f 6132 cfbe c4d3 bbbe d5c3 f83e

encoder.layers.0.feed_forward.w_1.bias f4 [128]
-0.09284236 -0.17491019 0.3389834 -0.06973096 -0.09495841 -0.020534676 -0.36605114 -0.022711324
-0.067855924 -0.080599904 -0.12724784 0.0041943933 0.02003473 -0.47165397 -0.37860262 -0.20160413
-0.36224115 0.047194876 -0.10572751 -0.39339924 -0.0023163015 -0.023163727 -0.15086423 0.10990655
0.057977114 -0.049312085 0.06574267 0.12608793 -0.26640534 0.045708723 -0.08974137 -0.36230737
-0.18645743 -0.1516469 -0.10529923 -0.1641732 -0.09615755 0.10510239 -0.15483688 -0.47206643
-0.08385188 -0.2217809 -0.09580556 -0.1316081 -0.23248568 0.063652955 -0.2576953 0.026188657
0.118711576 -0.025991384 -0.12395831 -0.012539494 -0.0010150186 -0.17570467 -0.07837643 0.11729636
-0.06073739 0.14867039 0.09642885 -0.38474616 -0.20818901 -0.09162499 -0.09621323 -0.46931842
-0.120326646 -0.26031515 0.0008568539 -0.42880705 -0.06435882 -0.38510105 -0.19405575 -0.37833598
-0.09881106 -0.18779102 -0.31570074 -0.24287142 -0.31632653 0.0065008486 -0.12351466 0.081504546
-0.05780934 -0.20339392 0.0073759574 -0.053360518 -0.035159253 -0.27678758 -0.28118798 -0.15609969
-0.17485343 -0.303446 -0.12475141 -0.20563892 0.13814284 -0.28364888 -0.014501377 -0.03287105
-0.35499114 -0.22396992 -0.25347984 -0.39437428 -0.08025665 -0.19349767 -0.14471287 -0.31602815
0.02179596 -0.16882183 -0.088938035 -0.041779954 -0.18132362 -0.16787152 -0.14470561 -0.104347415
-0.05551215 0.037976306 -0.065041594 -0.16775969 -0.022008166 -0.17659627 -0.0004413929 0.004411025
-0.105487704 -0.13104573 -0.19064128 -0.15380675 -0.27033794 -0.3269279 -0.018779218 0.004575186
00000000: 2324 bebd a81b 33be 3b8f ad3e 1bcf 8ebd
00000010: 8e79 c2bd 5638 a8bc 0e6b bbbe 190d babc
00000020: 0cf8 8abd 9011 a5bd 424d 02be 1f71 893b
00000030: e01f a43c a17c f1be 34d8 c1be 5071 4ebe
00000040: ac77 b9be 6a4f 413d aa87 d8bd a06b c9be
00000050: 17cd 17bb dbc1 bdbc 277c 1abe af16 e13d
00000060: 6979 6d3d 78fb 49bd 18a4 863d 321d 013e
00000070: 4866 88be 1239 3b3d 53ca b7bd 5a80 b9be
00000080: b2ee 3ebe 5349 1bbe 1fa7 d7bd 051d 28be
00000090: 40ee c4bd ec3f d73d 8f8d 1ebe b1b2 f1be
000000a0: 89ba abbd 881a 63be b535 c4bd 46c4 06be
000000b0: ba10 6ebe 7b5c 823d a3f0 83be 9889 d63c
000000c0: 0e1f f33d e2eb d4bc dbdd fdbd 7372 4dbc
000000d0: 5f0a 85ba edeb 33be d283 a0bd 1339 f03d
000000e0: c5c7 78bd 0d3d 183e 7d7c c53d 73fd c4be
000000f0: 802f 55be e2a5 bbbd 710b c5bd 814a f0be
00000100: d16d f6bd 0748 85be 7e9e 603a 998c dbbe
00000110: 8fce 83bd f72b c5be 8db6 46be 41b5 c1be
00000120: 745d cabd 4a4c 40be 87a3 a1be 49b3 78be
00000130: 8df5 a1be 1205 d53b 41f5 fcbd dbeb a63d
00000140: 7dc9 6cbd 7f46 50be 04b2 f13b 8f90 5abd
00000150: 2603 10bd 1ab7 8dbe dff7 8fbe 99d8 1fbe
00000160: c70c 33be 465d 9bbe ab7d ffbd 0293 52be
00000170: 5175 0d3e 6d3a 91be 2f97 6dbc cba3 06bd
00000180: 66c1 b5be 5f58 65be 1cc8 81be 6deb c9be
00000190: 995d a4bd 4124 46be 9c2f 14be 71ce a1be
000001a0: 718d b23c a1df 2cbe 2525 b6bd 7521 2bbd
000001b0: e6ac 39be 83e6 2bbe b52d 14be 19b4 d5bd
000001c0: b560 63bd 0b8d 1b3d 8734 85bd 32c9 2bbe
000001d0: 784a b4bc a7d5 34be c16a e7b9 5c8a 903b
000001e0: f009 d8bd da30 06be 7837 43be 847f 1dbe
000001f0: bc69 8abe 1863 a7be e0d6 99bc 71eb 953b
