index_advisor_selector/index_benefit_estimation/index_cost_lib/exp_res/exp_lib_job_tgt_ep500_bat1024/model/lib_LIB_400.pt (torch, 413135 bytes, 120 tensors)

S f4 [1, 1, 32]
0	0xbcdae495	-0.026720325
1	0x3d79ab9c	0.060954675
2	0xbc86e9e2	-0.016468946
3	0x3ddb546c	0.107094616
4	0xbdbf3fe5	-0.09338359
5	0xbde81ef1	-0.113340266
6	0x3dd5e898	0.10444754
7	0xbd8698bd	-0.06572101
8	0xbdb4a59a	-0.088206485
9	0xbde98dfd	-0.11404035
10	0x3d9ec1cf	0.0775181
11	0x3c4fa3fb	0.012673373
12	0xbdefca1d	-0.11708472
13	0x3b8035da	0.0039126696
14	0xbca487c4	-0.02008427
15	0xbe8a2314	-0.26979887
16	0xbd928327	-0.071539216
17	0xbd8ad5ca	-0.06779058
18	0xbc8723e1	-0.0164966
19	0x3caae089	0.02085902
20	0xbc5eb895	-0.0135938125
21	0x3d3db674	0.04631658
22	0x3dd9a20a	0.106266096
23	0xbddb43fc	-0.10706326
24	0x3ba8f440	0.00515607
25	0x3b988c78	0.004655417
26	0x3d159c68	0.036526114
27	0x3d421387	0.047381904
28	0x3d93deb4	0.072202116
29	0xbdbc8c5d	-0.0920646
30	0xbc3787bb	-0.011201794
31	0x3b1840df	0.0023232026

linear1.weight f4 [32, 12]
0	0xbe3b0d2b	-0.18266742
1	0x3d0159d3	0.031579804
2	0x3e5d26af	0.21596788
3	0x3e699110	0.22809243
4	0x3fd635dc	1.6735187
5	0xbf8ca309	-1.0987254
6	0xbf00e334	-0.50346684
7	0xbf01e28c	-0.5073631
8	0x3e3ccccf	0.18437503
9	0x3f6fa113	0.93605155
10	0x3e009a6a	0.12558904
11	0xbee327bb	-0.4436625
12	0xbd98c24a	-0.07458933
13	0xbe4dcff5	-0.2009886
14	0xbe38deec	-0.18053788
15	0xbf0588f6	-0.5216211
16	0xbe844bbf	-0.2583904
17	0x3dac205d	0.0840461
18	0x3e0afa2e	0.13571998
19	0xbe040658	-0.12893045
20	0xbd454a7a	-0.04816673
21	0xbe61d783	-0.22054867
22	0xbeb26d0c	-0.3484882
23	0x3eb81ae3	0.35958013
24	0xbf11802d	-0.56836206
25	0xbec0f3ba	-0.3768595
26	0xbe6252ba	-0.2210187
27	0x3f09a1ba	0.537624
28	0x4063c4c0	3.5588837
29	0xbebe1e80	-0.37132645
30	0xbe3ee120	-0.18640566
31	0x3f5b0380	0.85552216
32	0xbf3fdb0d	-0.7494362
33	0xbf272041	-0.6528359
34	0x3eefd412	0.46841484
35	0x3f0de9e7	0.5543503
36	0xbedfd0f3	-0.43714103
37	0x3f73e670	0.95273495
38	0xbe6166cb	-0.22011869
39	0xbe34526d	-0.17609568
40	0xc06bbd52	-3.6834302
41	0xbf0aa24f	-0.54153913
42	0x3f035e08	0.51315355
43	0xbf889d2e	-1.0672967
44	0xbf09ff64	-0.5390532
45	0xbe9dc9a2	-0.30817896
46	0x3e6a4c38	0.22880638
47	0x3e332d44	0.17497736
48	0x3cc8ac92	0.02449635
49	0x3d70e6c2	0.058813818
50	0x3e3bcfbc	0.18340963
51	0x3ec3f08a	0.38269454
52	0x408704d5	4.21934
53	0xbe93d539	-0.28873613
54	0x3f125b4a	0.57170546
55	0xbe9b2df4	-0.30308497
56	0xc03868d2	-2.8813977
57	0xbf9e6b47	-1.2376488
58	0xbe90d4de	-0.28287405
59	0x3e51575d	0.20443483
60	0xbf82cb68	-1.0218325
61	0x3ee0d58d	0.43912926
62	0x3fab1f7d	1.3368984
63	0x3f44bd66	0.768515
64	0x40a6ca18	5.2121696
65	0xbccc07ae	-0.024906006
66	0x3e425345	0.18977077
67	0x3e8b3a12	0.27192742
68	0x3ee2ba0b	0.44282565
69	0xbf49f482	-0.78888714
70	0xbf191492	-0.5979701
71	0x3f4d0e55	0.80099994
72	0x3f50f706	0.8162693
73	0xbe5ada74	-0.21372396
74	0x3e3b4586	0.1828824
75	0xbe679d6f	-0.2261865
76	0x4032b42a	2.7922463
77	0xbe9fd879	-0.31219843
78	0x3fa6dda2	1.3036387
79	0xbeebe13f	-0.46070287
80	0x3df240f8	0.11828798
81	0xbecb4c36	-0.39706582
82	0xbe11e2cf	-0.14246677
83	0xbf0b0ea9	-0.54319245
84	0xbfba45a1	-1.4552499
85	0x3edcd305	0.43129745
86	0x3f49d432	0.7883941
87	0x3edecb39	0.43514422
88	0xc0a9413f	-5.2892146
89	0x3e8cc555	0.27494302
90	0xbe829b60	-0.25509167
91	0x3f897c6a	1.0741093
92	0x3f2e4b31	0.68083483
93	0x3e6932dd	0.22773309
94	0x3e3d3a36	0.18479237
95	0x3d88327a	0.06650253
96	0x3f7acb2a	0.97966254
97	0xbe8da12b	-0.27662024
98	0x3dfc20da	0.123109534
99	0x3d884960	0.0665462
100	0xc0961203	-4.6896987
101	0xbe0a4528	-0.13502944
102	0xbdd8f4dd	-0.10593579
103	0x3f204194	0.62600064
104	0xbf36f362	-0.7146512
105	0x3f97597e	1.1824186
106	0xbdebcefb	-0.11514088
107	0xbdb3baf9	-0.087758966
108	0xbe25f2b1	-0.1620586
109	0x3e4c024b	0.1992275
110	0x3d99ebb0	0.07515657
111	0x3d909830	0.070602775
112	0xbcd0b2fc	-0.025475971
113	0x3f303a7b	0.68839234
114	0xbd1c10d6	-0.038101994
115	0xbfc3c3dc	-1.5294147
116	0x3eb74083	0.35791406
117	0x3ef61a4a	0.48066932
118	0xbf05456d	-0.5205906
119	0x3f0d82e7	0.55277866
120	0xbf305340	-0.6887703
121	0xbf0e32d1	-0.5554629
122	0x3cfa93e0	0.03058809
123	0x3e8c4990	0.27399874
124	0x40950ca7	4.6577945
125	0xbf3eafbd	-0.74486905
126	0xbf27b768	-0.6551423
127	0xbeae1e3e	-0.34007448
128	0xbe93ad68	-0.28843236
129	0xbf5b18df	-0.85584825
130	0xbe8c388a	-0.27386886
131	0xbdd77953	-0.10521188
132	0x3df9dba4	0.12200096
133	0x3dc88e6b	0.09792789
134	0x3f79fadf	0.97648424
135	0xbea0092d	-0.31257
136	0x3ed3bb33	0.4135376
137	0x3d1cb024	0.03825392
138	0x3e239f62	0.15978768
139	0x3d17b5cd	0.037038613
140	0x3f1171c4	0.5681422
141	0xbe2dc226	-0.16968593
142	0xbe27f5a6	-0.16402301
143	0xbee81d6c	-0.45334947
144	0x3e0a6bfa	0.13517752
145	0x3ea3df36	0.32006234
146	0xbf4f872c	-0.8106563
147	0xbf09d46e	-0.53839767
148	0xbe47b62e	-0.1950309
149	0xbd94eed1	-0.07272113
150	0xbc827026	-0.015922617
151	0xbf8af569	-1.0856143
152	0x3ebac780	0.3648033
153	0x3e13b5c3	0.14424805
154	0x3ea0018d	0.31251183
155	0x3e91c76a	0.28472453
156	0xbe1bc68a	-0.15212455
157	0xbde4ad45	-0.11165861
158	0xbea642c2	-0.32472807
159	0x3e0ab5e8	0.13545954
160	0x4064321c	3.5655584
161	0xbfa4abeb	-1.2864965
162	0xbf24db90	-0.64397526
163	0x3fe62143	1.7978901
164	0x3effa794	0.4993254
165	0xbf989988	-1.1921854
166	0xbf1bfe1b	-0.6093461
167	0xbd7bd3be	-0.06148123
168	0xbf958ac5	-1.1682974
169	0x3ec37e91	0.381825
170	0x3e1d6f19	0.15374412
171	0x3ed44364	0.41457665
172	0xc098f438	-4.779812
173	0x3f519ab7	0.818767
174	0x3f8823d6	1.0635936
175	0x3df5097f	0.11964702
176	0x3f086bee	0.5328969
177	0xbe81fcb5	-0.25388113
178	0xbdd21503	-0.10257914
179	0x3e5974b3	0.21235923
180	0xbecd9e08	-0.4015963
181	0x3f1f10ac	0.62134814
182	0x3ece0b9c	0.40243232
183	0xbe918ba6	-0.28426856
184	0x3e925698	0.2858169
185	0x3ec985ef	0.39359996
186	0x3e35efe6	0.17767295
187	0x3ea3fdc0	0.32029533
188	0x3f616d58	0.8805747
189	0x3eaeb5df	0.34123132
190	0x3d933ac6	0.071889445
191	0x3f2d99c5	0.6781276
192	0xbf5fb378	-0.8738322
193	0x3e1e7607	0.15474711
194	0xbf642495	-0.8911832
195	0x3ef2a41d	0.47390833
196	0x400177d8	2.0229397
197	0xbf6f331b	-0.93437356
198	0x3f017d51	0.5058184
199	0x3cd4ef46	0.025993
200	0xbde4eaac	-0.111775726
201	0xbf17296a	-0.5904757
202	0xbe8b5653	-0.27214298
203	0xbf091120	-0.53541756
204	0xbf88b7f4	-1.0681138
205	0x3e516af3	0.20450954
206	0xbf14025b	-0.57816094
207	0x3f2031e1	0.6257611
208	0x40b5b7db	5.6786933
209	0xbf5d3f9f	-0.86425203
210	0x3e98730d	0.29775277
211	0x3ec5cc99	0.38632658
212	0x3f3cb1a6	0.7370857
213	0xbf85209b	-1.0400575
214	0xbf2ac733	-0.66710204
215	0xbe9a3c50	-0.3012414
216	0x3ddd3ba8	0.10802394
217	0x3f0722b5	0.52787334
218	0xbe939951	-0.2882791
219	0xbefa9604	-0.48942578
220	0x4044f8f5	3.0776951
221	0xbefb2dac	-0.49058282
222	0x3de2f671	0.11082161
223	0x3f683048	0.9069867
224	0xbfca5279	-1.5806419
225	0x3f049a7f	0.5179824
226	0xbf3babfe	-0.73309314
227	0x3eab7723	0.33489332
228	0xbfaf1fa5	-1.3681532
229	0xbeb96ab2	-0.36214215
230	0xbe717404	-0.23579413
231	0x3e939733	0.28826293
232	0x40923128	4.5685005
233	0x3e55ed84	0.20891386
234	0xc00d1f20	-2.2050247
235	0xbf0ab9ed	-0.5418995
236	0xbf8bfd48	-1.093667
237	0xbf84b5cd	-1.0367981
238	0x3d908174	0.07055941
239	0xbec5d204	-0.38636792
240	0xbe9c4f76	-0.30529374
241	0x3f0134e4	0.5047133
242	0xbfacf204	-1.3511357
243	0xbe34bf37	-0.17651068
244	0x4096df34	4.7147465
245	0x3ea3a76b	0.31963667
246	0xbe3e5e41	-0.18590643
247	0x3c4ef6c4	0.012632076
248	0xbe247955	-0.1606191
249	0xbfdc9fd3	-1.7236274
250	0x3dadf027	0.08493071
251	0xbef6c6da	-0.48198587
252	0xbf6349e0	-0.887846
253	0xbef0aae0	-0.47005367
254	0x3ded78b9	0.11595292
255	0xbf00c450	-0.5029955

linear1.bias f4 [32]
0	0x3d826673	0.06367197
1	0xbdc9f73a	-0.09861608
2	0xbc283ae8	-0.010267951
3	0x3e83e3f7	0.2575986
4	0xbf2b908d	-0.6701744
5	0xbf45daa8	-0.7728677
6	0x3e8f4fb6	0.27990502
7	0x3f58bb76	0.8466104
8	0x3da87cb1	0.08226908
9	0xbd718228	-0.058962017
10	0xbeb7e1b2	-0.3591438
11	0xbe28c50e	-0.1648142
12	0x3e632f04	0.22185904
13	0xbee5f171	-0.44910768
14	0x3f065be3	0.5248396
15	0xbd69f2a2	-0.05711616
16	0xbeab5bba	-0.3346842
17	0xbf10ff4c	-0.5663955
18	0xbf07a984	-0.52993035
19	0xbe7aa8c9	-0.24478449
20	0xbf321c40	-0.69574356
21	0xbf8d15e5	-1.1022307
22	0xbeeb3167	-0.45936128
23	0xbd79ee40	-0.06101823
24	0x3edfa49d	0.43680277
25	0xbe331beb	-0.17491119
26	0xbe24c44c	-0.16090506
27	0x3e0b02a5	0.13575228
28	0x3ed56b0f	0.41683242
29	0x3e0003a0	0.12501383
30	0xbe7b1118	-0.2451824
31	0x3eea3c67	0.45749208

encoder.layers.0.self_attn.linears.0.weight f4 [32, 32]
0	0xbf92fd5f	-1.1483573
1	0xbd143d61	-0.036191348
2	0xbe1de777	-0.15420328
3	0x3cb55cc5	0.022138963
4	0x3f21a27c	0.63138556
5	0x3f157618	0.5838332
6	0xbeaff354	-0.34365332
7	0xbf8a51e9	-1.0806247
8	0xbed4a9e1	-0.41535857
9	0xbd9397a1	-0.07206655
10	0xbe1ca541	-0.15297414
11	0xbd01dd7f	-0.031705376
12	0x3e0504ed	0.1299016
13	0x3c540c33	0.012942362
14	0x3eb8c652	0.36088806
15	0x3ece48eb	0.40290007
16	0xbef88f58	-0.48546863
17	0xbde71dfa	-0.112850145
18	0xbdb56203	-0.08856585
19	0xbf25c52e	-0.64754
20	0xbd9d7dd6	-0.07690017
21	0x3f1e7f77	0.61913246
22	0x3e782b8f	0.24235366
23	0x3d16027c	0.036623463
24	0xbf74151c	-0.9534471
25	0x3e363bbb	0.17796223
26	0xbc8bd701	-0.017070295
27	0xbee7ba95	-0.45259538
28	0x3f227502	0.6345979
29	0xbf1d9c0c	-0.61566234
30	0x3f5d908c	0.86548686
31	0xbf151f23	-0.58250636
32	0x3ec7f785	0.3905603
33	0xbdfeaca4	-0.12435272
34	0xbe6fbfc5	-0.23412998
35	0x3c8f216c	0.017471991
36	0xbeefbf0e	-0.4682545
37	0xbf739cc7	-0.951611
38	0x3ea10b1b	0.31453785
39	0x3ec03ba6	0.37545508
40	0x3e96daa0	0.29463673
41	0xbf0d2463	-0.55133647
42	0x3e6165e1	0.2201152
43	0x3d82ade4	0.06380823
44	0xbe16a519	-0.14711417
45	0x3e98a338	0.29812026
46	0xbf2947da	-0.6612526
47	0xbf8a857d	-1.0821987
48	0x3cda1720	0.026622355
49	0x3ed23952	0.41059357
50	0xbe5e0121	-0.21680118
51	0x3edba54f	0.42899558
52	0x3cd6bf5e	0.026214298
53	0xbeed027e	-0.46290964
54	0xbd00f04c	-0.031479165
55	0xbd515a92	-0.051111765
56	0xbe06af98	-0.13152921
57	0xbf94170a	-1.1569531
58	0xbcc150ae	-0.023598041
59	0x3e8c1952	0.27363068
60	0xbf6ad705	-0.91734344
61	0x3e818e22	0.2530375
62	0xbe5d69ac	-0.21622342
63	0x3ec77e2b	0.38963446
64	0xbdeae918	-0.1147024
65	0xbc2c7040	-0.010524809
66	0x3f19b8a7	0.6004738
67	0x3d3852db	0.045000892
68	0x3e2e6c2d	0.17033453
69	0x3f159c06	0.584412
70	0xbdbdbc2f	-0.09264409
71	0x3f92837a	1.1446373
72	0xbcff7fad	-0.03118881
73	0xbc462466	-0.012093639
74	0x3f1a5c35	0.60296947
75	0xbddeb405	-0.1087418
76	0xbd531fc2	-0.05154396
77	0x3f2aa56d	0.6665867
78	0x3ebb13c0	0.36538506
79	0x3e88be6d	0.26707783
80	0xbe047c57	-0.12938057
81	0x3ea6099a	0.324292
82	0x3f0e4f93	0.5559017
83	0x3eb90d4a	0.3614295
84	0x3d547c39	0.05187628
85	0x3f2f51f8	0.6848445
86	0x3e31e031	0.17370678
87	0xbe2c04e7	-0.16798745
88	0x3d3ad545	0.045613546
89	0x3d752be3	0.059856307
90	0x3c1ebb7b	0.0096882535
91	0xbe61015f	-0.2197318
92	0xbf62919e	-0.88503444
93	0x3eac0211	0.33595327
94	0x3e8eaf1f	0.27867982
95	0xbeb199cd	-0.34687653
96	0x3ecac543	0.39603624
97	0x3e0a6c52	0.13517883
98	0xbe3f402b	-0.18676822
99	0x3c1f1b24	0.009711061
100	0xbf329601	-0.6976014
101	0xbf228bab	-0.63494366
102	0xbd83ad9a	-0.06429596
103	0x3eb95d7e	0.3620414
104	0x3ed2ae8e	0.411488
105	0x3f9a9a34	1.2078309
106	0xbe579b5f	-0.21055363
107	0x3c225147	0.009907073
108	0xbe5339b5	-0.20627482
109	0xbf7c21cf	-0.9848909
110	0xbda7d756	-0.08195369
111	0xbf1c4be0	-0.61053276
112	0x3ed59023	0.4171153
113	0xbe8e3db5	-0.27781454
114	0xbebe0b89	-0.37118176
115	0x3e933816	0.28753728
116	0xbc0f2a67	-0.008738137
117	0xbf377d43	-0.7167551
118	0xbc6fbe31	-0.0146327475
119	0x3d1dcdb4	0.038526252
120	0x3e33af10	0.1754725
121	0x3daaff3d	0.08349464
122	0x3e2d4cb6	0.16923794
123	0x3d7c77ae	0.061637573
124	0x3f58cdc6	0.84688985
125	0x3f07b197	0.53005356
126	0xbf371fe5	-0.7153304
127	0xbe678a87	-0.22611438
128	0x3f99843a	1.1993477
129	0x3e5c5a49	0.21518816
130	0x3f3f4e44	0.747288
131	0x3dfb11fb	0.12259289
132	0x3f430860	0.76184654
133	0x3f916ed1	1.1361943
134	0x3ea98a26	0.3311321
135	0x3ee2b6db	0.44280133
136	0x3e997efe	0.299797
137	0x3f67fdc9	0.9062162
138	0x3f2f6283	0.6850969
139	0x3e8f9f05	0.2805101
140	0xbd14ba8e	-0.036310725
141	0x3f48562e	0.782565
142	0x3f18d74e	0.5970353
143	0x3e829b85	0.25509277
144	0x3f967341	1.1753923
145	0x3f5bf2e3	0.8591749
146	0x3fbffe8c	1.4999557
147	0xbe8f4366	-0.27981108
148	0x3efea8cf	0.49738166
149	0x3fbb425e	1.4629629
150	0x3ec60b2b	0.38680395
151	0x3ec2e1f6	0.3806302
152	0x3fb81f45	1.4384543
153	0x3e032632	0.12807539
154	0xbde9229b	-0.113835536
155	0xbcc03833	-0.023464298
156	0x3f2229cd	0.6334503
157	0xbdcb3363	-0.099219106
158	0xbe64eb56	-0.22355399
159	0x3eda8f72	0.42687565
160	0x3f8e2c45	1.110726
161	0xbd75de4e	-0.06002646
162	0xbdac25e8	-0.084056675
163	0x3f6ba7e4	0.92053056
164	0xbe808055	-0.2509791
165	0xbf025945	-0.50917464
166	0x3f005d2f	0.50142187
167	0x3c0d91f6	0.008640757
168	0xbf577fe5	-0.84179527
169	0xbea8c404	-0.32962048
170	0xbd74c818	-0.059761137
171	0xbd9b68de	-0.07588361
172	0x3cb9902a	0.02265175
173	0xbf060c49	-0.52362496
174	0x3de44c52	0.111473694
175	0x3ea38b89	0.31942394
176	0x3fb99151	1.4497472
177	0x3c9dbdf7	0.019255621
178	0xbf3108a9	-0.6915384
179	0x3f338d33	0.7013733
180	0xbe601d77	-0.2188624
181	0x3d698da2	0.057019837
182	0xbecbc5ad	-0.39799252
183	0x3d74a5a3	0.059728276
184	0x3d459d24	0.048245564
185	0xbec5d817	-0.38641426
186	0x3cbe78c2	0.023250941
187	0xbbf9ab2d	-0.0076192827
188	0xbe9bea0f	-0.3045201
189	0x3e9a35d2	0.30119187
190	0xbf0d011c	-0.5507982
191	0xbf88c40d	-1.068483
192	0xbf2e119e	-0.6799563
193	0xbd92309d	-0.071381785
194	0x3dad64cb	0.0846649
195	0xbf057032	-0.5212432
196	0xbe9a2ae4	-0.30110848
197	0x3d06c3f8	0.032901734
198	0xbd778de6	-0.06043806
199	0x3f40c9ac	0.75307727
200	0x3ea3c72b	0.3198789
201	0x3edc7eb8	0.4306543
202	0xbe530693	-0.20607977
203	0x3c4672ca	0.012112329
204	0x383ead63	4.546101e-05
205	0x3f062db1	0.5241347
206	0xbe1f57be	-0.15560815
207	0x3f72e431	0.9487944
208	0xbf95f20f	-1.1714495
209	0x3f21cfc2	0.6320764
210	0xbd01fd7c	-0.031735882
211	0x3f1e40d6	0.6181768
212	0xbd2429ae	-0.04007881
213	0xbbefd190	-0.007318683
214	0x3dbf26e7	0.09333592
215	0xbe6d0bf9	-0.23149098
216	0x3e7781ee	0.24170658
217	0x3f7d52e7	0.98954624
218	0xbd0636a6	-0.03276696
219	0x3da65a5e	0.08122705
220	0xbe72d97a	-0.23715773
221	0xbe75ae16	-0.2399219
222	0x3eba84ae	0.36429352
223	0x3f1a74a9	0.6033426
224	0xc0162850	-2.3462105
225	0x3e1482c7	0.14503013
226	0xbe8f6aee	-0.28011268
227	0xbf40acdf	-0.7526378
228	0xbe1c2d91	-0.15251757
229	0xbf24371c	-0.6414659
230	0xbf83e0ec	-1.0303016
231	0xbf79eb63	-0.97624797
232	0xbdc328fa	-0.095293
233	0x3dcbb3be	0.099463925
234	0xbf0fc98c	-0.5616691
235	0xbe4c1ea7	-0.19933568
236	0x3e5d3269	0.21601261
237	0xbf28c1bc	-0.65920615
238	0xbdfe5a4d	-0.12419567
239	0xbf61a19a	-0.8813721
240	0xc04bd5a2	-3.184914
241	0xbfbb6d62	-1.4642756
242	0xbd762b1a	-0.0600997
243	0xbf8f7965	-1.1208922
244	0xbe4cf3ac	-0.20014828
245	0xbf3bb457	-0.7332205
246	0x3e9a98f6	0.30194825
247	0xbd21201b	-0.03933726
248	0xc01bb683	-2.4330146
249	0xbf0376b4	-0.51353
250	0x3dba395f	0.09092974
251	0xbe1e5e24	-0.154656
252	0x3ea8aec8	0.32945848
253	0x3d451508	0.04811576
254	0x3efd5716	0.49480504
255	0xbe617406	-0.22016916

encoder.layers.0.self_attn.linears.0.bias f4 [32]
0	0xbed430db	-0.41443524
1	0x3e312eb7	0.17302977
2	0x3daa8e11	0.08327878
3	0x3f27d45d	0.65558416
4	0x3ea1e578	0.31620383
5	0xbd897d45	-0.067133464
6	0xbebe2438	-0.37137008
7	0xbdd3fe9e	-0.10351299
8	0xbeafd98a	-0.34345657
9	0xbdd17a68	-0.10228425
10	0xbf0fc520	-0.56160164
11	0xbed20e11	-0.41026357
12	0xbeb7cb43	-0.35897264
13	0xbe0045cf	-0.1252663
14	0x3e707517	0.23482166
15	0x3a5b8b22	0.00083749194
16	0xbd955c93	-0.07293048
17	0x3ee11456	0.43960828
18	0xbee9a5e6	-0.45634383
19	0xbea139a2	-0.31489283
20	0xbe358e63	-0.17730097
21	0xbe938b3a	-0.2881716
22	0x3e978745	0.2959539
23	0x3d94d26c	0.07266697
24	0x3e33cc6c	0.1755845
25	0x3e13c119	0.1442913
26	0x3ea78432	0.32718045
27	0xbd3509c2	-0.04419876
28	0xbe290020	-0.16503954
29	0xbf117859	-0.5682426
30	0xbe00723c	-0.12543577
31	0xbe5d1b0a	-0.21592346

encoder.layers.0.self_attn.linears.1.weight f4 [32, 32]
0	0xba9d2bba	-0.0011991181
1	0xbdb653d3	-0.08902707
2	0x3eaedcf8	0.3415296
3	0xbe932be2	-0.28744417
4	0xbee07619	-0.438401
5	0x3e6c330d	0.2306635
6	0xbeb25fd0	-0.34838724
7	0xbe85f120	-0.26160526
8	0x3f44f9a1	0.76943403
9	0xbf1f9e78	-0.6235118
10	0x3f024245	0.5088237
11	0xbd10af59	-0.035323475
12	0xbe02ead0	-0.12784886
13	0x3d962bb8	0.073325574
14	0xbede01bb	-0.43360695
15	0x3e95ae63	0.2923461
16	0xbf199b78	-0.6000285
17	0x3eb3fdc6	0.3515455
18	0xbc5d3f7e	-0.013503907
19	0x3e26bcd4	0.1628297
20	0x3e3d80f5	0.18506224
21	0x3ed686a2	0.41899592
22	0xbe345fc3	-0.17614655
23	0x3d02bf0a	0.03192047
24	0x3ebb7e92	0.36620003
25	0xbf2a3bcf	-0.6649751
26	0xbda25589	-0.07926471
27	0xbd8849e1	-0.06654716
28	0xbe545d47	-0.20738707
29	0xbe5cac07	-0.21549998
30	0xbe8b91d1	-0.27259687
31	0x3ed9fbe9	0.42575005
32	0xbeedd51f	-0.4645166
33	0x3e9fb4da	0.31192666
34	0x3d85bc52	0.0653006
35	0xbd0a0815	-0.033699114
36	0x3ee56b52	0.4480844
37	0xbe64d927	-0.22348462
38	0x3e7787e6	0.24172935
39	0x3cef856e	0.029238429
40	0xbe62a4cf	-0.22133182
41	0x3e0f7930	0.14011073
42	0xbf06b6be	-0.5262259
43	0x3ee79acc	0.45235288
44	0x3ec92d62	0.39292437
45	0xbdfe0287	-0.12402826
46	0x3f518846	0.8184856
47	0xbd550f05	-0.052016277
48	0x3e8d155a	0.27555352
49	0xbece81ed	-0.403335
50	0x3d432f31	0.047652427
51	0xbf06790c	-0.5252845
52	0x3dd7ba0e	0.10533534
53	0xbeff8e29	-0.49913147
54	0x3f0b4fe6	0.5441879
55	0x3e871e76	0.26390427
56	0xbec22705	-0.37920395
57	0xbe865b6f	-0.26241633
58	0x3e9d1b01	0.30684665
59	0x3e9e0cdb	0.30869183
60	0x3ebf2858	0.37335467
61	0x3e2257fa	0.15853873
62	0xbe4485cb	-0.19191663
63	0xbd0b9851	-0.034080807
64	0x3dac9cf8	0.08428377
65	0x3d3b85a1	0.045781735
66	0xbe6dae9d	-0.23211141
67	0xbe0d01c2	-0.13770202
68	0xbf084595	-0.53231174
69	0x3ee4eaf2	0.447105
70	0x3c9adf86	0.018905412
71	0xbe243957	-0.16037498
72	0xbf075215	-0.5285962
73	0x3ef7aa8c	0.48372304
74	0x3d898cfe	0.06716345
75	0x3de5c0a7	0.11218386
76	0x3c83b438	0.016077146
77	0x3e570606	0.20998392
78	0xbd9d02ff	-0.07666587
79	0xbf521811	-0.8206797
80	0x3e2b8142	0.16748527
81	0x3e2d0ff8	0.16900623
82	0xbd941024	-0.07229641
83	0x3e7a582d	0.24447699
84	0xbebcb85b	-0.36859402
85	0x3f278b85	0.65447265
86	0x3df10a91	0.117695935
87	0x3d7fe679	0.062475655
88	0xbeead388	-0.4586451
89	0x3f55c9bd	0.83510953
90	0x3e37bf4c	0.17944068
91	0x3e4df810	0.2011416
92	0xbeb3b1d4	-0.3509661
93	0xbea12c9f	-0.31479356
94	0x3edeb1e5	0.43495098
95	0xbf51a257	-0.81888336
96	0xbe173a4c	-0.14768332
97	0xbe3abd4e	-0.18236277
98	0xbe3e2687	-0.18569385
99	0x3f167e32	0.5878631
100	0x3efe7dfb	0.4970549
101	0xbe953c4c	-0.29147565
102	0xbf8ba659	-1.091014
103	0x3f70096b	0.9376437
104	0x3c3d64a2	0.011559637
105	0x3e8c8f38	0.27453017
106	0x3cf04a70	0.02933237
107	0xbee75152	-0.4517923
108	0xbee787b5	-0.45220724
109	0xbeb775a0	-0.35831928
110	0x3f0b423b	0.54397935
111	0xbde26878	-0.11055082
112	0x3dfc85fb	0.12330242
113	0xbee58d76	-0.4483449
114	0xbd80f041	-0.06295825
115	0x3e7f1dbb	0.24913685
116	0xbd6adbe1	-0.0573386
117	0xbf3c4f24	-0.7355826
118	0xbe8b5802	-0.27215582
119	0xbe71d7a3	-0.23617415
120	0xbe8c1766	-0.27361602
121	0xbe8ebb59	-0.2787731
122	0xbd80f679	-0.06297011
123	0xbebd88ae	-0.3701834
124	0x3dbafbaa	0.09130032
125	0x3f5a2adb	0.8522164
126	0x3eb8d0df	0.36096856
127	0xbf2a3956	-0.6649374
128	0x3f94fa9d	1.1638981
129	0xbe91c7e5	-0.2847282
130	0xbed840fe	-0.42237085
131	0x3d2f0d0c	0.04273705
132	0x3d80c06c	0.062867016
133	0xbea9e9e4	-0.33186257
134	0xbda26fb6	-0.079314634
135	0x3e106a9b	0.14103167
136	0x3e705596	0.23470148
137	0x3cd54a36	0.026036363
138	0x3f36d843	0.7142374
139	0xbdb00673	-0.0859498
140	0xbf2f22d6	-0.6841253
141	0x3f25ba14	0.6473706
142	0xbef3e915	-0.47638765
143	0xbf39430a	-0.7236792
144	0x3e8ffef0	0.2812419
145	0x3e1e4339	0.15455331
146	0xbf105e14	-0.5639355
147	0x3f84fe64	1.0390134
148	0x3e4b9e49	0.198846
149	0xbde17077	-0.11007779
150	0xbd98e77f	-0.074660294
151	0xbe99692e	-0.29963058
152	0x3ef6c5c3	0.48197755
153	0xbef7ad16	-0.48374242
154	0xbea50505	-0.32230392
155	0xbd32bcea	-0.043637194
156	0x3eccffb6	0.40038842
157	0x3d3a3641	0.045461897
158	0xbecd3b3b	-0.40084252
159	0xbd7c4222	-0.061586507
160	0xbf88b675	-1.0680681
161	0x3f0fa427	0.5610985
162	0xbe180272	-0.14844683
163	0xbf01c6be	-0.5069388
164	0x3d6f3a2f	0.058405098
165	0xbe26fe5e	-0.16307971
166	0x3dabe69e	0.08393596
167	0xbd1074fc	-0.035267815
168	0x3f2fd081	0.68677527
169	0xbe21c695	-0.1579841
170	0xbee7bbff	-0.45260617
171	0x3f184bbd	0.5949057
172	0x3c6eeba5	0.014582549
173	0x3f1e8fab	0.6193797
174	0x3e7f9736	0.24960026
175	0x3edd7619	0.43254164
176	0xbeadcef4	-0.33946955
177	0xbf4c2a2b	-0.79751843
178	0x3ed9f8ac	0.42572534
179	0xbf022715	-0.50840884
180	0xbe12dedf	-0.14342831
181	0x3eba669d	0.36406413
182	0x3f17e917	0.5934004
183	0x3f1ba88a	0.60804045
184	0xbf2b0abb	-0.6681325
185	0xbe01e1cd	-0.12683792
186	0x3ef0e955	0.47053018
187	0x3f11fdf2	0.57028115
188	0xbedd6a2e	-0.4324507
189	0xbed0cfb8	-0.40783477
190	0x3f11d29e	0.56962
191	0x3e0d822c	0.13819188
192	0xbac54df0	-0.0015053134
193	0x3ea76411	0.32693532
194	0x3f31c74b	0.6944472
195	0x3f20d140	0.6281929
196	0x3ea21f45	0.31664482
197	0x3edd453d	0.43216887
198	0xbee9c314	-0.45656645
199	0x3eeffa21	0.4687052
200	0xbec643c8	-0.38723588
201	0xbd5192d8	-0.05116543
202	0x3f13facc	0.5780456
203	0x3dc3e190	0.09564507
204	0x3f833bd8	1.0252638
205	0x3e370f0f	0.17876838
206	0x3e56b01a	0.20965615
207	0x3f327caa	0.6972147
208	0xbe0490fa	-0.12945929
209	0xbe80dbf0	-0.251678
210	0x3ebffbec	0.3749689
211	0xbee6eda6	-0.45103186
212	0xbeb1d021	-0.34729102
213	0xb99c027b	-0.00029756487
214	0x3e49bb84	0.19700438
215	0x3dadd384	0.08487609
216	0xbea123a5	-0.31472507
217	0x3f33b623	0.70199794
218	0x3eed18a0	0.4630785
219	0x3e9ed7fc	0.31024158
220	0xbdb35faa	-0.08758481
221	0xbe103967	-0.14084397
222	0x3f11aa0d	0.569001
223	0xbe4a1d6a	-0.19737783
224	0xbf70e3f9	-0.9409786
225	0x3ee2f434	0.44326937
226	0x3f237cc4	0.6386225
227	0x3e6eca2e	0.23319313
228	0xbe2d6d8e	-0.16936323
229	0xbdde4418	-0.108528316
230	0x3ddb3886	0.1070414
231	0xbdd8bcdc	-0.10582897
232	0xbebf0e14	-0.37315428
233	0x3dba5f2e	0.09100185
234	0xbf1fbb51	-0.623952
235	0x3c778187	0.015106565
236	0x3f37cfd5	0.718015
237	0xbf0ad718	-0.54234457
238	0x3f069312	0.5256816
239	0x3f014625	0.5049766
240	0xbe35caa3	-0.17753081
241	0xbead9eb4	-0.33910143
242	0x3ef08435	0.46975866
243	0xbf8b656a	-1.0890324
244	0xbea5dfd2	-0.32397324
245	0xbe5bde02	-0.21471408
246	0x3dd6078c	0.10450658
247	0x3edd8bc0	0.43270683
248	0xbe88f74f	-0.2675118
249	0x3f08050f	0.5313272
250	0x3ec01c5b	0.37521634
251	0x3d0cb928	0.034356266
252	0x3b2f2afd	0.0026728504
253	0x3e45d712	0.19320324
254	0x3f17657e	0.5913924
255	0x3e4c5e96	0.19957957

encoder.layers.0.self_attn.linears.1.bias f4 [32]
0	0xbef07d27	-0.46970484
1	0x3ea87f3e	0.32909578
2	0xbd4c8c44	-0.049938455
3	0x3e70d619	0.23519172
4	0xbeac6ca4	-0.33676636
5	0x3e43dd9b	0.19127505
6	0xbcaeb10d	-0.021324659
7	0x3eb7b13a	0.358774
8	0x3e6ee74b	0.23330419
9	0x3e3053a7	0.17219411
10	0xbb06eef2	-0.00205892
11	0x3e296c5c	0.16545242
12	0xbe32566b	-0.17415778
13	0xbd3dd3d1	-0.046344582
14	0x3e2a1508	0.16609585
15	0xbe85b6be	-0.26115984
16	0xbe6d0c9f	-0.23149346
17	0x3e193f8a	0.14965644
18	0xbd385845	-0.045006055
19	0xbc3cbdc7	-0.011519856
20	0xbaa9d18e	-0.0012956129
21	0xbe9b0731	-0.30278924
22	0x3ed15884	0.40887845
23	0x3e9c0dcc	0.30479276
24	0xbe6f9637	-0.23397146
25	0xbe1a432e	-0.1506469
26	0xbd28d4cb	-0.04121856
27	0x3e330795	0.17483361
28	0x3e124abe	0.14286324
29	0x3ec07484	0.37588894
30	0x3e0d1e33	0.13781051
31	0x3ea193d7	0.31558105

encoder.layers.0.self_attn.linears.2.weight f4 [32, 32]
0	0xbe89c83e	-0.26910585
1	0x3dfdd334	0.123937994
2	0xbe3db7e6	-0.18527183
3	0x3c3b366e	0.011426551
4	0x3d56ec88	0.052471668
5	0x3e087238	0.13324821
6	0xbd03aae7	-0.032145407
7	0x3cba7b06	0.02276374
8	0xbd925d29	-0.07146675
9	0xbdf7cd5e	-0.120997176
10	0xbe5ce362	-0.21571115
11	0x3dc046e2	0.0938852
12	0xbe73e4e6	-0.23817787
13	0x3e442f64	0.19158703
14	0x3e9815ba	0.29704076
15	0xbd822222	-0.063541666
16	0xbe28ded3	-0.1649125
17	0x3e586c0b	0.21134965
18	0xbd15313e	-0.036423914
19	0xbd1f34b8	-0.038868636
20	0x3ee25fb4	0.4421364
21	0x3e165b45	0.14683254
22	0xbe2a7c49	-0.16648974
23	0x3e2b2457	0.16713081
24	0x3e88307c	0.2659949
25	0x3e618fb0	0.22027469
26	0xbd5f13d1	-0.054462258
27	0xbe00a2c0	-0.12562084
28	0xbebb88ec	-0.366279
29	0xbed3afe4	-0.4134513
30	0x3d946289	0.072453566
31	0xbe3b6f7b	-0.18304245
32	0xbe273842	-0.16330054
33	0xbe7894e9	-0.24275555
34	0x3d49f2d0	0.04930383
35	0xbd617971	-0.055047456
36	0x3e0a11a0	0.13483286
37	0x3e2ee6be	0.17080209
38	0x3d31b6b5	0.043387134
39	0xbe44e387	-0.1922742
40	0x3e81cbae	0.25350708
41	0xbc83d680	-0.016093493
42	0x3df66928	0.12031776
43	0xbccb8c9f	-0.024847327
44	0xbdd96507	-0.106149726
45	0xbe0a4989	-0.13504614
46	0xbe572a13	-0.21012144
47	0x3dcd3f5b	0.1002185
48	0x3d1a26f3	0.0376348
49	0xbd6f4278	-0.058413
50	0x3e058a14	0.13040954
51	0x3e2dde09	0.16979231
52	0x3e781619	0.2422718
53	0x3e37df7f	0.1795635
54	0x3acee874	0.0015785829
55	0x3c72f884	0.014829759
56	0xbd4e2588	-0.05032876
57	0xbf1a762b	-0.6033656
58	0xbd988b46	-0.07448439
59	0xbe006119	-0.1253704
60	0x3e2d39d6	0.16916594
61	0x3e6bad01	0.23015215
62	0xbdffb692	-0.124859944
63	0xbd066e13	-0.03281982
64	0xbe33693f	-0.17520617
65	0xbc91abc7	-0.017782105
66	0x3d955ab8	0.07292694
67	0xbec741a1	-0.38917258
68	0x3eac5b9e	0.33663648
69	0xbd065332	-0.032794185
70	0x3dfcbfed	0.123412944
71	0xbd371210	-0.04469496
72	0xbe9e5629	-0.3092511
73	0x3ea902ba	0.33009893
74	0x3e9358fa	0.2877882
75	0xbe0a625b	-0.13514082
76	0xbdf97ea5	-0.12182359
77	0xbdab5aea	-0.0836695
78	0x3cf15495	0.029459277
79	0xbed4da41	-0.41572765
80	0x3d24f410	0.04027182
81	0xbd22d194	-0.03975065
82	0xbe70ec88	-0.2352773
83	0x3e5c2455	0.21498235
84	0x3e862fe5	0.26208416
85	0x3e76d230	0.24103618
86	0x3b9b4df3	0.004739517
87	0xbe3204f8	-0.17384708
88	0x3da897b8	0.08232063
89	0x3ec36364	0.38161767
90	0xbd17f0cb	-0.037094872
91	0x3d40faf9	0.047114346
92	0xbe76fc0f	-0.2411959
93	0xbdab0bfb	-0.083518945
94	0x3d8dc226	0.069217965
95	0xbd051acf	-0.03249627
96	0x3d531818	0.05153665
97	0xbe773459	-0.24141063
98	0xbd88fe00	-0.06689072
99	0xbe937487	-0.2879984
100	0x3e0c4041	0.13696386
101	0xbce7c544	-0.028292306
102	0x3e198c47	0.14994918
103	0xbea41712	-0.3204885
104	0x3e536949	0.20645632
105	0x3f1703e7	0.5899033
106	0x3cc06a61	0.023488225
107	0xbed3fc96	-0.41403645
108	0xbe5bc448	-0.21461594
109	0xbcfd91f0	-0.030953377
110	0xbe93848e	-0.2881207
111	0xbe3eb2df	-0.18622921
112	0x3e126bd1	0.14298941
113	0xbdb28ac9	-0.087178774
114	0x3e70d48d	0.23518582
115	0x3ed3a6ea	0.41338283
116	0xbc29d6bd	-0.010366139
117	0x3cc41f7e	0.023940798
118	0xbdfc5b01	-0.12322045
119	0xbe0a7a2d	-0.13523169
120	0x3e246326	0.16053447
121	0x3d240933	0.040047836
122	0xbd53ab31	-0.051676933
123	0xbeb67134	-0.35633242
124	0x3f037113	0.5134441
125	0x3d64220d	0.055696536
126	0x3b1d0d3e	0.0023964192
127	0x3d970560	0.07374072
128	0xbec5e743	-0.38653
129	0xbdf3ae2f	-0.11898457
130	0xbdc47bc7	-0.09593921
131	0x3dfe6179	0.12420935
132	0x3efb73bd	0.4911174
133	0xbf33d199	-0.70241696
134	0x3c52329c	0.012829449
135	0xbe0f9d1e	-0.14024779
136	0x3e86a88b	0.26300463
137	0xbda5cff0	-0.080963016
138	0x3de5f3a8	0.11228114
139	0xbdfa09f7	-0.12208932
140	0xbe3cd8b0	-0.18442035
141	0x3f1cb6af	0.61216253
142	0xbdc18c7e	-0.09450625
143	0xbdf32228	-0.11871749
144	0x3ebc092e	0.36725754
145	0x3eb4c76c	0.35308397
146	0x3dd893f3	0.10575094
147	0x3ef6a0a8	0.48169446
148	0xbe790903	-0.24319844
149	0xbe8cecb7	-0.2752435
150	0x3f3ea814	0.74475217
151	0xbc0b90a9	-0.008518376
152	0xbe8a7c2d	-0.27047864
153	0x3eaddd9b	0.33958134
154	0xbdadd078	-0.08487028
155	0xbcf9c797	-0.03049068
156	0x3e7ab695	0.24483712
157	0xbb8d1862	-0.004305885
158	0x3eaa13e5	0.33218303
159	0x3de12ef9	0.109952874
160	0x3ec6f8a1	0.38861564
161	0x3d80e0ac	0.06292853
162	0x3e20a2b9	0.15687074
163	0x3cb50863	0.022098726
164	0xbec267b3	-0.3796974
165	0xbc8da2d7	-0.017289562
166	0xbc440830	-0.011964843
167	0xbe4009d9	-0.18753757
168	0xbdee09fe	-0.116229996
169	0x3e8708bd	0.26373854
170	0x3c89bb33	0.016812896
171	0xbd81bf1e	-0.06335281
172	0x3e5bd25c	0.21466964
173	0xbc612364	-0.013741348
174	0x3d2f39bc	0.04277967
175	0x3dfdf68b	0.1240054
176	0x3e8ade0e	0.2712254
177	0xbe8d563e	-0.2760486
178	0xbe216477	-0.1576098
179	0xbe009de5	-0.12560232
180	0xbe40dc95	-0.18834145
181	0x3b66f4cd	0.0035241127
182	0xbdc754fb	-0.097330056
183	0x3d150fa0	0.036391854
184	0x3e939811	0.28826955
185	0xbd4a3ce1	-0.049374465
186	0x3e0a8baa	0.1352984
187	0x3db87791	0.090071805
188	0x3ed3bc2d	0.41354504
189	0xbf087b9a	-0.533136
190	0xbd7e7dd6	-0.062131725
191	0x3d857d6d	0.06518064
192	0xbe03c09e	-0.12866446
193	0x3cbb65d4	0.022875704
194	0x3d31b5dd	0.04338633
195	0x3e9f2d32	0.3108917
196	0xbe9f9c9e	-0.31174177
197	0xbe1e967d	-0.15487094
198	0x3e7c44eb	0.24635665
199	0x3f163cf0	0.58686733
200	0x3d69e6e4	0.05710496
201	0xbd7aee86	-0.06126263
202	0xbd9e39fb	-0.07725903
203	0x3e0740e1	0.13208343
204	0x3f015ee8	0.5053544
205	0x3ee8c341	0.45461467
206	0x3cd3bc05	0.02584649
207	0xbdb3ace4	-0.08773211
208	0xbec1ba3f	-0.37837407
209	0x3e1efcae	0.15526077
210	0x3d2f4947	0.042794492
211	0xba1f4a60	-0.00060764514
212	0xbe4f6b91	-0.20255877
213	0x3e5b444b	0.2141277
214	0xbf10b0c6	-0.56519735
215	0xbdbe223f	-0.09283876
216	0xbe6f124f	-0.23346828
217	0xbecd22fb	-0.4006575
218	0x3c1586bc	0.009126361
219	0x3dfcdfaf	0.12347352
220	0x3d844d0c	0.06460008
221	0xbe35045d	-0.17677446
222	0x3d7a6c36	0.061138354
223	0x3eb19466	0.34683532
224	0x3e399c3e	0.18126008
225	0x3e235bd2	0.15952995
226	0x3e927188	0.28602242
227	0xbd2d98b1	-0.042381946
228	0xbf16366a	-0.5867678
229	0xbe4d5a4f	-0.20053981
230	0xbd1f2160	-0.03885019
231	0x3d8b6eac	0.06808218
232	0xbe5effc8	-0.2177726
233	0x3d897258	0.067112625
234	0x3e5ef859	0.21774425
235	0xbcd79a94	-0.026318826
236	0x3ef37579	0.47550562
237	0x3e377806	0.17916879
238	0x3d6067c0	0.054786444
239	0xbe8a27d8	-0.26983523
240	0x3db2ef6c	0.08737072
241	0xbe79e940	-0.24405384
242	0xbd25740d	-0.040393878
243	0xbeb22654	-0.34794867
244	0xbe9e80c6	-0.3095762
245	0xbd8cea05	-0.06880573
246	0x3f030e05	0.5119327
247	0xbe04a8ee	-0.12955067
248	0x3ed33885	0.41254058
249	0xbe6ad0d7	-0.22931229
250	0x3e483fbd	0.19555564
251	0x3e9815b2	0.29704052
252	0x3eac3740	0.33635902
253	0x3df6f5b9	0.120585866
254	0xbe879756	-0.26482648
255	0x3ea1ae29	0.31578186

encoder.layers.0.self_attn.linears.2.bias f4 [32]
0	0xbd69629a	-0.0569788
1	0xbc7db7ed	-0.015485746
2	0xbe117ee1	-0.14208557
3	0x3d877026	0.066131875
4	0xbe911b5a	-0.2834118
5	0x3d43c1a6	0.0477921
6	0xbde19d89	-0.110163756
7	0x3deff668	0.1171692
8	0x3ddcf3be	0.10788678
9	0x3cce69c3	0.025196915
10	0x3b745e4c	0.003728765
11	0x3e05bd8d	0.13060589
12	0x3db5ec67	0.08882981
13	0xbdda4f5c	-0.10659668
14	0xbd9686b8	-0.07349914
15	0x3d1b124b	0.037859242
16	0x3d738926	0.059456967
17	0x3d36b11e	0.044602506
18	0x3e04106d	0.12896891
19	0xbd2f94eb	-0.04286663
20	0xbe01db5e	-0.12681338
21	0xbddb879f	-0.10719227
22	0x3d08f710	0.033438742
23	0xbe234197	-0.1594299
24	0x3cb090bb	0.021553388
25	0x3df369a3	0.11885383
26	0x3dbc627b	0.09198471
27	0x3d6a05ca	0.057134427
28	0xbc7d1971	-0.01544796
29	0xbd9be88d	-0.07612715
30	0x3d3247c3	0.04352547
31	0x3d3f0398	0.046634287

encoder.layers.0.self_attn.linears.3.weight f4 [32, 32]
0	0xbd95a13e	-0.07306145
1	0xbdb6e4b9	-0.08930344
2	0xbe3ea51a	-0.18617669
3	0x3e1ca415	0.15296967
4	0xbee49bf4	-0.44650233
5	0x3c419255	0.011814673
6	0x3d19213f	0.03738522
7	0x3e1f02a5	0.15528353
8	0x3ed31d68	0.41233373
9	0xbe3ddf26	-0.18542156
10	0x3e7132ea	0.23554578
11	0x3ee79303	0.4522935
12	0x3e316d76	0.17326912
13	0x3db91097	0.090363674
14	0xbe18f8d0	-0.14938664
15	0xbdb1a758	-0.086744964
16	0x3e1af044	0.15130717
17	0xbdca1bf9	-0.098686166
18	0xbd9d2994	-0.07673946
19	0xbe035dbd	-0.12828727
20	0x3d0d6808	0.03452304
21	0x3e947824	0.2899791
22	0xbd4a9d51	-0.049466435
23	0x3daf2e0d	0.08553705
24	0x3e1d920f	0.15387748
25	0xbd9b98f2	-0.075975314
26	0xbdf2e41d	-0.118599154
27	0xbca3ee47	-0.02001108
28	0xbcbbf815	-0.022945443
29	0xbc66be6b	-0.014083485
30	0x3e921337	0.28530285
31	0xbd208471	-0.039188806
32	0xbdbeccdf	-0.0931642
33	0x3e0a3edb	0.1350054
34	0x3d586414	0.052829817
35	0x3e76a637	0.24086843
36	0x3ed9ad36	0.42514962
37	0xbe2e21f3	-0.17005138
38	0x3e7ae5ec	0.2450177
39	0xbcffe976	-0.031239253
40	0xbe4fba4d	-0.20285912
41	0x3e62a964	0.2213493
42	0x3e192ed5	0.14959271
43	0x3db9fae2	0.09081055
44	0x3e4039c9	0.18772043
45	0x3d970e1f	0.0737574
46	0xbeb207a7	-0.34771463
47	0xbe9590f0	-0.2921214
48	0x3e228831	0.15872265
49	0xbcd00d52	-0.025396977
50	0xbde580dd	-0.11206219
51	0xbe93b685	-0.2885019
52	0xbda2bc0e	-0.07946025
53	0x3e58592d	0.21127768
54	0x3e4018da	0.1875948
55	0xbd8a1ff6	-0.06744377
56	0x3caa1274	0.020760752
57	0xbea8622f	-0.32887408
58	0xbdcc2636	-0.09968226
59	0x3f0b566f	0.5442876
60	0xbe819a95	-0.2531325
61	0x3da36123	0.07977512
62	0x3e33c0d3	0.17554025
63	0x3e52e502	0.20595172
64	0xbd8c432c	-0.068487495
65	0x3d5c4094	0.053772524
66	0xbd4379d9	-0.047723625
67	0xbe113f87	-0.1418439
68	0xbeb779cf	-0.3583512
69	0x3ef2d9ad	0.47431698
70	0xbce0388c	-0.027370714
71	0xbe52e287	-0.20594226
72	0xbdbddb95	-0.092703976
73	0xbdc67895	-0.09690968
74	0xbe787b4f	-0.24265788
75	0x3d2d40a3	0.04229797
76	0xbec084cc	-0.37601316
77	0x3dc94a61	0.0982864
78	0x3f31d366	0.69463193
79	0xbe0d0d26	-0.13774547
80	0x3e96048a	0.29300338
81	0x3d91d97a	0.071215585
82	0xbdbbb23f	-0.09164857
83	0xbf23f24b	-0.64041585
84	0xbd9e3b64	-0.077261716
85	0x3e01342a	0.12617555
86	0xbe5478e2	-0.20749238
87	0xbd18d919	-0.037316415
88	0xbe41d8f1	-0.18930413
89	0xbe04b50e	-0.12959692
90	0x3e47df7b	0.19518845
91	0xbe9fe5c4	-0.31229985
92	0xbe5d16b8	-0.21590698
93	0x3eb76198	0.35816646
94	0xbe1aed41	-0.15129568
95	0x3e398b51	0.18119551
96	0xbdee1afa	-0.11626239
97	0xbbf4b3f4	-0.007467741
98	0xbebbefc1	-0.36706355
99	0xbd2bbf8d	-0.041930724
100	0x3e9290ec	0.28626192
101	0xbda5ac4a	-0.08089502
102	0xbf322ad9	-0.6959663
103	0x3db65623	0.08903148
104	0x3d8867eb	0.06660446
105	0x3e6ec44f	0.23317073
106	0xbdda2767	-0.10652047
107	0xbe5f8f77	-0.21832071
108	0xbe13fc72	-0.14451769
109	0x3d3a50c0	0.045487165
110	0xbebc98ca	-0.3683532
111	0xbd0a066e	-0.033697538
112	0xbda0a4dd	-0.07843945
113	0xbe40f737	-0.18844305
114	0xbac1c32f	-0.0014782901
115	0xbec30d7f	-0.38096234
116	0x3e200e8b	0.15630548
117	0x3e2b62e8	0.16736948
118	0x3e663190	0.22479844
119	0xbd6e67e8	-0.05820456
120	0x3cc48339	0.023988353
121	0xbdd480c8	-0.103761256
122	0xbe54c65d	-0.20778795
123	0x3dd203f3	0.102546595
124	0xbdb6ed16	-0.08931939
125	0x3bda5526	0.0066629825
126	0x3dbd8d8a	0.09255512
127	0xbe6b0ae5	-0.22953375
128	0x3de4a460	0.111641645
129	0xbd84e795	-0.06489483
130	0x3e820b3b	0.25399193
131	0xbd199f69	-0.03750554
132	0x3ea2b932	0.31781918
133	0xbe475bf5	-0.19468673
134	0xbebe045e	-0.37112707
135	0xbcaba6b5	-0.020953516
136	0x3d795042	0.060867555
137	0x3ddd0f0b	0.10793885
138	0xbe25ca16	-0.16190371
139	0xbe063507	-0.13106166
140	0xbe1956f4	-0.14974576
141	0x3dc24581	0.09485913
142	0xbe2e6769	-0.17031635
143	0xbbc71902	-0.006075979
144	0xbd941770	-0.07231033
145	0xbd73fbf3	-0.05956645
146	0xbe9df009	-0.30847195
147	0xbec45bf7	-0.38351414
148	0x3d3a9dfd	0.045560826
149	0xbdb5133d	-0.0884156
150	0x3db52df6	0.08846657
151	0x3de488a8	0.111588776
152	0x3c9fdefb	0.019515505
153	0x3d6bfdac	0.057614967
154	0xbd30aaec	-0.043131754
155	0xbc57d2e1	-0.013172836
156	0x3dc87af9	0.0978908
157	0x3e0b4f42	0.13604453
158	0xbdec9b7f	-0.11553096
159	0xbd5aca3f	-0.053415533
160	0x3e47d17b	0.19513504
161	0x3d80be05	0.06286243
162	0x3b4f093b	0.0031591195
163	0xbd74f13f	-0.059800383
164	0x3e572c47	0.21012984
165	0x3e39289b	0.18081896
166	0xbc99184b	-0.018688342
167	0x3ce4df88	0.02793862
168	0x3e0b3224	0.13593346
169	0xbe92894c	-0.28620374
170	0xbc6951e7	-0.014240718
171	0x3ca2e3ed	0.019884074
172	0x3d3803dc	0.044925556
173	0x3dec48eb	0.115373455
174	0x3de1fd39	0.110346265
175	0x3e8cde16	0.27513188
176	0x3d24ebc0	0.04026389
177	0xbd970efd	-0.07375906
178	0x3d58e778	0.05295512
179	0x3e328fc5	0.17437656
180	0xbd38fccc	-0.04516296
181	0x3e1b0dc1	0.15141965
182	0xbdb39d41	-0.08770228
183	0xbdab0266	-0.08350067
184	0xbe4ca488	-0.19984639
185	0xbd03c194	-0.032167032
186	0x3e0314fb	0.12800972
187	0x3b12b2d0	0.0022384413
188	0x3e0bdf93	0.13659506
189	0xbe6a48b9	-0.22879304
190	0x3d91ff22	0.07128741
191	0x3c169877	0.009191624
192	0xbeca3dd1	-0.39500287
193	0xbe91c5d0	-0.2847123
194	0x3e42e45c	0.19032425
195	0x3eab5fde	0.33471578
196	0x3d4ecaf9	0.05048654
197	0xbdfb91a5	-0.12283639
198	0x3e326310	0.17420602
199	0x3e06d2a2	0.13166288
200	0xbe95f147	-0.29285643
201	0x3db903d4	0.09033933
202	0xbad3ea5a	-0.0016167865
203	0x3e2f4638	0.1711663
204	0xbd7cbe4e	-0.061704926
205	0xbbc03527	-0.0058657113
206	0x3ef75b59	0.4831188
207	0x3e2bc5e8	0.16774714
208	0xbc94ff2c	-0.018188082
209	0x3e315616	0.17317995
210	0x3e1a9f49	0.15099825
211	0xbeb56bcf	-0.35433814
212	0x3d0866c9	0.03330115
213	0x3ebdfa6b	0.37105116
214	0x3e38b49e	0.1803765
215	0x3e829db9	0.25510958
216	0x3c6d1fb6	0.0144728925
217	0x3d310d3f	0.043225523
218	0x3e033493	0.12813024
219	0x3e41e44d	0.18934746
220	0xbdcfd979	-0.101489015
221	0xbd1ce283	-0.038301956
222	0xbe9bb450	-0.30411005
223	0xbe176948	-0.14786255
224	0xbd8dbd94	-0.06920925
225	0x3e13b043	0.14422707
226	0x3d8b87d1	0.06813014
227	0x3e169999	0.1470703
228	0xbcdfe089	-0.027328746
229	0xbd9b0a00	-0.07570267
230	0xbdbfa9ba	-0.09358545
231	0xbe6c1da5	-0.23058183
232	0xbd42c39d	-0.047549833
233	0xbc545a8e	-0.012961043
234	0xbd5b0da3	-0.053479802
235	0xbe87329f	-0.26405808
236	0x3e2343fd	0.15943904
237	0x3d791b70	0.060817182
238	0xbec5ef12	-0.3865896
239	0xbe5d26b6	-0.21596798
240	0xbe8ea687	-0.27861425
241	0xbc2087cd	-0.009798002
242	0x3dfb622d	0.12274585
243	0xbda36add	-0.07979367
244	0x3e8a0b74	0.26961863
245	0xbdde6470	-0.10859001
246	0x3d988568	0.0744732
247	0x3e5faab3	0.2184246
248	0x3e0ebb75	0.13938697
249	0x3ddb1193	0.106967114
250	0x3e0c1628	0.13680327
251	0x3d8299b2	0.06376971
252	0x3e0314bc	0.12800878
253	0x3dc287b3	0.09498539
254	0xbd407258	-0.046984047
255	0xbdcbbb6d	-0.09947858

encoder.layers.0.self_attn.linears.3.bias f4 [32]
0	0xbd5a93a4	-0.053363457
1	0x3ad52a8d	0.0016263291
2	0x3e2b66a2	0.1673837
3	0x3e12b63c	0.1432733
4	0xbdf48911	-0.11940206
5	0x3db9e7fe	0.09077452
6	0xbb0447c8	-0.0020184387
7	0x3cd88997	0.026432795
8	0x3d55aec3	0.05216862
9	0xbd175e2d	-0.036955047
10	0x3e0a1f9c	0.1348862
11	0x3e82d1bf	0.2555065
12	0xbe151755	-0.14559682
13	0xbd50f4c1	-0.051014666
14	0x3d99ce57	0.07510059
15	0xbdd70613	-0.104992054
16	0x3c19a277	0.009377114
17	0xbd8d1b2e	-0.0688995
18	0xbcadf48e	-0.021234777
19	0xbd5d6f5a	-0.05406127
20	0xbe3b9ce1	-0.18321563
21	0xbdbd73b2	-0.09250583
22	0xbe34dfa4	-0.17663437
23	0x3dae950b	0.085245214
24	0x3db4e525	0.08832768
25	0xbe8a6e76	-0.270374
26	0x3db089ec	0.086200565
27	0x3d34e31e	0.04416191
28	0xbd12a508	-0.035801917
29	0xbd7a4e14	-0.061109617
30	0xbe97efa9	-0.29675034
31	0x3dc9234a	0.09821184

encoder.layers.0.feed_forward.w_1.weight f4 [128, 32]
0	0x3ea130b6	0.31482476
1	0x3defb300	0.117040634
2	0x3e7760da	0.2415804
3	0xbf19fa34	-0.60147405
4	0xbeb6d098	-0.3570602
5	0x3d73e3d9	0.059543464
6	0x3e61464f	0.21999477
7	0xbd041080	-0.032242298
8	0x3e593e8b	0.21215264
9	0x3e8b17f9	0.27166727
10	0xbecc4086	-0.39892977
11	0x3d696ba8	0.056987435
12	0x3f0656e1	0.52476317
13	0xbbbb730c	-0.0057205018
14	0x3e4285b0	0.1899631
15	0xbd9c9812	-0.076461926
16	0x3e994823	0.29937848
17	0x3e5dcd54	0.21660358
18	0xbebb0987	-0.36530706
19	0xbd82f94c	-0.06395206
20	0x3e31145e	0.17292926
21	0xbe1716d0	-0.14754796
22	0xbd7951a8	-0.06086889
23	0xbe38e052	-0.18054321
24	0x3ed14bd9	0.4087818
25	0xbe7a016f	-0.2441461
26	0xbd8f489b	-0.0699627
27	0x3df81ecb	0.12115248
28	0x3f00cab3	0.50309294
29	0xbe9c4a56	-0.30525464
30	0xbe87457e	-0.26420206
31	0x3ea4b7a4	0.32171357
32	0xbe307714	-0.17232925
33	0x3ddc3f0c	0.10754213
34	0x3e3893e8	0.18025172
35	0x3ec88b1a	0.39168626
36	0xbed7493f	-0.4204807
37	0x3c861cff	0.016371248
38	0x3d7ec50d	0.06219964
39	0xbe11caf8	-0.14237583
40	0x3e00caf8	0.12577426
41	0x3daa74a4	0.08323029
42	0xbde822a5	-0.11334733
43	0x3f55f9e4	0.8358443
44	0xbe78f29a	-0.24311295
45	0xbb5afe6e	-0.0033415812
46	0x3de1f414	0.11032882
47	0x3e3112c1	0.1729231
48	0x3e7e0036	0.24804768
49	0xbe89a574	-0.26884043
50	0x3e0ccda8	0.13750327
51	0xbe975ded	-0.29563847
52	0x3d94347a	0.072365716
53	0x3e9255c9	0.28581074
54	0xbe8b9c34	-0.2726761
55	0x3e836b9b	0.25668034
56	0xbcbd0b20	-0.023076594
57	0xbdd1b6f0	-0.10239971
58	0x3dc55d5e	0.09636949
59	0x3ec818db	0.39081463
60	0xbd8e9115	-0.06961266
61	0x3eef711c	0.46765983
62	0xbe2f66e8	-0.171291
63	0xbd80f39c	-0.06296465
64	0xbcff4fd5	-0.031165997
65	0xbedc1785	-0.42986694
66	0x3dbae1f3	0.09125128
67	0x3f00fe86	0.5038837
68	0xbe8b3070	-0.27185392
69	0x3e58ba67	0.21164857
70	0xbecc26ea	-0.3987344
71	0x3ecc8400	0.39944458
72	0x3ee1e96e	0.44123405
73	0xbda15ac7	-0.078786425
74	0x3e57c700	0.21072006
75	0xbe886619	-0.26640394
76	0xbe2d88d8	-0.16946733
77	0x3d35f5ed	0.044423986
78	0x3e0a7fd3	0.13525324
79	0x3ea0675d	0.3132886
80	0x3ce5a1bc	0.028031223
81	0xbcfa899c	-0.030583195
82	0x3e29b87d	0.16574283
83	0xbf7e4235	-0.99319774
84	0xbf305f7b	-0.6889569
85	0x3cf50510	0.02990964
86	0xbed76c15	-0.42074648
87	0x3f0dd2f6	0.55400026
88	0x3d0eb610	0.034841597
89	0xbe52107b	-0.205141
90	0x3ef6ad5d	0.4817914
91	0x3e92e17a	0.2868765
92	0x3ee8199b	0.45332035
93	0xbdd28898	-0.102799594
94	0xbd4bad4e	-0.049725823
95	0xbebbf072	-0.36706883
96	0x3ed1f273	0.41005287
97	0x3e0143ba	0.12623492
98	0x3d80ccae	0.062890396
99	0xbf7597c3	-0.95934695
100	0xbdcf945e	-0.10135721
101	0x3e2baade	0.167644
102	0xbdefd81a	-0.1171114
103	0xbdbe4fdc	-0.09292576
104	0xbf0cec7b	-0.5504834
105	0x3f042149	0.5161329
106	0x3dd82b8a	0.105551794
107	0xbda4010f	-0.080080144
108	0x3e576a46	0.21036634
109	0x3e2291c8	0.15875924
110	0xbed020ff	-0.40650174
111	0x3d427b22	0.04748071
112	0xbdd0f1b6	-0.10202353
113	0x3e21139f	0.15730141
114	0xbd9ef1c9	-0.077609606
115	0xbc684795	-0.014177223
116	0x3e5e8564	0.21730572
117	0x3eb9e373	0.36306342
118	0x3e52555f	0.20540379
119	0xbe244517	-0.1604198
120	0x3d058c10	0.032604277
121	0xbdf7d3d4	-0.1210095
122	0x3db10f3a	0.08645482
123	0x3e3d2aa3	0.18473296
124	0xbe5e6c31	-0.21720959
125	0xbea7ea90	-0.32796144
126	0x3e89f111	0.26941732
127	0xbe774bb4	-0.24149972
128	0x3e41b906	0.18918237
129	0x3e3822b6	0.17981991
130	0xbdc909b3	-0.09816303
131	0x3da74701	0.0816784
132	0x3ee4ff6b	0.44726118
133	0xbdc6b035	-0.097015776
134	0xbf101d64	-0.56294847
135	0x3e786161	0.24255897
136	0xbecfc94c	-0.40583265
137	0x3da7bb88	0.081900656
138	0xbde23e52	-0.11047043
139	0xbee745ba	-0.45170385
140	0x3ed13e10	0.40867662
141	0xbe85aa8c	-0.2610668
142	0x3c8f8060	0.017517269
143	0x3daac09d	0.08337519
144	0x3d96fda9	0.073726006
145	0x3dc15f1f	0.09441971
146	0x3e2f5cea	0.17125288
147	0x3ea3b64f	0.31975028
148	0x3dc17e0b	0.09447869
149	0x3e7d4a62	0.24735406
150	0x3f03a38f	0.51421446
151	0xbd547467	-0.051868822
152	0xbec89c83	-0.3918191
153	0x3e832390	0.2561307
154	0xbd1851f4	-0.03718753
155	0x3de94662	0.113903776
156	0x3ba859dc	0.005137665
157	0x3f18595e	0.59511364
158	0x3e9ffe34	0.3124863
159	0x3cd5f9bf	0.026120065
160	0x3e7210f1	0.23639275
161	0x3e981620	0.2970438
162	0x3d62dfad	0.055389095
163	0xbec03e40	-0.37547493
164	0xbf885a5d	-1.0652577
165	0x3ed97b5b	0.42476925
166	0xbe71eebd	-0.23626228
167	0xbeaa4690	-0.3325696
168	0x3ee20fd8	0.44152713
169	0x3eee6e74	0.46568644
170	0xbf33c101	-0.70216376
171	0xbd898abe	-0.06715916
172	0x3daf4eff	0.08559989
173	0xbed21370	-0.41030455
174	0x3db39860	0.087692976
175	0xbd76fea7	-0.06030145
176	0xbcc0fe47	-0.023558749
177	0xbda63ff8	-0.0811767
178	0xbf25e8df	-0.6480846
179	0xbcf5f188	-0.030022398
180	0x3e4dd496	0.20100626
181	0xbe3a450e	-0.18190405
182	0xbd796f08	-0.060896903
183	0x3e1a0a27	0.15042935
184	0x3ed5e2e2	0.4177466
185	0xbd82903d	-0.063751675
186	0xbcbf2ddd	-0.023337299
187	0x3d871e8e	0.06597625
188	0x3e8394cb	0.25699458
189	0xbef6336f	-0.48086116
190	0xbe2a43f9	-0.16627492
191	0x3dbc7c89	0.09203441
192	0xbe3478f1	-0.1762426
193	0xbd40b1fd	-0.047044743
194	0xbdf96172	-0.12176789
195	0x3e533294	0.20624763
196	0xbdd357dc	-0.10319492
197	0xbe1c75e9	-0.15279354
198	0xbe03780d	-0.12838764
199	0x3f4a478d	0.7901543
200	0x3f0980fb	0.53712434
201	0xbe97d231	-0.2965255
202	0xbd902cf9	-0.07039828
203	0xbe297e28	-0.16552031
204	0x3e61cd06	0.22050866
205	0x3d62ff31	0.05541915
206	0x3daea0dc	0.08526775
207	0x3e1ad29b	0.15119402
208	0x3e3e8566	0.18605575
209	0x3da5fdd2	0.08105053
210	0xbe6c8f2d	-0.23101492
211	0x3dcd2a5b	0.10017844
212	0xbf1a69af	-0.6031751
213	0xbf753ad7	-0.9579291
214	0x3e190ef3	0.14947109
215	0x3db5fc0d	0.088859655
216	0xbe5f3c7b	-0.21800415
217	0x3e0275a1	0.12740184
218	0x3e5788c7	0.2104827
219	0x3e8c355e	0.27384466
220	0x3f3da543	0.74080294
221	0x3ea83f17	0.32860634
222	0x3de943d9	0.11389894
223	0x3e0d07a9	0.13772453
224	0x3e5c8ded	0.21538515
225	0x3defec70	0.11715019
226	0x3e1c5a5c	0.15268844
227	0xbe9c816c	-0.3056749
228	0xbebd411a	-0.3696373
229	0x3d240515	0.04004391
230	0x3f0186c6	0.5059627
231	0x3e9bac99	0.3040512
232	0xbc8c85bb	-0.017153611
233	0xbe38f611	-0.18062617
234	0xbe9b446e	-0.30325645
235	0x3e1186bb	0.14211552
236	0x3e8364cf	0.25662848
237	0xbd99f055	-0.07516543
238	0xbcf555c0	-0.029948115
239	0xbe614615	-0.2199939
240	0xbe8e83b1	-0.27834848
241	0x3e044853	0.12918214
242	0xbe9ab2d2	-0.30214554
243	0x3ea81a58	0.328326
244	0x3e120ec9	0.14263453
245	0x3d7f626e	0.06234973
246	0xbdae9996	-0.08525388
247	0x3c87f45e	0.016596016
248	0x3dad8802	0.08473207
249	0xbe854cd4	-0.26035178
250	0x3db72281	0.08942128
251	0x3e43216c	0.19055718
252	0x3f276a0d	0.65396196
253	0xbece7fc6	-0.40331858
254	0xbebb94f7	-0.3663709
255	0x3ef8a7fd	0.48565665

encoder.layers.0.feed_forward.w_1.bias f4 [128]
0	0xbdbfca23	-0.093647264
1	0xbe35ddda	-0.17760411
2	0x3eada957	0.3391826
3	0xbd8dd463	-0.06925275
4	0xbdc4dc2c	-0.09612307
5	0xbcac71ef	-0.021050422
6	0xbebb8670	-0.36626005
7	0xbcc157eb	-0.023601493
8	0xbd895233	-0.067051314
9	0xbda6b824	-0.08140591
10	0xbe0101d1	-0.12598349
11	0x3b85796c	0.0040733125
12	0x3ca2e6cd	0.019885445
13	0xbef0bcf8	-0.47019172
14	0xbec2998f	-0.3800778
15	0xbe4f2568	-0.20229113
16	0xbeb9b393	-0.36269817
17	0x3d3fbf31	0.046813194
18	0xbdd92b43	-0.10603955
19	0xbec91bce	-0.39279026
20	0xba65ee52	-0.0008771169
21	0xbcd0e2a7	-0.025498701
22	0xbe199a82	-0.15000346
23	0x3de05416	0.10953538
24	0x3d70eaa1	0.05881751
25	0xbd4262b2	-0.047457404
26	0x3d83af34	0.06429902
27	0x3e02ec8f	0.12785552
28	0xbe88292e	-0.26593918
29	0x3d35b58f	0.0443626
30	0xbdb72a02	-0.08943559
31	0xbeb928ce	-0.36163944
32	0xbe40a8ec	-0.18814439
33	0xbe1b8d85	-0.15190704
34	0xbdd75eb1	-0.10516108
35	0xbe285c86	-0.16441545
36	0xbdc5c299	-0.09656257
37	0x3dd519c3	0.10405304
38	0xbe1d8309	-0.15382017
39	0xbef1e4d1	-0.47244886
40	0xbda6aebe	-0.08138798
41	0xbe6415d5	-0.22273953
42	0xbdbfdd37	-0.09368365
43	0xbe06ec99	-0.13176192
44	0xbe693d30	-0.22777247
45	0x3d8409f0	0.06447208
46	0xbe83ecb4	-0.25766528
47	0x3cd075a2	0.025446717
48	0x3ded9817	0.116012745
49	0xbcdd1069	-0.026985364
50	0xbdfcfb06	-0.123525664
51	0xbc5564fc	-0.013024565
52	0xbacaa77d	-0.0015461292
53	0xbe302152	-0.1720021
54	0xbda22354	-0.079168946
55	0x3dedcb2a	0.11611016
56	0xbd6c48b6	-0.05768653
57	0x3e17a0ed	0.14807482
58	0x3dc6315e	0.09677385
59	0xbec57a56	-0.38569897
60	0xbe545e6b	-0.20739143
61	0xbdba10d2	-0.090852395
62	0xbdc233a9	-0.0948251
63	0xbef0c056	-0.4702174
64	0xbdf73091	-0.1206981
65	0xbe8584f2	-0.26077992
66	0x39d6c55b	0.00040964302
67	0xbedb653e	-0.4285068
68	0xbd83508b	-0.06411847
69	0xbec55f6a	-0.38549358
70	0xbe469ac7	-0.1939498
71	0xbec1050f	-0.37699172
72	0xbdc6184c	-0.09672603
73	0xbe42fc2e	-0.19041511
74	0xbea1d15a	-0.31605035
75	0xbe78c825	-0.24295099
76	0xbea1cc67	-0.3160126
77	0x3bbfa541	0.005848557
78	0xbdffcb81	-0.12489987
79	0x3daba99b	0.08381959
80	0xbd743fd5	-0.059631187
81	0xbe51475f	-0.20437382
82	0x3c13efab	0.009029309
83	0xbd509047	-0.050918844
84	0xbd06d006	-0.03291323
85	0xbe8e6094	-0.27808058
86	0xbe908bf9	-0.2823179
87	0xbe1e9e0c	-0.15489978
88	0xbe348d38	-0.17631996
89	0xbe9b7aa0	-0.30366993
90	0xbe0021b7	-0.12512861
91	0xbe52332d	-0.20527335
92	0x3e0d7fb1	0.13818242
93	0xbe91cdc0	-0.28477287
94	0xbc6c19a9	-0.014410415
95	0xbd0d0835	-0.034431655
96	0xbeb54944	-0.3540746
97	0xbe65c7e6	-0.22439536
98	0xbe825826	-0.25457877
99	0xbec9f1b2	-0.3944221
100	0xbda3f795	-0.08006207
101	0xbe4427e4	-0.19155842
102	0xbe14fe0e	-0.14550039
103	0xbea234d0	-0.31680918
104	0x3ca3005c	0.019897632
105	0xbe2dcbc7	-0.16972266
106	0xbdb5e39d	-0.088813044
107	0xbd26d01f	-0.040725823
108	0xbe3920db	-0.1807894
109	0xbe2c88a1	-0.16848995
110	0xbe15eb36	-0.14640507
111	0xbdce960d	-0.10087214
112	0xbd65d3ef	-0.05611032
113	0x3d1cbaba	0.038264014
114	0xbd7efad8	-0.062250942
115	0xbe2c1034	-0.16803056
116	0xbcac5ddf	-0.021040855
117	0xbe346165	-0.17615278
118	0x3ba8808f	0.0051422785
119	0x3b893000	0.0041866302
120	0xbddca1c8	-0.10773045
121	0xbe06af6b	-0.13152854
122	0xbe4469cc	-0.19180983
123	0xbe1e5160	-0.1546073
124	0xbe8b0116	-0.27149266
125	0xbea6ab57	-0.32552597
126	0xbc8262ad	-0.015916193
127	0x3bdd5d30	0.0067554936
