index_advisor_selector/index_benefit_estimation/index_cost_lib/exp_res/exp_lib_job_tgt_ep500_bat1024/model/lib_LIB_100.pt (torch, 413135 bytes, 120 tensors)

S f4 [1, 1, 32]
000000 54 99 4c bd dd d9 96 3d e0 08 86 3a 35 3f e1 3d
       -0.049950913 0.07365773 0.0010226034 0.10998384
000010 1d d7 d7 bd de 42 fc bd 44 36 e5 3d 3a 3d a3 bd
       -0.105390765 -0.123174414 0.11191991 -0.079706624
000020 31 57 be bd 5e b1 d2 bd 9a a8 b8 3d aa 57 d6 3c
       -0.09293974 -0.10287736 0.09016533 0.026164848
000030 42 19 f8 bd 3b 84 b5 bb 0d c8 17 bc f2 0e 93 be
       -0.121141925 -0.0055394447 -0.009264004 -0.2872234
000040 a7 01 9b bd ff 24 94 bd ee e9 0c bc 67 42 d9 3c
       -0.075686745 -0.07233619 -0.008600695 0.02652092
000050 73 5e 93 bb d9 32 6e 3d 40 ec fe 3d 7d 56 e3 bd
       -0.004497343 0.05815396 0.12447405 -0.11100481
000060 2e ae 6c 3c 7b 38 79 3c 07 da 44 3d a7 5b 41 3d
       0.014445825 0.01521122 0.04805949 0.047206547
000070 ae ce a3 3d b1 5a cc bd 02 76 a6 bc 68 e7 3a bc
       0.079984054 -0.099782355 -0.020319942 -0.011407711

linear1.weight f4 [32, 12]
000000 2b 0d 3b be d3 59 01 3d af 26 5d 3e 10 91 69 3e
       -0.18266742 0.031579804 0.21596788 0.22809243
000010 cc 26 d3 3f 19 3a 84 bf 6e e3 01 bf 8c e2 01 bf
       1.6496215 -1.033023 -0.50737655 -0.5073631
000020 ac 53 24 3e 13 a1 6f 3f 08 42 d0 3d da 25 f2 be
       0.16047543 0.93605155 0.101688445 -0.47294503
000030 29 e0 34 bd c9 da 4c be 01 6b d8 bd ee df eb be
       -0.04415909 -0.20005335 -0.105672844 -0.46069282
000040 a3 a6 8f be 71 5c 9a 3d be d2 04 3e a9 bc 16 be
       -0.2805682 0.07537163 0.12971017 -0.14720406
000050 53 9b b7 bc 83 d7 61 be fd 27 a1 be d9 2e b3 3e
       -0.022412932 -0.22054867 -0.3147582 0.3499668
000060 50 c5 a7 be 45 bc e4 be 93 45 72 be be 03 ae 3e
       -0.32767725 -0.44674888 -0.23659353 0.3398723
000070 eb 67 62 40 ab 3e b7 be e5 b2 3d be 48 1c 4b 3f
       3.5375926 -0.3579 -0.18525274 0.7934003
000080 0a e2 4c bf 41 20 27 bf 33 32 da 3e dc b0 fc 3e
       -0.8003241 -0.6528359 0.42616424 0.49353683
000090 c5 98 ad be fd 8c 59 3f 22 ad 3f 3c b6 f0 69 be
       -0.33905616 0.84980756 0.011698993 -0.2284573
0000a0 9b 3d 68 c0 84 f5 05 bf d6 0a 05 3f 11 89 91 bf
       -3.62876 -0.5232775 0.5196966 -1.1369954
0000b0 b2 5d 09 bf a2 c9 9d be 2f 00 7c 3e b4 f9 73 3d
       -0.5365859 -0.30817896 0.24609445 0.059564307
0000c0 77 ed 87 3d cd 68 c5 3b c1 6f 5d 3e 44 af 9e 3e
       0.0663709 0.006024456 0.21624662 0.30993092
0000d0 bd 34 87 40 78 b8 94 be 67 96 13 3f c7 db c4 be
       4.225188 -0.29046988 0.5765137 -0.38448927
0000e0 25 e1 32 c0 47 6b 9e bf c2 ae 81 be 3e d9 62 3e
       -2.7949917 -1.2376488 -0.25328642 0.22153184
0000f0 74 91 72 bf 00 49 a6 3e 1c af 9e 3f 08 94 18 3f
       -0.94753194 0.3247757 1.2397189 0.5960088
000100 50 48 a7 40 de f2 10 bd f9 f0 3c 3e 84 4c a7 3e
       5.227577 -0.035387866 0.18451299 0.32675564
000110 8a b3 04 3f 82 f4 49 bf 1c 24 1b bf 81 2d 3b 3f
       0.51836455 -0.78888714 -0.60601974 0.7311631
000120 a6 d9 46 3f 65 c3 0e be 8d a5 70 bc 2e a0 03 be
       0.77675855 -0.13941725 -0.014687908 -0.12854072
000130 a5 9d 31 40 ad 7a a2 be 8f 29 aa 3f 5e 15 fd be
       2.7752469 -0.3173422 1.3293933 -0.49430364
000140 b7 23 9f 3c 36 4c cb be b4 fb 37 be f8 b6 f4 be
       0.01942621 -0.39706582 -0.17967111 -0.47795844
000150 e0 92 b8 bf e4 14 09 3f 42 ac 53 3f 7b f1 96 3e
       -1.4419823 0.535475 0.8268472 0.2948111
000160 60 d7 a3 c0 77 73 8e 3e 1f 6b 86 be 78 bc 8e 3f
       -5.120041 0.27822468 -0.26253602 1.1151266
000170 63 e4 27 3f dd 32 69 3e 9a a9 27 3e 12 b6 a2 3d
       0.65582865 0.22773309 0.16373292 0.079448834
000180 2a cb 7a 3f 2b a1 8d be da 20 fc 3d 60 49 88 3d
       0.97966254 -0.27662024 0.123109534 0.0665462
000190 03 12 96 c0 28 45 0a be dd f4 d8 bd 94 41 20 3f
       -4.6896987 -0.13502944 -0.10593579 0.62600064
0001a0 62 f3 36 bf 7e 59 97 3f fb ce eb bd f9 ba b3 bd
       -0.7146512 1.1824186 -0.11514088 -0.087758966
0001b0 7f 81 36 be 2c 09 af 3d a1 33 04 3e 11 ea 9f bd
       -0.17822836 0.08546671 0.1291032 -0.078083165
0001c0 f2 90 54 3b e5 49 2c 3f 78 c9 24 bd ef b1 d2 bf
       0.0032435027 0.67300254 -0.040231198 -1.6460551
0001d0 28 5e c5 3e 4a 1a f6 3e 73 c9 05 bf 70 22 03 3f
       0.38548398 0.48066932 -0.5226051 0.5122442
0001e0 40 53 30 bf d1 32 0e bf e0 93 fa 3c 90 49 8c 3e
       -0.6887703 -0.5554629 0.03058809 0.27399874
0001f0 ea 42 93 40 94 a7 49 bf e0 33 28 bf 3e 1e ae be
       4.601918 -0.7877133 -0.65704155 -0.34007448
000200 69 4a b0 be df 18 5b bf 8b d5 a8 be 7c f8 19 be
       -0.3443177 -0.85584825 -0.3297542 -0.15036196
000210 37 1d ad 3d 43 09 f0 3d c2 91 26 3f 6d 5f 8c be
       0.08452838 0.117205165 0.6506616 -0.27416554
000220 9b ef c6 3e bb be 4a 3d 6e 67 1f 3e f6 5f f3 3d
       0.3885468 0.0494983 0.15566799 0.118835375
000230 3a 06 10 3f 26 c2 2d be ec cc 33 be 61 e7 d0 be
       0.562595 -0.16968593 -0.1755864 -0.40801528
000240 e0 27 d6 3d 6d b5 a3 3e c5 67 4d bf 59 32 dc be
       0.10456824 0.31974354 -0.80236465 -0.43007162
000250 09 05 4c be 08 bf 6d bd 2a e6 8f bc 2a e8 42 bf
       -0.19923796 -0.05804351 -0.017565805 -0.76135504
000260 97 d0 bd 3e c3 b5 13 3e 71 d9 90 3e 01 69 91 3e
       0.37073204 0.14424805 0.28290895 0.28400424
000270 8a c6 1b be 45 ad e4 bd c2 42 a6 be e8 b5 0a 3e
       -0.15212455 -0.11165861 -0.32472807 0.13545954
000280 9b 60 63 40 b9 ae bc bf a5 c5 22 bf 43 21 e6 3f
       3.5527713 -1.4740821 -0.6358283 1.7978901
000290 d4 1b f9 3e 88 99 98 bf 11 44 1f bf ae cb 8a bd
       0.48654044 -1.1921854 -0.62213236 -0.0677713
0002a0 3c c7 92 bf 1b 85 e6 3e 27 28 61 3e d9 d6 7d 3e
       -1.1467052 0.45023426 0.21987973 0.24788989
0002b0 39 b7 99 c0 ae 61 4f 3f 0b 56 8c 3f 73 4f 0b 3e
       -4.803616 0.8100842 1.0963758 0.13604526
0002c0 88 02 fb 3e b5 fc 81 be 04 99 16 be 47 91 0a 3e
       0.4902537 -0.25388113 -0.14706808 0.13531981
0002d0 38 f6 a5 be 69 76 0a 3f 53 41 09 3f 17 e1 bb be
       -0.32414412 0.5408693 0.536153 -0.36695167
0002e0 c5 55 99 3e d4 9b c7 3e 02 57 31 3e 6e 81 b3 3e
       0.2994825 0.38986075 0.17318347 0.35059685
0002f0 69 4a 63 3f df b5 ae 3e f9 19 24 3d d3 2f 2a 3f
       0.88785416 0.34123132 0.040063832 0.66479224
000300 95 b1 53 bf df ea 79 3d 77 23 19 bf 43 68 ce 3e
       -0.82692844 0.061015006 -0.5981974 0.4031392
000310 9d 4e 05 40 ac da 65 bf 4b 3d fb 3e e6 05 98 bd
       2.0829232 -0.8978679 0.490702 -0.07423
000320 1c ec 61 be 6a 29 17 bf 82 62 7c be 0d 41 00 bf
       -0.22062725 -0.5904757 -0.24646953 -0.5009926
000330 a5 9b 7f bf 57 6d c3 3d f5 c2 65 be 79 05 06 3f
       -0.9984687 0.09542339 -0.22437651 0.523521
000340 45 4c b6 40 fc 7e 62 bf 76 41 92 3e b9 25 8e 3e
       5.6968102 -0.8847501 0.28565568 0.27763155
000350 02 d8 2c 3f 9b 20 85 bf 30 eb 2e bf bd 4a 8e be
       0.675171 -1.0400575 -0.6832762 -0.27791396
000360 16 1b df 3d 87 92 76 3e 74 e0 51 be a4 fd bf be
       0.10893838 0.24079333 -0.20495778 -0.374982
000370 95 34 44 40 3f 19 ed be e9 c4 de 3d 52 f3 59 3f
       3.0657094 -0.46308324 0.108774014 0.851369
000380 fe 52 c3 bf 7f 9a 04 3f cb 0a 3c bf d8 a2 84 3e
       -1.5259702 0.5179824 -0.7345397 0.2590549
000390 71 64 94 bf b2 6a b9 be 04 74 71 be 33 97 93 3e
       -1.1593152 -0.36214215 -0.23579413 0.28826293
0003a0 7c 13 92 40 3a 9a 54 3e b1 fc 0b c0 ed b9 0a bf
       4.5648785 0.20761958 -2.187298 -0.5418995
0003b0 0a 4d 8c bf cd b5 84 bf 4b 85 8b 3d 95 45 c4 be
       -1.096101 -1.0367981 0.06812533 -0.38334337
0003c0 2e b8 c7 be 56 da f4 3e c4 f1 8c bf da da 8e bd
       -0.39007705 0.47822827 -1.1011281 -0.069753364
0003d0 c7 4d 96 40 5c 84 9d 3e c3 fb 32 be 3c e3 ca 3d
       4.6969943 0.30765045 -0.17478852 0.09906623
0003e0 11 57 33 be d3 9f dc bf 92 8d a4 3d 87 31 c6 be
       -0.17513682 -1.7236274 0.08034815 -0.3870966
0003f0 4c 65 70 bf 98 0e bd be 1a 20 0c 3e 32 a9 cd be
       -0.93904567 -0.36925197 0.13684121 -0.40168148

linear1.bias f4 [32]
000000 46 e7 22 3d d0 e2 84 bd 92 1f 57 bd 05 be 8c 3e
       0.03977134 -0.064885736 -0.052520342 0.27488723
000010 8a fd 23 bf 32 ea 47 bf 4a 86 78 3e 36 57 53 3f
       -0.64058745 -0.7809173 0.24269977 0.8255495
000020 b1 7c a8 3d bf c1 79 bd b2 7e d4 be 56 9c 34 be
       0.08226908 -0.060975786 -0.4150291 -0.17637762
000030 93 de 44 3e 41 7d ec be 3b f0 f5 3e 2b 27 b6 bd
       0.1922553 -0.4618931 0.48034844 -0.088941894
000040 af 36 9e be 46 23 15 bf 51 08 08 bf cc 26 7d be
       -0.30901095 -0.5825695 -0.5313769 -0.24721831
000050 90 48 33 bf da f5 8b bf 9f 3b de be c3 32 9d bd
       -0.70032597 -1.0934403 -0.43404862 -0.07675698
000060 c2 fd d8 3e db 3e 47 be 4c c4 24 be d2 81 0a 3e
       0.42381102 -0.19457571 -0.16090506 0.13526085
000070 f6 fa e6 3e b3 e8 0c 3e f0 40 6d be 94 3f d2 3e
       0.45113343 0.13760643 -0.23169303 0.4106413

encoder.layers.0.self_attn.linears.0.weight f4 [32, 32]
000000 59 93 90 bf cd ab 60 bd 29 04 37 bd c3 f1 86 bc
       -1.1294967 -0.054851342 -0.0446817 -0.016472703
000010 16 8c 18 3f eb 5a 10 3f ad d8 b9 be 96 77 8a bf
       0.59588754 0.5638873 -0.36298123 -1.0817745
000020 e1 a9 d4 be 43 59 b8 bd ce 84 1f be 84 21 52 bd
       -0.41535857 -0.090014 -0.15578005 -0.051301494
000030 cf 02 cf 3d 6f 2e c2 3b cb d1 b0 3e a9 1e c6 3e
       0.101079576 0.0059259455 0.3453506 0.38695267
000040 ff 70 15 bf 72 a3 03 be 55 01 2e 3d 14 73 25 bf
       -0.58375543 -0.12855318 0.04248174 -0.6462872
000050 0a c4 9e bd 27 6f 1a 3f 1b f0 5e 3e 1e 52 ed 3c
       -0.07752235 0.60325855 0.2177128 0.02896982
000060 e3 96 79 bf 69 41 4c 3e 01 d7 8b bc 6e c3 b1 be
       -0.9749586 0.19946827 -0.017070295 -0.34719414
000070 11 4e 1d 3f fa 11 21 bf 5b a2 43 3f d5 cd fc be
       0.61447245 -0.62918055 0.7641961 -0.49375787
000080 2d 0a cc 3e 3a 83 df bd de 42 8a be 27 27 09 bd
       0.39851514 -0.10913701 -0.2700414 -0.033484604
000090 4c 33 f1 be 81 6d 6c bf 65 6a a2 3e cb d8 bd 3e
       -0.4710945 -0.9235459 0.31721798 0.37079462
0000a0 a0 da 96 3e 53 bc 06 bf f1 28 60 3e 9a b3 9c 3d
       0.29463673 -0.5263111 0.21890618 0.07651444
0000b0 2a b3 0a be 45 80 95 3e 85 64 26 bf f0 97 88 bf
       -0.13544908 0.29199424 -0.6499713 -1.0671368
0000c0 b3 5f c6 bd 8e ae 8c 3e d7 1b 78 be 50 7a d8 3e
       -0.09686222 0.27476925 -0.2422937 0.42280817
0000d0 6e e2 17 bd bf 11 f0 be f8 60 eb bc 80 3b 2c bd
       -0.037081175 -0.4688854 -0.028732762 -0.04204893
0000e0 31 4d e5 bd d4 34 a2 bf ae 50 c1 bc 92 e0 2d 3e
       -0.11196364 -1.2672372 -0.023598041 0.16980198
0000f0 2e f1 68 bf a5 35 88 3e cf 4f ab be 3f 3a 9f 3e
       -0.9099301 0.26603428 -0.33459327 0.31099126
000100 78 6b 1e be 81 d8 cd bc 8c 6d fe 3e e8 b1 c0 3d
       -0.15470684 -0.025127651 0.49692953 0.09408933
000110 e7 da 32 3e 5f 15 08 3f 91 a1 cd bd ef 7c 93 3f
       0.17466317 0.5315761 -0.10040582 1.1522502
000120 ad 7f ff bc 5a 11 15 bd 27 f7 19 3f 5b b1 00 be
       -0.03118881 -0.0363935 0.6014275 -0.12567656
000130 55 4d 94 bd 1d c0 2b 3f 6c 63 b4 3e 5e ea 7e 3e
       -0.072413124 0.67090017 0.35232103 0.24894091
000140 43 00 12 bd 05 1d c6 3e 6a df d0 3e db 4a bb 3e
       -0.03564478 0.38694015 0.4079545 0.36580548
000150 64 81 ea 3d b0 5f 30 3f f2 8f 3c 3e 54 f5 37 be
       0.114504606 0.6889601 0.18414286 -0.17964679
000160 f9 2b ff 3c 8c 97 fc 3d 7b bb 1e 3c af 92 fc bd
       0.031148897 0.12333593 0.0096882535 -0.12332665
000170 6d 37 65 bf 6c 19 a6 3e 4c b7 be 3e c1 af 8e be
       -0.895377 0.3244127 0.3724922 -0.27868465
000180 3b 25 b0 3e 45 b0 f9 3d 17 be ae bd 59 c8 04 bd
       0.34403405 0.12191824 -0.085323505 -0.03241763
000190 ba 96 35 bf 74 9c 15 bf 3b c0 9b bd c0 21 b0 3e
       -0.70933115 -0.58441854 -0.076050244 0.3440075
0001a0 8e ae d2 3e 60 cb 99 3f f7 41 6b be 69 73 7a ba
       0.411488 1.201519 -0.22974382 -0.00095539406
0001b0 c3 9b 3a be 69 43 80 bf b4 80 c0 bd e9 5e 1e bf
       -0.18223481 -1.0020572 -0.09399548 -0.6186357
0001c0 a3 76 ce 3e 28 a7 89 be ba 38 83 be 20 68 93 3e
       0.40324888 -0.26885343 -0.25629216 0.2879038
0001d0 49 1e b2 bd e6 cc 3f bf 96 2d 47 bd 5b 8e cf 3c
       -0.08697183 -0.74922025 -0.04862746 0.025336435
0001e0 e5 76 32 3e 15 40 29 3d b6 4c 2d 3e b0 f5 5a 3c
       0.17428167 0.04132088 0.16923794 0.0133642405
0001f0 85 f5 55 3f aa ba 03 3f 55 11 45 bf e1 46 7a be
       0.8357776 0.514567 -0.7697957 -0.244411
000200 79 d6 92 3f d4 66 53 3e cd c2 3b 3f 6a bd 0a 3e
       1.1471702 0.20644695 0.7334412 0.13548818
000210 57 b9 43 3f a2 9c 8b 3f c4 87 a7 3e 6e c0 d1 3e
       0.7645468 1.0907176 0.32720768 0.40967125
000220 fe 7e 99 3e 3f 6c 5b 3f 56 b3 33 3f ef aa 8d 3e
       0.299797 0.85712045 0.7019552 0.27669474
000230 96 f6 95 bd ab bb 59 3f 8a a8 15 3f 01 da 63 3e
       -0.07322423 0.85051984 0.58460295 0.2225113
000240 43 a8 92 3f 29 60 49 3f cf 18 bf 3f 49 40 44 be
       1.1457599 0.78662354 1.4929446 -0.19165148
000250 18 49 d9 3e e7 bc b0 3f 8e 15 c9 3e f3 05 b9 3e
       0.4243858 1.3807648 0.39274257 0.3613735
000260 1a 4d b6 3f 36 32 5d 3d 9b 22 e9 bd d4 60 da bd
       1.424228 0.054002963 -0.113835536 -0.10663
000270 c7 5b 21 3f 0d a1 e7 bd 39 15 77 be 57 47 c2 3e
       0.63030666 -0.11310015 -0.2412919 0.37945053
000280 5b d4 93 3f 78 ca 36 bd ea a5 ac bd 19 4f 64 3f
       1.1549181 -0.044626683 -0.08430083 0.89183193
000290 e9 81 82 be 9e 89 f8 be 9f 82 fd 3e ef 24 a7 3d
       -0.2548974 -0.48542494 0.49513718 0.081613414
0002a0 e5 7f 57 bf bb cb 89 be d6 4e ba bd a3 34 9c bd
       -0.84179527 -0.26913247 -0.09097068 -0.07627227
0002b0 e0 42 ad 3d 30 2b 10 bf fc 4d 00 3e 8d 83 b6 3e
       0.08460021 -0.563159 0.12529749 0.3564724
0002c0 27 bd bd 3f e1 e5 ad 3d 1c da 27 bf e4 75 28 3f
       1.482335 0.084911115 -0.65567183 0.65804887
0002d0 09 ea 42 be 64 62 e1 3d 31 6d cb be 8b f9 a0 3d
       -0.1903459 0.11005095 -0.39731744 0.078600965
0002e0 aa 38 0e 3e fc 83 a8 be c2 78 be 3c 1f b0 da 3c
       0.13888803 -0.32913196 0.023250941 0.02669531
0002f0 e9 32 9c be 84 1e a6 3e b8 d8 07 bf 81 8f 83 bf
       -0.3050759 0.32445157 -0.5306506 -1.0278169
000300 9b 47 1f bf 31 05 99 bd d1 04 4c 3c 84 54 e3 be
       -0.62218636 -0.07471693 0.01245232 -0.44400418
000310 10 e9 ac be db c7 ef 3c 1e 7a 35 bd ce 2f 3e 3f
       -0.33771563 0.029270103 -0.044305913 0.74291694
000320 2b c7 a3 3e 81 33 d0 3e 8c 7e 87 be 11 db f6 3c
       0.3198789 0.40664294 -0.26463735 0.030133756
000330 b4 27 dc 3d 13 3c ee 3e c2 e3 1a be bd 1b 76 3f
       0.1074976 0.46530208 -0.15125945 0.96136075
000340 9c 79 9d bf e0 6a 08 3f 0e 85 02 be 38 7b 03 3f
       -1.2302737 0.5328808 -0.12746069 0.5135989
000350 f6 7b b4 bb f2 3f 81 bc d0 d5 94 3c c8 95 6b be
       -0.0055079414 -0.015777562 0.01816836 -0.23006356
000360 78 25 3e 3e 60 8d 7a 3f a6 36 06 bd 51 07 a5 3b
       0.1856898 0.9787197 -0.03276696 0.0050362726
000370 73 d7 68 be 82 e8 81 be da 5e a2 3e c2 67 26 3f
       -0.22738437 -0.25372702 0.3171299 0.6500207
000380 d8 08 19 c0 2a 83 21 3e 1c 3a 87 be 98 b5 34 bf
       -2.3911648 0.15772691 -0.2641152 -0.7058959
000390 8e 9c cb bd ac 72 21 bf 3d ce 7e bf dd 32 79 bf
       -0.0994197 -0.630656 -0.99533445 -0.97343236
0003a0 fa 28 c3 bd e7 0a 8c 3d 7d 17 0c bf 58 ec 28 be
       -0.095293 0.06838017 -0.5472334 -0.16496408
0003b0 6b a6 4e 3e 0c d3 18 bf 85 e1 d9 bd 76 34 62 bf
       0.20180671 -0.5969703 -0.106387176 -0.883613
0003c0 fc 1b 49 c0 c5 17 bc bf af 4b 7f bc a6 d0 8c bf
       -3.142333 -1.4694754 -0.015582009 -1.1001174
0003d0 d2 d6 77 be 06 89 47 bf a9 ca a0 3e 46 df a7 bc
       -0.24203041 -0.77943456 0.31404617 -0.020492207
0003e0 f6 c2 1b c0 88 12 08 bf 5f 39 ba 3d 7e 85 20 be
       -2.4337745 -0.53153276 0.09092974 -0.15675923
0003f0 18 72 b7 3e 5a fe 61 3d 08 50 0c 3f 80 c9 58 be
       0.35829234 0.05517421 0.5480962 -0.21170616

encoder.layers.0.self_attn.linears.0.bias f4 [32]
000000 22 27 e0 be 2f 80 3a 3e 90 7c 88 3d ff e6 28 3f
       -0.43779856 0.1821296 0.066643834 0.6597747
000010 bc 3b 90 3e c4 bd fe bc 03 25 a2 be db 2f d1 bd
       0.28170574 -0.031096347 -0.31668863 -0.10214206
000020 0b 61 a1 be 4a bd 08 be ed 21 06 bf 53 48 bf be
       -0.3151935 -0.13353458 -0.52395517 -0.37359866
000030 f5 6b 96 be c7 53 c9 bd bd 0f 4f 3e 5f 9a d9 3c
       -0.2937924 -0.098304324 0.20220847 0.026562868
000040 84 be 8e bd 6c bc eb 3e e7 06 f2 be 2b e7 6f be
       -0.06969932 0.46042192 -0.4727089 -0.23428027
000050 dc 14 48 be 54 eb 8c be bf cd 7e 3e a8 c4 78 3d
       -0.19539207 -0.2752329 0.24883173 0.06073442
000060 08 2d 0b 3e c2 f5 1f 3e 0c d5 b1 3e 14 1e ed bc
       0.13591397 0.15621093 0.34732854 -0.028945006
000070 ce 76 31 be 67 8c 02 bf 39 de 24 be ff 6c 5b be
       -0.17330477 -0.50995487 -0.16100396 -0.21428297

encoder.layers.0.self_attn.linears.1.weight f4 [32, 32]
000000 62 ab 2e bd f8 76 d9 bd 8e c7 b3 3e ba d2 63 be
       -0.042643912 -0.106183946 0.35113186 -0.22248355
000010 f2 42 d2 be cc e0 69 3e d8 24 a1 be 93 e7 82 be
       -0.410667 0.2283966 -0.31473422 -0.25567302
000020 51 e7 3d 3f 33 25 2b bf 88 04 f2 3e 94 ef d4 bd
       0.74181086 -0.66853637 0.47269082 -0.103972584
000030 59 e4 11 be 1b 34 47 3d 72 82 e8 be d8 ea 84 3e
       -0.14247264 0.048633676 -0.45412022 0.25960422
000040 f6 51 0f bf ab ac ba 3e f3 17 ef ba 18 1c 2d 3e
       -0.5598444 0.3645986 -0.001824139 0.16905248
000050 95 82 23 3e 57 67 cd 3e fe 01 28 be e6 04 09 bd
       0.15967782 0.40117905 -0.1640701 -0.033451937
000060 0d 3e cf 3e 4e 1a 25 bf b3 31 da bd 71 f4 c7 bd
       0.40477028 -0.6449326 -0.106540106 -0.097634204
000070 9a 98 2b be a7 1d 7b be 88 19 6b be 49 0d f6 3e
       -0.16757432 -0.2452303 -0.22958958 0.4805701
000080 a9 8d d3 be 39 24 9b 3e 15 9d 96 3d 67 99 90 bd
       -0.41319016 0.30301073 0.0735418 -0.07060509
000090 58 e9 d1 3e 6d 56 64 be 65 07 48 3e e1 bc 25 3d
       0.4099834 -0.22298594 0.19534071 0.040463332
0000a0 94 91 54 be a6 50 24 3e 1f 88 db be 51 d8 e7 3e
       -0.20758659 0.1604639 -0.4287729 0.45282224
0000b0 70 57 d3 3e 27 2e b7 bc 1b 6e 56 3f b5 f3 18 bd
       0.41277647 -0.022360874 0.8376176 -0.037341792
0000c0 54 df 87 3e 9e eb ca be f9 9b 68 3d 1b 36 08 bf
       0.26537573 -0.39632887 0.056789372 -0.5320756
0000d0 39 10 f3 3d 82 19 fc be 4c 38 04 3f 29 01 9e 3e
       0.118683286 -0.4923821 0.516484 0.3086026
0000e0 c1 1c ea be f0 3a 7b be e5 06 a4 3e 63 1e a7 3e
       -0.45725062 -0.24534202 0.3203651 0.3264037
0000f0 88 a6 a5 3e fe 1d 3c 3e e3 f1 50 be 9c 76 47 bd
       0.32353616 0.18370816 -0.20404772 -0.0486971
000100 b8 e6 30 3b a4 30 48 3d 60 ef 5f be 12 35 10 be
       0.0026992988 0.048874512 -0.21868658 -0.14082745
000110 cd 61 e9 be a8 2d f2 3e 2b 4c 76 3d 7f 26 20 be
       -0.4558243 0.47300458 0.060131233 -0.15639685
000120 01 c7 10 bf 54 cb ed 3e 23 f7 71 bc 51 79 81 3d
       -0.56553656 0.4644419 -0.014768395 0.063219674
000130 26 e5 e1 3c d1 cf de 3d fe ce cd bd 9d 61 4d bf
       0.027575087 0.108794816 -0.10049246 -0.8022707
000140 7c 23 23 3e 47 9f 24 3e bf 66 78 bc 3d 24 50 3e
       0.15931505 0.16076384 -0.015161215 0.20326324
000150 dc ec c4 be 49 9e 27 3f a4 f1 f6 3d ce 23 d5 3c
       -0.3846196 0.654759 0.12057808 0.02601805
000160 eb 9b e4 be 75 dd 53 3f 8e 1b 12 3e c6 cd 2d 3e
       -0.44650206 0.8275979 0.14268324 0.16973028
000170 81 13 8b be 25 77 b6 be fc a5 e3 3e 2e b7 46 bf
       -0.27163318 -0.35637775 0.44462574 -0.7762326
000180 14 62 43 be 28 a7 24 be b7 e0 67 be b7 47 1b 3f
       -0.19080383 -0.1607939 -0.22644316 0.60656303
000190 43 75 09 3f 40 e4 98 be e3 8a 85 bf c4 40 6c 3f
       0.5369455 -0.2986164 -1.043301 0.92286325
0001a0 6b 87 21 3c 17 28 8f 3e 0e 83 98 bd 2f f1 c4 be
       0.009858946 0.27960274 -0.07446872 -0.38465258
0001b0 ee e2 f3 be a5 34 ed be 75 ec 08 3f fe d0 ee bd
       -0.4763407 -0.46329227 0.53485805 -0.11660956
0001c0 47 c0 df 3d a5 eb f4 be 89 0b ac bd 81 fa 87 3e
       0.10925346 -0.47836033 -0.08400638 0.26558307
0001d0 ec 4a 77 bd a1 3f 3c bf 2b 60 69 be e4 dc 81 be
       -0.060374185 -0.7353459 -0.22790591 -0.2536384
0001e0 cb a6 49 be 02 21 a8 be 48 25 84 bd dc 14 bf be
       -0.19692533 -0.32837683 -0.06452423 -0.37320602
0001f0 be a2 09 3e 59 ca 56 3f f3 2e ad 3e 9b 2f 29 bf
       0.13440987 0.8390251 0.33824882 -0.66088265
000200 d5 4b 94 3f cd e0 a0 be ad 36 c5 be b9 68 de 3c
       1.1585642 -0.3142151 -0.38518277 0.027149545
000210 8b c6 7c 3d 31 9f ab be c3 51 95 bd 4f 69 08 3e
       0.061712783 -0.3351989 -0.072909854 0.13321422
000220 3a b3 69 3e 72 e4 be 3c 18 24 2c 3f 07 43 ee bd
       0.22822276 0.02330229 0.67242575 -0.11633878
000230 e8 fe 23 bf fc 0d 22 3f 9f 33 f4 be fb 2f 3a bf
       -0.6406083 0.6330259 -0.47695634 -0.7272946
000240 a2 36 81 3e 8e 44 1f 3e 66 4c 03 bf a0 81 81 3f
       0.25236994 0.15553495 -0.5128845 1.0117683
000250 c4 57 53 3e ad 98 cf bd ca 07 75 bd 91 3d 9e be
       0.20638949 -0.101365425 -0.05982188 -0.30906346
000260 a9 f5 fe 3e 70 f1 ee be 20 84 a8 be c6 fb 0c be
       0.497968 -0.46668577 -0.32913303 -0.13767919
000270 b4 fb ca 3e 1d 0a 55 3d db 4a cd be d8 d4 e2 bc
       0.3964516 0.052011598 -0.40096173 -0.027689382
000280 a4 e2 80 bf ed 3c 12 3f 6f d4 3c bd 3f b1 00 bf
       -1.0069165 0.57124215 -0.04610103 -0.50270456
000290 d0 74 24 3d a8 85 2e be 6c e7 be 3d c8 18 c6 bc
       0.040150464 -0.17043173 0.09321484 -0.024181738
0002a0 6a 59 3c 3f d5 85 29 be f0 a2 b2 be 96 e3 0f 3f
       0.73573935 -0.16554959 -0.34889936 0.56206644
0002b0 9f 72 0f 3e 8b 6e 31 3f 78 48 87 3e 3e 8c e0 3e
       0.14008568 0.693093 0.26422477 0.43856996
0002c0 48 aa d7 be 3d 7b 51 bf d9 06 e6 3e 8c 70 fb be
       -0.42122102 -0.8182867 0.449271 -0.49109304
0002d0 84 04 1c be 87 a9 b4 3e c0 b0 22 3f 91 a2 18 3f
       -0.15236098 0.3528559 0.6355095 0.59623057
0002e0 33 6a 29 bf ab 74 42 bc 14 ce 04 3f 12 bf ed 3e
       -0.6617767 -0.011868636 0.5187695 0.46434838
0002f0 8a d1 d4 be 88 ff c8 be 43 cb 09 3f ef a3 08 3e
       -0.41566116 -0.39257455 0.5382578 0.13343786
000300 5b d9 d8 bd 1e aa 98 3e 8d e8 2c 3f 17 e8 11 3f
       -0.10588332 0.2981729 0.67542344 0.56994766
000310 50 5a 95 3e 06 13 ea 3e dd 1a 00 bf 78 90 e7 3e
       0.29170465 0.4571764 -0.5004099 0.45227408
000320 7f c9 ef be a7 fa c5 3b c9 eb cd 3e db ff 4d 3e
       -0.46833417 0.006041843 0.40218952 0.20117132
000330 54 81 75 3f 11 99 69 3d c8 87 eb 3d 79 fe 39 3f
       0.95900464 0.05703074 0.115005076 0.7265392
000340 0d 63 3e bd 6c db 4c be 7c 11 db 3e 82 21 fd be
       -0.04648118 -0.20005578 0.42786777 -0.49439627
000350 63 22 88 be 13 4c a1 3d 40 1b 33 3e 40 5f eb 3d
       -0.26588735 0.07875838 0.17490864 0.11492777
000360 01 b3 9c be 42 68 25 3f f9 fd c3 3e 8e f7 d9 3e
       -0.3060532 0.6461221 0.38279703 0.42571682
000370 bc 44 39 be 91 7b 2b be 3a 86 18 3f 1b 21 11 be
       -0.18092626 -0.16746356 0.59579813 -0.14172785
000380 98 8c 6f bf c4 db f2 3e ab fa 1c 3f fb 9d 7f 3e
       -0.93573904 0.47433293 0.6131999 0.24962609
000390 25 68 32 be 85 e4 ee bd 49 f3 c5 3d bb 65 ba bd
       -0.1742254 -0.116646804 0.096655436 -0.09101435
0003a0 b9 74 b9 be c3 ed c7 3d 4b 9f 16 bf 98 1a 9b 3d
       -0.36221865 0.09762146 -0.5883681 0.07573432
0003b0 72 63 31 3f 58 2a 09 bf b1 f7 02 3f 71 d0 00 3f
       0.69292367 -0.53580236 0.511592 0.50318056
0003c0 35 e0 16 be 51 45 a9 be 4c 74 e0 3e a2 74 86 bf
       -0.14733966 -0.33060697 0.43838727 -1.0504344
0003d0 1b 75 a7 be c8 3f 63 be 2a fe d4 3d 75 28 e0 3e
       -0.32706532 -0.221923 0.104000404 0.43780866
0003e0 5e d2 8d be 04 2f 07 3f 22 e3 c5 3e 01 2f 1d 3e
       -0.2769956 0.52806115 0.3864985 0.15349962
0003f0 4f 29 cc bb bf 0f 40 3e ad 6e 17 3f d9 06 33 3e
       -0.0062305103 0.18756007 0.5915325 0.17483081

encoder.layers.0.self_attn.linears.1.bias f4 [32]
000000 fd 1f d7 be 00 8d 8c 3e 76 f3 f1 bc ca 48 7b 3e
       -0.42016593 0.27451324 -0.029535037 0.24539486
000010 80 96 a0 be e5 7d 6c 3e e3 1c 2b bd a7 bd aa 3e
       -0.31364822 0.230949 -0.041775595 0.33347818
000020 e9 fb 5a 3e 66 eb 3f 3e 71 b7 6e 3c 90 c4 2e 3e
       0.21385159 0.18742141 0.014570103 0.1706717
000030 89 0c 2a be eb 72 77 bd c3 9c 20 3e 68 77 7c be
       -0.16606344 -0.06041233 0.156848 -0.24654925
000040 31 5e 48 be 46 2e e1 3d 8a ab b4 bc 78 e0 31 bd
       -0.19567181 0.10995154 -0.022054452 -0.04342696
000050 91 19 13 bd 5b 06 8e be 16 7e d0 3e 3d fe 88 3e
       -0.035913054 -0.27739224 0.40721196 0.26756468
000060 88 87 5c be 83 e9 10 be f4 a7 03 bd 82 10 26 3e
       -0.21536076 -0.14151578 -0.032142594 0.16217235
000070 57 08 0e 3e c7 ca b5 3e 89 94 19 3e d2 2b a4 3e
       0.13870369 0.3550627 0.14998068 0.32064682

encoder.layers.0.self_attn.linears.2.weight f4 [32, 32]
000000 22 de 8c be a0 ea 05 3e c1 01 3c be 14 5a f1 3c
       -0.27513224 0.13077784 -0.18360044 0.029461898
000010 eb 7e 52 3c 08 78 37 3e c5 99 46 bc 87 a9 fa b9
       0.012847642 0.17916882 -0.012121622 -0.00047810024
000020 09 50 aa bd 9b f5 0a be b1 7c 56 be b4 17 5b 3d
       -0.08316047 -0.13570254 -0.20946003 0.053489402
000030 5b 28 24 be d6 71 4a 3e 22 92 91 3e e3 62 67 bd
       -0.1603102 0.19769987 0.28431803 -0.05649079
000040 49 52 21 be 96 56 8e 3e 8a 3e 77 bd 0e fb 55 bd
       -0.15754046 0.27800435 -0.060362376 -0.052241378
000050 28 51 d1 3e f8 96 13 3e 88 62 28 be 07 29 0f 3e
       0.4088223 0.14413059 -0.16443837 0.13980494
000060 98 9b 2d 3e 81 c7 b2 3e 50 0b 80 bd e4 d9 e1 bd
       0.16953886 0.34917834 -0.06252158 -0.110278875
000070 89 de ba be 0c 10 dd be 74 e1 02 3e 49 92 45 be
       -0.36497906 -0.43176305 0.12781316 -0.19294085
000080 46 57 1a be 27 c2 44 be c6 01 09 3d 54 c0 6c bd
       -0.15072355 -0.19214688 0.033448957 -0.057800606
000090 7b 60 bc 3d c3 e5 ba 3d 51 7e 51 3d 73 f7 5a be
       0.0919809 0.09125855 0.051145855 -0.21383457
0000a0 8f 9c 7f 3e 60 46 55 ba fc 49 08 3e ea 3b 14 bd
       0.24962066 -0.0008135792 0.13309473 -0.03618995
0000b0 14 06 c3 bd 09 90 bf bd 4c d4 32 be 93 5f d6 3d
       -0.09522644 -0.093536444 -0.17463797 0.10467448
0000c0 7c 5a 3f 3c ca 4e d6 bd c1 97 d4 3d bb 5b 23 3e
       0.011679288 -0.104642466 0.10380507 0.15952961
0000d0 d4 8f 4b 3e da 5a 13 3e bc 11 d4 3c 1f 7e 53 3c
       0.19879085 0.14390126 0.025887363 0.012908488
0000e0 bb 67 f7 bd 77 bc 18 bf 8c 93 4c bd 6f eb b5 bd
       -0.12080332 -0.59662575 -0.0499454 -0.08882796
0000f0 a5 a2 47 3e f6 a6 93 3e d2 9f 2a be 2d ca d7 bc
       0.19495638 0.2883832 -0.16662529 -0.026341522
000100 72 b0 16 be 3d 6a f0 bc 76 f8 c2 3d 0c 41 cf be
       -0.14715746 -0.029347533 0.095200464 -0.40479314
000110 2f 0e 5d 3e a6 81 6e bc 9f f7 cb 3d 75 8a 40 bd
       0.21587442 -0.014557278 0.09959339 -0.047007043
000120 e2 28 94 be 48 37 b2 3e ec 7c a0 3e 96 17 1a be
       -0.2893744 0.348078 0.31345308 -0.1504806
000130 46 52 01 be bf 98 61 bd 96 d9 05 3d 27 74 cf be
       -0.12629041 -0.05507731 0.03267821 -0.40518305
000140 5b 69 e3 3b ad e9 33 bd 47 0b 6c be 20 01 79 3e
       0.0069400496 -0.043924022 -0.23051177 0.24316835
000150 9c 3e 87 3e 95 74 72 3e f0 a3 b4 3c 2e f1 16 be
       0.26414955 0.23677285 0.022050828 -0.1474044
000160 17 3c 78 3d 4d 27 a9 3e ff 4f 3e bc aa af e1 3c
       0.06060418 0.33037797 -0.011615752 0.027549583
000170 c3 5e 7d be 42 85 b6 bd 3a 83 27 3c 9a a3 81 3c
       -0.2474318 -0.08912136 0.010224158 0.015825082
000180 ec 28 76 3d 3d d6 61 be 56 d4 8e bd cf 69 a3 be
       0.06009762 -0.22054382 -0.069740936 -0.31916663
000190 4f ee d2 3d 07 a4 37 bd 59 7b 1a 3e ea 8f b0 be
       0.1029936 -0.044834163 0.15086116 -0.34484798
0001a0 f8 11 50 3e 43 0d 17 3f c4 d8 c6 3c d8 ed db be
       0.20319355 0.5900461 0.024273284 -0.42954898
0001b0 64 47 78 be 8e 94 44 bc 45 0c 88 be 46 53 37 be
       -0.24245983 -0.011998309 -0.2657186 -0.1790286
0001c0 2c 1f 13 3e 38 39 c6 bd f4 79 71 3e 08 ef d0 3e
       0.1436736 -0.09678882 0.23581678 0.40807366
0001d0 03 ce d6 bc d6 a3 a1 3b e1 68 08 be 5f 3a f8 bd
       -0.02622128 0.004932861 -0.13321258 -0.121205084
0001e0 b0 1e f2 3d 35 41 ec 3c c8 6a 3d bd 56 da ba be
       0.118222594 0.028839687 -0.046244413 -0.36494702
0001f0 05 53 08 3f 9e 42 b3 3d e7 9a 6a bc ae 1d b3 3d
       0.5325168 0.087529406 -0.014319158 0.08745895
000200 6f c9 c6 be 4e da ec bd 0b b3 b7 bd 2c 4f f4 3d
       -0.38825557 -0.11565076 -0.089696966 0.11929163
000210 a5 3b 03 3f d0 0b 36 bf 04 17 b2 3c 4e 7d 10 be
       0.51262885 -0.71111774 0.02173949 -0.141103
000220 c6 99 86 3e e3 ad ab bd 01 bb e2 3d 33 66 f2 bd
       0.26289195 -0.08382776 0.110708244 -0.11835899
000230 b0 17 33 be f8 33 1a 3f 16 e2 cd bd 19 64 f8 bd
       -0.17489505 0.6023555 -0.10052888 -0.12128467
000240 98 57 c2 3e c1 bc b6 3e 13 3b f9 3d d3 36 f1 3e
       0.37957454 0.35690883 0.12169471 0.4711214
000250 55 b0 7d be f5 c0 95 be f6 ec 39 3f 54 ee 73 bc
       -0.24774297 -0.29248777 0.726272 -0.014888365
000260 1b e4 a3 be e2 05 98 3e 18 62 b8 bd 51 21 86 3b
       -0.32009968 0.29691988 -0.09003085 0.004093327
000270 88 5b 82 3e 7f c2 9b bc a3 e5 b1 3e 67 37 e2 3d
       0.25460458 -0.019013641 0.3474551 0.110457234
000280 f4 89 cb 3e e8 1a 84 3d 27 df 23 3e c8 75 00 bd
       0.39753687 0.064504445 0.16003095 -0.031362325
000290 89 d2 d6 be 96 65 30 3b 7b 6f 5d bc f1 97 47 be
       -0.419575 0.0026916019 -0.013515349 -0.19491555
0002a0 91 d1 e3 bd 88 7a 78 3e d4 19 02 3d 85 18 ff bc
       -0.11123956 0.24265492 0.031762913 -0.031139622
0002b0 9a 59 84 3e 94 cd 68 3c 88 40 09 3d 01 ab fe 3d
       0.2584961 0.01420917 0.033508807 0.1243496
0002c0 d8 14 6a 3e 41 5f 88 be 34 3f 2e be 7c 04 ec bd
       0.22859514 -0.26635173 -0.17016298 -0.11524293
0002d0 1f fd 30 be c0 f4 3d 3d 35 4b 23 bd b7 f2 04 3d
       -0.17284058 0.04637599 -0.039866645 0.032458033
0002e0 1b dc 94 3e bd 8f da 3a 2a dd 09 3e 4f 8a 90 3d
       0.29074177 0.0016674917 0.13463274 0.0705763
0002f0 1a 4a cb 3e 9a a3 09 bf 77 cd 92 bd 71 3c 5d 3d
       0.39704973 -0.5376526 -0.071680956 0.05401272
000300 67 1c 07 be 35 37 82 3c 71 a0 07 3d c6 b3 9b 3e
       -0.13194428 0.015895465 0.033111993 0.30410594
000310 4d 8d 9e be da 85 10 be e3 a0 78 3e b1 74 14 3f
       -0.3096718 -0.1411356 0.24280123 0.57990557
000320 60 84 55 3d ec 0b 9c bd 97 17 a6 bd c0 87 03 3e
       0.052128196 -0.076194614 -0.08109968 0.12844753
000330 84 9c f1 3e 2e 9b ed 3e ee fb 0f 3d 9e 6f b1 bd
       0.47189724 0.46407455 0.03515237 -0.086638674
000340 77 e8 ae be 56 3e 39 3e fa 25 c7 3c fa a1 c9 3b
       -0.34161732 0.18090186 0.0243101 0.0061533423
000350 29 6d 5c be 65 f2 5f 3e 20 36 0b bf 4c c9 a7 bd
       -0.21526016 0.2186981 -0.54379463 -0.08192691
000360 ae ac 56 be 41 3a aa be c7 3a cd 3b a4 a9 97 3d
       -0.2096431 -0.3324757 0.0062631103 0.07405403
000370 de 8a 6d 3d 26 c3 25 be d5 10 86 3d 75 28 a9 3e
       0.057993762 -0.16187724 0.06546179 0.3303868
000380 40 64 44 3e a1 5c 20 3e c6 2d 91 3e 19 9b a0 3c
       0.19178867 0.15660335 0.28355235 0.019605206
000390 b6 40 12 bf 9e a4 4e be eb 6f 90 bd 27 02 b9 3d
       -0.5712999 -0.20179984 -0.07052597 0.09033614
0003a0 3a 95 40 be ff be 0b 3e e1 8d 4e 3e e1 96 68 bd
       -0.18806925 0.13647078 0.2017131 -0.056784514
0003b0 65 e5 d3 3e 01 f1 05 3e 59 5b 71 3d 31 69 91 be
       0.41385952 0.13080217 0.058925007 -0.28400567
0003c0 5b 0e a4 3d 9b 7e 96 be d9 33 05 bd 91 eb 9d be
       0.080105506 -0.29393467 -0.03252015 -0.30843785
0003d0 65 17 92 be 34 51 5e bd 4a 56 e2 3e ca b4 01 be
       -0.28533474 -0.05427666 0.44206458 -0.12666622
0003e0 7d cc 02 3f 18 93 91 be c6 6a 83 3e 02 33 5f 3e
       0.51093274 -0.28432536 0.256674 0.21796802
0003f0 2f bb 9e 3e b8 0c 11 3e c2 7c 9b be 2a f5 8e 3e
       0.31002185 0.14165008 -0.3036862 0.2792142

encoder.layers.0.self_attn.linears.2.bias f4 [32]
000000 fe b2 38 bd ad 27 87 bb 1a 63 24 be 15 2d 94 3d
       -0.045092575 -0.004124603 -0.16053429 0.07235161
000010 50 01 91 be 67 92 29 3d 8f 02 d9 bd 95 c0 c0 3d
       -0.28321314 0.041399386 -0.10596191 0.09411732
000020 26 5b eb 3d 2f 89 05 3d 71 5d 23 3b cf 67 cf 3d
       0.114919946 0.03260153 0.0024927522 0.10127222
000030 91 d1 9b 3d ae 29 b1 bd e0 e7 89 bd e6 2a 12 3d
       0.07608331 -0.08650528 -0.0673368 0.035685442
000040 01 2c 67 3d 04 ef 86 3d 45 c7 09 3e 42 e4 2b bd
       0.05643845 0.06588557 0.13454922 -0.04196573
000050 60 02 06 be 3d ae d6 bd 68 61 13 3d 68 1b 1e be
       -0.13086843 -0.10482452 0.035981566 -0.15440142
000060 60 ab 0b 3c bc 45 de 3d e1 1f b8 3d a9 a0 54 3d
       0.008524746 0.108531445 0.089904554 0.05191103
000070 47 d3 56 3b 60 5c 90 bd 57 dd 6b 3d 02 75 11 3d
       0.003277974 -0.07048869 0.057584133 0.035511978

encoder.layers.0.self_attn.linears.3.weight f4 [32, 32]
000000 d7 26 6e bd 8b 20 af bd 0c 03 35 be ea 88 08 3e
       -0.05814251 -0.08551129 -0.17676944 0.13333479
000010 fc 15 d7 be 58 c7 ce bc ad d8 cd 3c 41 b7 37 3e
       -0.4200896 -0.025241539 0.025127733 0.17941
000020 b9 28 e2 3e 3f c7 78 be ce 03 11 3e 22 bd ee 3e
       0.44171694 -0.24294756 0.14161608 0.46628672
000030 77 19 47 3e 88 a4 a7 3d 8a 82 2a be b6 16 0c bd
       0.19443308 0.08185679 -0.16651359 -0.034201346
000040 42 19 57 3e 2a eb 91 bd 9a 43 be bd 3a b9 32 be
       0.21005729 -0.07124932 -0.09290238 -0.17453471
000050 75 25 17 bd 57 2b 86 3e 23 97 c1 3a 78 88 d9 3c
       -0.036900956 0.2620494 0.0014769774 0.026554331
000060 9d 7f 20 3e 3a 25 99 3c 67 a5 00 be 6b 9c 65 bd
       0.1567368 0.018694509 -0.12563096 -0.056057375
000070 e9 d5 4c bd 15 94 09 bd ad 8b 87 3e be 71 19 3c
       -0.050008688 -0.033588488 0.26473752 0.009365497
000080 12 62 e8 bd 68 c9 fa 3d d9 47 bc 3c 37 ae 92 3e
       -0.113468304 0.122454464 0.022983478 0.2864854
000090 a9 db eb 3e 06 89 75 be 4f ee 1a 3e 55 34 83 bd
       0.46066025 -0.23978052 0.1512997 -0.06406466
0000a0 15 95 51 be 31 2b 4a 3e e1 76 3a 3e 9f bf ea 3d
       -0.20467027 0.19743039 0.18209411 0.1146233
0000b0 3f 99 37 3e 67 5e 20 3d a2 81 98 be aa 09 65 be
       0.17929552 0.03915253 -0.29786402 -0.22366968
0000c0 cb 9a ab 3d 2b 12 f0 bc 99 ef d0 bd 68 38 96 be
       0.08379134 -0.029305538 -0.102019496 -0.2933991
0000d0 ee 91 bf bd fe 72 3d 3e 8d a8 49 3e c7 e9 98 bd
       -0.09354006 0.18500897 0.19693203 -0.074664645
0000e0 9d d6 55 3d 02 a4 93 be 9b 29 af bd 65 02 04 3f
       0.052206624 -0.28836066 -0.085528575 0.51566154
0000f0 ef bd 75 be 49 11 75 3d ff 94 2a 3e 69 e6 22 3e
       -0.23998235 0.059830938 0.166584 0.15908207
000100 26 c4 8f bd b8 1b 36 3d 1a bb 43 bd f3 87 01 be
       -0.07019834 0.04446003 -0.047785856 -0.12649517
000110 1c ef bd be 84 16 e0 3e dd c1 25 bb 0f f5 02 be
       -0.37096488 0.43767178 -0.0025292553 -0.12788795
000120 a3 f8 a9 bd db ba 91 bd 72 e4 8a be 34 c1 32 bd
       -0.08299377 -0.07115718 -0.27127415 -0.043641284
000130 d3 7d c0 be ad de f8 3d c0 08 18 3f 06 31 23 be
       -0.37595996 0.12151847 0.5938835 -0.1593667
000140 85 31 b3 3e 6c 80 e0 3d e1 b0 53 3c 42 4e 2b bf
       0.34998718 0.109619945 0.012920589 -0.66916287
000150 d8 3c 98 bd 35 8e f1 3d 92 ff 50 be d7 04 0b bd
       -0.0743348 0.11794702 -0.20409992 -0.033940163
000160 b0 a8 30 be 70 7d fe bd b2 05 6b 3e ce aa 7c be
       -0.17251849 -0.12426269 0.22951391 -0.24674532
000170 7a f1 03 be 01 f2 a4 3e 76 98 80 bd 14 fc da 3d
       -0.12885085 0.32215884 -0.062790796 0.10692611
000180 2e 92 ee bd 31 71 38 3c 6d 3b a8 be ae 6b 88 bb
       -0.11648975 0.011257456 -0.32857838 -0.004163227
000190 d4 ac 92 3e d8 59 ab bc 40 af 14 bf e9 b8 b5 3d
       0.28647482 -0.020916864 -0.5807991 0.088731594
0001a0 d8 52 85 3d 2f 3f 3a 3e 7c 18 c2 bd af b0 22 be
       0.06509942 0.18188165 -0.09477326 -0.15887712
0001b0 c0 36 20 be f1 93 96 3d f3 00 cc be e8 ea e6 bd
       -0.15645885 0.07352436 -0.39844474 -0.112752736
0001c0 9d 7e cd bd 46 af 43 be 31 ec 79 bd f5 fc db be
       -0.10033915 -0.1910983 -0.061016265 -0.42966428
0001d0 40 0a 26 3e 9b 74 10 3e aa 83 57 3e dd 71 5b bd
       0.16214848 0.14106981 0.2104632 -0.053575385
0001e0 fe 6d 8b 3a 90 fc ce bd cd 8b 1b be 6c 5c 89 3d
       0.0010637639 -0.10106766 -0.15190049 0.06707081
0001f0 04 70 89 bd 2d 93 00 bd d8 28 87 3d 34 24 3b be
       -0.067108184 -0.031390358 0.06599587 -0.18275529
000200 cf 1f a5 3d 9e 0e 4f bc 57 e4 8b 3e 4f 39 4b bc
       0.08062708 -0.012637762 0.27322647 -0.0124038
000210 12 06 ab 3e 62 aa 5b be 18 91 dd be 66 3e 07 3b
       0.3340307 -0.21451715 -0.4327476 0.0020636558
000220 c0 b7 47 3d 3e 0f 10 3e eb 95 b0 bd d8 12 17 be
       0.048759222 0.14068314 -0.086223446 -0.14753282
000230 5e 4e 4a be 1a e5 a9 3d b2 4a 14 be 68 b0 b1 ba
       -0.19756457 0.08295651 -0.14481619 -0.0013556601
000240 e9 8b 4b bd 07 f5 9c bd 4b 0b b0 be b2 f6 b1 be
       -0.049693976 -0.07663923 -0.34383616 -0.34758526
000250 8f 4a cc 3d 05 fc 85 bd 19 e2 af 3d 28 92 10 3e
       0.099751584 -0.065422095 0.085880466 0.14118254
000260 e7 3e 01 3d 6d 0b 39 3d 7c 0f 8c bd 0c a2 ec 3c
       0.03155413 0.045176912 -0.06838891 0.028885864
000270 b0 a2 0b 3e 59 d0 24 3e d0 7e 21 be d4 3d a3 bd
       0.13636279 0.16095103 -0.15771031 -0.07970777
000280 7e 22 5e 3e 25 19 20 3d c3 a3 2c 3d 16 e6 ca bc
       0.21692845 0.03908648 0.042148363 -0.024767917
000290 3c 36 3e 3e 83 5e 34 3e f1 f4 fc bc f8 39 82 bd
       0.18575376 0.17614178 -0.030878516 -0.06358713
0002a0 a0 57 60 3d bb a7 71 be c9 0e 67 3d ab b8 59 bb
       0.054771066 -0.2359914 0.056410585 -0.0033221643
0002b0 17 d7 ca 3c 10 e6 aa 3d 28 09 07 3e a8 ae 90 3e
       0.024760766 0.08344662 0.13187087 0.28258252
0002c0 cf dc 87 3c 10 c2 09 bd b5 de 14 3e 9d 28 5e 3e
       0.016584782 -0.033632338 0.14538081 0.2169518
0002d0 86 f6 b9 39 9b c0 36 3e 8c c2 fc bd b0 94 ee bc
       0.00035469624 0.1784691 -0.12341794 -0.029123634
0002e0 3c 1c 5b be 7c 1e f8 bd 1c 4e 70 3d 43 29 48 bd
       -0.2139749 -0.121151894 0.05866824 -0.048867475
0002f0 e7 21 4f 3e b6 23 44 be 44 0b 9b 3d 14 e6 96 bd
       0.20227776 -0.19154248 0.07570508 -0.07368103
000300 d7 cf c9 be 24 c3 87 be ad a8 2d 3e ca f1 a0 3e
       -0.39416382 -0.26516068 0.16958876 0.3143447
000310 93 58 91 3d bc b0 2b be 65 33 bc 3c 87 8a f3 3d
       0.07096972 -0.16766638 0.022973726 0.11891656
000320 80 ca 8b be b3 04 2a 3e a4 83 e1 bc 35 2e bd 3d
       -0.27302933 0.16603355 -0.027528591 0.09237329
000330 13 ca 8e bd 3b 58 2d bd 31 9d 06 3f 39 13 44 3e
       -0.06972136 -0.04232047 0.52583605 0.19147958
000340 2e e8 bf 3b da d8 3e 3e f0 b2 02 3e db 6f c9 be
       0.0058565354 0.1863741 0.12763572 -0.3934315
000350 ff 25 89 3d 70 1d e3 3e e1 1d 20 3e c8 97 8d 3e
       0.066967 0.44358397 0.15636398 0.27654862
000360 78 e4 3e bb e0 f7 05 bd 2e 81 51 3e ee e2 9a 3e
       -0.0029127877 -0.032707095 0.20459434 0.3025126
000370 b1 40 e7 bd 07 24 bd bc 83 de 90 be ef 43 c8 bd
       -0.11291636 -0.023088468 -0.28294763 -0.09778582
000380 20 df ca bd 81 6a 0b 3e 81 2c b5 3c dd 09 5f 3e
       -0.09905839 0.13614847 0.022115948 0.21781106
000390 3b 3f 96 bb e9 45 8f bd 90 44 8f bd 52 6f a0 be
       -0.0045851744 -0.06995756 -0.06995499 -0.3133493
0003a0 52 ab f7 bd f2 bc b2 3d 81 ef 91 3d 97 1c 90 be
       -0.12093224 0.08727445 0.0712576 -0.28146812
0003b0 19 b4 01 3e ea a3 e5 bc eb 53 7d be ff a5 9d bd
       0.12666358 -0.028032262 -0.24739043 -0.07697677
0003c0 26 29 81 be b4 a8 cc bc b5 a7 3f 3e 19 bf b8 b9
       -0.25226706 -0.024982788 0.18716319 -0.00035237594
0003d0 82 dc 7b 3e 84 0f 2a be 6f 5e 4b 3d 56 93 71 3e
       0.24595836 -0.16607481 0.049650606 0.2359136
0003e0 94 20 27 3e dc 81 7d 3d b1 9a 17 3e 67 23 ca 3d
       0.16321021 0.06189142 0.14805104 0.09870034
0003f0 fc 64 5b 3e bc 40 18 3e 48 e3 3f bd 86 c1 19 be
       0.21425241 0.14868444 -0.04684761 -0.1501523

encoder.layers.0.self_attn.linears.3.bias f4 [32]
000000 cf 9f 61 bd ac 1d 8d 3c 47 af 44 3e 03 4c 36 3e
       -0.055084046 0.017226063 0.19207488 0.17802434
000010 09 35 08 be 59 68 c4 3d 4a cb 65 bc 17 94 3a 3d
       -0.13301481 0.09590215 -0.014025519 0.045551386
000020 92 1a 83 3d 12 ea d9 bc 10 ef 05 3e 2d 72 63 3e
       0.06401552 -0.026600871 0.13079476 0.22211523
000030 3c e0 fe bd 30 e4 70 bd a5 ef cb 3d cf 31 e0 bd
       -0.12445113 -0.058811367 0.09957818 -0.10947
000040 3f 4f 86 bc db af 4d bd 97 58 69 ba e2 87 63 bd
       -0.01639521 -0.050216537 -0.00089014455 -0.05554951
000050 77 cc 28 be 9b d1 b6 bd 07 ae 20 be b8 3f 9e 3d
       -0.16484247 -0.08926698 -0.15691386 0.07726997
000060 31 3e c6 3d 63 18 84 be d7 ad 0f 3e bf d6 28 3c
       0.09679831 -0.25799856 0.14031158 0.010305106
000070 40 53 13 bd 12 cb 6f bd 2e ae 9c be 6f da d6 3d
       -0.035968065 -0.058543272 -0.3060164 0.10490882

encoder.layers.0.feed_forward.w_1.weight f4 [128, 32]
000000 3e 95 a7 3e e9 fb d0 3d a1 60 68 3e 6b 1d 11 bf
       0.3273105 0.10204298 0.22693111 -0.56685513
000010 21 ee a9 be e8 1e 15 3d 22 fe 64 3e 27 ac 83 bd
       -0.3318949 0.036406428 0.22362569 -0.0642932
000020 9b 6d 4f 3e 8e 3c 87 3e 2b 7a c2 be d6 b2 25 3b
       0.20256655 0.26413387 -0.37983832 0.0025283596
000030 e6 a0 00 3f a3 de 7d bc d9 22 55 3e d2 ff bb bd
       0.5024551 -0.015494975 0.20814075 -0.09179653
000040 5f bb 93 3e a6 22 32 3e ec f9 b9 be 14 e7 6b bd
       0.2885389 0.1739603 -0.36323488 -0.05759342
000050 73 80 3f 3e 26 3f 37 be 6f 11 7f bd f6 44 1c be
       0.18701343 -0.17895183 -0.062272485 -0.15260682
000060 86 ce c8 3e bc fa 77 be 88 fe a5 bd 92 7b d7 3d
       0.39220065 -0.24216741 -0.081051886 0.10521616
000070 31 d7 07 3f c3 9a 90 be b9 d0 8b be 2d 02 a3 3e
       0.5306273 -0.28243074 -0.2730768 0.31837597
000080 e8 87 ea bd a4 10 39 3c d6 78 38 3e b6 5f b2 3e
       -0.11451703 0.011295471 0.18014845 0.34838647
000090 b0 53 db be 78 8d 26 bd 99 36 45 3d db 8c 27 be
       -0.42837286 -0.04066226 0.04814777 -0.16362326
0000a0 c4 d8 1d 3e a4 88 db 3d 0d 10 d8 bd 84 73 30 3f
       0.15414721 0.107194215 -0.105499364 0.6892626
0000b0 b5 d9 58 be ab d3 a7 bc b4 c9 e1 3d b7 1c 10 3e
       -0.21176799 -0.020486673 0.110248 0.14073454
0000c0 33 fc 3c 3e 65 33 83 be f9 e5 41 3e 5c 19 6f be
       0.18455581 -0.25625148 0.18935384 -0.23349518
0000d0 dc 37 96 3d 9d 0a 7e 3e 93 ac 76 be e8 1b ae 3e
       0.07334873 0.24808736 -0.2408927 0.34005666
0000e0 68 00 69 bb 7a 0d f8 bd 25 49 54 3e b9 db c3 3e
       -0.003555322 -0.121119455 0.20731027 0.38253573
0000f0 e4 f9 58 bd ab f1 00 3f 34 44 57 be bb 54 61 bd
       -0.05297269 0.50368756 -0.21022111 -0.055012446
000100 ea de ae bd bc 2b f2 be 2b a3 b7 3d d3 81 00 3f
       -0.08538611 -0.47298992 0.08966669 0.50198096
000110 f1 eb 63 be fa 5a 37 3e be e5 ce be 1d 55 ce 3e
       -0.22257973 0.17905799 -0.40409654 0.4029931
000120 44 12 ef 3e d9 17 f3 bd b7 87 19 3e 02 68 37 be
       0.46693623 -0.11869783 0.14993177 -0.1791077
000130 1a ea 47 be cd ad 51 3d 1d 69 f0 3d 6d c0 b0 3e
       -0.19522896 0.05119114 0.11738799 0.3452181
000140 f3 e3 33 3d fb b6 bc bc 67 e0 26 3e a6 76 70 bf
       0.04391856 -0.02303647 0.1629654 -0.93931043
000150 c6 f2 1e bf 98 d2 66 3d 7c 86 cd be f4 9a 01 3f
       -0.6208919 0.05635318 -0.40141666 0.50627065
000160 23 13 9d 3d b6 c0 4b be 15 8b 02 3f ed b6 99 3e
       0.07669666 -0.19897732 0.5099347 0.30022374
000170 1c ad e7 3e 5c 2a d7 bd 4f 84 43 bd 95 9e bd be
       0.4524926 -0.10506126 -0.0477336 -0.3703505
000180 d7 d5 d8 3e e4 89 37 3e d8 7b 0e 3d d5 38 78 bf
       0.42350647 0.17923695 0.034786075 -0.9696172
000190 54 c2 a9 bd 62 e0 23 3e 67 9a af bd 26 b6 6b bd
       -0.08289018 0.16003564 -0.08574372 -0.057546757
0001a0 c2 7c 0f bf b5 f4 f7 3e 62 6e a5 3d 48 68 a9 bd
       -0.5604974 0.48428884 0.080776945 -0.08271843
0001b0 d7 02 57 3e 85 07 1c 3e 20 34 cd be 3a 5b f6 3c
       0.20997177 0.15237243 -0.4007883 0.030072797
0001c0 08 80 4b bd bf 13 33 3e 09 28 f2 bd 14 b6 4c bd
       -0.049682647 0.17488001 -0.11824042 -0.04997833
0001d0 bc ef 12 3e 8f f7 a4 3e 76 38 70 3e dd 82 3c be
       0.14349264 0.32220122 0.23459038 -0.18409295
0001e0 90 d9 48 bd f2 2f 86 bd 98 43 b2 3d b3 01 5b 3e
       -0.04903561 -0.065521136 0.08704299 0.21387367
0001f0 d7 53 1f be f3 51 c3 be b8 1e ac 3e 7b 0f 72 be
       -0.15559326 -0.3814846 0.33617187 -0.23638718
000200 02 2b 38 3e f2 62 8d 3e 7e 13 01 be 2f 83 c9 3d
       0.17985156 0.27614552 -0.12605092 0.098394744
000210 ce b5 bb 3e 6a de a1 bd f3 c4 0e bf f2 e3 77 3e
       0.36662143 -0.0790375 -0.5576927 0.24208048
000220 bb 10 cf be ad 1e ce 3d c7 7d fb bd c6 6c b1 be
       -0.40442452 0.10064445 -0.122798495 -0.346533
000230 be 40 c9 3e 54 66 86 be c4 8f 05 3d 12 02 fc 3d
       0.39307207 -0.26249945 0.03260781 0.123050824
000240 49 80 a5 3d ef 96 ac 3d c9 5b 26 3e 9e 3f 7f 3e
       0.08081109 0.08427226 0.16245951 0.24926612
000250 05 14 09 3d 2a 5a 3f 3e c2 da f4 3e 26 24 09 bd
       0.033466358 0.18686739 0.4782315 -0.03348174
000260 53 00 d8 be 1e e4 8a 3e 85 f1 05 bd c0 c0 e9 3d
       -0.42187747 0.27127165 -0.032701034 0.11413717
000270 1b b4 64 3c bb 60 17 3f 36 23 a1 3e 1b 7d a6 3c
       0.013958956 0.59131974 0.31472176 0.020323327
000280 91 79 75 3e 92 2a 82 3e d6 77 2a 3c 4b 1a b7 be
       0.23972155 0.25423104 0.010404548 -0.35762247
000290 5e a8 86 bf 12 3a d3 3e df 4a 67 be eb 2e b1 be
       -1.0520132 0.41255242 -0.22587155 -0.34606108
0002a0 b6 12 e1 3e ec 0d d9 3e fe fd 3d bf bd 46 8a bd
       0.43959588 0.42393434 -0.74215686 -0.067517735
0002b0 06 cc 4f 3d a1 d8 d0 be db f6 c0 3d b4 ff a6 bd
       0.05073168 -0.40790275 0.09422084 -0.0815424
0002c0 d7 00 57 3c 6e 8f c1 bd 47 34 2b bf 1f f3 23 3c
       0.013122759 -0.09451185 -0.66876644 0.010006695
0002d0 46 c7 59 3e 52 39 56 be df 77 67 bd c8 7e 55 3e
       0.21267423 -0.20920303 -0.056510802 0.20849144
0002e0 ef 5d d5 3e a2 a0 28 bd 64 49 38 bb 49 aa 6f 3d
       0.41673228 -0.041168816 -0.0028119916 0.058512006
0002f0 f7 ba 89 3e 6b cd f4 be 99 c6 1f be 76 51 cb 3d
       0.26900455 -0.4781297 -0.15603103 0.09927647
000300 b9 45 48 be 4c 88 c7 bd 49 0e cb bd cd 5c 7b 3e
       -0.19557847 -0.097427934 -0.09914834 0.2454712
000310 c1 14 ff bd cf 17 10 be e6 9c de bd d5 50 43 3f
       -0.1245513 -0.14071582 -0.1086977 0.76295215
000320 5e 6b 0a 3f 4a 97 b7 be f0 3c 41 bd 1f 83 19 be
       0.5407008 -0.35857612 -0.047177255 -0.14991425
000330 2e 54 3b 3e c0 86 90 3d d7 bf ae 3d 46 93 1d 3e
       0.18293831 0.070569515 0.08532684 0.15388212
000340 68 c2 8a 3e 4a 36 a8 3d 7f 2f 67 be d0 01 c3 3d
       0.27101445 0.0821348 -0.22576712 0.0952183
000350 dd 15 1b bf d7 67 74 bf d2 c3 c0 3d ac 22 a6 3d
       -0.60580236 -0.9547095 0.0941235 0.08112082
000360 b9 64 6f be 1e 7a d0 3d 37 fc 49 3e 31 bf 80 3e
       -0.23378266 0.10179542 0.19725119 0.25145867
000370 93 e5 3f 3f cc 7d 97 3e 4e 92 50 3e e9 57 ef 3d
       0.7495968 0.29588163 0.20368311 0.116866894
000380 c6 66 48 3e c3 e6 02 3e d3 65 06 3e 8c 3b 96 be
       0.19570455 0.12783341 0.1312478 -0.29342306
000390 7b 2a b2 be f2 6b 9a 3d 59 07 02 3f 4c cb 91 3e
       -0.34798035 0.0754012 0.5079246 0.28475416
0003a0 2b 0f ee bc 70 67 5e be e3 71 a0 be ef bf 08 3e
       -0.029059967 -0.21719146 -0.3133689 0.13354467
0003b0 10 0c 7b 3e 84 d8 b0 bd 25 0f a7 bc 62 a5 56 be
       0.2451632 -0.08635047 -0.020392964 -0.20961526
0003c0 bb dd 89 be ab 72 f0 3d 29 16 a0 be f1 9c 96 3e
       -0.2692698 0.11740621 -0.31266907 0.29416612
0003d0 fc 93 fe 3d fb 9c 17 3d 20 e9 c7 bd 2f 0f 05 3d
       0.124305695 0.037014943 -0.09761262 0.032485183
0003e0 fb 70 97 3d 90 43 7d be 3f a8 c2 3d 7f 73 40 3e
       0.07394596 -0.24732804 0.09504747 0.18794058
0003f0 3f 2d 2c 3f d7 b2 d7 be b7 92 b9 be 06 7b fb 3e
       0.6725654 -0.4212863 -0.36244747 0.49117297
