index_advisor_selector/index_benefit_estimation/index_cost_lib/exp_res/exp_lib_job_tgt_ep500_bat1024/model/lib_LIB_500.pt (torch, 413135 bytes, 120 tensors)

S f4 [1, 1, 32]
-0.026540242 0.06091597 -0.01652051 0.106915854 -0.093387246 -0.113234036 0.10455712 -0.06571051
-0.088295884 -0.114081 0.077380724 0.012478153 -0.117051855 0.0040233326 -0.020476982 -0.2696285
-0.071412764 -0.06786664 -0.016785236 0.020999148 -0.01378228 0.046133913 0.10601526 -0.10700528
0.004911741 0.004445409 0.036470957 0.04738427 0.072191864 -0.092048295 -0.0112326685 0.002614344
00000000: ec6a d9bc 0683 793d 0556 87bc b3f6 da3d
00000010: d041 bfbd 3fe7 e7bd 0b22 d63d 3b93 86bd
00000020: 79d4 b4bd 4da3 e9bd c979 9e3d 2b71 4c3c
00000030: e2b8 efbd 29d6 833b 58bf a7bc bf0c 8abe
00000040: db40 92bd aafd 8abd 3181 89bc 6806 ac3c
00000050: 12cf 61bc eaf6 3c3d 871e d93d 9625 dbbd
00000060: abf2 a03b cbaa 913b 9262 153d 0216 423d
00000070: 54d9 933d d183 bcbd 3a09 38bc 6a55 2b3b

linear1.weight f4 [32, 12]
-0.18266742 0.031579804 0.21596788 0.22809243 1.6749561 -1.0992985 -0.50223887 -0.5073631
0.18581294 0.93605155 0.12702695 -0.44211653 -0.07434721 -0.2027727 -0.18187414 -0.52271384
-0.25787488 0.084309876 0.13617094 -0.12734087 -0.04746048 -0.22054867 -0.34824166 0.35960412
-0.56836206 -0.37721562 -0.21947396 0.53807473 3.558874 -0.3722738 -0.18668222 0.8557737
-0.74839365 -0.6528359 0.46839345 0.55396104 -0.43739054 0.9530859 -0.225736 -0.17546882
-3.684791 -0.5420025 0.51238054 -1.0677189 -0.5401253 -0.30817896 0.2281241 0.17592557
0.023673102 0.06040992 0.18432073 0.383587 4.2194266 -0.2887529 0.5717964 -0.30242425
-2.8819184 -1.2376488 -0.28332993 0.20405927 -1.0224807 0.4396983 1.3358696 0.7714606
5.21175 -0.024785893 0.19026943 0.2719591 0.44279602 -0.78888714 -0.59695107 0.8031726
0.8167794 -0.21355905 0.18582544 -0.22733715 2.792381 -0.31218737 1.3031023 -0.4625953
0.119456306 -0.39706582 -0.14183268 -0.54365736 -1.4542228 0.42837465 0.7900741 0.4357505
-5.290888 0.27470905 -0.25591445 1.0719777 0.6815512 0.22773309 0.18501332 0.06579761
0.97966254 -0.27662024 0.123109534 0.0665462 -4.6896987 -0.13502944 -0.10593579 0.62600064
-0.7146512 1.1824186 -0.11514088 -0.087758966 -0.15995774 0.19993389 0.07468511 0.072074115
-0.026081592 0.6887381 -0.038060624 -1.525545 0.3573038 0.48066932 -0.52009034 0.5524472
-0.6887703 -0.5554629 0.03058809 0.27399874 4.6578455 -0.74641496 -0.65559405 -0.34007448
-0.28838366 -0.85584825 -0.27382016 -0.105404034 0.12305274 0.096289106 0.9823137 -0.31339082
0.41377366 0.038146388 0.1600318 0.035384648 0.5683401 -0.16968593 -0.16364893 -0.45379356
0.13487329 0.32055262 -0.8124483 -0.5394434 -0.19513945 -0.07297515 -0.016001252 -1.0885936
0.36471966 0.14424805 0.31297117 0.28473717 -0.15212455 -0.11165861 -0.32472807 0.13545954
3.5673287 -1.284257 -0.6422433 1.7978901 0.5010966 -1.1921854 -0.60757494 -0.05982474
-1.1689987 0.38032934 0.15242277 0.41825297 -4.7795815 0.8189726 1.0629333 0.12103329
0.53363866 -0.25388113 -0.102022134 0.21266586 -0.40176806 0.62301475 0.39793462 -0.2838754
0.28579345 0.39379135 0.17787026 0.32111603 0.8799158 0.34123132 0.07202381 0.6781626
-0.874022 0.15693745 -0.8928893 0.47497216 2.0220094 -0.9344524 0.50667346 0.027012385
-0.10985872 -0.5904757 -0.27226973 -0.5364484 -1.0672224 0.20425588 -0.58454937 0.6268682
5.6778564 -0.86523306 0.2978577 0.38706985 0.73824155 -1.0400575 -0.66706717 -0.30247056
0.10860149 0.53118587 -0.2892547 -0.49046212 3.0769534 -0.49145892 0.11082671 0.90758204
-1.5817099 0.5179824 -0.73359656 0.33564958 -1.3710599 -0.36214215 -0.23579413 0.28826293
4.567399 0.2083924 -2.2063346 -0.5418995 -1.0947981 -1.0367981 0.06942479 -0.38758138
-0.30365136 0.5063546 -1.3553404 -0.17799293 4.7150626 0.32009858 -0.1857117 0.00869755
-0.15989578 -1.7236274 0.085297614 -0.4832319 -0.8888401 -0.47106186 0.11094964 -0.50380576
00000000: 2b0d 3bbe d359 013d af26 5d3e 1091 693e
00000010: f664 d63f d0b5 8cbf ba92 00bf 8ce2 01bf
00000020: bf45 3e3e 13a1 6f3f 5a13 023e 195d e2be
00000030: 5a43 98bd a6a3 4fbe 373d 3abe 93d0 05bf
00000040: 2d08 84be a8aa ac3d 6570 0b3e a565 02be
00000050: ec65 42bd 83d7 61be bb4c b2be 081e b83e
00000060: 2d80 11bf 6822 c1be c8bd 60be 44bf 093f
00000070: 97c4 6340 ac9a bebe a029 3fbe fc13 5b3f
00000080: ba96 3fbf 4120 27bf 44d1 ef3e 64d0 0d3f
00000090: a7f1 dfbe 70fd 733f 5727 67be 19ae 33be
000000a0: 9ed3 6bc0 adc0 0abf 5f2b 033f 03ab 88bf
000000b0: a745 0abf a2c9 9dbe 5d99 693e d525 343e
000000c0: 18ee c13c 6470 773d 93be 3c3e 8465 c43e
000000d0: 8b05 8740 6cd7 93be 4061 123f 5ad7 9abe
000000e0: 5a71 38c0 476b 9ebf 9f10 91be eaf4 503e
000000f0: a6e0 82bf 2320 e13e c6fd aa3f 717e 453f
00000100: a8c6 a640 c90b cbbc fdd5 423e 393e 8b3e
00000110: 29b6 e23e 82f4 49bf c9d1 18bf b89c 4d3f
00000120: 7418 513f 39af 5abe 0649 3e3e 12cb 68be
00000130: 5fb6 3240 06d7 9fbe 0ecc a63f 4bd9 ecbe
00000140: 82a5 f43d 364c cbbe 963c 11be 212d 0bbf
00000150: f923 babf ec53 db3e 4c42 4a3f b11a df3e
00000160: f44e a9c0 aaa6 8c3e 3807 83be 9136 893f
00000170: 247a 2e3f dd32 693e 2274 3d3e e6c0 863d
00000180: 2acb 7a3f 2ba1 8dbe da20 fc3d 6049 883d
00000190: 0312 96c0 2845 0abe ddf4 d8bd 9441 203f
000001a0: 62f3 36bf 7e59 973f fbce ebbd f9ba b3bd
000001b0: f6cb 23be 78bb 4c3e 82f4 983d 989b 933d
000001c0: 10a9 d5bc 2451 303f 75e5 1bbd 0f45 c3bf
000001d0: 86f0 b63e 4a1a f63e a424 05bf 2e6d 0d3f
000001e0: 4053 30bf d132 0ebf e093 fa3c 9049 8c3e
000001f0: 120d 9540 0d15 3fbf 03d5 27bf 3e1e aebe
00000200: 06a7 93be df18 5bbf 2832 8cbe 12de d7bd
00000210: 1303 fc3d 3933 c53d e978 7b3f c374 a0be
00000220: 24da d33e 633f 1c3d 60df 233e 7eef 103d
00000230: bd7e 113f 26c2 2dbe 9693 27be a157 e8be
00000240: 391c 0a3e 791f a43e 9dfc 4fbf f618 0abf
00000250: a3d2 47be ff73 95bd 0f15 83bc 0957 8bbf
00000260: 89bc ba3e c3b5 133e c23d a03e 12c9 913e
00000270: 8ac6 1bbe 45ad e4bd c242 a6be e8b5 0a3e
00000280: 1d4f 6440 8962 a4bf 0f6a 24bf 4321 e63f
00000290: de47 003f 8899 98bf 088a 1bbf c90a 75bd
000002a0: c0a1 95bf 87ba c23e b714 1c3e 4125 d63e
000002b0: 55f2 98c0 30a8 513f 330e 883f 4de0 f73d
000002c0: 8b9c 083f b5fc 81be fbf0 d0bd 14c5 593e
000002d0: 8bb4 cdbe e57d 1f3f 16be cb3e 1e58 91be
000002e0: 8553 923e 059f c93e 9f23 363e 5269 a43e
000002f0: 2942 613f dfb5 ae3e 3881 933d 109c 2d3f
00000300: e8bf 5fbf 36b4 203e 6594 64bf 8d2f f33e
00000310: 9a68 0140 4638 6fbf 5ab5 013f 1449 dd3c
00000320: 9cfd e0bd 6a29 17bf f066 8bbe af54 09bf
00000330: be9a 88bf 7428 513e 07a5 15bf 6f7a 203f
00000340: 00b1 b540 ea7f 5dbf ce80 983e 052e c63e
00000350: 66fd 3c3f 9b20 85bf eac4 2abf 6cdd 9abe
00000360: 756a de3d ccfb 073f 3119 94be da1d fbbe
00000370: ceec 4440 81a0 fbbe 1df9 e23d 4c57 683f
00000380: 7875 cabf 7f9a 043f fccc 3bbf 43da ab3e
00000390: e47e afbf b26a b9be 0474 71be 3397 933e
000003a0: 2228 9240 d164 553e 9634 0dc0 edb9 0abf
000003b0: 5822 8cbf cdb5 84bf 962e 8e3d 1171 c6be
000003c0: 3178 9bbe 74a0 013f cb7b adbf c743 36be
000003d0: cbe1 9640 f6e3 a33e 352b 3ebe 2b80 0e3c
000003e0: b8bb 23be d39f dcbf 84b0 ae3d 2c6a f7be
000003f0: 068b 63bf 052f f1be 9139 e33d 6af9 00bf

linear1.bias f4 [32]
0.065109774 -0.09836893 -0.010289019 0.25691655 -0.6706287 -0.7718486 0.28053942 0.8468304
0.08226908 -0.058462955 -0.3590951 -0.16444013 0.22231777 -0.44733515 0.5253973 -0.05698182
-0.33481094 -0.56636065 -0.5304338 -0.24591897 -0.6953759 -1.1026073 -0.4599338 -0.059529822
0.43635696 -0.17454651 -0.16090506 0.135536 0.41556552 0.124465235 -0.24527088 0.45898902
00000000: 4658 853d a675 c9bd 4693 28bc 918a 833e
00000010: 53ae 2bbf df97 45bf dda2 8f3e e1c9 583f
00000020: b17c a83d da76 6fbd 50db b7be fe62 28be
00000030: 45a7 633e 1d09 e5be 7080 063f c565 69bd
00000040: 576c abbe 03fd 10bf 82ca 07bf 2fd2 7bbe
00000050: 2804 32bf 3c22 8dbf 717c ebbe 8bd5 73bd
00000060: 2e6a df3e 52bc 32be 4cc4 24be f3c9 0a3e
00000070: 01c5 d43e a1e7 fe3d 4a28 7bbe 9c00 eb3e

encoder.layers.0.self_attn.linears.0.weight f4 [32, 32]
-1.1487085 -0.036121916 -0.15536137 0.02295173 0.63197666 0.58356375 -0.34354764 -1.0811683
-0.41535857 -0.07235767 -0.15170647 -0.03173798 0.12911874 0.014077531 0.36080432 0.40255836
-0.48521706 -0.113580264 -0.091099 -0.64866316 -0.07746785 0.6185893 0.24285765 0.03630702
-0.9542029 0.17670925 -0.017070295 -0.45344794 0.63466716 -0.61575633 0.8659853 -0.5836566
0.3888132 -0.1241151 -0.23303843 0.01769418 -0.46800834 -0.9532715 0.31478828 0.37591305
0.29463673 -0.55111164 0.22142623 0.06405345 -0.1463758 0.29902527 -0.6610709 -1.0818461
0.02792467 0.41195828 -0.2154211 0.42830998 0.028120648 -0.4618177 -0.030436233 -0.050998863
-0.13096288 -1.1545998 -0.023598041 0.27456826 -0.91700387 0.25325853 -0.21408312 0.390205
-0.113173276 -0.010648314 0.601938 0.044832543 0.17022566 0.58691 -0.09261365 1.1442199
-0.03118881 -0.012174558 0.6016602 -0.108732454 -0.052064426 0.665648 0.36542466 0.26699057
-0.12990431 0.32458857 0.55806917 0.36247507 0.050115332 0.6839822 0.17209996 -0.16779083
0.045046553 0.05975046 0.0096882535 -0.22068746 -0.8851711 0.33582446 0.27740362 -0.34732223
0.39704052 0.13573772 -0.18978001 0.009538553 -0.69755995 -0.6371811 -0.06408268 0.362533
0.411488 1.2083845 -0.21120347 0.010389372 -0.20565528 -0.98506814 -0.08164765 -0.61003727
0.41722775 -0.2781822 -0.37297443 0.28839093 -0.0062761693 -0.71515805 -0.012970415 0.03877002
0.1762826 0.08400579 0.16923794 0.062254343 0.8472853 0.53055304 -0.7141285 -0.22621982
1.1996303 0.2154928 0.74654007 0.12289864 0.76214886 1.1370411 0.33130482 0.44429383
0.299797 0.9076899 0.6838044 0.28055137 -0.037182126 0.7803247 0.59789574 0.25598517
1.1754651 0.8592154 1.498898 -0.28240028 0.497941 1.4628385 0.3864633 0.3816874
1.4400017 0.12864256 -0.113835536 -0.025234716 0.6337901 -0.09807367 -0.22413518 0.4261679
1.1106765 -0.0603712 -0.08369519 0.92034346 -0.25181907 -0.5097335 0.50127435 0.006790134
-0.84179527 -0.33042902 -0.05725606 -0.0758923 0.023353081 -0.52161014 0.110973425 0.31894377
1.4487282 0.018441033 -0.6921774 0.7025205 -0.21849404 0.057066627 -0.39827076 0.05920662
0.04436233 -0.387347 0.023250941 -0.006237702 -0.30479577 0.30062115 -0.5512103 -1.0690666
-0.6805283 -0.07154327 0.08643661 -0.52405965 -0.3005722 0.03328429 -0.061014045 0.7522613
0.3198789 0.43116608 -0.20494878 0.011704656 -0.0038685075 0.5253918 -0.15608788 0.9484569
-1.1711594 0.6334914 -0.030302217 0.62108785 -0.03939826 -0.00608497 0.09520362 -0.23146269
0.24358732 0.9900195 -0.03276696 0.08106235 -0.23772924 -0.23998396 0.36463296 0.60312474
-2.3461607 0.14438508 -0.2816264 -0.7528514 -0.15358433 -0.64218813 -1.0313039 -0.9761246
-0.095293 0.09991898 -0.5631489 -0.20053907 0.21442153 -0.6611865 -0.124476984 -0.8817069
-3.1863883 -1.4657621 -0.061868235 -1.1205993 -0.20098832 -0.73458815 0.30113798 -0.039865613
-2.4324753 -0.51433414 0.09092974 -0.1566607 0.32872665 0.04821443 0.4926152 -0.22096561
00000000: e108 93bf 93f4 13bd 0d17 1fbe 4405 bc3c
00000010: 39c9 213f 6f64 153f 7ae5 afbe b963 8abf
00000020: e1a9 d4be 4230 94bd f158 1bbe afff 01bd
00000030: b437 043e 72a5 663c 58bb b83e 211c ce3e
00000040: 5f6e f8be c59c e8bd 1d92 babd ca0e 26bf
00000050: 77a7 9ebd de5b 1e3f adaf 783e abb6 143d
00000060: a446 74bf 45f3 343e 01d7 8bbc 542a e8be
00000070: 8c79 223f 35a2 1dbf 36b1 5d3f 856a 15bf
00000080: 8612 c73e 0f30 febd a0a1 6ebe 63f3 903c
00000090: ca9e efbe 9a09 74bf ee2b a13e ad77 c03e
000000a0: a0da 963e a715 0dbf 8fbd 623e 752e 833d
000000b0: 8ae3 15be d719 993e f13b 29bf ef79 8abf
000000c0: 47c2 e43c 32ec d23e 5997 5cbe 724b db3e
000000d0: 465d e63c 5f73 ecbe 6855 f9bc 2fe4 50bd
000000e0: 221b 06be edc9 93bf ae50 c1bc 3694 8c3e
000000f0: c4c0 6abf 1aab 813e 9b38 5bbe f3c8 c73e
00000100: 64c7 e7bd 4476 2ebc 9c18 1a3f 54a2 373d
00000110: a34f 2e3e bc3f 163f 3aac bdbd cc75 923f
00000120: ad7f ffbc cc77 47bc 6706 1a3f 1faf debd
00000130: 8241 55bd e867 2a3f f118 bb3e fdb2 883e
00000140: a305 05be 7930 a63e 9fdd 0e3f 5596 b93e
00000150: bc45 4d3d 7519 2f3f f93a 303e 5cd1 2bbe
00000160: bc82 383d e6bc 743d 7bbb 1e3c e5fb 61be
00000170: 939a 62bf 2ff1 ab3e d907 8e3e 38d4 b1be
00000180: e548 cb3e d4fe 0a3e b155 42be 9747 1c3c
00000190: 4a93 32bf 4d1e 23bf c83d 83bd ed9d b93e
000001a0: 8eae d23e 58ac 9a3f b945 58be 2f38 2a3c
000001b0: 4c97 52be 6d2d 7cbf e236 a7bd 672b 1cbf
000001c0: e09e d53e e66d 8ebe 81f6 bebe faa7 933e
000001d0: 53a8 cdbb 9914 37bf dd81 54bc 50cd 1e3d
000001e0: 6d83 343e 3a0b ac3d b64c 2d3e 69fe 7e3d
000001f0: b0e7 583f 53d2 073f 20d1 36bf 2ba6 67be
00000200: 7c8d 993f 25aa 5c3e 401d 3f3f 48b2 fb3d
00000210: 301c 433f 908a 913f c9a0 a93e 7b7a e33e
00000220: fe7e 993e 5e5e 683f ce0d 2f3f 6ea4 8f3e
00000230: 494c 18bd 5cc3 473f b20f 193f 7d10 833e
00000240: a475 963f 8af5 5b3f e4db bf3f c596 90be
00000250: 1ff2 fe3e 4b3e bb3f 85de c53e 886c c33e
00000260: fa51 b83f e0ba 033e 9b22 e9bd 09b9 cebc
00000270: 1140 223f d9da c8bd b183 65be ae32 da3e
00000280: a62a 8e3f cb47 77bd 6268 abbd a19b 6b3f
00000290: 6eee 80be e57d 02bf 8453 003f c67f de3b
000002a0: e57f 57bf fe2d a9be 5585 6abd 6c6d 9bbd
000002b0: f64e bf3c 3e88 05bf 0946 e33d 994c a33e
000002c0: ed6f b93f a611 973c 8a32 31bf 62d8 333f
000002d0: e7bc 5fbe b2be 693d 25ea cbbe a482 723d
000002e0: 46b5 353d 5952 c6be c278 be3c a365 ccbb
000002f0: 310e 9cbe 04eb 993e 1e1c 0dbf 2dd7 88bf
00000300: 1a37 2ebf 4785 92bd ad05 b13d c628 06bf
00000310: 99e4 99be 1c55 083d dde9 79bd 3294 403f
00000320: 2bc7 a33e cdc1 dc3e 18de 51be e3c4 3f3c
00000330: c986 7dbb 1480 063f 80d5 1fbe 12ce 723f
00000340: 8de8 95bf 7e2c 223f 5b3c f8bc 9dff 1e3f
00000350: 1260 21bd 6e64 c7bb 1efa c23d 8e04 6dbe
00000360: f46e 793e eb71 7d3f a636 06bd 0404 a63d
00000370: 4b6f 73be 5bbe 75be 2cb1 ba3e 6266 1a3f
00000380: 7f27 16c0 afd9 133e 5631 90be dfba 40bf
00000390: 3645 1dbe 7166 24bf c401 84bf 4de3 79bf
000003a0: fa28 c3bd 52a2 cc3d 872a 10bf 1d5a 4dbe
000003b0: 5191 5b3e 8543 29bf caed febd 8bb7 61bf
000003c0: c9ed 4bc0 189e bbbf 8c69 7dbd cc6f 8fbf
000003d0: e2cf 4dbe f80d 3cbf c22e 9a3e 204a 23bd
000003e0: adad 1bc0 67ab 03bf 5f39 ba3d aa6b 20be
000003f0: dc4e a83e 7f7c 453d 0f38 fc3e cf44 62be

encoder.layers.0.self_attn.linears.0.bias f4 [32]
-0.4149724 0.17368451 0.08291571 0.65607166 0.3167188 -0.0674002 -0.37262997 -0.10418639
-0.34423837 -0.1019028 -0.56188196 -0.41114634 -0.35996592 -0.12646706 0.23488764 0.0002145414
-0.072245575 0.43991023 -0.45678928 -0.31613138 -0.17715673 -0.28804258 0.2960436 0.07279331
0.17634529 0.14368357 0.32716733 -0.044151038 -0.1647824 -0.56864494 -0.12369055 -0.21590999
00000000: 4377 d4be 5ada 313e b6cf a93d 50f4 273f
00000010: f728 a23e 1e09 8abd 5bc9 bebe ad5f d5bd
00000020: 0340 b0be 6ab2 d0bd 7fd7 0fbf c681 d2be
00000030: 744d b8be 9580 01be 6386 703e 85f6 6039
00000040: 7df5 93bd ea3b e13e 49e0 e9be f9db a1be
00000050: 9368 35be 517a 93be 0793 973e a914 953d
00000060: dc93 343e c921 133e 7a82 a73e b8d7 34bd
00000070: b8bc 28be b792 11bf 7951 fdbd 8217 5dbe

encoder.layers.0.self_attn.linears.1.weight f4 [32, 32]
-0.00096148177 -0.08791491 0.34022117 -0.28854173 -0.43830088 0.2307881 -0.34895205 -0.2628419
0.76987576 -0.62250686 0.5087541 -0.034612723 -0.12829506 0.07323062 -0.43335804 0.29293507
-0.6005471 0.35076788 -0.01426685 0.16351661 0.18573257 0.41968906 -0.17603843 0.032784775
0.3657701 -0.6654368 -0.078823686 -0.06582991 -0.20780334 -0.21526921 -0.2732523 0.4241076
-0.4652856 0.31125158 0.06690615 -0.03292874 0.44840747 -0.22318113 0.2424728 0.029150965
-0.22184806 0.13960654 -0.52677906 0.45234787 0.3926963 -0.12493684 0.8178914 -0.0522879
0.27523863 -0.40308836 0.048098575 -0.5256501 0.10531376 -0.49912536 0.5441388 0.26319572
-0.3790597 -0.2623273 0.3063306 0.30801222 0.37351787 0.15829489 -0.19183823 -0.033950176
0.08559129 0.0462201 -0.23325637 -0.1379134 -0.5334963 0.44630003 0.018506216 -0.16048935
-0.52762514 0.48403645 0.06772888 0.113970436 0.016459104 0.21088581 -0.07611791 -0.8209993
0.16856214 0.16939169 -0.07375373 0.245408 -0.36880958 0.6539594 0.11794348 0.06321736
-0.4582881 0.83503574 0.18041186 0.20215945 -0.3512426 -0.3142113 0.43511578 -0.81966203
-0.14682136 -0.18197186 -0.18667589 0.58718044 0.49632496 -0.2918909 -1.0922326 0.9384115
0.01211557 0.2748303 0.03005712 -0.45255503 -0.45163593 -0.35724047 0.54482293 -0.110151954
0.123957895 -0.4483336 -0.063141465 0.24949673 -0.057621524 -0.73588234 -0.27217573 -0.23540375
-0.27355862 -0.27863002 -0.062413864 -0.3696015 0.09128517 0.8526224 0.36115766 -0.663824
1.1635131 -0.28462213 -0.42252052 0.043283015 0.06321458 -0.33143818 -0.079395995 0.14066121
0.23420666 0.026101457 0.7144953 -0.08584909 -0.6855171 0.6478054 -0.47658798 -0.723881
0.28185833 0.15481408 -0.5640796 1.0385287 0.19866069 -0.11025906 -0.07575815 -0.29982445
0.481084 -0.48406252 -0.3227989 -0.041745245 0.40023234 0.045279857 -0.40077868 -0.06171965
-1.0692025 0.5612948 -0.15071192 -0.5065959 0.058578644 -0.16328964 0.08373147 -0.036407303
0.6856664 -0.15772499 -0.4546446 0.59541756 0.012529593 0.61858636 0.25002843 0.43221772
-0.33803332 -0.7973724 0.42503253 -0.5090465 -0.14335637 0.36412755 0.59217155 0.60811263
-0.6690163 -0.12980363 0.46941835 0.5732832 -0.4327247 -0.40756363 0.56984824 0.139545
-8.639743e-05 0.3267451 0.6948155 0.628619 0.31718183 0.43268672 -0.45635873 0.46904302
-0.38592884 -0.051549215 0.5802965 0.09399356 1.0260475 0.18014641 0.21063147 0.69759244
-0.13111156 -0.25296378 0.37438 -0.45042038 -0.3474991 -0.0005645932 0.19764821 0.08524686
-0.31436017 0.70330554 0.46438572 0.30724272 -0.086616054 -0.14080985 0.568373 -0.19909097
-0.9406211 0.44307938 0.63848805 0.23301795 -0.169349 -0.108790934 0.10750569 -0.105756134
-0.3726982 0.09063797 -0.62422425 0.014545756 0.71908003 -0.5428638 0.52595836 0.505008
-0.1779664 -0.339411 0.46987548 -1.0885171 -0.32418045 -0.2148651 0.105400056 0.43276235
-0.26703694 0.53147745 0.37567258 0.032673538 0.0034201655 0.19311354 0.59151137 0.19969814
00000000: f30b 7cba bb0c b4bd 7831 ae3e bebb 93be
00000010: f968 e0be b753 6c3e d8a9 b2be 3793 86be
00000020: 9416 453f 9c5c 1fbf b53d 023f 12c6 0dbd
00000030: c85f 03be eff9 953d 1be1 ddbe 96fb 953e
00000040: 74bd 19bf d997 b33e 82bf 69bc e670 273e
00000050: ae30 3e3e 7ce1 d63e 6b43 34be 5449 063d
00000060: 3846 bb3e 115a 2abf 506e a1bd d5d1 86bd
00000070: 66ca 54be 886f 5cbe bae7 8bbe a224 d93e
00000080: ea39 eebe 5e5c 9f3e 1706 893d 49e0 06bd
00000090: aa95 e53e 9889 64be ca4a 783e 01ce ee3c
000000a0: 232c 63be 04f5 0e3e feda 06bf 249a e73e
000000b0: 7d0f c93e e3de ffbd 5561 513f d62b 56bd
000000c0: 14ec 8c3e 9961 cebe 0303 453d 0191 06bf
000000d0: beae d73d 5c8d ffbe ae4c 0b3f 97c1 863e
000000e0: 1d14 c2be c44f 86be 5dd7 9c3e c7b3 9d3e
000000f0: bc3d bf3e 0e18 223e 3e71 44be 570f 0bbd
00000100: 7c4a af3d 4a51 3d3d c2da 6ebe 2c39 0dbe
00000110: 3793 08bf 7081 e43e 599a 973c 5257 24be
00000120: 7112 07bf a0d3 f73e 70b5 8a3d 5569 e93d
00000130: 3ed5 863c 73f2 573e b5e3 9bbd 032d 52bf
00000140: 8e9b 2c3e 0475 2d3e 320c 97bd 3c4c 7b3e
00000150: 9cd4 bcbe e269 273f 5a8c f13d 1a78 813d
00000160: bda4 eabe e7c4 553f e3bd 383e e302 4f3e
00000170: 12d6 b3be 4ee0 a0be 7fc7 de3e 5fd5 51bf
00000180: 5758 16be d556 3abe f727 3fbe 7551 163f
00000190: 4e1e fe3e b972 95be 47ce 8bbf bc3b 703f
000001a0: 6280 463c 8fb6 8c3e 593a f63c 4bb5 e7be
000001b0: d33c e7be 39e8 b6be 8479 0b3f 5997 e1bd
000001c0: a3dd fd3d fb8b e5be 5050 81bd 127c 7f3e
000001d0: 8c04 6cbd c962 3cbf 9e5a 8bbe ae0d 71be
000001e0: e00f 8cbe 98a8 8ebe aea5 7fbd 683c bdbe
000001f0: b8f3 ba3d 7645 5a3f a8e9 b83e 5ff0 29bf
00000200: ffed 943f feb9 91be 9c54 d8be 8849 313d
00000210: a576 813d 44b2 a9be 5e9a a2bd 7e09 103e
00000220: dfd3 6f3e b9d2 d53c 2ae9 363f a6d1 afbd
00000230: 0c7e 2fbf 93d6 253f 5703 f4be 4450 39bf
00000240: bc4f 903e 9587 1e3e 8567 10bf 82ee 843f
00000250: b56d 4b3e 81cf e1bd 1727 9bbd 9782 99be
00000260: a450 f63e 0bd7 f7be e645 a5be 10fd 2abd
00000270: 41eb cc3e 5f77 393d dd32 cdbe becd 7cbd
00000280: a1db 88bf 04b1 0f3f 3a54 1abe 45b0 01bf
00000290: 29f0 6f3d 6635 27be 687b ab3d d31f 15bd
000002a0: d587 2f3f a982 21be 2dc7 e8be 496d 183f
000002b0: ec48 4d3c ad5b 1e3f ba03 803e a44b dd3e
000002c0: b412 adbe 9920 4cbf dd9d d93e df50 02bf
000002d0: 03cc 12be ed6e ba3e 8e98 173f 45ad 1b3f
000002e0: a744 2bbf 3eeb 04be 9a57 f03e b0c2 123f
000002f0: 188e ddbe 2eac d0be 93e1 113f e2e4 0e3e
00000300: 4430 b5b8 224b a73e 6edf 313f 2ded 203f
00000310: a865 a23e 1d89 dd3e daa7 e9be 6826 f03e
00000320: 7798 c5be 4525 53bd 508e 143f b27f c03d
00000330: 8655 833f 4d78 383e c7af 573e 6b95 323f
00000340: 1c42 06be 7884 81be bcae bf3e 809d e6be
00000350: 67eb b1be 3501 14ba 4b64 4a3e e895 ae3d
00000360: d1f3 a0be d50b 343f f7c3 ed3e eb4e 9d3e
00000370: c263 b1bd 7530 10be e580 113f 81de 4bbe
00000380: 8bcc 70bf 4ddb e23e f473 233f 429c 6e3e
00000390: d369 2dbe c8cd debd f12b dc3d ac96 d8bd
000003a0: 4cd2 bebe 66a0 b93d 29cd 1fbf 5351 6e3c
000003b0: a115 383f 1ff9 0abf 35a5 063f 3448 013f
000003c0: d33c 36be 47c7 adbe 8593 f03e 8754 8bbf
000003d0: fbfa a5be 9905 5cbe fcdb d73d 0793 dd3e
000003e0: 11b9 88be e80e 083f 2858 c03e b0d4 053d
000003f0: db24 603b 8ebf 453e 4a6d 173f ab7d 4c3e

encoder.layers.0.self_attn.linears.1.bias f4 [32]
-0.4693903 0.32875115 -0.050214067 0.23604599 -0.33694562 0.19129331 -0.020683855 0.35944563
0.23297378 0.17242704 -0.0023053573 0.16507636 -0.17184265 -0.047421064 0.16431683 -0.25986832
-0.23230708 0.15005621 -0.046034064 -0.010783236 -0.0019527012 -0.30247578 0.4092173 0.30430982
-0.23467767 -0.15141493 -0.041236892 0.17402014 0.14251184 0.37649855 0.13731267 0.31495106
00000000: ed53 f0be 1252 a83e 44ad 4dbd 0ab6 713e
00000010: 2384 acbe 65e2 433e 3071 a9bc 4209 b83e
00000020: ae90 6e3e b790 303e 7a15 17bb c709 293e
00000030: 85f7 2fbe 973c 42bd ac42 283e 760d 85be
00000040: e8e1 6dbe 56a8 193e 378e 3cbd 2bac 30bc
00000050: c8f1 ffba 1bde 9abe ee84 d13e 7fce 9b3e
00000060: 584f 70be 840c 1bbe 04e8 28bd 5632 323e
00000070: a0ee 113e 6bc4 c03e b19b 0c3e 4441 a13e

encoder.layers.0.self_attn.linears.2.weight f4 [32, 32]
-0.26947945 0.12363465 -0.18563528 0.011516516 0.053154465 0.13314286 -0.031816475 0.02276049
-0.07174434 -0.12121263 -0.21632028 0.09565517 -0.23934019 0.19094741 0.29729557 -0.06351063
-0.16394705 0.21141738 -0.036236245 -0.039107215 0.4422686 0.14683165 -0.16844143 0.16801517
0.26727077 0.21917848 -0.055164408 -0.1267328 -0.3660766 -0.4136145 0.07274281 -0.18318619
-0.16366372 -0.24337427 0.049399912 -0.05453793 0.13608244 0.17130789 0.043379907 -0.1916391
0.25341052 -0.016408436 0.119810484 -0.024277736 -0.10718654 -0.13610576 -0.2104242 0.10015019
0.03796391 -0.05819976 0.13108319 0.16976337 0.24256471 0.1796365 0.0010763985 0.015217244
-0.04878595 -0.6042495 -0.075261064 -0.12629303 0.1691012 0.22951216 -0.12436674 -0.03309962
-0.17517962 -0.017513685 0.07272225 -0.38823104 0.33716044 -0.03332163 0.123427816 -0.044186898
-0.30927506 0.3298573 0.28783476 -0.13488474 -0.12043471 -0.08336751 0.02939185 -0.41596538
0.03998886 -0.040444 -0.23540433 0.21488309 0.26222202 0.24097675 0.0038618199 -0.17491613
0.0829693 0.38266522 -0.037092954 0.047918037 -0.2414202 -0.08325737 0.06968689 -0.032569606
0.051160585 -0.2415674 -0.06722058 -0.28717357 0.13743505 -0.028644903 0.1501209 -0.3197172
0.20627122 0.5901993 0.023309402 -0.4132485 -0.2139593 -0.03144565 -0.28814626 -0.18623173
0.14273606 -0.08733414 0.23473759 0.41319713 -0.010266074 0.02402805 -0.123565495 -0.1355819
0.16161579 0.040565178 -0.051917337 -0.35596278 0.5132543 0.055903755 0.0028060437 0.073263705
-0.38649654 -0.11882468 -0.09620636 0.12449713 0.48974398 -0.7022344 0.012738915 -0.14012685
0.262899 -0.08066681 0.112331346 -0.121911354 -0.18384324 0.6124901 -0.09419075 -0.118271016
0.36602378 0.35247582 0.10504984 0.4818642 -0.24300236 -0.27504265 0.744383 -0.007964447
-0.26911956 0.3404155 -0.08427007 -0.030927334 0.24475002 -0.0038084283 0.33142 0.11002237
0.3883306 0.06267431 0.15685368 0.02193227 -0.37875536 -0.017275982 -0.011830223 -0.18786453
-0.11651399 0.2639911 0.016593253 -0.0641414 0.21383539 -0.014016783 0.04286345 0.12401424
0.2717807 -0.27553955 -0.15736704 -0.12607796 -0.18849063 0.0032856704 -0.09793684 0.036368154
0.28721926 -0.04988894 0.13459308 0.09022389 0.41379488 -0.5331383 -0.061637633 0.06530494
-0.12864873 0.023051098 0.043626163 0.31017458 -0.3111818 -0.15531814 0.24633922 0.5868872
0.057229083 -0.06066472 -0.07725078 0.13209735 0.5051401 0.45438546 0.025635049 -0.087891445
-0.378727 0.15511554 0.043418515 -0.00076915167 -0.20240481 0.21426602 -0.56443405 -0.09329431
-0.23420146 -0.40196502 0.008821538 0.124319695 0.06468192 -0.1769168 0.06099625 0.34712848
0.18129578 0.15884568 0.28649667 -0.044350013 -0.5873129 -0.19918844 -0.038874254 0.068006866
-0.2179146 0.06648049 0.21820179 -0.025965158 0.4756416 0.17981303 0.054172654 -0.2695657
0.08746288 -0.24240202 -0.039857384 -0.348165 -0.30911332 -0.06795249 0.51135975 -0.12905036
0.411689 -0.22814797 0.1939113 0.29613426 0.33604044 0.119455405 -0.2645025 0.31656498
00000000: 36f9 89be 2a34 fd3d 2d17 3ebe c5af 3c3c
00000010: 7fb8 593d 9a56 083e fe51 02bd 3574 ba3c
00000020: b2ee 92bd 543e f8bd 1083 5dbe dce6 c33d
00000030: 9815 75be b887 433e 2037 983e dc11 82bd
00000040: bce1 27be cc7d 583e 756c 14bd e32e 20bd
00000050: 0871 e23e 095b 163e e97b 2cbe 2b0c 2c3e
00000060: b7d7 883e 5370 603e 13f4 61bd 3ec6 01be
00000070: 646e bbbe 48c5 d3be 2ffa 943d 2995 3bbe
00000080: 7697 27be 1b37 79be 9057 4a3d 2a63 5fbd
00000090: 3259 0b3e 566b 2f3e 21af 313d 0a3d 44be
000000a0: 06bf 813e fc6a 86bc 335f f53d 1ae2 c6bc
000000b0: 9e84 dbbd 4f5f 0bbe 7179 57be 8b1b cd3d
000000c0: 0b80 1b3d df62 6ebd ac3a 063e 73d6 2d3e
000000d0: e262 783e a1f2 373e f115 8d3a bf51 793c
000000e0: c7d3 47bd 18b0 1abf 7922 9abd f652 01be
000000f0: dd28 2d3e 3c05 6b3e fdb3 febd 7893 07bd
00000100: 4962 33be dc78 8fbc 67ef 943d 38c6 c6be
00000110: 4ba0 ac3e 437c 08bd b9c7 fc3d 52fd 34bd
00000120: 4d59 9ebe 0ee3 a83e 145f 933e 3a1f 0abe
00000130: 79a6 f6bd 96bc aabd 2dc7 f03c 6af9 d4be
00000140: 5ccb 233d 9ca8 25bd d50d 71be 500a 5c3e
00000150: f741 863e 9cc2 763e 9616 7d3b 371d 33be
00000160: cfeb a93d b2ec c33e c8ee 17bd b445 443d
00000170: db36 77be d782 aabd 00b8 8e3d b567 05bd
00000180: c38d 513d 725d 77be f2aa 89bd 6a08 93be
00000190: c6bb 0c3e b7a8 eabc 4bb9 193e f9b1 a3be
000001a0: c338 533e 4d17 173f 5cf3 be3c 4f95 d3be
000001b0: 2618 5bbe 27cd 00bd e887 93be 88b3 3ebe
000001c0: 6729 123e 3edc b2bd 0d5f 703e 938e d33e
000001d0: 0933 28bc 79d6 c43c e80f fdbd fbd5 0abe
000001e0: 9c7e 253e ac27 263d 46a7 54bd c140 b6be
000001f0: a264 033f 56fb 643d 9ae5 373b 480b 963d
00000200: e0e2 c5be 5b5a f3bd d707 c5bd 5af8 fe3d
00000210: b9bf fa3e a2c5 33bf e2b6 503c 6a7d 0fbe
00000220: b39a 863e a434 a5bd fa0d e63d a9ac f9bd
00000230: 6741 3cbe 27cc 1c3f 14e7 c0bd 1338 f2bd
00000240: 7867 bb3e b677 b43e 5f24 d73d e8b6 f63e
00000250: 9cd5 78be 64d2 8cbe e28f 3e3f 507d 02bc
00000260: 0aca 89be f14a ae3e c995 acbd 525b fdbc
00000270: c09f 7a3e d396 79bb e2af a93e 6953 e13d
00000280: 45d3 c63e 635b 803d 409e 203e 4eab b33c
00000290: 39ec c1be 5c86 8dbc 8dd3 41bc 8f5f 40be
000002a0: e39e eebd d729 873e 93ee 873c 915c 83bd
000002b0: aaf7 5a3e a6a6 65bc 9691 2f3d 2efb fd3d
000002c0: d726 8b3e 8513 8dbe d324 21be 951a 01be
000002d0: b003 41be 6754 573b 1c93 c8bd c6f6 143d
000002e0: 670e 933e 5858 4cbd c5d2 093e 4ec7 b83d
000002f0: ecdc d33e c07b 08bf be77 7cbd 99be 853d
00000300: 7ebc 03be a8d5 bc3c 59b1 323d 34cf 9e3e
00000310: 3953 9fbe b80b 1fbe 5940 7c3e 3d3e 163f
00000320: 0b69 6a3d 927b 78bd a835 9ebd 8744 073e
00000330: dd50 013f 36a5 e83e 9800 d23c 6e00 b4bd
00000340: 81e8 c1be 9cd6 1e3e 9dd7 313d e5a0 49ba
00000350: 3543 4fbe 8d68 5b3e c07e 10bf 1611 bfbd
00000360: 82d2 6fbe 5cce cdbe 3688 103c 539b fe3d
00000370: f477 843d ad29 35be 34d7 793d d3ba b13e
00000380: 9aa5 393e 71a8 223e b1af 923e 5ca8 35bd
00000390: 235a 16bf 0ef8 4bbe 9c3a 1fbd 2f47 8b3d
000003a0: 0125 5fbe ec26 883d 4a70 5f3e e2b4 d4bc
000003b0: 4c87 f33e e820 383e 25e4 5d3d 8404 8abe
000003c0: bd1f b33d 3c38 78be 7f41 23bd af42 b2be
000003d0: 1a44 9ebe ad2a 8bbd 79e8 023f c725 04be
000003e0: e7c8 d23e 9f9f 69be af90 463e e99e 973e
000003f0: 7e0d ac3e 09a5 f43d df6c 87be ce14 a23e

encoder.layers.0.self_attn.linears.2.bias f4 [32]
-0.056778178 -0.015515715 -0.14205684 0.06630075 -0.28323844 0.047992446 -0.110330805 0.11711574
0.10838874 0.025046976 0.0039440263 0.13088027 0.08920987 -0.10639463 -0.073750146 0.037974715
0.059330884 0.044307537 0.12900214 -0.04269208 -0.12683097 -0.1076093 0.033533484 -0.15947983
0.021782476 0.119215906 0.09227923 0.05690359 -0.015016681 -0.07634252 0.043629304 0.046312064
00000000: 3c90 68bd a035 7ebc 5977 11be b0c8 873d
00000010: a104 91be ba93 443d 1ef5 e1bd 61da ef3d
00000020: eafa dd3d 512f cd3c e43c 813b 7a05 063e
00000030: aab3 b63d 6ee5 d9bd 510a 97bd 608b 1b3d
00000040: f104 733d d27b 353d 2319 043e e4dd 2ebd
00000050: fadf 01be 4462 dcbd 685a 093d ae4e 23be
00000060: 2a71 b23c 7827 f43d e5fc bc3d bd13 693d
00000070: 8608 76bc 7859 9cbd a4b4 323d b8b1 3d3d

encoder.layers.0.self_attn.linears.3.weight f4 [32, 32]
-0.07324501 -0.08973095 -0.18595847 0.1523743 -0.4461162 0.013003267 0.03723051 0.1540689
0.41181016 -0.1849217 0.23784395 0.45428783 0.17266835 0.089289874 -0.14878556 -0.087363675
0.1495662 -0.099178694 -0.0764078 -0.1279757 0.03671189 0.29125378 -0.051097475 0.087186344
0.15370658 -0.0773062 -0.11854545 -0.019657813 -0.021893375 -0.014434063 0.28587982 -0.040209156
-0.092755 0.13574155 0.052782044 0.240065 0.42508903 -0.1684551 0.24782236 -0.029571677
-0.2031036 0.22063042 0.14894043 0.09124816 0.18894759 0.0755943 -0.34971374 -0.29338974
0.16056752 -0.025060698 -0.11167826 -0.28816497 -0.07865865 0.21197826 0.18685767 -0.06692122
0.021239864 -0.328539 -0.10083792 0.5443309 -0.25452787 0.07943104 0.17613447 0.20813128
-0.06855803 0.0526158 -0.047887847 -0.14177907 -0.3576622 0.4749144 -0.027378935 -0.20720245
-0.09369258 -0.09637391 -0.24190275 0.045197938 -0.3758972 0.098539464 0.69557256 -0.13819769
0.2921293 0.07021595 -0.093269125 -0.6391273 -0.077937804 0.12609912 -0.20678073 -0.0379071
-0.19041096 -0.13015468 0.19447038 -0.31345898 -0.2167276 0.3585107 -0.15216048 0.18192755
-0.11597149 -0.0068780766 -0.36728334 -0.04172432 0.28627574 -0.08087909 -0.6958399 0.08947707
0.06679616 0.234437 -0.106003754 -0.22051059 -0.1444606 0.04435906 -0.36821854 -0.031999666
-0.07787654 -0.18811521 -0.00041687657 -0.38033092 0.1566046 0.16850375 0.22490211 -0.057713285
0.023718983 -0.10429823 -0.20788838 0.103419684 -0.0895902 0.00763699 0.092761405 -0.23057488
0.11296948 -0.06705682 0.25418693 -0.038042847 0.31683114 -0.1940668 -0.3705652 -0.021765715
0.060105942 0.10694885 -0.1641287 -0.1324345 -0.14853701 0.09604015 -0.17002709 -0.00559384
-0.071416706 -0.060341656 -0.309006 -0.38349533 0.0452147 -0.08800445 0.08933244 0.11151754
0.019129317 0.05932007 -0.042776044 -0.013915739 0.098670736 0.13687477 -0.11602285 -0.05386369
0.19570482 0.0626709 0.0023508423 -0.06063789 0.2084984 0.17930213 -0.020465799 0.030004697
0.13650483 -0.28587493 -0.014738252 0.019274706 0.043131392 0.11643288 0.111130446 0.274955
0.04058081 -0.07407794 0.05307715 0.17335083 -0.045848284 0.15149495 -0.086764626 -0.08401359
-0.2008963 -0.031249907 0.12869333 0.002316482 0.13562918 -0.22843781 0.07107593 0.010728655
-0.3960158 -0.28450817 0.19097674 0.33383024 0.04889731 -0.12315741 0.1747833 0.13181576
-0.2927869 0.08978818 -0.0011034379 0.17394945 -0.060815085 -0.0038632452 0.4806117 0.16678362
-0.020203073 0.17206079 0.15085676 -0.35285133 0.031677764 0.36909524 0.18162689 0.25381908
0.014633775 0.044298902 0.12687786 0.18740273 -0.10210666 -0.037505902 -0.30571496 -0.14816056
-0.06955552 0.1451855 0.067538045 0.14593709 -0.02685133 -0.074012324 -0.0922727 -0.22807097
-0.04553594 -0.014225076 -0.057595126 -0.26415515 0.16117857 0.06526137 -0.38968223 -0.21750349
-0.27806792 -0.009384854 0.12092032 -0.08148717 0.27080333 -0.107098155 0.07463135 0.219092
0.13938847 0.10898808 0.1366763 0.06294419 0.12684223 0.09440809 -0.04662846 -0.098577194
00000000: 7b01 96bd dcc4 b7bd e66b 3ebe 0208 1c3e
00000010: 5869 e4be a80b 553c 057f 183d 3dc4 1d3e
00000020: c8d8 d23e 1d5c 3dbe 5d8d 733e 6a98 e83e
00000030: f9cf 303e 9cdd b63d 3e5b 18be baeb b2bd
00000040: e227 193e 331e cbbd b17b 9cbd 100c 03be
00000050: 355f 163d 371f 953e 964b 51bd c18e b23d
00000060: 4265 1d3e b752 9ebd f5c7 f2bd 6c09 a1bc
00000070: bc59 b3bc d97c 6cbc d75e 923e 5bb2 24bd
00000080: 55f6 bdbd d5ff 0a3e fc31 583d 99d3 753e
00000090: 45a5 d93e 7e7f 2cbe 25c5 7d3e 4d40 f2bc
000000a0: 64fa 4fbe f1ec 613e d783 183e 51e0 ba3d
000000b0: 7a7b 413e 2fd1 9a3d ae0d b3be 2e37 96be
000000c0: d06b 243e 184c cdbc 92b7 e4bd 5c8a 93be
000000d0: c917 a1bd d410 593e 9e57 3f3e fe0d 89bd
000000e0: 39ff ad3c 4436 a8be 1d84 cebd 4559 0b3f
000000f0: 7a51 82be beac a23d 985c 343e 5e20 553e
00000100: 2768 8cbd aa83 573d 0c26 44bd 882e 11be
00000110: 801f b7be fb27 f33e ca49 e0bc e12c 54be
00000120: e5e1 bfbd af5f c5bd 5bb5 77be 7921 393d
00000130: 9975 c0be 0fcf c93d 0b11 323f b283 0dbe
00000140: f991 953e 61cd 8f3d e203 bfbd d99d 23bf
00000150: db9d 9fbd 2120 013e 54be 53be 7a44 1bbd
00000160: 17fb 42be 4547 05be 3e23 473e b27d a0be
00000170: d7ed 5dbe b78e b73e f5cf 1bbe 374b 3a3e
00000180: 7682 edbd 7d61 e1bb 900c bcbe 1fe7 2abd
00000190: bc92 923e f0a3 a5bd 9022 32bf c13f b73d
000001a0: 6dcc 883d 4110 703e 7f18 d9bd 87cd 61be
000001b0: 7bed 13be d8b1 353d 2487 bcbe 1512 03bd
000001c0: bc7d 9fbd 46a1 40be 3a90 dab9 bcba c2be
000001d0: f55c 203e 3f8c 2c3e bd4c 663e c464 6cbd
000001e0: 504e c23c 4f9a d5bd b1e0 54be b3cd d33d
000001f0: 117b b7bd b73f fa3b b1f9 bd3d d21b 6cbe
00000200: 8b5c e73d 1655 89bd ca24 823e d1d2 1bbd
00000210: b137 a23e 72b9 46be b9ba bdbe 034e b2bc
00000220: a631 763d 0008 db3d 5b11 28be e99c 07be
00000230: 161a 18be b3b0 c43d 951b 2ebe 884c b7bb
00000240: ec42 92bd d028 77bd 0936 9ebe 8059 c4be
00000250: 0d33 393d ad3b b4bd edf3 b63d 4f63 e43d
00000260: 16b5 9c3c 9af9 723d ef35 2fbd d7fe 63bc
00000270: e213 ca3d e628 0c3e 639d edbd 2ca0 5cbd
00000280: d866 483e 9a59 803d 9710 1a3b 705f 78bd
00000290: 9b80 553e fa9a 373e e4a7 a7bc 69cc f53c
000002a0: ecc7 0b3e 335e 92be b678 71bc fde5 9d3c
000002b0: 8baa 303d 5d74 ee3d 5c98 e33d e7c6 8c3e
000002c0: 1038 263d 2db6 97bd 6d67 593d e182 313e
000002d0: 69cb 3bbd 7e21 1b3e a7b1 b1bd 510f acbd
000002e0: c2b7 4dbe ceff ffbc 2fc8 033e 1ed0 173b
000002f0: 60e2 0a3e 9aeb 69be 4290 913d 3ec7 2f3c
00000300: 95c2 cabe 0eab 91be 688f 433e cceb aa3e
00000310: 8c48 483d f439 fcbd 65fa 323e b6fa 063e
00000320: 2ae8 95be dee2 b73d 3ba1 90ba ce1f 323e
00000330: 3d19 79bd 802e 7dbb bd12 f63e 53c9 2a3e
00000340: ea80 a5bc b430 303e 327a 1a3e eea8 b4be
00000350: 8bc0 013d 0dfa bc3e 66fc 393e 93f4 813e
00000360: 80c2 6f3c c472 353d 45ec 013e 80e6 3f3e
00000370: 4c1d d1bd ca9f 19bd ac86 9cbe 67b7 17be
00000380: 2073 8ebd 82ab 143e 6351 8a3d 8870 153e
00000390: 52f7 dbbc c693 97bd 78f9 bcbd 708b 69be
000003a0: e583 3abd 4b10 69bc dee8 6bbd 583f 87be
000003b0: ff0b 253e c1a7 853d 6e84 c7be 3cb9 5ebe
000003c0: eb5e 8ebe eec2 19bc 13a5 f73d bfe2 a6bd
000003d0: bca6 8a3e 4756 dbbd 52d8 983d a759 603e
000003e0: dabb 0e3e 2435 df3d dff4 0b3e e2e8 803d
000003f0: eee2 013e 0759 c13d 7cfd 3ebd d7e2 c9bd

encoder.layers.0.self_attn.linears.3.bias f4 [32]
-0.053443667 0.0010432177 0.16717716 0.14265119 -0.11966664 0.09137062 -0.0014588406 0.02587436
0.051605254 -0.037064604 0.13445537 0.25596192 -0.14599077 -0.050154254 0.074769616 -0.10486735
0.009520143 -0.06880395 -0.020944217 -0.053927395 -0.18362123 -0.09215999 -0.17691769 0.08517456
0.08795649 -0.2702021 0.08579247 0.044795614 -0.036014184 -0.061060365 -0.29629534 0.0983241
00000000: bfe7 5abd 94bc 883a 7d30 2b3e 2713 123e
00000010: c913 f5bd 8520 bb3d 9136 bfba 77f6 d33c
00000020: 0860 533d 0ed1 17bd abae 093e 710d 833e
00000030: 9b7e 15be 8c6e 4dbd d020 993d b1c4 d6bd
00000040: 60fa 1b3c 16e9 8cbd 3593 abbc f9e2 5cbd
00000050: 3407 3cbe 60be bcbd e929 35be 0070 ae3d
00000060: 8822 b43d ee57 8abe f6b3 af3d 9b7b 373d
00000070: 9c83 13bd 6f1a 7abd 06b4 97be 255e c93d

encoder.layers.0.feed_forward.w_1.weight f4 [128, 32]
0.31491345 0.11700157 0.24127494 -0.6021431 -0.35689414 0.059923667 0.21999748 -0.03213052
0.21225658 0.27196681 -0.3998283 0.05711809 0.5248267 -0.0060228305 0.18972829 -0.076869234
0.30013108 0.21776871 -0.36537644 -0.064193785 0.17189837 -0.14756355 -0.06065349 -0.18025222
0.40924126 -0.24437489 -0.069743596 0.12137367 0.5026413 -0.3055757 -0.26354557 0.32154766
-0.17241396 0.10973671 0.18070987 0.3923931 -0.4203472 0.015146105 0.060990073 -0.14116727
0.12666051 0.08246293 -0.11275365 0.839724 -0.24214321 -0.0020893835 0.108758844 0.17155644
0.25031847 -0.2675798 0.1383077 -0.2961446 0.07180593 0.28629643 -0.27090508 0.2572827
-0.02240314 -0.10063893 0.097018234 0.39239866 -0.07073358 0.46607432 -0.16966055 -0.062047604
-0.030066 -0.42976287 0.091461614 0.5036371 -0.2725579 0.21172541 -0.39865205 0.39929795
0.44120818 -0.07823421 0.21155015 -0.26805073 -0.16905263 0.04434739 0.13554595 0.31308162
0.026732292 -0.030840747 0.16607453 -0.99315274 -0.6879147 0.0295388 -0.42118004 0.55426025
0.034743287 -0.2051668 0.4812479 0.28645548 0.4534352 -0.10268805 -0.050210766 -0.36677912
0.4086449 0.12625605 0.06321306 -0.959649 -0.101784006 0.16795534 -0.11731842 -0.09359558
-0.5499167 0.517772 0.10404431 -0.079514824 0.20944166 0.15763462 -0.40608025 0.04802222
-0.10330898 0.15622896 -0.07772516 -0.014177518 0.21837996 0.36379603 0.20524505 -0.15978457
0.03337303 -0.12235122 0.086661294 0.18496227 -0.21796067 -0.32747012 0.26829174 -0.24163927
0.18911183 0.1788576 -0.09779352 0.08094085 0.44897616 -0.09675204 -0.5628397 0.24253316
-0.4059583 0.08133826 -0.110136986 -0.45239732 0.40898484 -0.26100004 0.017141905 0.082280025
0.073727526 0.09457848 0.1712279 0.32081246 0.09557326 0.24849798 0.5148553 -0.051892236
-0.39172187 0.25592965 -0.037130162 0.113922976 0.0048371493 0.5950544 0.3125373 0.02617144
0.23628731 0.29571953 0.055466585 -0.37563023 -1.0652316 0.42555752 -0.23567732 -0.33314896
0.44103572 0.4664787 -0.702815 -0.068165846 0.085118465 -0.41134247 0.088639855 -0.05953748
-0.02419756 -0.08158054 -0.6479056 -0.03107582 0.20063555 -0.18192734 -0.061960615 0.15031993
0.41852543 -0.06507688 -0.024051322 0.065027595 0.25787103 -0.48019442 -0.16690585 0.091197975
-0.17457251 -0.045770664 -0.12129079 0.20528392 -0.103840746 -0.15346923 -0.12920019 0.7910795
0.5374185 -0.29501718 -0.069585934 -0.16640665 0.22114944 0.05577792 0.08491984 0.15133151
0.18463601 0.08164021 -0.23047833 0.10015487 -0.6026891 -0.95731425 0.15058012 0.08901368
-0.21754795 0.12845668 0.21036664 0.27453434 0.7401878 0.32876864 0.112939626 0.13848202
0.21629484 0.11764311 0.15281343 -0.30490634 -0.37104568 0.038066186 0.50564885 0.3047841
-0.016626727 -0.17964107 -0.30277517 0.14309114 0.2571206 -0.07475432 -0.030193284 -0.22086817
-0.27870983 0.12907948 -0.30235022 0.3297898 0.1417046 0.061670892 -0.08428644 0.016478548
0.085554235 -0.26064196 0.08995547 0.19085357 0.65361017 -0.4023072 -0.366392 0.485839
00000000: 563c a13e 859e ef3d c710 773e 0d26 1abf
00000010: d4ba b6be 8572 753d 0547 613e 4b9b 03bd
00000020: ca59 593e 3c3f 8b3e 4cb6 ccbe a9f4 693d
00000030: 0b5b 063f 2a5b c5bb 2248 423e 9e6d 9dbd
00000040: c8aa 993e c3fe 5e3e 9f12 bbbe 0878 83bd
00000050: 2006 303e e61a 17be cb6f 78bd 0a94 38be
00000060: 1288 d13e 693d 7abe bbd5 8ebd c292 f83d
00000070: 1aad 003f 6b74 9cbe 72ef 86be e5a1 a43e
00000080: 498d 30be a4bd e03d 020c 393e c0e7 c83e
00000090: c037 d7be 5e27 783c bad0 793d 278e 10be
000000a0: 4bb3 013e 53e2 a83d 63eb e6bd 27f8 563f
000000b0: 64f4 77be 0aee 08bb f5bc de3d 7eac 2f3e
000000c0: be29 803e 3800 89be 89a0 0d3e 44a0 97be
000000d0: fd0e 933d 7295 923e 12b4 8abe 8fba 833e
000000e0: ca86 b7bc c91b cebd 7fb1 c63d 7ae8 c83e
000000f0: c4dc 90bd 4ba1 ee3e 7fbb 2dbe a125 7ebd
00000100: f94c f6bc e109 dcbe 3a50 bb3d 5cee 003f
00000110: b68c 8bbe 8cce 583e 1f1c ccbe c870 cc3e
00000120: 0ae6 e13e 4239 a0bd 9aa0 583e f23d 89be
00000130: 221c 2dbe 9ca5 353d 8fcc 0a3e 3c4c a03e
00000140: aefd da3c bca5 fcbc 710f 2a3e 423f 7ebf
00000150: 2e1b 30bf 5afb f13c e9a4 d7be 00e4 0d3f
00000160: fa4e 0e3d 3f17 52be 2066 f63e 4baa 923e
00000170: a928 e83e 1d4e d2bd cea9 4dbd 79ca bbbe
00000180: e839 d13e 4449 013e d975 813d 8fab 75bf
00000190: 2274 d0bd 7cfc 2b3e a444 f0bd 0aaf bfbd
000001a0: 57c7 0cbf b58c 043f 2f15 d53d abd8 a2bd
000001b0: e077 563e f86a 213e c0e9 cfbe f3b2 443d
000001c0: a993 d3bd 7cfa 1f3e 5e2e 9fbd d248 68bc
000001d0: ff9e 5f3e 7943 ba3e c22b 523e 919e 23be
000001e0: 29b2 083d 4793 fabd 7a7b b13d c066 3d3e
000001f0: 1531 5fbe 2aaa a7be 895d 893e 4970 77be
00000200: 88a6 413e 7226 373e f847 c8bd 51c4 a53d
00000210: 34e0 e53e ef25 c6bd 4316 10bf 9d5a 783e
00000220: c4d9 cfbe ac94 a63d 808f e1bd 9fa0 e7be
00000230: 7666 d13e cca1 85be 2e6d 8c3c 6e82 a83d
00000240: 75fe 963d 5db2 c13d 5e56 2f3e 8841 a43e
00000250: eabb c33d 4176 7e3e 8fcd 033f f48c 54bd
00000260: c58f c8be 3609 833e cc15 18bd 7350 e93d
00000270: f380 9e3b 7c55 183f e404 a03e 7d65 d63c
00000280: 4df5 713e 8d68 973e ee30 633d 9b52 c0be
00000290: 8259 88bf ade2 d93e 6555 71be 8092 aabe
000002a0: 6fcf e13e 4cd6 ee3e afeb 33bf 899a 8bbd
000002b0: 9752 ae3d 7b9b d2be d088 b53d 93dd 73bd
000002c0: f639 c6bc b313 a7bd 24dd 25bf b892 febc
000002d0: 6873 4d3e 294b 3abe 6aca 7dbd 78ed 193e
000002e0: f748 d63e 0747 85bd 4707 c5bc 302d 853d
000002f0: ac07 843e 0bdc f5be 5ee9 2abe 01c6 ba3d
00000300: 23c3 32be 057a 3bbd 4e67 f8bd f335 523e
00000310: 75aa d4bd 0a27 1dbe 0e4d 04be 3084 4a3f
00000320: 4294 093f 7e0c 97be 1283 8ebd 8166 2abe
00000330: 0075 623e 6377 643d 74ea ad3d a6f6 1a3e
00000340: 3911 3d3e fb32 a73d 8302 6cbe ff1d cd3d
00000350: d549 1abf 8c12 75bf ad31 1a3e ce4c b63d
00000360: e4c4 5ebe 268a 033e 5a6a 573e c48f 8c3e
00000370: f37c 3d3f 5d54 a83e e44c e73d 3bce 0d3e
00000380: 657c 5d3e dfee f03d 207b 1c3e af1c 9cbe
00000390: b3f9 bdbe 4aeb 1b3d 3472 013f a90c 9c3e
000003a0: c634 88bc d4f3 37be 5905 9bbe 7c86 123e
000003b0: 50a5 833e cb18 99bd e857 f7bc 442b 62be
000003c0: 0eb3 8ebe 692d 043e a6cd 9abe 35da a83e
000003d0: 031b 113e 9e9a 7c3d 5e9e acbd 05fe 863c
000003e0: 0f37 af3d dd72 85be 933a b83d 1e6f 433e
000003f0: ff52 273f 36fb cdbe bb97 bbbe e4bf f83e

encoder.layers.0.feed_forward.w_1.bias f4 [128]
-0.093850695 -0.17899194 0.33924326 -0.06930224 -0.096382044 -0.020317623 -0.36681896 -0.024039965
-0.0659992 -0.08142618 -0.12562591 0.0047304626 0.019972542 -0.46970725 -0.3802457 -0.20165522
-0.36254564 0.04728729 -0.106830895 -0.39285624 -0.0010854021 -0.026411517 -0.14985272 0.109091885
0.058828637 -0.047063872 0.06358744 0.12880665 -0.26627254 0.04338791 -0.08880257 -0.36122286
-0.18895462 -0.15186094 -0.10481901 -0.16455297 -0.09669971 0.10406705 -0.15413074 -0.47262743
-0.081409045 -0.2232059 -0.09395954 -0.13100386 -0.22608879 0.064581975 -0.25793454 0.024865294
0.11582544 -0.027180467 -0.123248495 -0.012951908 -0.002093001 -0.17010362 -0.07905238 0.11543925
-0.056600317 0.14768627 0.09749156 -0.38587478 -0.2066938 -0.09111091 -0.09451955 -0.47006306
-0.12096392 -0.2612446 0.00036044733 -0.42831114 -0.06311299 -0.38538247 -0.19423191 -0.3760106
-0.09558063 -0.19079544 -0.3158986 -0.24311952 -0.31589666 0.005833206 -0.12556966 0.084758386
-0.06039089 -0.20452417 0.009741272 -0.050887622 -0.032037415 -0.2782407 -0.28214362 -0.15493798
-0.1768688 -0.3038699 -0.12592502 -0.20625235 0.13836187 -0.28502083 -0.014308281 -0.035062928
-0.35381588 -0.22422601 -0.25524247 -0.39467448 -0.08021507 -0.19180596 -0.14597246 -0.3168941
0.01873826 -0.16988279 -0.08886808 -0.039931465 -0.18053249 -0.16831516 -0.14676411 -0.10002569
-0.056208815 0.037868574 -0.062129673 -0.16802025 -0.02031622 -0.17608619 0.007376742 0.003363084
-0.108550236 -0.13250886 -0.19238974 -0.15486284 -0.27202702 -0.32555553 -0.016189368 0.006693502
00000000: cb34 c0bd aa49 37be 4bb1 ad3e 55ee 8dbd
00000010: f363 c5bd 2571 a6bc b2cf bbbe 76ef c4bc
00000020: 972a 87bd c5c2 a6bd 14a4 00be ff01 9b3b
00000030: 759d a33c 787d f0be 90af c2be b57e 4ebe
00000040: 959f b9be 51b0 413d 28ca dabd 7424 c9be
00000050: 0d44 8eba f75c d8bc fe72 19be 916b df3d
00000060: 4cf6 703d 0cc6 40bd 223a 823d e4e5 033e
00000070: e054 88be 85b7 313d 1fde b5bd 34f2 b8be
00000080: 527d 41be 6f81 1bbe 59ab d6bd 9380 28be
00000090: 7f0a c6bd 1b21 d53d 73d4 1dbe 39fc f1be
000000a0: c9b9 a6bd 1690 64be dc6d c0bd e025 06be
000000b0: d283 67be 8e43 843d ff0f 84be 4db2 cb3c
000000c0: e335 ed3d 92a9 debc b569 fcbd 3d34 54bc
000000d0: bb2a 09bb a52f 2ebe 37e6 a1bd 6a6b ec3d
000000e0: bcd5 67bd 123b 173e a8a9 c73d 6191 c5be
000000f0: 8aa7 53be 5b98 babd 7793 c1bd 1bac f0be
00000100: efbb f7bd dac1 85be 6cfa bc39 994b dbbe
00000110: 6241 81bd da50 c5be bbe4 46be 7684 c0be
00000120: c7bf c3bd e15f 43be 76bd a1be 53f4 78be
00000130: 35bd a1be 7b24 bf3b 5595 00be ce95 ad3d
00000140: 705c 77bd c96e 51be db99 1f3c 8a6f 50bd
00000150: aa39 03bd 9175 8ebe 2175 90be 10a8 1ebe
00000160: 181d 35be d694 9bbe 7df2 00be d133 53be
00000170: bcae 0d3e 40ee 91be 486d 6abc 259e 0fbd
00000180: 5b27 b5be 819b 65be 24af 82be c612 cabe
00000190: cc47 a4bd c868 44be ce79 15be f23f a2be
000001a0: fb80 993c c1f5 2dbe 7800 b6bd 2d8f 23bd
000001b0: 82dd 38be cf5a 2cbe 5549 16be 45da ccbd
000001c0: 373b 66bd 141c 1b3d af7b 7ebd 800d 2cbe
000001d0: 346e a6bc f04f 34be 99b8 f13b 3067 5c3b
000001e0: 964f debd 67b0 07be d101 45be 5d94 1ebe
000001f0: 2047 8bbe 37af a6be 919f 84bc 2a55 db3b
