index_advisor_selector/index_benefit_estimation/index_cost_lib/exp_res/exp_lib_job_tgt_ep500_bat1024/model/lib_LIB_300.pt (torch, 413135 bytes, 120 tensors)

S f4 [1, 1, 32]
00000000: 8968 dbbc 628b 793d 5731 80bc d9da da3d
00000010: 5d27 bfbd 1557 e8bd 8cc5 d53d 0e96 87bd
00000020: f875 b4bd a115 e8bd 45d0 9e3d e54a 553c
00000030: 7711 f0bd d3c4 5f3b 6db2 9dbc 7475 8abe
00000040: 224b 92bd 6d37 8bbd 472b 82bc c921 a63c
00000050: f171 58bc 39d1 3c3d f1e3 da3d 77ea dabd
00000060: 46d4 b33b 96f1 a83b 0e70 173d 16e1 3e3d
00000070: c7e7 933d 9cff bbbd e843 3bbc 9278 e13a
-0.026783245 0.06092394 -0.015648527 0.10686273 -0.0933368 -0.113447346 0.1043807 -0.066204175
-0.08811563 -0.113322504 0.07754568 0.0130183445 -0.11722081 0.0034144416 -0.01925012 -0.27042735
-0.07143237 -0.06797681 -0.015889777 0.020279782 -0.0132107595 0.046097968 0.106880076 -0.10689252
0.0054879515 0.0051557524 0.036972098 0.046601377 0.072219424 -0.09179613 -0.011429764 0.001720207

linear1.weight f4 [32, 12]
00000000: 2b0d 3bbe d359 013d af26 5d3e 1091 693e
00000010: 2a0a d63f 3fae 8cbf 9b45 01bf 8ce2 01bf
00000020: b16e 3b3e 13a1 6f3f 8c78 fe3d 53de e3be
00000030: 0143 99bd dddd 4bbe 7b98 37be 064b 05bf
00000040: c174 84be 227c ab3d a085 0a3e dc75 05be
00000050: 7bcb 49bd 83d7 61be 9874 b2be ff31 b83e
00000060: 2d80 11bf 030a c1be 2827 64be fb8a 093f
00000070: eec2 6340 5b6e bdbe 2dee 3ebe b1e4 5a3f
00000080: 6609 40bf 4120 27bf 51cb ef3e 29f4 0d3f
00000090: 2bd6 dfbe d59f 733f e44f 5bbe 49b9 34be
000000a0: 94b0 6bc0 f8a4 0abf 7160 033f dd8c 88bf
000000b0: 7209 0abf a2c9 9dbe ff24 6a3e 9563 313e
000000c0: 1d50 d03c a817 693d ed8d 3b3e cae9 c23e
000000d0: 1a0a 8740 e5d7 93be ad57 123f 5240 9bbe
000000e0: dd60 38c0 476b 9ebf b789 90be 00d8 513e
000000f0: c3a5 82bf d89d e03e 4a3f ab3f 6ece 433f
00000100: b5cf a640 07c4 cbbc 675e 423e c929 8b3e
00000110: 5b10 e33e 82f4 49bf 6727 19bf 08c3 4c3f
00000120: 3fc8 503f 0b3f 5abe ae75 373e b5e0 65be
00000130: a0ab 3240 bce6 9fbe 6fe9 a63f bee0 eabe
00000140: 5709 f03d 364c cbbe 1ac2 12be 3ff1 0abf
00000150: 7b43 babf 5763 dd3e d8b9 493f 2a6f de3e
00000160: 342d a9c0 7eab 8c3e f5bb 82be c8ca 893f
00000170: e82b 2e3f dd32 693e 78ad 3c3e 3695 883d
00000180: 2acb 7a3f 2ba1 8dbe da20 fc3d 6049 883d
00000190: 0312 96c0 2845 0abe ddf4 d8bd 9441 203f
000001a0: 62f3 36bf 7e59 973f fbce ebbd f9ba b3bd
000001b0: 90c8 27be 41f0 4a3e 1fb8 993d 9799 8d3d
000001c0: cf29 ccbc ad19 303f 5077 1cbd d74f c4bf
000001d0: 2f91 b73e 4a1a f63e c474 05bf b595 0d3f
000001e0: 4053 30bf d132 0ebf e093 fa3c 9049 8c3e
000001f0: 950a 9540 1b58 3ebf 77c7 27bf 3e1e aebe
00000200: f7ce 93be df18 5bbf 195a 8cbe e4cc d7bd
00000210: a7ca f63d e5a1 cc3d 1747 783f b609 9fbe
00000220: 2076 d33e 42ff 1d3d 1976 233e 1fe0 1e3d
00000230: 015b 113f 26c2 2dbe 9a4f 28be 67c0 e7be
00000240: dcb7 0a3e e423 a43e 5b6d 4fbf a5ae 09bf
00000250: ccda 47be eecb 94bd 97f5 81bc f38c 8abf
00000260: 29b2 ba3e c3b5 133e 18ae 9f3e 7eb6 913e
00000270: 8ac6 1bbe 45ad e4bd c242 a6be e8b5 0a3e
00000280: 4727 6440 6bcd a4bf 0217 25bf 4321 e63f
00000290: 3651 ff3e 8899 98bf 5d29 1cbf 2b02 7ebd
000002a0: 907e 95bf 0bf5 c43e 38e0 1d3e 801c d23e
000002b0: 7ef3 98c0 df8e 513f f531 883f 858b f13d
000002c0: bc39 083f b5fc 81be 298f d3bd 970d 593e
000002d0: 9985 cdbe e064 1e3f 1e2c d03e 7cfb 91be
000002e0: 7693 923e d657 c93e d2cc 353e 387a a33e
000002f0: 2770 613f dfb5 ae3e 1f83 923d d498 2d3f
00000300: 2bb3 5fbf e5f1 1b3e 96a2 63bf 6731 f23e
00000310: 4589 0140 e825 6fbf 364e 013f 29fc cb3c
00000320: db29 e9bd 6a29 17bf 964c 8bbe d3d8 08bf
00000330: dde1 88bf 5b4f 503e 712b 12bf ac0c 203f
00000340: 1eba b540 9a37 5dbf a909 983e 086d c53e
00000350: ba5b 3c3f 9b20 85bf 92f1 2abf 2ff8 99be
00000360: acbe de3d e066 063f 0930 93be 7e68 fabe
00000370: 93f9 4440 c1ce fabe 56f4 e23d 9817 683f
00000380: 474b cabf 7f9a 043f 5ba0 3bbf 4ee6 aa3e
00000390: 58ca aebf b26a b9be 0474 71be 3397 933e
000003a0: 6837 9240 77bd 553e 8f0e 0dc0 edb9 0abf
000003b0: f5e2 8bbf cdb5 84bf 1b26 923d 5562 c5be
000003c0: 7607 9dbe 2102 013f a87f acbf c14b 32be
000003d0: 33dc 9640 b6a4 a33e ee3a 3ebe b385 893c
000003e0: 46b6 24be d39f dcbf d62e ae3d 19d6 f5be
000003f0: 6fda 62bf 612c f0be 8716 f43d 35c7 00bf
-0.18266742 0.031579804 0.21596788 0.22809243 1.6721852 -1.0990676 -0.50496835 -0.5073631
0.18303944 0.93605155 0.12425336 -0.44505557 -0.07483483 -0.19908853 -0.1792926 -0.520676
-0.25870326 0.08373286 0.13527536 -0.13033241 -0.04926632 -0.22054867 -0.3485458 0.35975644
-0.56836206 -0.3770295 -0.22280562 0.5372769 3.5587726 -0.36998257 -0.18645544 0.85505205
-0.7501434 -0.6528359 0.46834806 0.55450684 -0.43718085 0.9516576 -0.21417195 -0.17648806
-3.6826525 -0.5415797 0.5131903 -1.0667988 -0.5392066 -0.30817896 0.22865675 0.17323144
0.025428826 0.056907326 0.18315859 0.38068992 4.219983 -0.28875652 0.5716503 -0.3032251
-2.880912 -1.2376488 -0.28230068 0.20492554 -1.0206836 0.43870425 1.3378689 0.7648686
5.212855 -0.024873747 0.18981324 0.27180317 0.44348416 -0.78888714 -0.5982575 0.79985094
0.8155555 -0.21313111 0.17915985 -0.22449 2.7917252 -0.31230724 1.3039988 -0.4587459
0.117205314 -0.39706582 -0.14331856 -0.5427436 -1.4551843 0.43239853 0.787992 0.43444186
-5.286768 0.27474588 -0.25534025 1.0765009 0.68035746 0.22773309 0.18425548 0.06669085
0.97966254 -0.27662024 0.123109534 0.0665462 -4.6896987 -0.13502944 -0.10593579 0.62600064
-0.7146512 1.1824186 -0.11514088 -0.087758966 -0.16385102 0.19818212 0.075058214 0.069140606
-0.02492228 0.6878918 -0.038199723 -1.5336865 0.35852954 0.48066932 -0.52131295 0.5530656
-0.6887703 -0.5554629 0.03058809 0.27399874 4.6575418 -0.7435319 -0.65538734 -0.34007448
-0.2886884 -0.85584825 -0.2741249 -0.10537127 0.120503716 0.099918164 0.96983474 -0.31062096
0.4130106 0.03857351 0.1596302 0.038787957 0.56779486 -0.16968593 -0.16436616 -0.4526398
0.135467 0.32058632 -0.8102624 -0.5378211 -0.19517058 -0.07265459 -0.015864177 -1.0824264
0.3646405 0.14424805 0.3118751 0.28459543 -0.15212455 -0.11165861 -0.32472807 0.13545954
3.5648973 -1.2875189 -0.6448823 1.7978901 0.49866647 -1.1921854 -0.61000615 -0.062013786
-1.1679249 0.38468203 0.15417564 0.4103737 -4.779723 0.8185863 1.0640246 0.11794189
0.53213096 -0.25388113 -0.1033004 0.2119659 -0.4014099 0.61872673 0.4065866 -0.2851218
0.2862813 0.39324826 0.17753914 0.31929183 0.88061756 0.34123132 0.071539156 0.6781132
-0.87382764 0.15228994 -0.8891996 0.47303316 2.0240033 -0.93417215 0.50509965 0.024900513
-0.113849364 -0.5904757 -0.27206868 -0.5345585 -1.0693928 0.20342772 -0.57097536 0.62519336
5.6789694 -0.86412966 0.2969487 0.38559747 0.73577464 -1.0400575 -0.6677486 -0.30072162
0.108762115 0.52500725 -0.28747585 -0.48907846 3.0777328 -0.48985866 0.1108176 0.90661
-1.5804223 0.5179824 -0.7329156 0.33378834 -1.36555 -0.36214215 -0.23579413 0.28826293
4.5692635 0.20873056 -2.2040136 -0.5418995 -1.0928637 -1.0367981 0.07136174 -0.38551584
-0.30669755 0.50393873 -1.3476458 -0.1741171 4.71438 0.31961602 -0.18577167 0.016787386
-0.16085157 -1.7236274 0.08505027 -0.48014906 -0.88614553 -0.46908858 0.11918359 -0.50303966

linear1.bias f4 [32]
00000000: 0b54 7f3d 6215 cabd cc54 29bc 6ed0 833e
00000010: fe6a 2bbf 7ded 45bf 2ee0 8e3e 3298 583f
00000020: b17c a83d 0b77 74bd 4103 b8be 021f 29be
00000030: d487 623e cf47 e6be 9d2c 063f bd61 6bbd
00000040: fd51 abbe ab29 11bf e19d 07bf 70d6 79be
00000050: 6014 32bf 760b 8dbf 64f7 eabe 149e 7ebd
00000060: 1574 df3e fa04 34be 4cc4 24be d4b5 0a3e
00000070: 24f7 d53e 4468 003e 4f72 7abe dfcf e93e
0.06233601 -0.0986736 -0.010335159 0.25744957 -0.6696013 -0.77315503 0.2790541 0.8460723
0.08226908 -0.05968384 -0.35939983 -0.16515735 0.22122127 -0.4497666 0.52411824 -0.057466257
-0.3346099 -0.56704205 -0.5297528 -0.24398208 -0.6956234 -1.1019123 -0.4589187 -0.062162474
0.4364325 -0.17580023 -0.16090506 0.13545924 0.41790116 0.12539774 -0.24457668 0.45666406

encoder.layers.0.self_attn.linears.0.weight f4 [32, 32]
00000000: e2f6 92bf 4621 14bd 4030 1bbe 37af b33c
00000010: d998 213f 7b9e 153f 04e6 afbe f341 8abf
00000020: e1a9 d4be 0e59 93bd 8280 1cbe 9347 01bd
00000030: 63aa 053e 2752 613c 8ad7 b83e 806c ce3e
00000040: c164 f8be c6d1 e4bd badb adbd c488 25bf
00000050: a1ac 9cbd 9799 1e3f 4ace 773e 3a6e 173d
00000060: 30f7 73bf 15ff 373e 01d7 8bbc 2f4f e7be
00000070: 7e79 223f 5597 1dbf d395 5d3f 83d6 14bf
00000080: e231 c83e c7df fdbd bdd5 6fbe 5394 963c
00000090: b179 efbe 320c 73bf 444b a13e 931d c03e
000000a0: a0da 963e 0813 0dbf 5a6b 613e 8f83 833d
000000b0: b11b 17be 4513 993e fa2a 29bf ee7d 8abf
000000c0: 8f59 d93c 342e d23e 5e3b 5dbe 1822 db3e
000000d0: 0142 c83c bd70 edbe 10f1 03bd 3cc3 4fbd
000000e0: 8eb9 06be 3e4a 94bf ae50 c1bc b8c8 8b3e
000000f0: 62be 6abf 30b3 813e 6e23 5ebe eb2e c73e
00000100: e555 ecbd d187 34bc a50e 193f aec3 343d
00000110: 45ac 2d3e bfdd 143f eb42 bfbd 5c8c 923f
00000120: ad7f ffbc 3c95 4bbc 2e54 1a3f 8af5 dfbd
00000130: 13ba 51bd 436c 2a3f 4cc2 ba3e f788 883e
00000140: 4cf2 04be cd77 a53e 8973 0d3f adc1 b83e
00000150: c18e 5b3d 1480 2f3f af22 333e 73a9 2cbe
00000160: 2621 3b3d 0cb9 733d 7bbb 1e3c ef6d 60be
00000170: 87b6 62bf 8fd5 ab3e d0c3 8e3e b85a b1be
00000180: 9824 ca3e 3e53 0a3e c998 3dbe 3e22 2f3c
00000190: 3371 32bf 18ea 21bf 3fef 82bd 6b20 b93e
000001a0: 8eae d23e 1e92 9a3f e91d 59be 9324 223c
000001b0: daa0 53be 9794 7cbf ef8c a7bd a352 1cbf
000001c0: d6e6 d53e 49d2 8dbe eeab bcbe ecde 923e
000001d0: fb72 37bc 1ee0 37bf 14a3 83bc 1119 1e3d
000001e0: 7c55 333e 1567 a93d b64c 2d3e 1e08 7c3d
000001f0: 58d8 583f 93a7 073f 4c33 37bf e37f 67be
00000200: 0a83 993f 2d6c 5c3e f252 3f3f 82c1 f93d
00000210: 7ceb 423f e248 913f 3668 a93e e7ec e13e
00000220: fe7e 993e 88e1 673f 9d80 2f3f f09a 8f3e
00000230: ad0b 15bd 80b4 483f d6b9 183f ac55 823e
00000240: 6856 963f a6ab 5b3f 7e00 c03f 2717 8ebe
00000250: d18a fe3e 494c bb3f 6b93 c63e cb91 c23e
00000260: 5de9 b73f 219b 013e 9b22 e9bd 019b b8bc
00000270: 5a1b 223f fdbe cbbd 6150 65be 90da da3e
00000280: d532 8e3f 6afe 77bd c44c abbd 5abb 6b3f
00000290: 6941 80be 2645 02bf c150 003f 329b 1f3c
000002a0: e57f 57bf c101 a9be eb0c 7abd ce59 9cbd
000002b0: 75b6 bc3c 6783 06bf 8699 e33d 495b a33e
000002c0: 5dc7 b93f 13b0 ab3c 9abe 30bf 3329 333f
000002d0: 7a34 61be d626 663d 3832 ccbe 5c02 733d
000002e0: 6ab1 533d 7603 c5be c278 be3c 62ab f5bb
000002f0: b30c 9cbe e3ea 993e 5db7 0cbf 44a0 88bf
00000300: 37fb 2dbf fb70 91bd 8051 aa3d b8bf 04bf
00000310: 3f33 9abe edfb 073d 641c 74bd 9403 413f
00000320: 2bc7 a33e 1547 dc3e dc81 53be 3c16 513c
00000330: b31f 913b 310c 063f 7fc4 1ebe 530c 733f
00000340: e7f8 95bf 4b84 213f 3f25 08bd 21b3 1d3f
00000350: e8e9 24bd 17d3 04bc f51c bc3d 1ed0 6cbe
00000360: 6482 753e a169 7d3f a636 06bd 0823 a73d
00000370: bc12 72be faba 75be 3e7a ba3e 2188 1a3f
00000380: e225 16c0 2ccc 153e f90b 8fbe 1ba8 40bf
00000390: 6922 1bbe 8116 24bf 25ba 83bf 52d9 79bf
000003a0: fa28 c3bd dd17 cd3d 4eaa 0fbf b898 4abe
000003b0: 9200 5e3e 3966 28bf 2f53 fcbd 4762 61bf
000003c0: 3dcd 4bc0 5b64 bbbf 7e05 73bd f071 8fbf
000003d0: 0dbf 4bbe 344b 3bbf 4361 9b3e f234 1cbd
000003e0: 30bd 1bc0 c88e 03bf 5f39 ba3d 8422 1dbe
000003f0: f444 a93e 85fa 483d 0fe3 fd3e 7d70 60be
-1.1481593 -0.036164545 -0.15155125 0.021934135 0.6312385 0.58444947 -0.34355175 -1.0801376
-0.41535857 -0.0719472 -0.15283397 -0.0315624 0.13053279 0.013752497 0.36101943 0.40317154
-0.4851437 -0.111728236 -0.08489175 -0.6466181 -0.07650114 0.6195311 0.24199787 0.036970355
-0.95299053 0.179684 -0.017070295 -0.451776 0.6346663 -0.6155904 0.8655674 -0.5813982
0.39100558 -0.12396198 -0.23421378 0.018381273 -0.4677253 -0.94940484 0.31502736 0.37522563
0.29463673 -0.55107164 0.22013608 0.06421577 -0.14756657 0.29897514 -0.660812 -1.0819681
0.026531963 0.41050875 -0.21604678 0.4279945 0.024445536 -0.46375075 -0.032212317 -0.0507233
-0.13156721 -1.1585157 -0.023598041 0.27301574 -0.9169675 0.25332022 -0.21693203 0.38902983
-0.115398206 -0.011018709 0.5978797 0.044131927 0.16960247 0.5815086 -0.093389355 1.1449084
-0.03118881 -0.012425717 0.602847 -0.10935505 -0.051202845 0.66571444 0.36476362 0.26666996
-0.12983054 0.32317963 0.5525442 0.36085263 0.053602938 0.68554807 0.174937 -0.16861515
0.04568591 0.059502646 0.0096882535 -0.21916936 -0.88559765 0.3356137 0.27883768 -0.34639525
0.39481044 0.13508317 -0.18515314 0.010689316 -0.6970398 -0.63247824 -0.06393289 0.36157545
0.411488 1.2075841 -0.21202816 0.009896415 -0.20666829 -0.9866423 -0.08181178 -0.61063594
0.41777676 -0.27699497 -0.36849922 0.286857 -0.011196847 -0.7182635 -0.016068973 0.038598124
0.17513078 0.082716145 0.16923794 0.06153118 0.84705114 0.5299007 -0.7156265 -0.22607379
1.1993115 0.21525641 0.7473594 0.12195112 0.7614057 1.1350367 0.3308732 0.44126055
0.299797 0.9057851 0.68555623 0.28047895 -0.036388088 0.7840042 0.59658563 0.25455987
1.1745119 0.8580879 1.500015 -0.2775204 0.49715284 1.4632655 0.38784346 0.38001856
1.4368092 0.12656833 -0.113835536 -0.02253485 0.63322985 -0.099485375 -0.22393943 0.42744875
1.1109263 -0.060545363 -0.08364251 0.9208275 -0.25049904 -0.5088676 0.5012322 0.009741591
-0.84179527 -0.3300915 -0.061047476 -0.076343164 0.023036221 -0.52544254 0.11113267 0.31905583
1.4513966 0.020957982 -0.69040835 0.6998474 -0.21992674 0.05618938 -0.39882064 0.059328422
0.051682867 -0.38479203 0.023250941 -0.007497237 -0.3047844 0.30062017 -0.5496729 -1.0673909
-0.6796145 -0.071016274 0.08316326 -0.5185504 -0.30117223 0.03319924 -0.059597388 0.75396085
0.3198789 0.4302298 -0.20655006 0.012761649 0.0044288277 0.5236235 -0.15504645 0.9494068
-1.1716584 0.6309249 -0.033238646 0.61601454 -0.040262133 -0.008106968 0.091852106 -0.23126265
0.23975521 0.989893 -0.03276696 0.081609786 -0.23639959 -0.23997107 0.36421388 0.60363966
-2.3460622 0.14628667 -0.27938822 -0.7525651 -0.15149845 -0.6409684 -1.0291182 -0.9759723
-0.095293 0.10014317 -0.5611924 -0.1978482 0.21679905 -0.6578098 -0.123205535 -0.88040584
-3.1844018 -1.4640001 -0.05933141 -1.1206646 -0.19897099 -0.73161626 0.30347642 -0.03813643
-2.433422 -0.5138974 0.09092974 -0.15345198 0.3306042 0.04906704 0.49587294 -0.21917911

encoder.layers.0.self_attn.linears.0.bias f4 [32]
00000000: 91fc d3be 8305 313e 3980 aa3d dbcd 273f
00000010: 4083 a13e 5e2d 89bd 093e bdbe 1258 d2bd
00000020: fb89 afbe 1de6 d2bd 61ca 0fbf 0e82 d1be
00000030: 8801 b7be 40cc fdbd 34e9 6f3e 7a72 c43a
00000040: 932d 96bd fa07 e13e abca e9be 5179 a0be
00000050: 76ab 35be 54a0 93be d750 973e ada5 943d
00000060: f8c3 333e 130b 143e b4ac a73e 7820 37bd
00000070: 34be 29be c760 11bf f259 01be d2b1 5dbe
-0.4140363 0.17287259 0.08325238 0.65548486 0.31545448 -0.06698106 -0.36961392 -0.10270704
-0.34284958 -0.10297797 -0.5616818 -0.40919536 -0.35743356 -0.12392473 0.23428804 0.001498773
-0.07332911 0.43951398 -0.45662436 -0.31342557 -0.17741188 -0.28833258 0.29553863 0.07258163
0.17555225 0.1445735 0.3274895 -0.0447087 -0.16576463 -0.56788296 -0.12631968 -0.21649864

encoder.layers.0.self_attn.linears.1.weight f4 [32, 32]
00000000: faa1 76ba b836 b7bd b077 af3e d0db 92be
00000010: bdc9 e0be d2d3 6b3e 4c5b b2be 5968 85be
00000020: e6f5 443f 52b4 1fbf f57a 023f b5f1 10bd
00000030: 22f3 02be 9ee8 973d 4fca ddbe 559f 953e
00000040: 68a9 19bf 19f7 b33e 0129 59bc c119 263e
00000050: c919 3d3e 9b44 d63e 041d 34be e3b3 013d
00000060: e9ad bb3e d055 2abf fd72 a2bd 97f1 88bd
00000070: 2ce2 53be a921 5cbe 97a6 8bbe a2d6 da3e
00000080: 839f edbe bbb2 9f3e 8de7 833d 9540 0cbd
00000090: a177 e53e c5d8 64be 5a5b 773e 9b58 f13c
000000a0: 6a7d 62be 0d2f 0f3e 6b98 06bf d246 e73e
000000b0: c579 c93e 16df fcbd 867f 513f eae7 55bd
000000c0: 5b7b 8d3e fc2a cebe c73d 423d e779 06bf
000000d0: b685 d73d b495 ffbe b63a 0b3f 6f2f 873e
000000e0: 4e66 c2be 1ae5 85be af2e 9d3e 7535 9e3e
000000f0: 53fc be3e c0ef 213e 95db 43be 9907 0dbd
00000100: bbae a93d 6b10 3b3d 332c 6dbe 1ecb 0cbe
00000110: caf6 07bf b73b e53e 0a69 9d3c 8d66 24be
00000120: ae85 07bf e1b7 f73e 9cde 863d 3fa7 e23d
00000130: 0705 7b3c fa8c 553e 5cc1 9dbd ebf3 51bf
00000140: 2ea9 2a3e 764a 2c3e 4355 90bd 72e7 793e
00000150: ae88 bcbe d7b1 273f b034 f13d b05b 7e3d
00000160: f5df eabe 24a2 553f bff0 363e 2f24 4d3e
00000170: 0f78 b3be 786d a1be d87f de3e 5b6f 51bf
00000180: 22dc 17be da86 3abe 3bba 3dbe 5ba9 163f
00000190: 3ab7 fe3e 152a 95be e28e 8bbf efd4 6f3f
000001a0: e259 393c 7abd 8c3e adc5 e83c a5cf e6be
000001b0: 46de e7be 52ef b7be 832f 0b3f 2778 e2bd
000001c0: a1bc fa3d 7ef1 e5be bf4d 80bd 7421 7f3e
000001d0: e2df 69bd 993f 3cbf d026 8bbe 2859 72be
000001e0: 3ef0 8bbe eb19 8fbe da77 81bd 03ad bdbe
000001f0: 5681 bb3d 072b 5a3f 3979 b83e ba6b 2abf
00000200: 1009 953f 0cf1 91be b200 d8be 77fc 2c3d
00000210: 59a2 7e3d 9433 aabe ecb1 a2bd 8541 113e
00000220: c7c7 703e 5f98 d43c 28de 363f 0359 b0bd
00000230: 69c4 2ebf fdb3 253f 9cd9 f3be 8637 39bf
00000240: 96c7 8f3e 3d4f 1e3e 4c49 10bf 4602 853f
00000250: 4696 4b3e fd83 e1bd 689e 97bd 0c57 99be
00000260: 114b f73e 7b4e f7be e5cb a4be 36ae 3abd
00000270: fefc cc3e afd0 3a3d d82e cdbe cebd 79bd
00000280: da8b 88bf 9196 0f3f d9c7 15be aae8 01bf
00000290: c33c 6d3d 29dc 26be f91c ac3d 1379 0abd
000002a0: fb13 303f 42fb 21be 5b9c e6be cc3a 183f
000002b0: 2928 883c d4d7 1e3f aa6d 7f3e b6ad dd3e
000002c0: 8f83 aebe 4b2b 4cbf 143c da3e 3d19 02bf
000002d0: 690b 13be d353 ba3e 4c18 183f e6b0 1b3f
000002e0: 8cd2 2abf 501a febd 4370 f13e 4f3d 113f
000002f0: 634b ddbe ffdf d0be 83be 113f 35be 0c3e
00000300: 5516 3bbb 2583 a73e abbc 313f 3bc0 203f
00000310: 07d4 a13e 2104 dd3e 8303 eabe 15b6 ef3e
00000320: ecc3 c6be 4249 4fbd 578b 133f 174d c63d
00000330: 0823 833f e8f1 353e e2c4 553e 556e 323f
00000340: d739 03be b869 80be 3230 c03e d50a e7be
00000350: 288d b1be ad88 2e39 f3a9 493e 8635 ad3d
00000360: 3c5f a1be da61 333f 8f98 ec3e ca55 a03e
00000370: 2877 b5bd e108 10be 1fc7 113f 82b0 48be
00000380: 25e5 70bf 7f40 e33e 6b73 233f 5f2d 6f3e
00000390: a04e 2dbe c157 debd de82 da3d 507b d9bd
000003a0: 4c08 bfbe d834 bb3d ebad 1fbf c2cf 803c
000003b0: 5695 373f bab8 0abf 7a93 063f 1f45 013f
000003c0: 85a3 35be 2bad adbe ed5f f03e d45a 8bbf
000003d0: 79c1 a5be 5bca 5bbe 60bc d53d a48b dd3e
000003e0: ba41 89be 1add 073f 2d22 c03e eccf 143d
000003f0: ec78 193b 611d 463e c84d 173f 9d08 4c3e
-0.00094082917 -0.08945984 0.34271002 -0.2868333 -0.43903914 0.23030022 -0.3483528 -0.26056173
0.7693771 -0.6238452 0.5096887 -0.03538676 -0.1278806 0.07417415 -0.43318412 0.29223123
-0.6002412 0.35149458 -0.013254405 0.16220762 0.18466868 0.41849217 -0.17589194 0.031665694
0.3665612 -0.6653719 -0.079320885 -0.066867046 -0.20691746 -0.21497215 -0.27275535 0.42741877
-0.4641076 0.31191048 0.06440649 -0.034241278 0.44817832 -0.22348316 0.24155942 0.029461196
-0.22118154 0.13982792 -0.5257632 0.4517122 0.39350715 -0.12347238 0.8183521 -0.052223124
0.27633175 -0.4026717 0.047422197 -0.5252976 0.1052355 -0.49918902 0.5438646 0.26403376
-0.37968677 -0.26151353 0.3069968 0.3090016 0.37301883 0.15814114 -0.19126733 -0.034431074
0.0828528 0.045669954 -0.23161392 -0.13749358 -0.53110945 0.4477212 0.019215126 -0.16054745
-0.52938354 0.48382476 0.06585428 0.11067056 0.015321023 0.2085456 -0.07702896 -0.82012814
0.166661 0.1682528 -0.070475124 0.24404696 -0.36823028 0.6550574 0.117776275 0.06209916
-0.4587399 0.8345053 0.17865275 0.20033334 -0.35052535 -0.3152883 0.43456912 -0.8181054
-0.14830068 -0.18215504 -0.18528073 0.58852166 0.49749166 -0.2913367 -1.0902979 0.93684286
0.011312934 0.2748831 0.028414572 -0.45080295 -0.4528677 -0.35924774 0.5436937 -0.110580735
0.12243009 -0.44910806 -0.06264829 0.24915105 -0.057098277 -0.7353454 -0.2717805 -0.23666823
-0.27331728 -0.2794946 -0.06321688 -0.3704606 0.09155528 0.85221905 0.36029986 -0.6657063
1.1643391 -0.28504217 -0.4218803 0.042232957 0.062166546 -0.33242476 -0.07944092 0.1418515
0.23513709 0.025951562 0.71432734 -0.08610728 -0.6826845 0.64727765 -0.4762696 -0.7235035
0.2808196 0.15459915 -0.5636184 1.0391319 0.19881544 -0.11011503 -0.074032605 -0.29949224
0.4829946 -0.48302063 -0.3218681 -0.045576297 0.40036768 0.045609172 -0.400748 -0.060972027
-1.0667679 0.5608912 -0.14627017 -0.5074564 0.057919275 -0.16294922 0.084039636 -0.03380687
0.6878049 -0.15818503 -0.45041165 0.59464717 0.016620712 0.6204808 0.24944177 0.43296593
-0.34084746 -0.7975356 0.4262396 -0.5081976 -0.14359821 0.36392078 0.59412074 0.608168
-0.6672752 -0.124073625 0.4715596 0.56734174 -0.43221578 -0.40795895 0.5693132 0.13744433
-0.0028547246 0.32717243 0.6942851 0.6279332 0.31607077 0.43167213 -0.45705804 0.46818605
-0.38821352 -0.050606973 0.5763449 0.096826725 1.0245066 0.17768061 0.20875886 0.69699603
-0.12815033 -0.25080657 0.3753677 -0.45125452 -0.34678006 0.00016644849 0.19693737 0.084574744
-0.3151797 0.70071185 0.46210143 0.31315452 -0.08860618 -0.14065887 0.5694446 -0.19598582
-0.94099647 0.44385144 0.6384799 0.23357151 -0.16924524 -0.108565815 0.10669492 -0.10619223
-0.37311018 0.091409385 -0.6237475 0.015724067 0.71712244 -0.5418812 0.5256878 0.50496095
-0.17738159 -0.3392118 0.46948186 -1.0887094 -0.3237417 -0.21463911 0.1043632 0.432706
-0.26807958 0.5307175 0.37526074 0.036331102 0.0023418022 0.19347145 0.5910306 0.1992516

encoder.layers.0.self_attn.linears.1.bias f4 [32]
00000000: e679 f0be e181 a83e 08c6 4fbd 5e96 703e
00000010: a031 acbe 3743 443e 349a b5bc a446 b73e
00000020: bc66 6e3e 48ab 303e 73a8 4ebb 5a3f 293e
00000030: 87e8 34be 41c4 37bd a34a 2c3e 810e 87be
00000040: d812 6dbe 1991 193e 04d0 37bd 3b4c 44bc
00000050: 4370 0cba 961e 9bbe ba1f d13e 506c 9c3e
00000060: bc23 6fbe 23ad 19be 9308 2abd e2fb 333e
00000070: 31fc 123e 1832 c03e 76b0 0d3e 8fdc a13e
-0.46968 0.3291159 -0.050725967 0.2349486 -0.3363161 0.19166265 -0.022168256 0.35796082
0.23281378 0.17252839 -0.003153351 0.16528073 -0.17666827 -0.044864897 0.16825347 -0.26378253
-0.2315172 0.14996757 -0.044876114 -0.011981065 -0.00053573045 -0.30296773 0.40844518 0.30551386
-0.23353475 -0.15007453 -0.041512083 0.17576554 0.14354016 0.37538218 0.13836846 0.31613585

encoder.layers.0.self_attn.linears.2.weight f4 [32, 32]
00000000: 8cdb 89be 9ff8 ff3d e605 3ebe d1f0 383c
00000010: c948 523d 4c62 083e f17a 03bd 737f b83c
00000020: 11c1 92bd 05bf f5bd f9e5 5cbe 4d0e be3d
00000030: 7706 73be 093e 443e 1455 983e 35ba 80bd
00000040: 1758 2abe bfb8 573e 3200 19bd f206 20bd
00000050: f852 e23e 43c0 163e 95fe 28be a5f4 2a3e
00000060: 3a8a 873e e240 623e e41b 5cbd 640f ffbd
00000070: a25c bbbe 7835 d3be 9b20 933d eba4 3bbe
00000080: b127 27be ca56 78be 2ab4 483d b368 62bd
00000090: 65df 083e 6417 2f3e fd2a 333d 0fe4 45be
000000a0: f29c 813e a7df 82bc 8242 f73d d7d7 d1bc
000000b0: ec92 d6bd 9829 09be dbe3 56be ebd6 cd3d
000000c0: 486a 1a3d 7243 6dbd 9466 043e b973 2d3e
000000d0: 9023 783e 8920 383e e315 c93a 0413 6d3c
000000e0: f1f9 55bd ecf8 19bf 190b 98bd 559a ffbd
000000f0: fd51 2d3e e827 6c3e a84f ffbd bff6 06bd
00000100: bf4a 33be 4419 94bc d0c6 953d aae1 c7be
00000110: 0fab ab3e 71ae 02bd c55b fc3d 9412 3abd
00000120: 855b 9ebe 415d a93e c176 933e 8bd9 0abe
00000130: 35d3 fbbd a7c1 aabd 04bd f23c 9c8c d4be
00000140: a3ea 233d 880d 21bd 6223 71be 5a33 5c3e
00000150: f174 863e 9fa9 773e b6a1 ac3b 2bb9 30be
00000160: fb37 a73d 0aec c23e dc48 18bd bdee 3c3d
00000170: ce01 77be 70bf aabd 6150 8c3d 0f61 04bd
00000180: 8b3a 543d a058 77be 5570 88bd d294 93be
00000190: 353c 0c3e 6e95 e3bc 6b97 193e 8c9e a4be
000001a0: 7970 533e cdc1 163f 2e51 c13c 119e d4be
000001b0: 17ad 5cbe fb45 f9bc 3e82 93be aad5 3ebe
000001c0: e35f 133e 3594 b1bd 8458 713e 2aab d33e
000001d0: 5139 30bc 526a bf3c ed08 fcbd 6048 0abe
000001e0: 90ec 223e b841 223d 9d1d 54bd 67d3 b6be
000001f0: 088f 033f 4707 613d 32d1 233b f118 983d
00000200: 2ef0 c5be a31e f4bd 48c2 c3bd d7b4 fc3d
00000210: d94b fc3e 0dd1 33bf 6db1 533c 59bc 0fbe
00000220: afb6 863e 4a56 a6bd bddf e53d 564a fabd
00000230: f466 3dbe 629b 1c3f d185 c2bd ee11 f4bd
00000240: 4794 bc3e 6a30 b53e f54a da3d ea8b f63e
00000250: 0711 79be 4de0 8cbe 6bd5 3e3f 354e 15bc
00000260: 0836 8bbe 3679 ad3e 9c96 afbd 37d5 f5bc
00000270: a6b8 7a3e d6a4 a3bb aa72 aa3e 19ef e03d
00000280: 591d c73e b238 813d 5193 203e 9a18 be3c
00000290: c5f3 c2be 68b3 8fbc 97d8 43bc 35aa 3fbe
000002a0: bf8a edbd d894 863e e77d 8b3c dd5d 80bd
000002b0: 2bd2 5c3e 1f5a 5bbc 7a48 2f3d f290 fd3d
000002c0: 9ef7 8a3e ff78 8dbe 85c6 21be 073b 00be
000002d0: 7c3c 41be c62f 453b af1f c7bd a656 143d
000002e0: 6214 943e af1b 47bd 3072 0b3e 6b0d b83d
000002f0: 8fb5 d33e f082 08bf ee4a 7ebd 847d 853d
00000300: a2a0 03be e1b9 b93c 33d2 303d cec4 9f3e
00000310: b518 a0be 2754 1ebe 2825 7c3e f446 163f
00000320: abe1 693d dbbd 7dbd 530c 9ebd a60e 073e
00000330: 3373 013f 5ff7 e83e c5ea d53c c78c b3bd
00000340: ae76 c1be b6ee 1e3e efa6 2c3d 6af5 b0b9
00000350: 44af 4fbe d8e0 5a3e 7bfa 10bf 4c5c bdbd
00000360: 7d00 6ebe 407e ccbe d721 203c d060 fb3d
00000370: d713 843d e9c3 34be 2add 7a3d ba84 b13e
00000380: ce37 3a3e 0179 233e 377c 923e 8017 27bd
00000390: f029 16bf 6604 4ebe bf3d 21bd 1b2d 8c3d
000003a0: 7855 5ebe cdea 8a3d 5e16 5f3e 085f dfbc
000003b0: 6a82 f33e ba7b 373e 16be 603d f285 8abe
000003c0: 2110 b23d 7bba 7bbe 2049 25bd 0dc7 b1be
000003d0: fe66 9ebe 6e60 8dbd b60e 033f 0d96 05be
000003e0: 25ac d33e 2bfd 6bbe 04e5 493e ef6b 983e
000003f0: 610e ac3e eb49 f83d 8af6 87be 0270 a13e
-0.26925313 0.124985926 -0.18556938 0.011287884 0.051338945 0.13318747 -0.032099668 0.02252171
-0.07165731 -0.11999325 -0.21572103 0.092800714 -0.23732935 0.1916429 0.2975241 -0.06285516
-0.16635166 0.21066569 -0.037353702 -0.039069124 0.44203925 0.1472178 -0.16503365 0.16694887
0.26472646 0.22095063 -0.053737536 -0.124541074 -0.3659411 -0.4125173 0.071839534 -0.1832463
-0.16323735 -0.24251857 0.048999943 -0.05527563 0.13366468 0.17098767 0.04374217 -0.19325279
0.25315052 -0.015975786 0.12073232 -0.025615616 -0.10477242 -0.13394773 -0.20985357 0.10050758
0.037699014 -0.05792565 0.12929755 0.16938676 0.24232316 0.17981161 0.0015341606 0.014469866
-0.052240316 -0.6014545 -0.07423992 -0.124806084 0.16925807 0.23062098 -0.12466365 -0.03295016
-0.17508982 -0.018078454 0.07313311 -0.39039356 0.33528945 -0.03190464 0.12322191 -0.045427874
-0.309292 0.3307896 0.2880154 -0.13559549 -0.12296144 -0.083377175 0.029631145 -0.41513526
0.04001869 -0.039319545 -0.23548654 0.21503964 0.26261094 0.24185799 0.005268301 -0.17258136
0.08164974 0.3807071 -0.03717886 0.046126116 -0.24121782 -0.08337295 0.068512686 -0.032319125
0.051813643 -0.24154902 -0.06662051 -0.28824478 0.13694842 -0.027781215 0.14999168 -0.32152212
0.20648374 0.58889467 0.02359828 -0.41526845 -0.21550404 -0.030428877 -0.28810304 -0.18636194
0.14392047 -0.086708464 0.23568922 0.41341525 -0.010755853 0.023366127 -0.1230639 -0.13504171
0.15910554 0.039613456 -0.051786054 -0.35708162 0.51390123 0.05493858 0.0024996516 0.07426632
-0.38659805 -0.11919906 -0.095585406 0.1233918 0.49276617 -0.7024086 0.01292072 -0.14036693
0.26311252 -0.08121927 0.11224315 -0.1222121 -0.18496305 0.61174595 -0.0949818 -0.11917482
0.36831877 0.353885 0.10658828 0.4815362 -0.24322902 -0.27514878 0.745444 -0.009112884
-0.2718966 0.3388154 -0.08573648 -0.030008895 0.244845 -0.004994015 0.33290607 0.10983104
0.38889578 0.06309642 0.15681197 0.02320509 -0.38076606 -0.017541602 -0.0119534945 -0.18717273
-0.11598729 0.26285434 0.017027808 -0.06267903 0.21564548 -0.013388186 0.04279373 0.12381162
0.27142042 -0.27631375 -0.15798385 -0.12522517 -0.18870729 0.003008829 -0.0972284 0.036215447
0.289218 -0.048610386 0.13617778 0.08986934 0.41349456 -0.53324795 -0.062083177 0.06518081
-0.12854245 0.022671642 0.04316921 0.31204838 -0.3126885 -0.15461789 0.24623549 0.58702016
0.05709998 -0.06194864 -0.077171944 0.13189182 0.50566405 0.4550123 0.026112923 -0.087670855
-0.37785858 0.15520748 0.042151388 -0.00033752184 -0.20281702 0.21374834 -0.566322 -0.0924612
-0.23242374 -0.3994007 0.009773693 0.12274325 0.06449097 -0.17652859 0.061246075 0.34671575
0.1818535 0.15964128 0.28610393 -0.040793896 -0.5865774 -0.20118865 -0.039365526 0.06844541
-0.21712291 0.06783066 0.21785876 -0.027266994 0.47560436 0.17918292 0.05486878 -0.27055317
0.086944826 -0.24582855 -0.04035294 -0.34722176 -0.30937952 -0.06903158 0.5119432 -0.13045521
0.41342273 -0.23045795 0.19716269 0.29769847 0.3360472 0.12123474 -0.26555282 0.31530768

encoder.layers.0.self_attn.linears.2.bias f4 [32]
00000000: f0fb 67bd 7337 76bc d676 11be 4654 873d
00000010: 5d37 91be 7236 433d 756f e1bd b2ee ee3d
00000020: fa48 dd3d aa08 d13c 6542 573b 9a1a 053e
00000030: c6aa b53d d0a2 d9bd 9958 96bd 9175 1a3d
00000040: 0ee7 753d df6f 383d cd04 043e 68ce 2fbd
00000050: c5a6 01be 46ee dbbd d31c 093d 3bbb 22be
00000060: 89b7 ab3c e9d1 f33d 99d4 bc3d 0cee 673d
00000070: 14a7 6cbc 21ee 9bbd 14df 353d 04be 3e3d
-0.05663675 -0.015027869 -0.14205489 0.06607871 -0.2836255 0.047659345 -0.11007587 0.11666621
0.10804935 0.025516827 0.003284597 0.12998429 0.08870463 -0.10626757 -0.073411174 0.037709776
0.060034804 0.045028564 0.12892456 -0.042921454 -0.12661274 -0.107388064 0.033474755 -0.15891735
0.02096154 0.119052716 0.09220237 0.056623504 -0.014444131 -0.07613779 0.044402197 0.04656793

encoder.layers.0.self_attn.linears.3.weight f4 [32, 32]
00000000: 51e2 93bd 9acc b5bd e4b3 3dbe 1b24 1d3e
00000010: b569 e5be 1ccd 1b3c ee3b 153d 9367 203e
00000020: 0612 d33e b751 3ebe 4d29 6f3e 4c72 e63e
00000030: ddb0 313e eaac ba3d 8212 19be b3fa b0bd
00000040: 8fb5 1b3e b89f c9bd 319a 9dbd 8590 03be
00000050: 61ff 043d 8ef9 933e 3443 44bd af2a ac3d
00000060: 147c 1c3e 2eac 9abd b4c1 f2bd 84c5 a5bc
00000070: 7949 bbbc 5363 5abc b48d 913e 5a18 20bd
00000080: 49a6 bfbd 124d 093e 113e 593d 0f35 783e
00000090: 8ada d93e be0f 30be 1baa 773e 70a2 05bd
000000a0: 00bc 4fbe 2398 633e 87c7 193e 1408 bb3d
000000b0: 02e2 3f3e c8b5 923d 4213 b1be f993 94be
000000c0: 1067 213e e99e d4bc 12a8 e9bd 98f5 93be
000000d0: c779 a3bd b059 573e a74e 403e 481c 8abd
000000e0: 304e b13c 32e0 a7be 7cff cbbd 463c 0b3f
000000f0: b45b 81be 522d a23d ba8c 333e 5d28 513e
00000100: a8f4 8bbd 2ac9 5c3d 667f 45bd 3d67 11be
00000110: 8db9 b7be 9b7c f23e 45dc e1bc fce5 50be
00000120: ebbb bbbd 6c4c c7bd b26d 79be 6b1c 263d
00000130: 16ab c0be f406 c93d c77e 313f f382 0cbe
00000140: 4655 963e b789 933d 2629 b8bd 8b38 24bf
00000150: 5a5f 9dbd f5bc 003e e302 55be 002d 17bd
00000160: bfd9 40be 9f0e 04be ca29 483e 4180 9fbe
00000170: 5ee8 5bbe ac1b b73e 41a1 19be 8dd8 383e
00000180: 0dea efbd d8dc edbb 42dd bbbe 559d 29bd
00000190: 909d 923e c51b a6bd 3c3d 32bf 834c b63d
000001a0: 369e 873d 138f 6d3e 9426 dbbd 396a 5dbe
000001b0: a074 13be 8d0c 3d3d 77ae bcbe 5b7c 0cbd
000001c0: 7d4e a1bd 255c 41be 3b51 3dbb 8039 c3be
000001d0: 2fc1 1f3e 373e 2a3e 7e0e 663e 80c7 6fbd
000001e0: f6fa cc3c 001c d3bd 1a7d 54be bf3a d13d
000001f0: 296a b6bd d46a b93b 7e6a bc3d 1337 6abe
00000200: 8e9f e03d 7bb6 7dbd fca1 813e 2dd0 1abd
00000210: 0500 a33e f5aa 48be 15ad bebe 13cd a8bc
00000220: b65f 7a3d c87f dd3d 7468 23be 84b2 05be
00000230: 0092 1abe 6881 c13d 7ebf 2ebe b15d dcbb
00000240: d098 94bd 8043 70bd d7d0 9dbe 9496 c4be
00000250: aad4 3e3d a198 b4bd b1d4 b23d 53aa e53d
00000260: 2b68 a03c 46f7 623d 3948 30bd 736a 43bc
00000270: b934 c73d a262 0a3e 0153 ecbd 7ea0 58bd
00000280: 8523 473e 56e9 813d ff9f 5b3b da0e 76bd
00000290: 679b 573e 988c 393e c743 95bc 0b47 d93c
000002a0: 28d1 0a3e 8d88 92be 55e5 57bc f4da a33c
000002b0: 7aff 3b3d 8cbf ea3d 6655 e03d 5ee6 8c3e
000002c0: d5c5 223d 86ed 94bd e56c 5e3d 2935 333e
000002d0: c0d7 36bd 6b3f 1b3e dba6 b4bd 4a94 aabd
000002e0: 6ea6 4cbe 8336 0cbd dbf2 023e 1c51 0c3b
000002f0: 358b 0c3e 3d50 6abe d6d7 923d 4291 013c
00000300: fbcc c9be f0c9 91be f357 423e edde ab3e
00000310: 3373 513d eaf2 fcbd f6d2 303e 93d9 063e
00000320: 363b 96be 4971 bc3d d516 bcba fae9 2c3e
00000330: 5615 80bd 3b16 fabb 8093 f83e 4f96 2c3e
00000340: 2ba1 84bc 61e4 313e e58b 1a3e cffb b5be
00000350: 5528 0a3d ab6e be3e a93b 383e aab9 823e
00000360: f1ba 653c fe67 2c3d 7925 043e 7ca0 433e
00000370: 7b51 cfbd f6ef 1dbd 0678 9bbe 4acf 16be
00000380: 32b0 8cbd 7a9b 123e 6734 8c3d da1b 173e
00000390: 196e e1bc 063b 9dbd 58b3 c1bd b98e 6fbe
000003a0: db85 4fbd e203 3dbc 301b 46bd 23e3 87be
000003b0: 7734 223e 488e 683d 2f35 c4be 7a84 5abe
000003c0: 8263 8ebe e78f 23bc a470 ff3d 30d4 a0bd
000003d0: 621e 8a3e 4356 dfbd 8f86 963d e9e1 5f3e
000003e0: 8601 0e3e 4db3 d53d 0047 0c3e fedc 833d
000003f0: a9e5 033e c8a6 c23d 9ea3 41bd 2abd ccbd
-0.07220901 -0.08876915 -0.18525654 0.15345804 -0.4480721 0.009509351 0.036434107 0.1566451
0.41224688 -0.18585859 0.23355599 0.45009077 0.17352624 0.09115012 -0.14948466 -0.08641567
0.15205978 -0.09844917 -0.07695425 -0.12848099 0.03247011 0.28901333 -0.047915652 0.08406579
0.15281707 -0.07552372 -0.11853352 -0.020235784 -0.022862183 -0.013329345 0.28428423 -0.039085723
-0.09357888 0.13408306 0.053037707 0.2423899 0.42549545 -0.17193505 0.24185984 -0.032625616
-0.2028656 0.22226004 0.1501752 0.091324 0.18738559 0.07163578 -0.34585005 -0.29019144
0.15761971 -0.02595468 -0.1140901 -0.2889831 -0.079822116 0.21030307 0.18780003 -0.067436755
0.021643728 -0.32788235 -0.09960839 0.54388845 -0.25265276 0.079188004 0.17534152 0.20425554
-0.06833774 0.053902782 -0.0482172 -0.14199539 -0.35883752 0.4736069 -0.027570853 -0.20400232
-0.09166702 -0.09731373 -0.24358252 0.040554445 -0.37630528 0.09815779 0.6933407 -0.13721828
0.29361933 0.072040014 -0.089922234 -0.6414878 -0.076842025 0.12572081 -0.20801882 -0.03690815
-0.18833064 -0.12896203 0.19547191 -0.31152537 -0.2147536 0.357633 -0.1500292 0.18051358
-0.117145635 -0.0072589926 -0.36692244 -0.04140981 0.28635836 -0.08110765 -0.69624686 0.08901312
0.06621973 0.2319911 -0.107007176 -0.21622552 -0.14399958 0.046154547 -0.36851856 -0.034298282
-0.078762986 -0.18882807 -0.0028887528 -0.38129807 0.15601037 0.16625296 0.22466466 -0.058539867
0.025022011 -0.10308075 -0.20750847 0.10216283 -0.08906967 0.005658487 0.09199999 -0.22872572
0.10967933 -0.061941605 0.25318897 -0.03779619 0.31835952 -0.19596465 -0.37241426 -0.0206056
0.061126433 0.10815388 -0.15957814 -0.1305638 -0.15094757 0.094485104 -0.17065236 -0.006725036
-0.07255709 -0.058658123 -0.30823395 -0.38396132 0.04658953 -0.08818174 0.08731974 0.112141274
0.019580921 0.0554116 -0.043037627 -0.011927235 0.09726853 0.13514188 -0.11539269 -0.052887432
0.19447143 0.063433334 0.0033512113 -0.060072757 0.21055375 0.18120039 -0.018220795 0.026523134
0.1355635 -0.28619805 -0.013177236 0.020001866 0.04589794 0.11462316 0.109537885 0.27519506
0.03973945 -0.072718665 0.05430307 0.17500748 -0.04463935 0.15160911 -0.08820888 -0.08329065
-0.19985363 -0.034231674 0.12787955 0.002141065 0.13724978 -0.22882171 0.07170074 0.007908167
-0.394142 -0.2847438 0.18978862 0.33568516 0.051135253 -0.1235102 0.17267975 0.13168935
-0.2934205 0.09201295 -0.0014350066 0.1688613 -0.062540695 -0.0076320446 0.48550034 0.16854213
-0.016190132 0.17372276 0.15092428 -0.35543677 0.03372987 0.37193808 0.17991509 0.25532275
0.014021621 0.042091362 0.1290492 0.19104189 -0.10122963 -0.038558923 -0.30365008 -0.14727512
-0.06869544 0.14317122 0.068459325 0.14756718 -0.027518319 -0.076772735 -0.09458035 -0.23394288
-0.050664764 -0.01153657 -0.04836577 -0.2654048 0.15840326 0.056776315 -0.38321826 -0.21339598
-0.27810293 -0.009983039 0.12472656 -0.078529716 0.26976305 -0.10905125 0.07349884 0.21863522
0.13867769 0.104345895 0.1369896 0.06438635 0.12880577 0.09504467 -0.047275178 -0.09997018

encoder.layers.0.self_attn.linears.3.bias f4 [32]
00000000: e823 5abd d7c5 b63a 6cef 2b3e cae2 123e
00000010: 442f f4bd 298d ba3d ae1e 34bb a910 de3c
00000020: 988c 553d f494 18bd 4463 0a3e 0cd1 823e
00000030: 1908 15be db76 53bd ba5a 9a3d f513 d7bd
00000040: f176 163c eb15 8dbd 4c18 a9bc 5138 5ebd
00000050: 9a78 3bbe 776e bdbd a0b7 34be f2b5 af3d
00000060: fd4b b63d 5b7e 8abe cf77 b13d 3ffb 2f3d
00000070: 8c58 10bd c98d 7abd 1ade 97be 0410 c93d
-0.0532569 0.0013944459 0.16790551 0.14344326 -0.11923078 0.091089554 -0.0027484107 0.027107554
0.052136034 -0.037251428 0.1351443 0.25550115 -0.1455387 -0.05162702 0.07536836 -0.105018534
0.009183631 -0.06888946 -0.020641468 -0.054252926 -0.18307725 -0.09249585 -0.17648172 0.08579625
0.08901212 -0.27049527 0.0866543 0.042964216 -0.035240695 -0.061170373 -0.29661638 0.09817508

encoder.layers.0.feed_forward.w_1.weight f4 [128, 32]
00000000: fd49 a13e 6358 ef3d b857 783e 4da5 19bf
00000010: 4849 b7be caf4 6f3d b512 613e 3a41 04bd
00000020: ac84 593e 1fb3 8a3e e36b cbbe 930c 693d
00000030: a644 063f bbd2 a8bb d093 423e 9e12 9cbd
00000040: 2834 993e 8db6 5c3e 55c2 babe 4256 81bd
00000050: e1df 303e e928 18be 27d9 7abd 29b2 38be
00000060: a54a d13e 1cb9 79be 8614 8fbd 1ad3 f73d
00000070: 06f7 003f 9a30 9cbe b371 87be e7ff a43e
00000080: 6763 2fbe c2e6 d93d b95d 383e 13ef c73e
00000090: b4e4 d7be 45bd 893c 1a25 803d 4a40 12be
000000a0: 8751 003e 3948 ad3d 51ff e7bd 44f9 543f
000000b0: cd42 79be 3ce2 83bb f5c3 e33d da35 323e
000000c0: cde5 7b3e 6add 89be e9b0 0c3e 7926 97be
000000d0: 10df 943d 762e 923e b401 8cbe e863 833e
000000e0: a22d bbbc 7597 d3bd 86fe c43d a7ab c73e
000000f0: a6b3 8dbd 251b f03e 0eb5 30be f5a6 81bd
00000100: 10b7 04bd 5a3f dcbe c5e0 ba3d fb21 013f
00000110: 9ae8 8abe 3c3b 583e 631d ccbe 9299 cc3e
00000120: 9b00 e23e 51b6 a3bd b7e4 563e 755b 87be
00000130: a09c 2dbe eb2f 363d f64d 0a3e d5a3 a03e
00000140: 6892 ee3c 9110 fabc 4065 293e 5240 7ebf
00000150: 9c9e 30bf 851b f53c b95c d7be 6dac 0d3f
00000160: 7595 0f3d 1e3a 52be 99db f63e d900 933e
00000170: f61e e83e 590f d3bd a43d 4abd a60b bcbe
00000180: 97ae d23e c5be 013e 0c22 813d 869f 75bf
00000190: 46ea cdbd edd7 2b3e 31f9 edbd 1fa1 bdbd
000001a0: 4c49 0dbf 17d5 033f 53a3 da3d 6202 a7bd
000001b0: d268 593e fc40 223e 3c2e d0be e1ae 403d
000001c0: 2f08 cebd 0ea9 223e bc70 a0bd 20be 6dbc
000001d0: e261 5d3e 5ba6 b93e f9a9 523e 16bb 25be
000001e0: da49 ff3c 6536 f5bd 1c4e ae3d e0af 3c3e
000001f0: 6a59 5dbe 2354 a8be 9de0 8a3e 0fce 77be
00000200: 4e1b 423e 3fd5 383e 4b94 c9bd ff6e a73d
00000210: 0a48 e43e 4726 c5bd 4a26 10bf 5653 783e
00000220: c2c8 cfbe f48c a93d f959 e3bd 80fb e6be
00000230: 6f45 d13e 3abe 85be 3867 913c 4937 ad3d
00000240: 65f4 963d 725e c13d de2f 2f3e c1fb a23e
00000250: 9693 c23d 409d 7d3e b460 033f 2e51 56bd
00000260: ffaf c8be 4c47 833e 1f50 1abd 841c e93d
00000270: a8d9 9c3b d44d 183f 2bfd 9f3e 609c d53c
00000280: 8234 713e 807e 983e 6fde 5f3d 678e c0be
00000290: f76e 88bf 544c d93e 1e0e 72be bc38 aabe
000002a0: ffe0 e13e c487 ee3e 78b5 33bf e83c 87bd
000002b0: ef5f ae3d 42e7 d1be 7b65 b33d cf0e 77bd
000002c0: 8e64 c0bc dcfc a6bd ea0c 26bf 234c f5bc
000002d0: 6b6d 4e3e 79ce 39be cd8c 78bd 4c9f 1a3e
000002e0: 197c d53e b158 81bd 6c8f b8bc 1ffb 863d
000002f0: 5679 833e 20f9 f5be a82b 2abe c5a2 bc3d
00000300: ac92 35be a049 42bd c1f2 f8bd 746c 533e
00000310: f1f2 d2bd 6672 1cbe b574 03be c745 4a3f
00000320: af9c 093f 7b6c 98be a213 90bd 3492 27be
00000330: 479d 613e 1e7b 653d 53c5 ad3d e30d 1a3e
00000340: 415c 403e 8c6e a63d 9459 6cbe 12b8 ce3d
00000350: a65f 1abf 282c 75bf bdeb 183e 2956 b63d
00000360: d91a 5fbe d8fc 013e bd48 583e 423e 8c3e
00000370: 4f97 3d3f 3bce a73e 4bae ec3d 94f1 0c3e
00000380: 671e 5c3e 60c3 ee3d 4e4d 1c3e 566e 9cbe
00000390: 94f1 bcbe 3fce 283d 8883 013f 6c66 9b3e
000003a0: c669 8dbc 7843 3abe a42e 9bbe 4f84 103e
000003b0: 2669 833e 8d26 9abd f641 f6bc 4e10 61be
000003c0: 2517 8ebe 9a58 043e b9a9 9abe 0c92 a73e
000003d0: e072 123e c2fd 7f3d 3588 afbd a05a 8d3c
000003e0: 6b91 ac3d 6400 85be 6c19 b73d db54 433e
000003f0: 7b82 273f 250e cfbe 6d62 bbbe 1ee3 f83e
0.3150176 0.1168678 0.24252212 -0.60017854 -0.35798097 0.05858306 0.21979792 -0.032288767
0.21242017 0.27089784 -0.3973075 0.056896757 0.524485 -0.005152074 0.19001698 -0.076207384
0.29922605 0.21554013 -0.3647639 -0.063152805 0.17272903 -0.14859356 -0.06124225 -0.18036713
0.40877262 -0.2438702 -0.069863364 0.12100811 0.5037693 -0.3050583 -0.26453933 0.32226488
-0.17127763 0.10639717 0.18004502 0.39049587 -0.42166674 0.016813884 0.062570766 -0.14282337
0.125311 0.08461041 -0.113279946 0.8319285 -0.24341889 -0.004024772 0.1112136 0.17403355
0.24599381 -0.26926738 0.13739361 -0.2952154 0.07269108 0.28551072 -0.2734505 0.2566216
-0.022848908 -0.103316225 0.09618859 0.38998148 -0.06919031 0.4689571 -0.17256567 -0.06330673
-0.032401145 -0.43017083 0.09124903 0.50442475 -0.27130586 0.21116346 -0.3986617 0.39960915
0.44141087 -0.079937585 0.20985685 -0.26436964 -0.16954279 0.044479292 0.13506302 0.31374994
0.029122546 -0.030525478 0.1654253 -0.99316895 -0.6899202 0.029920349 -0.4206293 0.55341226
0.035054643 -0.20529982 0.48214415 0.28711584 0.4533612 -0.10305662 -0.04937519 -0.36727637
0.41148826 0.12670429 0.06305322 -0.9594654 -0.1005445 0.16781588 -0.11619795 -0.09259247
-0.5518997 0.51497024 0.10675683 -0.08154751 0.21231392 0.15845102 -0.40660274 0.047041778
-0.10060155 0.15884802 -0.078340024 -0.014510661 0.2161937 0.36259732 0.20572652 -0.16184649
0.031163145 -0.119732656 0.08510992 0.18426466 -0.2161614 -0.3287669 0.2712449 -0.24199699
0.18955728 0.18050097 -0.09842738 0.08175468 0.4458621 -0.096264414 -0.56308424 0.2425054
-0.40582854 0.08278838 -0.11101145 -0.45113754 0.40873286 -0.26121694 0.017749414 0.084578104
0.07370833 0.09441842 0.17108104 0.31832698 0.09500806 0.24767017 0.5131943 -0.052323513
-0.39196774 0.25640333 -0.037674066 0.11382392 0.004786689 0.59493756 0.3124784 0.026075542
0.23555186 0.29784012 0.05465549 -0.37608644 -1.0658864 0.42441046 -0.23638198 -0.3324641
0.4411697 0.46587956 -0.70198774 -0.06603414 0.08514392 -0.40996748 0.0875959 -0.060316857
-0.023485448 -0.08153698 -0.64863455 -0.029943531 0.20158927 -0.1814517 -0.060681153 0.1509983
0.41696241 -0.06315745 -0.022529326 0.06590866 0.2567851 -0.4804163 -0.16618216 0.09210733
-0.17731732 -0.047433496 -0.12155677 0.2064684 -0.10300244 -0.15278015 -0.12837489 0.7901272
0.53754705 -0.29770264 -0.07034995 -0.16364366 0.22032653 0.056025617 0.08484902 0.1504436
0.18785192 0.08126554 -0.23081046 0.100937024 -0.603022 -0.957705 0.14933677 0.089031525
-0.21787585 0.12694108 0.21121497 0.2739125 0.74059004 0.3277453 0.11556681 0.1376403
0.21495973 0.116583586 0.15263864 -0.3055293 -0.3690306 0.041212317 0.50591326 0.3035158
-0.01726235 -0.181898 -0.3030902 0.14112972 0.2566616 -0.07526884 -0.03006075 -0.21978876
-0.27752033 0.12924424 -0.30207613 0.32728612 0.14301634 0.06249786 -0.08570901 0.017255127
0.08426174 -0.2597686 0.08940396 0.19075339 0.6543347 -0.4044048 -0.3659853 0.48610777

encoder.layers.0.feed_forward.w_1.bias f4 [128]
00000000: 3fcf bfbd 492a 35be 4cb0 ad3e 156f 8cbd
00000010: f256 c4bd ea5b adbc a6a5 bbbe d60c c1bc
00000020: e5aa 8abd 106f a6bd 510d 01be c4f9 983b
00000030: a726 a23c dd08 f1be b63d c2be b653 4ebe
00000040: 0893 b9be ec2e 413d 3f16 d8bd 211a c9be
00000050: 7358 bdba 8111 d0bc 76b5 19be 408e df3d
00000060: 21af 6e3d 9692 44bd 8394 833d 32f2 013e
00000070: 7d3c 88be 0509 383d e71d b8bd 533b b9be
00000080: 7231 40be 3379 1bbe fc81 d7bd b735 28be
00000090: d035 c5bd 402b d63d 959b 1dbe f0ed f1be
000000a0: 1b25 a8bd ed26 63be 770f c2bd eec0 06be
000000b0: d274 6bbe 0167 823d 00da 83be b219 d03c
000000c0: 2651 ef3d aaee d4bc 2596 fdbd 7528 57bc
000000d0: f53e c7ba 0c7e 31be 207a a1bd 688b ee3d
000000e0: eb5e 70bd 7f06 183e aade c53d 1e88 c5be
000000f0: ae3d 55be a82c babd 798b c2bd 8c57 f0be
00000100: c108 f8bd 8562 85be 65a4 9a3a 905f dbbe
00000110: 8c62 84bd 7c6b c5be f8bf 46be bd3b c1be
00000120: 68b2 c7bd 9a7e 42be bad8 a1be 2a09 79be
00000130: d4f6 a1be 4e43 d03b 4e85 ffbd d4d3 a93d
00000140: e4a8 70bd d071 50be 55b9 093c c005 53bd
00000150: 8ece 0cbd 9d6a 8ebe d130 90be 5405 20be
00000160: 71d6 33be 2d8f 9bbe bfc6 febd 1824 52be
00000170: 3f73 0d3e af4d 91be 9f7d 67bc 3078 0bbd
00000180: 0844 b5be cf20 65be 5316 82be 18dd c9be
00000190: 673c a5bd e32a 45be 2b44 15be 3e23 a2be
000001a0: 6545 a63c 01bf 2cbe 7c0c b6bd 47af 29bd
000001b0: 71df 38be 8495 2cbe 9ffe 15be 4233 d1bd
000001c0: 31a1 66bd b978 1d3d b8c0 80bd 7926 2cbe
000001d0: 9f37 b4bc e527 34be d6b4 5b3b 179e 723b
000001e0: f0eb dabd fb7b 06be a46c 43be 310c 1ebe
000001f0: 89da 8abe 1cce a6be ea18 8cbc 4661 b93b
-0.09365701 -0.17691912 0.33923566 -0.06857125 -0.09586896 -0.021161992 -0.36649817 -0.023565691
-0.06770877 -0.08126652 -0.12602736 0.0046684463 0.019793821 -0.47077075 -0.37937707 -0.2014912
-0.36244988 0.04716389 -0.10551118 -0.39277747 -0.0014445916 -0.025398972 -0.15010628 0.10915804
0.058272485 -0.047991358 0.06424811 0.12690046 -0.2660865 0.044930477 -0.089900784 -0.36178073
-0.18768862 -0.15182953 -0.105228394 -0.1642674 -0.096294045 0.10457468 -0.15391381 -0.47251844
-0.08210202 -0.22182818 -0.09475606 -0.13159534 -0.22993782 0.06367303 -0.25752258 0.025402877
0.116854 -0.02599271 -0.123821534 -0.013132204 -0.0015201258 -0.1733324 -0.078846216 0.116476834
-0.05868427 0.14846228 0.096616104 -0.38580412 -0.2082431 -0.09090549 -0.094992585 -0.46941793
-0.12111045 -0.26051727 0.0011798261 -0.42846346 -0.06464109 -0.38558567 -0.19409168 -0.3774089
-0.09750825 -0.18993607 -0.31610662 -0.24319902 -0.31633627 0.0063556796 -0.12476598 0.08292356
-0.058754817 -0.20355916 0.008406003 -0.051519156 -0.034376673 -0.27815714 -0.28162244 -0.15627033
-0.17562272 -0.30382672 -0.124402516 -0.20521581 0.13813494 -0.2837958 -0.0141290715 -0.034050167
-0.35403466 -0.22375797 -0.25407657 -0.39426494 -0.080681615 -0.19254641 -0.14576785 -0.31667513
0.020296762 -0.16869737 -0.088891 -0.041426923 -0.18053986 -0.1685391 -0.14647911 -0.10214855
-0.056306068 0.03844521 -0.06286758 -0.16811551 -0.021999178 -0.17593344 0.0033524535 0.0037020498
-0.10689533 -0.13133232 -0.19084412 -0.15434338 -0.27119854 -0.32579124 -0.017101724 0.005657348
