index_advisor_selector/index_benefit_estimation/index_cost_lib/exp_res/exp_lib_tpcds_tgt_ep500_bat2048/model/lib_LIB_400.pt (torch, 414203 bytes, 120 tensors)

S f4 [1, 1, 32]
000000 4c d2 b0 3d d2 36 ef 3d d7 cf 50 3b 1e 61 c6 3d
       0.08633861 0.11680378 0.0031862163 0.096864924
000010 9c 89 27 be 04 6b 0b be 47 fc 25 3e 5e dc 94 bd
       -0.16361088 -0.13615042 0.16209517 -0.07268594
000020 f4 f5 0d be 39 32 92 3d da d7 d2 3d 89 dc ce 3c
       -0.13863355 0.071384855 0.10295077 0.025251644
000030 6f 71 df bd 10 f3 8e bb 41 81 75 bc 83 2f 8e be
       -0.109103076 -0.0043624714 -0.01498443 -0.27770624
000040 cf 48 1b be ea 4a 1a be f3 44 c3 bc 8c b8 b9 3d
       -0.15164493 -0.1506764 -0.023836588 0.09068403
000050 64 f4 0b bc 6c 5f f4 3d 1a 77 f6 3d 30 52 11 be
       -0.008542154 0.11932263 0.120344356 -0.14191508
000060 49 72 12 3c b9 3a 1c 3c a8 df 3a 3d f4 7b 9b 3d
       0.0089383805 0.009535485 0.04562345 0.075920016
000070 40 94 18 3e c5 e9 9b bd 40 a5 d7 bc 67 c8 1d bc
       0.14900303 -0.076129474 -0.026323915 -0.009630299

linear1.weight f4 [32, 12]
000000 2b 0d 3b be d3 59 01 3d af 26 5d 3e 10 91 69 3e
       -0.18266742 0.031579804 0.21596788 0.22809243
000010 f8 bd c6 3f 60 2c 38 bf b3 c3 13 bf 8c e2 01 bf
       1.5526724 -0.7194271 -0.5772049 -0.5073631
000020 97 5d a1 3d 13 a1 6f 3f 17 69 9b 3b 99 4b 13 bf
       0.07879179 0.93605155 0.0047427523 -0.5753723
000030 67 cc 71 be f6 93 8a 3b 20 ea 18 3d 02 c5 d0 be
       -0.2361313 0.004229064 0.037332654 -0.40775305
000040 aa 5d 90 be 0f 32 df bc 65 b2 24 3e c6 1b a7 bd
       -0.2819646 -0.02724555 0.16083677 -0.08159594
000050 a2 78 ba 3c 83 d7 61 be 5a 07 a6 be e6 ad cc 3d
       0.0227626 -0.22054867 -0.32427484 0.09994106
000060 70 d8 aa be 45 bc e4 be 9a 63 79 be 77 fd 31 3e
       -0.33368254 -0.44674888 -0.24354401 0.17381845
000070 e2 1e 61 40 ae 93 1a be 5d 8f 60 be 69 de 05 3d
       3.51751 -0.15095398 -0.21929689 0.03268281
000080 f2 cc 38 bf 41 20 27 bf 1f 86 c2 3e cf ae 02 3f
       -0.7218772 -0.6528359 0.3799295 0.51047987
000090 0b f2 cc be 58 96 01 3f b7 da 03 3f 57 15 a3 bd
       -0.40028414 0.5062003 0.5150561 -0.079630546
0000a0 b5 3b 6d c0 30 91 04 bf ef 30 0b 3f 8b cc a3 bf
       -3.7067692 -0.5178404 0.5437154 -1.2796797
0000b0 52 20 4c bf a2 c9 9d be fa 91 89 3e 64 31 47 be
       -0.79736817 -0.30817896 0.26869184 -0.19452435
0000c0 23 3a 23 be be 45 7c 3d ab 09 8d 3e 53 a1 6e 3e
       -0.15940146 0.06158995 0.2754644 0.23303728
0000d0 66 5c 87 40 6e db e0 be 7a 67 19 3f 46 fd 94 be
       4.230029 -0.43917412 0.5992352 -0.29099482
0000e0 58 a8 23 c0 47 6b 9e bf 0d a2 82 be c4 26 bc 3c
       -2.55715 -1.2376488 -0.2551426 0.022967704
0000f0 49 8c 20 bf 69 48 f2 be 0d 9a 35 3f ef 39 87 3e
       -0.6271406 -0.4732087 0.7093819 0.26411387
000100 28 2b a9 40 ac 8e aa 3d 2b f1 1a 3e a4 2c 5c bd
       5.286518 0.08327994 0.15131061 -0.05375351
000110 41 e4 09 3f 82 f4 49 bf e3 b3 1f bf 8c 14 15 3f
       0.5386391 -0.78888714 -0.6238386 0.5823448
000120 df 66 06 3f 49 89 03 bf c9 c1 bd 3c 7c 1a 37 3e
       0.5250072 -0.51381356 0.023163693 0.17881197
000130 22 a1 2a 40 e7 95 cc be c6 f3 ab 3f 26 8a 4d be
       2.6660848 -0.39958116 1.3433769 -0.2007223
000140 51 dd 12 be 36 4c cb be a7 3c a2 be e0 26 9d be
       -0.14342238 -0.39706582 -0.316869 -0.30693722
000150 d8 4e 06 c0 6c 95 97 3f 42 03 31 3e 14 d6 54 3e
       -2.0985622 1.1842475 0.17286399 0.2078479
000160 83 e2 95 c0 d1 2e 61 3e 66 90 f0 be 4e e7 a7 3f
       -4.6839004 0.21990515 -0.46985167 1.3117464
000170 81 cd 91 3e dd 32 69 3e 11 63 cc bc c1 d3 8f be
       0.284771 0.22773309 -0.024949582 -0.28091243
000180 c5 36 6c 3f b0 4a c1 be 9d cd fa 3d 36 48 94 3c
       0.9227107 -0.37752295 0.12246249 0.01810084
000190 03 12 96 c0 4a 04 ee bd f1 1a 16 be 3d 64 6f 3f
       -4.6896987 -0.11621912 -0.14658715 0.93512326
0001a0 6a 50 48 bf 7e 59 97 3f 93 50 31 be a3 85 f5 bd
       -0.782477 1.1824186 -0.17315893 -0.1198838
0001b0 a7 d8 bc be fd ba 20 3d f3 c2 1c be cb af 58 be
       -0.36884043 0.039240826 -0.15308742 -0.2116081
0001c0 51 5f 81 3d e4 fe 1f 3f 0d 07 76 3d 74 65 24 c0
       0.06317008 0.6249831 0.060065318 -2.5686922
0001d0 ae 69 de 3e 4a 1a f6 3e 49 95 f5 be a9 ef ee 3e
       0.43440002 0.48066932 -0.47965458 0.4666722
0001e0 40 53 30 bf d1 32 0e bf e0 93 fa 3c 90 49 8c 3e
       -0.6887703 -0.5554629 0.03058809 0.27399874
0001f0 8b d2 91 40 b4 b2 5f bf 1e d0 2a bf 01 0e e7 be
       4.556951 -0.87382054 -0.6672381 -0.45127872
000200 85 8b df be df 18 5b bf e5 db bf be 62 6c 36 be
       -0.43661132 -0.85584825 -0.37472454 -0.17814782
000210 dd b9 8c bd 07 ff 16 3e 5d 9b 73 3e 8c 30 c7 bb
       -0.06871388 0.14745723 0.23789735 -0.0060787853
000220 3c 5d bb 3e 8b f2 31 3e d6 01 02 3e 17 e8 e2 3e
       0.3659457 0.17377679 0.12696013 0.44317695
000230 f8 51 b6 3e 26 c2 2d be 28 71 ab bd e3 94 fa bd
       0.35609412 -0.16968593 -0.08371192 -0.12235429
000240 ec 9d 22 be 94 e0 bb bb 00 f4 55 be b6 23 39 be
       -0.15880555 -0.005733559 -0.2089386 -0.18080029
000250 cb d7 2b 3c f7 fd 76 bd f7 4c 8d bc 41 72 ec 3d
       0.010488461 -0.060300793 -0.017248614 0.1154523
000260 46 0f b6 3e c3 b5 13 3e fb 15 83 3e 5c df 3e 3e
       0.35558528 0.14424805 0.25602707 0.18639892
000270 8a c6 1b be 45 ad e4 bd c2 42 a6 be e8 b5 0a 3e
       -0.15212455 -0.11165861 -0.32472807 0.13545954
000280 07 28 66 40 54 aa f0 bf c6 ad 0d bf 19 ee eb 3f
       3.596193 -1.880198 -0.5534328 1.8432037
000290 2b 60 08 3f 88 99 98 bf 49 26 14 bf 59 e3 ff 3a
       0.5327174 -1.1921854 -0.5787092 0.0019522711
0002a0 a8 d8 64 bf 16 96 dd 3e 98 65 32 3e fc 91 4a be
       -0.8939309 0.4327857 0.17421567 -0.19782251
0002b0 fc 85 9d c0 de 0c 74 3f 23 77 98 3f 9e 7f 21 3d
       -4.9226055 0.95332134 1.1911358 0.039428346
0002c0 5f 41 6a 3e b5 fc 81 be 64 22 4f be ca 52 1b 3e
       0.228765 -0.25388113 -0.20227963 0.151683
0002d0 9a 60 05 3f 2e 11 38 3d 8c 8a fa 3c 99 3a 48 bf
       0.5210053 0.04493826 0.030583642 -0.7821441
0002e0 12 a5 bd 3e 48 60 d0 3e 0c e3 3d 3e e1 69 76 bd
       0.3704 0.40698457 0.18543643 -0.060159568
0002f0 05 38 84 3f df b5 ae 3e 09 52 c4 bb 7f 89 0f 3f
       1.0329596 0.34123132 -0.0059912247 0.5606918
000300 6c 30 20 bf b7 1f 0d 3f 9e 96 11 3e 23 72 84 3d
       -0.62573886 0.5512652 0.14217612 0.06467082
000310 e0 43 0b 40 ce 87 7e bf 1d af a3 3e 4c 74 b4 bd
       2.1760178 -0.9942597 0.31969538 -0.08811244
000320 4a 0c 90 be 6a 29 17 bf 3f 15 3b be fb 2b fc be
       -0.28134376 -0.5904757 -0.18269823 -0.49252304
000330 05 02 2f be 5f 56 a0 be 42 36 80 3e 95 f7 a1 3e
       -0.17090614 -0.31315896 0.25041395 0.31634203
000340 a5 22 b7 40 34 3f 67 bf cb 20 82 3e 1a ee 53 be
       5.722979 -0.90330815 0.25415644 -0.20696297
000350 4b e9 12 3f 9b 20 85 bf bd 03 23 bf a1 a5 bb be
       0.57387227 -1.0400575 -0.6367758 -0.36649802
000360 1c 25 41 bf d7 1a df be 37 01 19 be a1 8b 53 3f
       -0.7544725 -0.43575165 -0.1494187 0.8263493
000370 82 86 45 40 8d 9a 25 bf de 21 02 3e f6 11 c4 3e
       3.0863347 -0.6468895 0.12708232 0.38294953
000380 cb e5 c9 bf 7f 9a 04 3f 47 ae 2f bf 33 d0 a7 3d
       -1.5773252 0.5179824 -0.686253 0.08194008
000390 a3 90 12 be b1 1e c9 be 04 74 71 be 33 97 93 3e
       -0.14312987 -0.39281228 -0.23579413 0.28826293
0003a0 a7 06 8f 40 c5 0d 48 3e de 81 0f c0 ed b9 0a bf
       4.469562 0.19536503 -2.2423015 -0.5418995
0003b0 43 b1 8f bf cd b5 84 bf d4 fe 01 bd 8c 80 f6 be
       -1.1225971 -1.0367981 -0.031737164 -0.48144948
0003c0 b7 47 3f 3f c1 fe 18 bf 90 9f 20 3f 37 42 a4 3e
       0.74718803 -0.59763724 0.62743473 0.32081768
0003d0 0b ec 94 40 58 f2 36 3e 88 23 96 be c0 0a ec bd
       4.653814 0.17865884 -0.29323983 -0.11525488
0003e0 df eb 9b be d3 9f dc bf e4 d1 04 3e 9b da 7a bd
       -0.30453393 -1.7236274 0.12970692 -0.061243635
0003f0 f4 35 ad bf dc 53 de be ac 35 51 3e ee ba e8 3e
       -1.353209 -0.43423355 0.2043063 0.45455116

linear1.bias f4 [32]
000000 b9 2f 6a bd d2 5f 98 bd 1b 40 ca bd ec 4f 98 3e
       -0.057174418 -0.07440151 -0.098755084 0.29748476
000010 47 77 24 bf f8 79 4c bf 1b 11 d8 3d b3 09 23 3f
       -0.642445 -0.7987361 0.105501376 0.63686675
000020 a7 a9 c6 3c ec a8 93 bc 0c 85 eb be fe 0f ad bd
       0.024250818 -0.018024884 -0.45999944 -0.08450316
000030 a8 57 29 3e 20 42 d6 be b5 ab d9 3e 8f 3c 0a be
       0.16537344 -0.41847324 0.42513815 -0.13499664
000040 63 20 7b be d3 3b 09 bf 90 57 f7 be a7 b4 b1 be
       -0.24524073 -0.5360691 -0.48308992 -0.3470814
000050 af a5 26 bf ee 46 92 bf 5a 0c d2 be 3d 2c a8 bd
       -0.65096563 -1.1427896 -0.41025048 -0.08211563
000060 2f a5 92 3e f0 75 4c be 4c c4 24 be 9d d8 21 3e
       0.2864165 -0.19966865 -0.16090506 0.15805288
000070 bf 83 dd 3e 73 35 f4 3d 27 63 7d bd 07 06 ca 3e
       0.43264577 0.11924257 -0.061862137 0.39457723

encoder.layers.0.self_attn.linears.0.weight f4 [32, 32]
000000 d7 8a 91 bf 3e d2 0c be 1f 2c 72 be 34 b6 c1 3d
       -1.1370496 -0.13752076 -0.23649643 0.094585806
000010 62 29 1c 3f d6 30 2c 3f c3 8f ae be 1f 38 86 bf
       0.61000645 0.6726202 -0.34094056 -1.0485877
000020 fe 54 e9 bd e9 c2 81 be 85 9d 0d be 99 dd 2a be
       -0.11393164 -0.25344017 -0.1382962 -0.16686095
000030 a8 1b 35 3d d2 54 e4 3c a5 d4 81 3e d3 30 8b 3e
       0.04421583 0.027872477 0.25357547 0.27185687
000040 50 a0 47 bf 59 b2 34 be 0d 3e bd 3d 6f ba 3c bf
       -0.7797899 -0.17646159 0.09240351 -0.73721975
000050 8b 8d 3a be 9b 5b ea 3e 62 5d e0 3c f1 92 68 bd
       -0.18218057 0.45773014 0.027388278 -0.05678076
000060 a7 a4 89 bf 63 97 38 3e 01 d7 8b bc 36 b2 37 3d
       -1.0753373 0.180265 -0.017070295 0.04484769
000070 12 a8 10 3f 29 20 42 bf 6c aa 16 3f 1f da 9e be
       0.56506455 -0.7583032 0.58853793 -0.31025788
000080 db 12 c7 3e 0d 23 93 bd c8 ca ce be 65 ec 1e be
       0.38881573 -0.0718442 -0.40389085 -0.15519865
000090 e6 e3 c0 be 81 e2 2f bf 4a dd 9a 3e 74 35 a9 3e
       -0.37673873 -0.6870499 0.30246955 0.33048594
0000a0 a7 6d 98 3c d1 cf ed be 3e 6e 50 3e e5 d2 3b 3e
       0.018606974 -0.46447614 0.20354554 0.18342169
0000b0 ad 9f 90 be 3b eb 7e 3e 9d b9 21 bf a6 99 83 bf
       -0.28246823 0.24894421 -0.6317385 -1.0281265
0000c0 9e 7f c5 bd 09 5c 6f 3e 55 8a 5b be ec cc 0a 3f
       -0.09643482 0.23374952 -0.21439488 0.54218936
0000d0 19 16 20 3d d6 e8 a1 be 80 1b f1 3d ad 9c 01 bc
       0.039083574 -0.31622952 0.11772823 -0.00791089
0000e0 29 59 83 bd 66 fc be bf ae 50 c1 bc a9 94 0e be
       -0.0641349 -1.4920776 -0.023598041 -0.13923897
0000f0 b5 8c 6a bf 4c 74 98 3e 75 cb c2 be ff 51 63 bc
       -0.9162095 0.29776227 -0.3804585 -0.01387453
000100 9d 93 0a be 72 07 d9 bb f4 14 1a 3f 7f a2 42 3e
       -0.13532872 -0.006623202 0.6018822 0.190073
000110 9a 77 ed 3d 95 20 d5 3e a2 e2 64 bd 3f 20 a6 3f
       0.11595078 0.4162642 -0.055880196 1.2978591
000120 40 96 5d 3e 8a 7b 10 bd 39 00 16 3f c0 5c ed bd
       0.21639347 -0.035274066 0.5859409 -0.11589956
000130 e6 08 da 3d 33 ea 24 3f e5 68 c3 3e 36 48 87 3e
       0.106462285 0.6441986 0.38165966 0.2642228
000140 2f 2b 65 3b b5 9a f4 3e fb 35 96 3e 6f 70 e3 3e
       0.0034968366 0.47774282 0.2933806 0.44421718
000150 d7 91 ab 3e 35 f8 29 3f a9 ef ff 3d 36 8c 18 be
       0.33509704 0.6639436 0.124968834 -0.14897236
000160 1f 52 16 3d c1 3c 01 3f 7b bb 1e 3c 2f e9 ee 3b
       0.03669941 0.5048333 0.0096882535 0.0072909812
000170 95 68 5a bf ac c3 b0 3e b9 f0 9e 3e 58 b1 2e be
       -0.8531583 0.34524286 0.31043032 -0.17059839
000180 16 b9 aa 3e 59 5f ba 3d 96 c4 1c be 3d 48 d7 bd
       0.33344334 0.09100217 -0.15309367 -0.10511825
000190 0b f4 2a bf e4 b7 25 bf d3 ca 10 be e3 d9 59 3e
       -0.6677863 -0.6473372 -0.14139871 0.21274523
0001a0 2b 83 c6 3d 3f 4e 98 3f 5e 4e 62 be 4c 55 29 bd
       0.09692987 1.1898879 -0.22100207 -0.04134111
0001b0 0a 46 c5 be ad 9d 78 bf 8d c7 07 be 5c 07 26 bf
       -0.38529998 -0.97115594 -0.13259716 -0.6485498
0001c0 82 82 a7 3e 89 d7 f1 be f0 87 3f be b6 1a 85 3e
       0.32716757 -0.47234753 -0.187042 0.2599694
0001d0 9f a3 c3 be a2 a9 4c bf 7e d3 71 3d 9b 41 c0 bc
       -0.3821077 -0.7994634 0.059039585 -0.023468783
0001e0 5d df 2e 3e 3e 21 ba be b6 4c 2d 3e 22 da 89 be
       0.17077394 -0.36353487 0.16923794 -0.26924235
0001f0 20 cc 49 3f ce c4 f9 3e 98 1d 3f bf 9c af eb be
       0.78827095 0.48782963 -0.7465453 -0.46032417
000200 3e 0b a9 3f e8 b0 97 3c 8b 14 34 3f 43 07 ad 3e
       1.3206556 0.018516973 0.70343846 0.33794603
000210 39 1d e8 3e 11 69 7c 3f a8 3b 47 3e 95 3a de 3e
       0.45334795 0.9859782 0.19456351 0.4340407
000220 4c d1 f8 3e f5 9a 10 3f 12 09 15 3f ee 50 2e 3e
       0.4859718 0.56486446 0.58216965 0.1702306
000230 e1 01 ed bd 07 b2 6e 3f 26 31 de 3e e9 8c 82 3d
       -0.11572624 0.932404 0.43396872 0.06374533
000240 4c 0b af 3f b6 75 30 3f 09 59 66 3f b3 68 6c 3e
       1.3675323 0.6892961 0.89979607 0.23086815
000250 52 d1 a7 3e 7d 8c 9a 3f 86 d8 5a bd b3 16 1c 3e
       0.32776886 1.2074124 -0.05342915 0.15243034
000260 35 f3 e7 3f 40 ed 07 be 9b 22 e9 bd 64 0a a6 3e
       1.8121096 -0.13274097 -0.113835536 0.32429802
000270 8e ca fd 3e f2 39 9d be ee 70 6f be 66 20 f1 3e
       0.495686 -0.3070827 -0.23382923 0.4709503
000280 84 a5 77 3f 42 5a 3c 3d c5 ff 41 be c3 40 7b 3f
       0.9673693 0.045984514 -0.18945225 0.98145694
000290 bf 43 33 be 53 7f 1d bf 4c 47 04 3f 9a ba 7d 3d
       -0.17506312 -0.61522406 0.5167129 0.061945535
0002a0 19 23 2b bf 7e af 22 be 77 ca 0b 3b 62 43 d6 bd
       -0.6685043 -0.15887257 0.0021330395 -0.10462071
0002b0 7b 1e 49 3e 1a 4e 39 bf 98 22 4f 3e 63 b0 c5 3e
       0.19640534 -0.723848 0.2022804 0.38611135
0002c0 13 c2 9d 3f 15 b8 1a 3d 4e 79 93 be ee 27 23 3e
       1.2324852 0.03777321 -0.28803486 0.159332
0002d0 9e 86 cb be 09 33 24 bb 30 e0 2f be fd bc da 3d
       -0.39751142 -0.0025054833 -0.17175364 0.10680578
0002e0 ee 0d 07 be 39 bd 4f be c2 78 be 3c a9 0d 87 bd
       -0.13188908 -0.20287026 0.023250941 -0.06594402
0002f0 44 0f 59 be cd b0 f2 3e 88 c0 14 bf 17 d0 1c bf
       -0.2119723 0.47400513 -0.5810628 -0.6125502
000300 26 0d 50 bf e5 44 b2 3c 20 57 a8 bd 48 0a 38 bf
       -0.8127006 0.021761367 -0.08219743 -0.7189069
000310 6a 1e ad be d2 36 1d bd 92 32 8a bc e8 36 0f 3f
       -0.33812267 -0.03838236 -0.016869817 0.55943155
000320 35 d2 fc 3d 8e 1e f4 3e 8f fa 0b be e8 b3 45 3e
       0.12344781 0.4767956 -0.136698 0.1930691
000330 34 f9 45 3d 9a 06 a0 3e d0 43 d8 bd ed 66 80 3f
       0.04833336 0.31255037 -0.10559809 1.003141
000340 f4 6e a8 bf 5f fe cf 3e 9f 83 03 be 49 94 ec 3d
       -1.315886 0.40623757 -0.12843178 0.11551721
000350 d8 a5 19 bc 12 d9 8b bd f4 31 cd bc 14 fb 1d be
       -0.009377919 -0.06828512 -0.025048234 -0.1542781
000360 b0 05 bb bd 07 a6 56 3f a6 36 06 bd 3f aa a6 bd
       -0.09131944 0.8384709 -0.03276696 -0.081379406
000370 81 c4 58 be cc 92 17 be 57 c7 20 3e b2 6a e9 3d
       -0.2116871 -0.14802092 0.15701042 0.11397304
000380 15 3c 12 c0 61 6d cd 3c 00 a7 81 be a9 89 18 bf
       -2.284917 0.02507657 -0.25322723 -0.5958505
000390 36 c9 e3 be d1 30 1d bf b8 7b 87 bf c2 bd 14 bf
       -0.4448945 -0.6140261 -1.0584631 -0.5810205
0003a0 2a 8b 84 be 88 ab 36 bc 21 8b 21 bf ea 3c 6c be
       -0.25887424 -0.011149295 -0.6310292 -0.23070112
0003b0 d9 33 24 3e 2c 97 16 bf 46 15 22 be eb ca 60 bf
       0.16035403 -0.5882442 -0.15828428 -0.8780963
0003c0 c8 d7 49 c0 e4 91 c5 bf 41 34 fb be 12 fa 41 bf
       -3.1537952 -1.5435147 -0.49063304 -0.757722
0003d0 00 34 7f be 1f 32 4f bf dd b2 fd be 88 d0 28 bd
       -0.2492218 -0.80935854 -0.49550524 -0.041214496
0003e0 90 34 00 c0 69 32 18 bf 5f 39 ba 3d 06 a3 08 be
       -2.0032082 -0.5945192 0.09092974 -0.13343439
0003f0 af 86 86 3e 00 50 eb bc 4e 0c 06 3f e2 ab b8 3d
       0.2627463 -0.02872467 0.52362525 0.09017159

encoder.layers.0.self_attn.linears.0.bias f4 [32]
000000 f4 bf 04 bf 39 37 25 3e 69 85 19 3e 1f 02 13 3f
       -0.518554 0.16134347 0.14992298 0.5742511
000010 d4 c1 51 3e 55 9a 56 bc dd 38 b5 be c2 eb d3 bd
       0.20484096 -0.013098319 -0.35394946 -0.103477016
000020 d6 02 70 be 23 d5 1d bd 82 3e a9 be 85 42 b3 be
       -0.23438582 -0.03853334 -0.33055502 -0.35011688
000030 52 ad c0 be 67 d8 d4 bd 33 b2 53 3e 17 30 88 bd
       -0.37632233 -0.10392838 0.20673446 -0.066497974
000040 2a 5e a5 bd 22 28 f4 3e 3b 52 04 bf e4 9c c6 bd
       -0.08074601 0.4768687 -0.51687974 -0.09697893
000050 b3 9d 4c be 13 b7 83 be ad 50 44 3e 23 5f 6d 3d
       -0.19982032 -0.25725612 0.191714 0.057952058
000060 b2 1e 50 3e 31 bd a6 3e d3 f9 8c 3e d8 bd 9e 3d
       0.2032421 0.32566217 0.2753435 0.077510536
000070 27 74 f8 bc 5f be ef be 0b 94 a6 3d 30 f3 93 be
       -0.030328823 -0.4682493 0.08133706 -0.28896475

encoder.layers.0.self_attn.linears.1.weight f4 [32, 32]
000000 e8 df 75 bd ef 14 e1 bd 13 a8 da 3e 18 56 50 be
       -0.060027987 -0.10990321 0.42706355 -0.20345342
000010 a6 00 ed be 02 a1 81 3e 07 4c 54 be 0a 80 98 be
       -0.46289557 0.25318152 -0.20732127 -0.29785186
000020 d2 84 3c 3f 3c 81 38 bf 1a 18 18 3f b1 78 6b bd
       0.7364017 -0.72072196 0.59411776 -0.057488147
000030 81 ac 09 3e 52 73 62 3e e4 c2 ea be f2 ab 69 3e
       0.13444711 0.22114304 -0.45851815 0.22819498
000040 33 1c 21 bf ec 84 c8 3e 81 be 67 be 33 14 c9 3d
       -0.62933654 0.3916391 -0.22631265 0.09818306
000050 f5 7d 29 3e 1f d7 e0 3e a5 7f 47 be 08 a7 35 bd
       0.16551955 0.43914124 -0.19482286 -0.044348747
000060 61 96 98 3e 94 c5 15 bf 2c 1b ec bd e5 24 c8 bd
       0.2980223 -0.58504605 -0.1152862 -0.09772662
000070 80 fa f8 bd 84 ff 7a be f2 fe 89 be 06 ce ec 3e
       -0.12157154 -0.24511534 -0.2695232 0.46250933
000080 97 43 f9 be 27 26 7b 3e 4b 17 a9 3d f9 5e 30 bd
       -0.4868438 0.24526273 0.08256396 -0.043059323
000090 c5 d6 d5 3e ec 8f 26 be 63 ea b5 3d 1a 9c a2 3e
       0.4176542 -0.1626584 0.08882596 0.3175972
0000a0 16 bf 80 be 22 d5 1a 3e 8c df 9b be 0d f3 c0 3e
       -0.25145787 0.15120366 -0.3044399 0.37685433
0000b0 e0 dd 89 3e 1a 2b 71 3e 8d 94 54 3f e2 e8 09 bc
       0.2692709 0.23551598 0.8303917 -0.00841734
0000c0 88 a3 59 3e d0 bc b5 be 22 8c c3 3c 79 87 10 bf
       0.21253788 -0.35495615 0.023870531 -0.56456715
0000d0 84 af 46 3e ac 4d fd be 85 42 f6 3e 8d 8b aa 3e
       0.19402891 -0.4947332 0.48097625 0.33309594
0000e0 69 78 d1 be 24 d1 88 be 04 95 8e 3e 3c 84 93 3e
       -0.40912178 -0.26722062 0.27848065 0.28811824
0000f0 dc 43 5c 3e 05 3c 37 3e 83 72 20 be d1 c1 0c be
       0.21510261 0.1789399 -0.15668683 -0.1374581
000100 2a 49 e9 3d 89 7f 4e 3e 8c 5c 90 be a9 43 0c be
       0.11390908 0.20165838 -0.28195608 -0.13697685
000110 b7 1e c9 be c4 fd c9 3e b5 87 37 3e 61 2d df be
       -0.39281246 0.3945142 0.17922862 -0.4358931
000120 03 5a fe be 04 4c e4 3e 59 50 37 be 68 7e db 3d
       -0.49678048 0.44589245 -0.17901744 0.107174695
000130 cb 69 1e 3d 7e a2 10 be 4a 14 91 bd 18 e3 57 bf
       0.03867511 -0.14124486 -0.07083948 -0.8433089
000140 59 7a 95 3e 60 1a c3 3d 6e 7b 6a 3e a7 7b a3 3e
       0.29194906 0.09526515 0.22898647 0.31930277
000150 b0 bb 02 bf 27 b7 0e 3f 79 59 a4 3e c7 86 fa bc
       -0.5106764 0.5574822 0.32099512 -0.030581845
000160 90 31 00 bf 85 59 47 3f 93 98 5a 3e 86 8f 75 3e
       -0.50075626 0.7787097 0.21347265 0.23980531
000170 b6 00 b2 3d c0 99 ca be f1 61 d5 3e d7 f7 14 bf
       0.08691542 -0.39570427 0.41676286 -0.58190674
000180 30 f3 f7 bd 32 76 f1 bd 60 18 79 be cc a2 09 3f
       -0.12106931 -0.11790122 -0.24325705 0.53764033
000190 60 fc 0e 3f 06 b8 bb be 10 76 7b bf 51 1f 33 3f
       0.55853844 -0.36663836 -0.98227024 0.6996966
0001a0 e9 f6 42 3d 14 09 a6 3e c3 10 61 be 8b 5d 9d be
       0.047598753 0.324288 -0.2197905 -0.3073543
0001b0 ef 30 e5 be 79 3a 3f bf 0a ce 05 3f cb ce 0e be
       -0.44763896 -0.746986 0.52267516 -0.13946073
0001c0 27 ab 51 3e 68 1d 05 bf d4 84 5e 3d 95 67 a1 3e
       0.20475446 -0.51997995 0.054325894 0.3152434
0001d0 21 66 2f be 14 6f 3a bf 7b ab 18 be 9e 88 89 be
       -0.17128803 -0.7282574 -0.14909165 -0.26862043
0001e0 6c 46 44 be 1b 12 a1 be c6 78 cf bc 82 e9 ad be
       -0.19167489 -0.31459126 -0.025326144 -0.33967215
0001f0 f1 ed 24 3e 9b c2 58 3f d6 2f a4 3e 55 af 1c bf
       0.16106392 0.84671944 0.32067746 -0.61205035
000200 e2 bf 66 3f e1 87 04 bf 44 ba b7 be fb 69 d0 bd
       0.9013654 -0.51769835 -0.35884297 -0.10176464
000210 d6 cd 38 3e 4b 6d 4e be e6 08 8e bd 3e c2 96 bd
       0.1804727 -0.2015888 -0.06935291 -0.073612675
000220 1a 2c 8e 3c fe a4 87 3c ac 77 ba 3e 98 2b 87 be
       0.017355014 0.016558167 0.36419427 -0.26400447
000230 d8 a7 21 bf 6d c3 81 3e 4f 89 ce be e6 d5 31 bf
       -0.63146734 0.2534441 -0.40339133 -0.6946701
000240 b6 ea 83 3e 06 ca 3e 3e 0d 18 a6 be ec 3f 50 3f
       0.25765008 0.18631753 -0.32440224 0.8134754
000250 bd 12 a7 3e f5 47 5b 3b c9 92 da be e1 62 81 be
       0.32631484 0.0033459638 -0.42690113 -0.2527075
000260 ed ad 05 3f 98 ef e5 be 02 2b 0b bf 6c 58 c2 be
       0.52218515 -0.44909358 -0.543625 -0.37958086
000270 b5 31 a2 3e b5 be c0 3c 53 db d6 be 4f 25 b8 bb
       0.31678548 0.023528436 -0.41964206 -0.005619682
000280 48 26 87 bf fd cd d9 3e 5d 74 6c 3e fe 7c ca be
       -1.0558558 0.4253997 0.23091264 -0.39548486
000290 5b f0 30 3e f3 1e 46 be 75 7c 02 3e fe 86 55 be
       0.17279188 -0.19347744 0.12742789 -0.20852277
0002a0 a5 39 30 3f 2e 05 9d be 35 e1 bc be 76 4f 97 3e
       0.6883796 -0.30668014 -0.3689057 0.2955281
0002b0 d0 d9 36 3f c0 74 1b 3f 77 78 74 3e 21 a8 c7 3e
       0.71426105 0.6072502 0.23874079 0.3899546
0002c0 28 e3 c2 be 65 f2 32 bf 80 39 47 3f 05 2f 0e bf
       -0.3806393 -0.69901115 0.77822113 -0.55540496
0002d0 45 0f 31 be c1 dd 8f 3e 7a 56 14 3f 5c f9 fb 3e
       -0.17290981 0.28098872 0.5794445 0.49213684
0002e0 89 8e 35 bf e1 38 8e 3e df c1 f1 3e 56 69 c9 3e
       -0.70920616 0.2777777 0.47218224 0.39338177
0002f0 43 a3 cb be 63 a7 f1 be a6 b4 1e 3f 32 1f c4 3e
       -0.39772996 -0.47198018 0.619944 0.3830505
000300 c5 9e 14 be a8 94 a5 3e 3e 16 ef 3e 0a 6b 00 3f
       -0.14513691 0.32339978 0.46696657 0.5016333
000310 78 4c a3 3e 82 e6 dd 3e d9 c6 15 bf 56 39 13 3f
       0.3189428 0.43339926 -0.5850654 0.5750936
000320 db cb ff be a4 e4 cf 3d b2 f3 58 3e fe a0 04 3f
       -0.49960217 0.101510316 0.21186712 0.51808155
000330 b1 1a 2c 3f 80 ef 11 be 0b 93 84 3d f0 33 3f 3f
       0.6722823 -0.14251518 0.06473359 0.74688625
000340 ed c0 4d bd c7 ab 85 be fe 4b 26 3e 7b fb dc be
       -0.050232816 -0.26107618 0.16239926 -0.43160614
000350 5b 84 16 be bd 70 75 3e 7e 38 71 3e e8 9b 36 3e
       -0.14698927 0.23968787 0.23556706 0.17832911
000360 01 26 41 be e4 a5 f8 3e 03 5c b5 3e 87 62 d9 3e
       -0.18862154 0.48564065 0.35421762 0.42457983
000370 8c 3f ab be 80 8d c9 bd 8d f2 24 3f af 87 c7 bd
       -0.3344692 -0.09841442 0.64432603 -0.097426765
000380 ec a9 37 bf 25 80 26 3f a0 36 05 3f ea fd ae 3e
       -0.71743655 0.65039283 0.52036476 0.34178096
000390 cf 9a bc be c4 ca 2b be 78 55 97 3d 26 4a 62 3d
       -0.3683686 -0.16776568 0.07389349 0.055246495
0003a0 cf 4d 3d be 92 4e 22 3e 6f 0c ac be 0f dd 99 3e
       -0.18486713 0.15850285 -0.33603236 0.30051467
0003b0 27 47 2b 3f 7c 97 79 be c3 bd f4 3e e7 f0 10 3f
       0.66905445 -0.24374193 0.47801027 0.5661759
0003c0 d9 99 6c be d9 f4 d4 be 2d 55 1f 3e 34 40 5e bf
       -0.23105563 -0.41593054 0.15559836 -0.86816716
0003d0 d6 82 a9 be 37 a3 5a be 0d 35 c0 3e e5 3d eb 3e
       -0.33107632 -0.21351324 0.37540475 0.4594566
0003e0 10 22 a2 be 1a 02 e3 3e e3 04 11 3f 48 79 bc 3e
       -0.31666613 0.4433754 0.5664808 0.3681128
0003f0 75 4b a4 3a 92 ce 68 3e 5e 86 0b 3f 04 e2 0a 3e
       0.0012534695 0.2273505 0.54501903 0.1356278

encoder.layers.0.self_attn.linears.1.bias f4 [32]
000000 ba 47 b3 be 14 59 6f 3e 8f c7 26 bd b4 82 6a 3e
       -0.3501566 0.23373824 -0.040717658 0.22901422
000010 c4 94 82 be a2 87 60 3e 67 5b fd bc ca 22 65 3e
       -0.25504124 0.2192674 -0.030927373 0.22376552
000020 40 f2 4d 3e aa ca 47 3e 0c f5 88 3c d8 f6 f4 3d
       0.20111942 0.19510904 0.01671841 0.11961144
000030 a4 ab 33 be b0 37 cf bd b7 f3 25 3e 66 0a 6c be
       -0.17545944 -0.101180434 0.16206251 -0.23050842
000040 91 8a f3 bd 7f c0 95 3d 76 70 43 3d ad 77 0e be
       -0.11891664 0.07312106 0.047714673 -0.1391284
000050 1d 14 c4 3c 64 0f 97 be a6 3c c1 3e 6a a7 95 3e
       0.023935372 -0.2950393 0.37741584 0.2922929
000060 7d 7a f6 bd c5 5b 8b bd 36 5a 8a 3c 60 ab 1d 3e
       -0.120350815 -0.06804613 0.016888719 0.15397406
000070 1c f8 11 3e 96 cb af 3e f6 e1 02 3e 4f b5 97 3e
       0.14254802 0.3433501 0.1278151 0.29630515

encoder.layers.0.self_attn.linears.2.weight f4 [32, 32]
000000 3d 80 92 be 01 6f a2 3d 2a 67 6b be ab e3 5a 3d
       -0.28613463 0.079313286 -0.22988573 0.053439777
000010 f1 33 ba bc a2 26 ae 3d e0 9c 61 3d a1 40 5d 3d
       -0.022729846 0.085034624 0.05508125 0.054016713
000020 b5 af 01 be db 3b 37 be 24 09 4e be 07 02 0e 3e
       -0.12664683 -0.17893927 -0.20120674 0.13867961
000030 df 68 08 3c ee c1 21 3e 05 dd 8e 3e 6f 13 06 bd
       0.0083257845 0.15796635 0.27903 -0.032733377
000040 bc 5b 20 be 99 1f b8 3e ab af 17 be d5 34 ba bd
       -0.15659994 0.35961607 -0.14813106 -0.09092108
000050 55 16 35 3e 2d 0b 28 3c c5 c2 cd bd ac 57 27 3e
       0.176843 0.010256571 -0.10046915 0.16342038
000060 1c 2a 2b 3e 6f c3 f8 3e 48 de 6a bd 81 6e 89 bd
       0.16715282 0.48586604 -0.05734089 -0.0671053
000070 96 00 b3 be 56 81 bf be 65 c6 65 3e 1c 17 5c be
       -0.34961385 -0.37403363 0.22438963 -0.2149319
000080 d7 76 11 be 39 5a 3c be 22 f4 87 3c 0f 17 5c bd
       -0.1420549 -0.18393792 0.016595904 -0.053732928
000090 99 43 19 bc 2c 24 67 bc dc 72 d6 3d 3b 9d 24 be
       -0.009354495 -0.014107745 0.104711264 -0.16075604
0000a0 c0 cc 75 3e 22 a3 b2 bd 90 9b 0f 3e a0 bc 39 bc
       0.24003887 -0.08722521 0.14024186 -0.011336476
0000b0 5f 32 29 bc 35 0d 70 bd 51 5c 4e be ad 82 95 3c
       -0.010326951 -0.058606345 -0.20152403 0.018250788
0000c0 4f 0c 71 bd 00 56 de bd 6c 03 ed 3d b3 9e 07 3e
       -0.05884963 -0.10856247 0.11572918 0.13244133
0000d0 3b df e6 3d 20 79 18 3e cd f7 dd 3d 77 ac cc bd
       0.112730466 0.14889956 0.1083828 -0.099938326
0000e0 db 43 7d be 06 26 0d bf 11 a2 ac bc 28 a0 30 bd
       -0.24732916 -0.55136144 -0.021073373 -0.043121487
0000f0 7b 8b 8b 3e 5c 50 de 3e a3 34 47 be 2b 66 ec bc
       0.27254853 0.43420684 -0.19453673 -0.028857311
000100 1c b8 f4 bd b4 30 5b bd 93 81 c5 3d 00 88 d6 be
       -0.119491786 -0.053513244 0.09643855 -0.41900635
000110 30 f7 54 3d 62 19 c4 bd 34 96 11 3e d9 43 ac 3c
       0.05199355 -0.09575154 0.14217454 0.021028446
000120 61 5f 93 be 88 b2 41 3e b6 8d a4 3e 7f df c3 bd
       -0.28783706 0.1891576 0.32139367 -0.09564113
000130 10 a2 ab bc 3a 61 a9 ba df d5 a4 3c 74 a8 ed be
       -0.0209513 -0.0012922653 0.020121513 -0.46417582
000140 4b e0 bf 3c 59 0a 95 3b 5a fc 57 be 45 eb 75 3e
       0.02342238 0.0045483527 -0.21092358 0.2401553
000150 66 ed e2 3d a0 50 1f 3e 2f 4d 8d 3d 5e b7 93 be
       0.110804364 0.155581 0.06899487 -0.28850836
000160 3f 49 30 3d 2c c5 b9 3e 0c 9f 16 3d d6 59 ad 3d
       0.043038603 0.36283243 0.036772773 0.084644005
000170 5d 42 60 be 60 c8 13 bd c4 11 24 bd 40 4f 0c 3d
       -0.21900316 -0.036079764 -0.040056005 0.034255266
000180 2b 63 40 3d cc b3 c1 be 17 12 48 bd 93 25 dd be
       0.046969574 -0.37832487 -0.048845377 -0.4319273
000190 09 06 32 3e 5f 3d 15 3c 29 20 5a 3e b6 e3 96 be
       0.17385115 0.00910887 0.2130133 -0.29470605
0001a0 4e 46 2b 3e a5 ce c7 3e 71 e8 06 3d 78 4e ff be
       0.16726038 0.39024845 0.032936517 -0.49864554
0001b0 9c 18 cb bd df 36 31 3b a8 0d a3 be cf 70 92 be
       -0.09916803 0.0027040762 -0.31846356 -0.2860169
0001c0 21 eb 63 3e be 71 ab bc b1 d0 94 3e b0 99 b8 3e
       0.22257663 -0.02092826 0.2906547 0.36054754
0001d0 6a 0f 4f bd e1 89 0e 3e ad 60 64 be b0 c3 84 be
       -0.05055181 0.13919784 -0.22302504 -0.25930548
0001e0 cb c1 4f bd b3 2e 04 3e db d3 b4 bd 81 58 cd be
       -0.050721925 0.1290844 -0.08829471 -0.40106586
0001f0 6a 8b 17 3f 35 60 cd 3d d5 05 2f bd 7e a3 af 3d
       0.59197104 0.10028116 -0.04273017 0.085761055
000200 16 33 cd be 3c 10 2b be 63 18 ba bd 76 28 64 3e
       -0.40078038 -0.16705412 -0.09086683 0.2228106
000210 61 60 a4 3e 2c 31 3a bf de 8d 51 3d c6 1e af 3d
       0.3210478 -0.7273128 0.051160686 0.085507914
000220 77 98 75 3e 4d 28 bc 3c e0 33 c0 3d 88 e3 89 bd
       0.23983942 0.022968436 0.09384894 -0.06732851
000230 a2 59 a3 bd 5d 57 12 3f 13 b7 80 bd a1 a0 e6 bd
       -0.079760805 0.57164556 -0.06284919 -0.11261106
000240 38 55 22 3e a2 48 61 3e 36 99 36 3e 8a 02 ca 3e
       0.15852821 0.22000363 0.17831883 0.39455062
000250 3b b8 4d be d8 26 8e be 79 c7 11 3e 95 50 96 3d
       -0.2008981 -0.2776401 0.14236249 0.073395886
000260 a7 34 44 be b0 87 49 3e fe a9 ca bd 27 0e 69 3c
       -0.1916071 0.19680667 -0.09895705 0.014224566
000270 13 f5 86 3e fd c4 13 3d c5 ae 38 3e d3 1e 07 3e
       0.26358852 0.036076535 0.1803542 0.13195352
000280 bf 24 cf 3e 2e 3a e9 3d b9 31 23 3e be a1 08 be
       0.40457723 0.1138805 0.15936936 -0.1334295
000290 cc 6c ed be 8a c3 72 3d d5 ee c9 bb 31 24 89 be
       -0.46372068 0.05926851 -0.006162504 -0.26785424
0002a0 2a e2 d5 bd f4 75 80 3e c6 c4 91 bc b6 64 fb 3b
       -0.10443528 0.2508999 -0.017794024 0.007671918
0002b0 57 1f b8 3e 5b 7d c6 3d a8 28 fa 3c da 69 31 3e
       0.3596141 0.096918784 0.030536965 0.17325535
0002c0 13 a3 ea 3d 16 bf 6a be 39 ca 51 be 6e 89 df bd
       0.11456885 -0.22924456 -0.20487298 -0.109148845
0002d0 29 4c 0d be e4 df 61 3d 2a 0a a1 3c 5b 86 d3 3d
       -0.13798584 0.05514516 0.019658167 0.10328361
0002e0 86 d8 79 3e 4a d7 fc 3c 3d e8 15 3e 35 27 97 3d
       0.24399003 0.030864377 0.14639373 0.07380525
0002f0 72 1e bc 3e d7 75 10 bf 7a bd 2f bd e7 93 a4 3c
       0.36741978 -0.5642981 -0.04290531 0.020090057
000300 66 88 23 be d7 4b 8f bc 55 85 4c 3c 98 5b bb 3d
       -0.1597 -0.017492218 0.012482961 0.091483295
000310 83 75 90 be c8 c6 36 be a7 33 3f 3e 3a 55 0d 3f
       -0.28214654 -0.17849267 0.18672048 0.5520817
000320 c2 ac 13 3d 98 6b ae 3d d0 56 f7 bd 95 7b d9 3d
       0.036053427 0.08516616 -0.12077105 0.106192745
000330 d5 cd 86 3e d7 68 e0 3e f1 f0 2d 3d 3e cf b0 bd
       0.26328912 0.43829986 0.042466108 -0.08633278
000340 27 80 27 be 05 4d 95 3e 68 fd 8e 3c 3f 55 7d 3c
       -0.1635748 0.29160324 0.017454818 0.015462219
000350 86 f1 78 be 76 c9 92 3e 5e 0d f9 bd 13 89 fc bc
       -0.24310884 0.28669327 -0.12160753 -0.03082708
000360 5d c2 05 be 04 a0 72 be 07 69 c1 bc ec 93 0c 3d
       -0.13062425 -0.23693854 -0.023609651 0.034320757
000370 5f 57 de 3c bf bc 0b bd 37 cb d8 3d 0d dc 8a 3e
       0.027141271 -0.03411555 0.10585635 0.2712101
000380 99 6b dc 3d 5b 8b 37 3e c3 25 72 3e 02 39 13 3e
       0.1076271 0.17924254 0.23647217 0.14377216
000390 ae 8e da be d4 a3 75 bd e8 d6 8f 3d ff 28 de bc
       -0.4268698 -0.05997069 0.07023412 -0.027119158
0003a0 1f 69 6b be 1c 18 2f 3d 25 0c 60 3d f7 13 9d bc
       -0.2298932 0.042747602 0.054699082 -0.019174559
0003b0 77 14 a5 3e 8a 30 be bb e0 9b a8 3d c1 ba 89 be
       0.32242176 -0.005804126 0.08232856 -0.26900294
0003c0 19 79 38 3d c6 95 98 be 36 1d 2a bd 5b a9 b4 be
       0.045037363 -0.29801768 -0.041531764 -0.35285458
0003d0 f1 c9 17 be df 43 f1 3c f2 7a 7a 3d 52 e2 69 bd
       -0.14823128 0.029451309 0.061152406 -0.0571006
0003e0 4f 0d b5 3e 75 76 a8 be 23 0f 52 3e cc d2 ec 3d
       0.35361716 -0.32902876 0.20513587 0.11563644
0003f0 4f 12 db 3e 25 23 0c bd 66 a4 9f be 9c ec 56 3e
       0.42787406 -0.034213204 -0.31180114 0.20988697

encoder.layers.0.self_attn.linears.2.bias f4 [32]
000000 ec 49 e1 3c a2 f5 98 3c 62 01 15 be 59 bc da 3d
       0.027501069 0.018671814 -0.14551309 0.10680456
000010 7d ef 81 be 04 88 00 3d f5 a6 b7 bd a3 c9 01 3e
       -0.25378028 0.031379715 -0.089673914 0.12674575
000020 13 a6 e6 3c 7a 19 e1 3c 51 da 24 3d 13 80 80 3d
       0.028155362 0.027477968 0.040247265 0.06274428
000030 93 ea b6 3d 47 49 ab bd ff e5 33 bd 21 af ae 3d
       0.0893146 -0.08363586 -0.043920513 0.08529497
000040 81 f8 cd 3d d4 c7 ab 3d 92 6e db 3d 4d ad 48 bd
       0.10057164 0.083877236 0.10714449 -0.048993398
000050 d2 46 fc bd 96 a7 98 bd ba b0 85 3d 64 1d 08 be
       -0.123181954 -0.074538395 0.065278485 -0.13292462
000060 01 9a 37 bc b9 34 7e 3d ee 95 66 3d 91 da 72 3d
       -0.011206151 0.062062 0.056295328 0.059290472
000070 c9 c0 a8 3a aa 1a 85 bd 60 a9 fd 3d d8 ef 84 3d
       0.0012874837 -0.064992264 0.12385821 0.06491059

encoder.layers.0.self_attn.linears.3.weight f4 [32, 32]
000000 2b 1c 05 be b9 c3 56 3d c0 0f c2 bd 78 82 d9 3d
       -0.12999026 0.05243275 -0.0947566 0.10620588
000010 a6 4a b8 be 9e 7e a9 bd de c0 41 be aa 12 d8 3d
       -0.35994452 -0.082761034 -0.18921229 0.10550435
000020 b1 a7 02 3f 7c 85 bf bd 67 ca a7 3d 44 06 00 3f
       0.51037127 -0.09351632 0.08192902 0.5000956
000030 c7 e9 95 3e b9 fa 79 3c c2 d8 1f be 53 05 51 3e
       0.2927992 0.015257531 -0.1561003 0.20412187
000040 04 d1 38 3e d0 3d 22 bd 38 ab cc 3d 94 54 c5 3d
       0.18048483 -0.03960973 0.09993595 0.096352726
000050 14 0b cb bd ad 71 88 3e bd be 52 3d cf 04 39 bd
       -0.09914222 0.26649228 0.051451433 -0.0451706
000060 bb 9e fd 3d db 4b 3d 3d 13 41 ab bd 16 a5 8d bd
       0.12383791 0.04621492 -0.08362021 -0.06916253
000070 ab d0 21 be f0 aa e4 bc f0 d5 a9 3e 95 d0 74 3c
       -0.15802257 -0.02791354 0.33171034 0.014942308
000080 b8 d5 c3 bd e4 99 01 3e 5b 64 00 3e 71 2f c6 3e
       -0.09562248 0.12656361 0.12538283 0.3870807
000090 78 b9 f8 3e 0a 86 8f be 07 fe 5c 3e c3 b9 f7 bd
       0.48579 -0.2803195 0.21581279 -0.12095978
0000a0 17 e7 4a be 6c 40 6b 3e 74 f2 64 3e 94 14 2b 3e
       -0.19814716 0.22973794 0.22358114 0.16707069
0000b0 9f f3 18 3e 11 ee 3f bb 99 49 a7 bd 5f 58 7c be
       0.14936684 -0.0029286186 -0.081683345 -0.24643086
0000c0 ab 0a 36 3d 74 8b 85 bd ee 5e 46 bc 55 23 81 bc
       0.044443768 -0.06520739 -0.012107594 -0.015763918
0000d0 79 cd 9c bc 50 c8 34 3e b0 3c 76 3e 0a 6b b4 bd
       -0.019140946 0.17654538 0.24046588 -0.088094786
0000e0 37 00 4c 3d ab b4 a1 be c8 7b 0c be 46 52 fc 3e
       0.049804892 -0.3158315 -0.13719094 0.4928152
0000f0 50 dd 4c be 41 03 18 3e 4e 49 9b 3d b3 7e 2e 3d
       -0.20006299 0.14844991 0.07582341 0.0426013
000100 a3 d9 18 bd 76 38 17 be 12 ae 0c be 06 0b d1 bd
       -0.03731693 -0.14767632 -0.13738278 -0.10207181
000110 29 cc 04 be 29 f8 3b 3d 89 08 51 be 9a 8a 8e bb
       -0.12968506 0.04589096 -0.20413412 -0.0043500187
000120 87 8b 10 be 72 ea 20 be 50 7a ba be 86 90 15 be
       -0.14115725 -0.15714434 -0.36421442 -0.14605913
000130 5e 10 8f be 59 29 85 3d d2 96 a1 3e 38 8c 5c be
       -0.27942175 0.06502027 0.3156038 -0.21537864
000140 37 dd 92 3e f2 2f dc bb 30 55 b2 bd 47 b2 d4 be
       0.286844 -0.0067195827 -0.087076545 -0.41542265
000150 5c 42 09 be 7e 7c 90 bc f2 25 35 be 0e aa d0 bd
       -0.1340422 -0.017637488 -0.17690256 -0.10188685
000160 d6 47 e2 bb 2d 3c 66 3d 23 33 3a 3e be c2 7b be
       -0.006905536 0.05620973 0.1818357 -0.24586007
000170 e2 49 05 be 54 88 46 3e 0d 65 29 bd e4 7c d0 bd
       -0.13016465 0.19387943 -0.041356135 -0.10180071
000180 63 ce b6 bd f5 29 00 3e 1e 58 e5 bc b6 e9 b5 3d
       -0.08926084 0.12516005 -0.02799612 0.088824674
000190 85 fc 38 3e 1e 49 54 bc 5a 0a cc bd 62 05 c5 3d
       0.18065079 -0.012956886 -0.09962912 0.09620167
0001a0 45 a0 82 3d 6e 9d 76 3e e3 52 d1 bc cb bc 89 bd
       0.06378225 0.24083492 -0.025552219 -0.067254625
0001b0 98 8f 1d be 6f 25 aa 3d 75 a8 be bd 3b 3a c3 bd
       -0.15386808 0.08307921 -0.093094744 -0.09532591
0001c0 c2 fc 21 be 66 e2 75 be 7d b3 54 be 41 51 09 bd
       -0.15819076 -0.24012145 -0.20771594 -0.033524755
0001d0 b5 46 04 3e 8b 0e de 3c 86 5c 89 3e 24 01 15 be
       0.12917598 0.027106544 0.26828402 -0.14551216
0001e0 bb 5b 18 be c6 80 44 be 0d d5 b9 bd bc d2 61 bb
       -0.14878742 -0.19189748 -0.09073839 -0.0034457883
0001f0 6c 64 88 bd 41 ae 99 3c c5 3f ae 3c 3d 8d 19 be
       -0.06659779 0.018759849 0.021270642 -0.14995284
000200 30 9c 0f 3e a1 7e d0 bd 78 72 69 3e 1d da 3c 3d
       0.14024425 -0.101804025 0.22797573 0.046106447
000210 76 54 ff 3d 66 7d 59 be f8 15 5a 3d b2 e4 04 3e
       0.124672815 -0.21239242 0.053243607 0.12977865
000220 fc f2 4c 3d 8e f5 4b be cc 7b 28 be f8 58 e6 bd
       0.050036415 -0.1991789 -0.16453475 -0.11247438
000230 7e f4 64 be bd 31 07 3e 18 8e 57 bd 37 a9 56 bd
       -0.22358891 0.13202567 -0.052625746 -0.05240747
000240 54 92 f6 3d 8e 62 ec bd 57 b3 ca be 1d e0 85 be
       0.120396286 -0.11542235 -0.3958995 -0.26147547
000250 44 f1 e3 3c c2 3a 62 be 31 71 4c 3e 2c f6 74 3d
       0.027825005 -0.22092727 0.19965054 0.05980508
000260 1b 2c f5 3d f4 30 15 3e cf 02 fd bd dd a5 1b 3b
       0.11971303 0.14569455 -0.12354051 0.0023749985
000270 40 bc 28 3e 1d 6c a5 3d 9d bc a8 bd 62 d1 d3 bd
       0.16478062 0.080772616 -0.082391 -0.10342671
000280 b0 5f 7c 3e 39 5d 26 bb 6a f6 ce 3c 5d 6b c1 bc
       0.24645877 -0.0025385155 0.025263984 -0.023610765
000290 f0 85 f9 bd 2b a0 1f 3e ba 53 0c be c1 c8 8b 3d
       -0.1218375 0.15588443 -0.13703814 0.068254
0002a0 a8 d6 2d 3d 4f 50 4f be 45 35 87 3d 2b 79 51 bd
       0.04244104 -0.20245479 0.06601957 -0.051140945
0002b0 2c 0b a9 bc 1e 1c 35 3e 87 93 c4 bd f2 61 4c 3e
       -0.02063521 0.17686507 -0.09598451 0.19959238
0002c0 6e 27 08 bc 19 49 85 3c 3e 56 71 bd 3b 3d d3 3d
       -0.008310182 0.016270207 -0.058920138 0.10314413
0002d0 d1 79 44 bd aa ff 5a 3e 54 70 19 be ca c3 90 3b
       -0.047967736 0.2138659 -0.14984256 0.004417871
0002e0 5d 33 8c be 0a 6f 27 be ac 62 7e bd 49 b8 1c be
       -0.27382937 -0.16350952 -0.06210582 -0.15304674
0002f0 6a d8 59 3e e4 e7 2e be 87 87 35 3e 57 9d c7 bd
       0.21273962 -0.17080647 0.17727481 -0.09746807
000300 92 70 b2 be a4 fb 9a be 10 6a 2c 3e 8c 0d 88 3e
       -0.3485151 -0.30270112 0.16837335 0.26572835
000310 04 cd 4f 3e d3 49 9d be 0f 4c 05 be 4b b3 9b 3c
       0.20293051 -0.30720386 -0.13017295 0.019006392
000320 96 86 a3 be d2 02 bd 3e d8 77 81 3b cb d9 f6 bc
       -0.31938618 0.36916214 0.003951054 -0.030133149
000330 29 00 a3 bc 6e 40 d5 3c 6a 29 6c 3e 22 fd 6f bd
       -0.019897537 0.026031699 0.23062673 -0.058591016
000340 8d e9 37 3d f1 70 3d 3e b5 9c e6 be 49 68 29 bf
       0.044900466 0.18500115 -0.45041433 -0.6617475
000350 78 00 cb 3c 98 a8 dd 3e 68 3c 43 3e 80 73 80 3e
       0.024780497 0.4329269 0.19066012 0.2508812
000360 63 0b 82 bd b9 5a 10 be 91 cd 27 3e 7b f4 aa 3e
       -0.06349828 -0.14097108 0.16387011 0.3338965
000370 42 bd 97 bd 36 f0 f1 3d c0 44 2a be 25 5b 5a bd
       -0.07409145 0.11813395 -0.16627789 -0.05330958
000380 96 17 86 bd a2 f2 f0 3d 93 d0 03 3e 8d e7 8d 3e
       -0.065474674 0.117650285 0.12872534 0.27715722
000390 d8 ea e0 bd da c7 27 be 55 b1 f1 3d 96 ef 5a be
       -0.10982293 -0.16384831 0.118014015 -0.21380457
0003a0 47 e1 43 be 5e 93 88 3e 04 2c 00 3e ab 0f 98 be
       -0.19128905 0.26674932 0.1251679 -0.29699454
0003b0 bd 4e 12 3e 2b 56 f0 3b fc 9f 71 be 50 0f 1f be
       0.14287849 0.007334491 -0.23596185 -0.15533185
0003c0 85 13 5c be 1f fa 7a be 0b 2c 64 be 0c 5b a7 3c
       -0.21491821 -0.24509476 -0.22282426 0.020429157
0003d0 b7 6d 2a 3e 02 44 f3 be 92 66 37 3e dc 9c c9 3d
       0.16643415 -0.47512823 0.17910221 0.09844372
0003e0 3d 96 d5 3d 82 47 ee bc 1d 22 1a 3e e1 f7 01 3e
       0.10429046 -0.029086832 0.15052076 0.12692215
0003f0 39 63 99 3e 07 d1 49 3e 69 bc 18 be 99 5c 4e be
       0.29958513 0.19708644 -0.14915623 -0.2015251

encoder.layers.0.self_attn.linears.3.bias f4 [32]
000000 83 60 9f bd 4d 4f 86 3a fd 8b 12 3d e6 f7 1e 3e
       -0.0778208 0.0010247022 0.035778034 0.15524253
000010 09 cc 33 be f3 82 ef 3d c9 f0 1e bd 39 18 a6 bc
       -0.17558302 0.116948985 -0.03880385 -0.020275222
000020 36 2d af 3d e2 8f 4e bd a1 fe b2 3d c4 c7 28 3e
       0.08553545 -0.050430186 0.08739973 0.16482455
000030 19 9d d1 bd a3 47 da bc 7c 1c d3 3d 75 bf 0a 3d
       -0.10235042 -0.026645487 0.10308167 0.033873994
000040 c2 f2 a1 bd a6 de 50 bd f4 7f 8c bd 2b 28 9e bc
       -0.079076305 -0.050993584 -0.068603426 -0.019306263
000050 d1 ea 1e be 42 a2 f2 bd 06 44 1c be 3a 97 ec 3d
       -0.15519263 -0.118473545 -0.15260324 0.11552282
000060 22 f4 1f 3e 05 a2 67 be be 28 43 3e 5c 3a 45 3b
       0.15620473 -0.226204 0.1905851 0.00300946
000070 63 fa 6c bd 98 b4 87 bd 87 5f 6b be c3 1f cc 3d
       -0.057855975 -0.066262424 -0.2298566 0.099669956

encoder.layers.0.feed_forward.w_1.weight f4 [128, 32]
000000 6e 25 be 3e d6 39 82 3c a7 a8 4a 3e a4 af 08 bf
       0.37137932 0.015896719 0.19790898 -0.53393006
000010 09 77 69 be 06 28 e9 3c 88 12 52 3e a5 ef 56 be
       -0.22799315 0.028461467 0.20514882 -0.20989855
000020 b1 8a 3b 3e 36 96 a8 3e 62 47 c1 be d9 f7 52 be
       0.18314625 0.32927102 -0.37749773 -0.20602359
000030 28 b9 1c 3f 23 c7 14 bd 3f b3 6b 3e 27 0e 89 bd
       0.61220026 -0.036322724 0.23017596 -0.066921525
000040 1c 60 8c 3e 73 d8 1d 3e e5 fd b7 be 1a ee 8e bd
       0.27417076 0.154146 -0.35935894 -0.06979008
000050 ea 98 e0 3d 1d f6 96 be 25 07 05 bd c0 a0 ca bd
       0.10966666 -0.29484645 -0.032477517 -0.09893942
000060 b0 4c 8c 3e bc 44 31 be 48 36 d8 bd 5f 38 98 3d
       0.27402258 -0.17311376 -0.10557228 0.07432627
000070 2f 41 0a 3f 7e 1c 85 be 35 13 06 3c 6f 9a 98 3e
       0.5400571 -0.259983 0.00818329 0.29805323
000080 bc 67 de bd 37 2a 65 be 87 72 53 3e db 3b fb 3e
       -0.108596295 -0.22379385 0.20649157 0.49069104
000090 70 e5 f9 3b fd 52 33 be 84 f6 b8 bc 52 27 25 3e
       0.007626228 -0.17512126 -0.022578485 0.16128281
0000a0 62 42 38 3e d5 ac 70 bd 30 29 96 bb 9b c3 b6 3e
       0.17994073 -0.058758575 -0.0045825467 0.3569611
0000b0 bd 4b bb 3b b2 5a af bc df dc b1 3c 04 40 a5 bd
       0.005715816 -0.021405552 0.021711765 -0.08068851
0000c0 a7 22 b5 3e ea 6f a7 bd 4f 4a 9e 3e 02 ce 5f be
       0.35378 -0.08175643 0.30916068 -0.2185593
0000d0 02 35 ce bd de 22 80 3e 73 fa 8e bd 4b a7 3f 3e
       -0.10068704 0.25026602 -0.06981363 0.18716161
0000e0 ae e7 23 3d 5e dd 12 3d e0 69 57 3e fa 88 dd 3e
       0.04001587 0.035855643 0.21036482 0.43268567
0000f0 71 74 b1 bd 76 49 e6 3e b9 36 2a bc 29 8d 1f bd
       -0.086647876 0.4497792 -0.010389023 -0.03895298
000100 d2 ee c4 bb 84 e5 db be 7d 15 40 3d 85 6c 16 3d
       -0.006009915 -0.42948544 0.046895493 0.036724586
000110 62 d1 c9 bd 7d 58 bf 3d 7a b3 1d bf f5 2f 26 3f
       -0.0985439 0.0934305 -0.61601985 0.64916927
000120 2f 3d c9 3e cd b3 cf 3c 98 6b be bd d6 d9 48 bc
       0.39304492 0.02535429 -0.09297866 -0.012258967
000130 1b 1a 0d be d4 74 01 bd 88 6a 68 3d 66 dc 16 3e
       -0.1377949 -0.031605557 0.05674222 0.14732513
000140 5a 9b c0 3d bc 0d ac bd 23 91 63 3a f1 97 82 bf
       0.09404631 -0.08401057 0.000868099 -1.0202619
000150 ab b6 b6 be d7 26 a9 3e cd 97 82 be d8 e5 bf 3e
       -0.3568624 0.33037445 -0.2550644 0.37480044
000160 fb 55 b6 3e 10 eb 31 be f2 89 d3 3e c1 62 bd 3e
       0.35612473 -0.17374825 0.4131618 0.36989406
000170 14 83 83 3e eb cf 6d bd 2b 76 a1 bc 37 3f 62 be
       0.25685942 -0.058059614 -0.019709667 -0.22094427
000180 be c2 dd 3e 27 b1 3e 3e ee e1 3c 3c f9 05 81 bf
       0.4331264 0.18622266 0.011528475 -1.0079948
000190 91 c5 1d bd 6f 66 3e 3e 28 7e fb bc 7b 51 1f be
       -0.038518492 0.18593763 -0.030699804 -0.15558426
0001a0 e2 e4 0f bf 8d 45 08 3f 34 c3 ad 3b f5 59 9e bd
       -0.5620862 0.53231126 0.005302811 -0.07732002
0001b0 13 44 57 3e 92 3e 36 3e 62 2c d3 be 5e 75 3d 3d
       0.21022062 0.17797306 -0.412448 0.04625451
0001c0 32 85 e1 b9 0a 16 40 3e 8b bb 13 be bb 70 31 be
       -0.00043014582 0.18758407 -0.1442701 -0.1732816
0001d0 e4 0b 41 3e 37 9f a5 3e 09 4b 72 3e 38 f6 48 be
       0.18852192 0.32348034 0.23661436 -0.19625175
0001e0 b8 f8 ab 3c 61 cf e6 bd 84 50 50 3d 0f 8c 25 3e
       0.020992622 -0.11270023 0.050858036 0.1616671
0001f0 e0 b2 3b be 69 d4 d9 be 32 d6 ad 3e d2 fd 87 be
       -0.18329954 -0.4254487 0.3395248 -0.26560837
000200 42 0e 24 3e 57 62 bd 3d b8 26 e6 bd 06 a5 82 3d
       0.16021064 0.092472725 -0.11237854 0.06379132
000210 16 bc 9b 3e 64 27 08 3d cf f0 e5 be 55 e6 3f 3e
       0.30416936 0.03324069 -0.44910285 0.18740208
000220 eb 34 d3 be 26 a5 52 bc 2c a4 1a be 33 fb 24 be
       -0.4125131 -0.012856757 -0.15101689 -0.1611145
000230 9d ca 86 3e d3 b7 5e be ca 2d 6f 3d cc 56 b9 3d
       0.26326457 -0.21749811 0.058393277 0.09049758
000240 de 1c 75 3d 0f f0 58 3c ce a6 1d 3e 8e 29 46 3e
       0.059841983 0.013240828 0.15395662 0.1935179
000250 32 49 97 3e e4 1a 50 3e 1a 6a 52 3e 33 ec 6e 3c
       0.2954803 0.20322758 0.20548287 0.0145826815
000260 51 ff fc be c5 7d 59 3e 1e 2c 9b bc d7 01 6a 3d
       -0.4941354 0.21239384 -0.018941935 0.05713066
000270 7e 02 d6 3b d5 94 08 3f 76 6f 92 3e 95 6f 18 3c
       0.006531059 0.533521 0.28600663 0.009303947
000280 71 c5 7c 3e bb e2 05 3e 06 b7 33 3c e8 2f 03 bf
       0.24684693 0.13074772 0.010968929 -0.51244974
000290 50 d1 5f bf b7 6e e1 3e 6d 1c 82 be 05 13 00 bf
       -0.8742876 0.4402978 -0.25412312 -0.5002902
0002a0 d2 d6 cd 3e 3f 7c eb 3e d9 f7 3a bf c2 16 43 be
       0.40202957 0.4599323 -0.73034436 -0.1905165
0002b0 39 fc 12 3e 06 92 ba be ce 56 ce 3d 9c d9 ce bc
       0.14354028 -0.36439532 0.100751504 -0.025250249
0002c0 e3 4b 02 3c 67 c2 91 bd 1f 4d 2d bf ed dc 3d 3d
       0.007952663 -0.071171574 -0.676958 0.04635327
0002d0 89 b8 60 3e 5e db 9a be de 65 5d bd df 13 71 3e
       0.21945395 -0.3024549 -0.054052226 0.23542736
0002e0 6a 66 0b 3e ac a5 02 3d 5c 5e 2b ba 6c 25 60 3c
       0.13613287 0.03189628 -0.0006537193 0.013680797
0002f0 3b 2d 70 3e ba d0 d4 be ab a1 dd 3d 4d fe db 3d
       0.23454754 -0.41565496 0.10821851 0.107418634
000300 cd 13 4a be b5 5c f3 bd b5 42 e2 bd bc 34 1b 3e
       -0.19734116 -0.11882917 -0.110478796 0.15156835
000310 eb f5 6f be 14 db 15 be dc 4e 14 bd 8b 04 49 3f
       -0.23433654 -0.14634353 -0.03620802 0.7852256
000320 b9 de 09 3f 4d 67 9f be 53 d4 9c bd a7 c3 ed 3d
       0.5385547 -0.311335 -0.07657685 0.11609583
000330 79 6d 72 3d a9 10 72 3d ab 6d 18 3e c1 be 06 3d
       0.059186433 0.05909792 0.14885585 0.03289676
000340 df 76 62 3e 3b 0f 55 bd 30 6a 9c be c2 fc 85 3d
       0.22115658 -0.052016478 -0.30549765 0.0654235
000350 23 59 c0 be 98 b4 53 bf cd 94 c3 bd e4 65 17 3e
       -0.37568006 -0.8269744 -0.09549866 0.14784962
000360 2a 90 45 be 9d 86 ea bd 91 fe 92 3d 87 3b 6e 3e
       -0.19293275 -0.11451457 0.07177461 0.23264895
000370 5c 25 40 3f 6a 0e c9 3e 89 92 46 3d 40 d2 9a 3d
       0.75057006 0.3926881 0.04847959 0.07559633
000380 c7 0c 1f 3e 84 e2 e3 3d 27 a4 0a 3e 77 8c 28 3d
       0.15532218 0.11127189 0.13539182 0.041149583
000390 c9 e5 ad be 00 1f 4d bd aa 5b f6 3e 38 9d 96 3e
       -0.33964375 -0.050078392 0.4811681 0.29416823
0003a0 d2 c9 85 bd f8 f3 85 be 1c cb 48 be 65 4a d2 3b
       -0.06532635 -0.26162696 -0.1960873 0.00641756
0003b0 d9 7a 99 3e 77 42 12 be b7 0f ad bd 84 24 67 be
       0.29976538 -0.14283167 -0.08450263 -0.22572523
0003c0 97 3f fa bd 22 11 26 3e a0 f4 8a be 69 ec 8e 3e
       -0.1221916 0.16217473 -0.2713976 0.27914742
0003d0 16 35 17 be 93 89 35 be 25 8c 5b 3c f0 95 73 3d
       -0.14766344 -0.17728262 0.013400112 0.059469163
0003e0 88 3c 8a bd 97 37 df bd ee 2d f4 3d 60 10 2a 3e
       -0.06749827 -0.10899275 0.11922823 0.16607809
0003f0 e3 64 34 3f 8e 5d dc be 8d 64 2d be fb 1a ee 3e
       0.7046644 -0.43040127 -0.16932888 0.4650496
