index_advisor_selector/index_benefit_estimation/index_cost_lib/exp_res/exp_lib_tpcds_tgt_ep500_bat2048/model/lib_LIB_100.pt (torch, 414203 bytes, 120 tensors)

S f4 [1, 1, 32]
000000 28 90 b3 3d 80 4f d7 3d 68 e4 cd 3b fb 42 a5 3d
       0.0876773 0.1051321 0.0062833317 0.08069416
000010 94 e6 1d be 7a 9a fe bd a2 04 1c 3e 19 ff 95 bd
       -0.1541999 -0.12431808 0.15236142 -0.07324047
000020 ed fa f6 bd d4 15 7d 3d 42 50 c2 3d 5e 2c cd 3c
       -0.12059579 0.061788395 0.09487964 0.02504557
000030 26 11 cc bd b5 87 e2 bb 6c 8d 6a bc 1b df 8e be
       -0.09964208 -0.00691315 -0.014315944 -0.2790459
000040 72 a6 11 be 85 46 18 be dc 8c b5 bc c4 aa ab 3d
       -0.1422365 -0.14870651 -0.022161894 0.0838218
000050 08 5e e3 bb 6d 7a e7 3d 39 57 f1 3d 05 47 f6 bd
       -0.0069386996 0.11302648 0.117842145 -0.12025265
000060 4c 5f 38 3c db c1 92 3c ae 5e 4a 3d 23 37 86 3d
       0.011253189 0.017914703 0.0494067 0.06553485
000070 66 aa 16 3e 65 61 84 bd 03 3e e4 bc 09 1f 27 bc
       0.1471344 -0.06463889 -0.0278616 -0.01020027

linear1.weight f4 [32, 12]
000000 2b 0d 3b be d3 59 01 3d af 26 5d 3e 10 91 69 3e
       -0.18266742 0.031579804 0.21596788 0.22809243
000010 21 92 cd 3f 60 2c 38 bf a5 ca 06 bf 8c e2 01 bf
       1.606022 -0.7194271 -0.5265296 -0.5073631
000020 02 18 04 3e 13 a1 6f 3f df ee 6d 3d 86 a3 05 bf
       0.12899783 0.93605155 0.058089133 -0.5220264
000030 f5 19 39 be 05 93 4e be 4a c2 90 bd c5 88 8e be
       -0.18076308 -0.20173271 -0.07068308 -0.27838722
000040 a2 a5 95 be 7c c2 7e bc 94 12 06 3e cb a1 67 bd
       -0.2922793 -0.015549298 0.13093024 -0.056550782
000050 ec 47 c5 3d 83 d7 61 be 0e 50 9e be ff 85 85 3d
       0.09632859 -0.22054867 -0.30920452 0.06519698
000060 70 d8 aa be 45 bc e4 be d0 75 7c be 79 9e 65 3e
       -0.33368254 -0.44674888 -0.24654317 0.22423734
000070 5c 56 61 40 3f 72 26 be 43 21 68 be a2 39 58 3d
       3.520896 -0.16254519 -0.22668938 0.052789338
000080 3f e3 41 bf 41 20 27 bf 1c b6 c7 3e e1 0e fe 3e
       -0.75737375 -0.6528359 0.39006126 0.49620727
000090 09 fc cc be 6e 25 0a 3f 8e 55 fb 3e 06 f0 84 3d
       -0.40036038 0.53963363 0.4908871 0.06491093
0000a0 a6 40 6b c0 e9 b5 00 bf 50 a9 0a 3f bb 8a 9e bf
       -3.6758208 -0.5027757 0.541646 -1.2386087
0000b0 d7 0d 0e bf a2 c9 9d be 21 93 9f 3e bc d3 49 be
       -0.5548987 -0.30817896 0.31166938 -0.19709677
0000c0 c7 98 10 be 22 0e 66 3e ab 16 8e 3e d5 ad 6e 3e
       -0.1412078 0.22466329 0.2775167 0.23308499
0000d0 57 cb 86 40 f2 27 e0 be 94 c1 15 3f 7a 10 85 be
       4.2123218 -0.43780476 0.584985 -0.25989133
0000e0 2b 73 1e c0 47 6b 9e bf a6 19 7b be da 6f 84 3c
       -2.4757793 -1.2376488 -0.24521503 0.016166616
0000f0 94 3c 1c bf ad 66 e4 be fe 13 25 3f 52 cf 1e 3e
       -0.61029935 -0.44609585 0.6448363 0.15508774
000100 11 6d a9 40 c8 ad 9a 3d 2b 90 0a 3e 46 29 95 bd
       5.294564 0.075526774 0.13531558 -0.07283263
000110 11 6d c9 3e 82 f4 49 bf ee 0a 25 bf 6c 9e 10 3f
       0.39341024 -0.78888714 -0.644698 0.5649173
000120 50 85 01 3f 1b 15 90 be e3 85 5f bd 36 fa 4d 3e
       0.50594044 -0.28141102 -0.054571044 0.20114979
000130 67 c4 2a 40 0d 5a b7 be b7 4f b0 3f 35 e0 56 be
       2.6682374 -0.3581089 1.3774327 -0.20983966
000140 64 d0 43 be 36 4c cb be 14 cb 94 be d5 39 8b be
       -0.19122463 -0.39706582 -0.29061186 -0.2719256
000150 74 70 ee bf 3a 79 82 3f f9 51 fc 3e 52 ae 86 3e
       -1.8628068 1.0193245 0.4928129 0.2630487
000160 83 e2 95 c0 2a d5 81 3e 80 06 e7 be a0 76 91 3f
       -4.6839004 0.25357944 -0.45122147 1.1364326
000170 4b 12 d0 3e dd 32 69 3e 29 59 1d 3d 48 67 38 be
       0.40638956 0.22773309 0.038415108 -0.18008149
000180 48 9d 6d 3f b0 4a c1 be 9d cd fa 3d 36 48 94 3c
       0.9281812 -0.37752295 0.12246249 0.01810084
000190 03 12 96 c0 4a 04 ee bd 79 69 14 be 2a b4 68 3f
       -4.6896987 -0.11621912 -0.1449336 0.9089991
0001a0 0c d2 43 bf 7e 59 97 3f 4e ba 2b be 2b 1e ee bd
       -0.7649238 1.1824186 -0.16770288 -0.11626848
0001b0 0d b2 be be 39 66 c3 3c 86 24 2b be 57 dd 5f be
       -0.37245217 0.023852454 -0.16713151 -0.21861778
0001c0 0f ba 9d 3d ad 7e 22 3f 1b a6 b1 3d ee 9c 1a c0
       0.077015035 0.6347454 0.0867426 -2.4158282
0001d0 de 54 ad 3e 4a 1a f6 3e c5 30 f5 be 08 21 e4 3e
       0.3385381 0.48066932 -0.4788877 0.4455645
0001e0 40 53 30 bf d1 32 0e bf e0 93 fa 3c 90 49 8c 3e
       -0.6887703 -0.5554629 0.03058809 0.27399874
0001f0 36 1f 91 40 91 dc 64 bf d0 38 2f bf 73 63 d0 be
       4.53506 -0.8939906 -0.68446064 -0.40700874
000200 7c 73 f0 be df 18 5b bf 87 11 cb be b5 cb 40 be
       -0.46963108 -0.85584825 -0.3966181 -0.18827708
000210 74 3a f6 bc ad 09 8a 3d 31 80 1c 3e 53 00 85 bc
       -0.03005717 0.06740127 0.15283276 -0.016235506
000220 58 81 ba 3e 74 6f 33 3e 9f cf d1 3d 99 ea be 3e
       0.36426806 0.17522985 0.10244679 0.3728836
000230 f1 00 bb 3e 26 c2 2d be d0 d9 ad bd 6f 40 e7 bd
       0.36524156 -0.16968593 -0.0848881 -0.112915866
000240 ac c1 3f be 48 4f 8f 3d 9b 4e 59 be 73 0d 21 be
       -0.18726224 0.069975436 -0.21221392 -0.15727787
000250 b3 da 68 bc a8 d5 89 bd 17 e7 8b bc 8e c3 5c 3d
       -0.014212298 -0.06730205 -0.017077966 0.053897433
000260 2a 42 9e 3e c3 b5 13 3e 04 c2 85 3e ef 00 01 3e
       0.30909854 0.14424805 0.26124585 0.12598012
000270 8a c6 1b be 45 ad e4 bd c2 42 a6 be e8 b5 0a 3e
       -0.15212455 -0.11165861 -0.32472807 0.13545954
000280 21 2f 65 40 a5 37 de bf f4 28 11 bf 62 f7 e9 3f
       3.5810015 -1.7360731 -0.56703115 1.827862
000290 94 b5 fc 3e 88 99 98 bf 29 0a 18 bf d9 af 24 bc
       0.49357283 -1.1921854 -0.59390503 -0.010051691
0002a0 95 45 4c bf cf 78 db 3e c6 91 50 3d 05 64 19 be
       -0.79793674 0.42865607 0.05092027 -0.1497956
0002b0 9c 5d 9d c0 0f cc 7d 3f b5 ee 9b 3f 59 31 aa 3d
       -4.917677 0.99139494 1.2182223 0.083101936
0002c0 6b e0 91 3e b5 fc 81 be cc 50 24 be 42 2b 2c 3e
       0.2849153 -0.25388113 -0.16046447 0.16813377
0002d0 d2 20 d9 3e dc 7a 05 3e 18 32 2e bd 6e 83 34 bf
       0.42407852 0.13035148 -0.042528242 -0.70513046
0002e0 50 41 bb 3e 39 73 cf 3e ba e7 3e 3e 0e d5 92 bd
       0.36573267 0.40517595 0.18643084 -0.07169543
0002f0 ea 38 7a 3f df b5 ae 3e 7b ba 15 bc 33 04 0e 3f
       0.97743094 0.34123132 -0.009138699 0.5547516
000300 ab d8 59 bf 6e d3 a0 3e 01 33 57 3d 44 2a 02 3e
       -0.85096234 0.31411308 0.052538875 0.12711436
000310 5c 0c 09 40 20 af 81 bf 7f a2 ae 3e 9a c1 d2 bd
       2.1413794 -1.0131569 0.3410835 -0.10290833
000320 ce 5f a1 be 6a 29 17 bf 1b fb 61 be ac 71 02 bf
       -0.31518406 -0.5904757 -0.22068445 -0.509547
000330 b9 04 a9 be 91 06 a6 be 38 a2 2b 3d 32 9f 8e 3e
       -0.33011416 -0.32426885 0.04190275 0.2785583
000340 c2 c1 b6 40 4e 16 5b bf a3 b2 86 3e ff 39 46 be
       5.711152 -0.8558091 0.26308164 -0.19358061
000350 01 3a 0a 3f 9b 20 85 bf da cc 2a bf de 5b b8 be
       0.53994757 -1.0400575 -0.6671883 -0.3600759
000360 93 8e 1b bf ad 37 a5 be 18 82 16 bd 9f 6c 24 3f
       -0.60764426 -0.3226904 -0.03674516 0.6422824
000370 3a 81 45 40 09 88 20 bf fe 07 de 3d 6a 49 d2 3e
       3.0860124 -0.62707573 0.10841368 0.41071635
000380 01 92 bf bf 7f 9a 04 3f 6e 72 32 bf 2d 5a c3 3d
       -1.4966432 0.5179824 -0.69705856 0.09538684
000390 a3 90 12 be b1 1e c9 be 04 74 71 be 33 97 93 3e
       -0.14312987 -0.39281228 -0.23579413 0.28826293
0003a0 78 13 90 40 e2 26 4a 3e e3 a3 0d c0 ed b9 0a bf
       4.5023766 0.19741395 -2.2131279 -0.5418995
0003b0 d0 aa 8e bf cd b5 84 bf 01 57 01 bb 05 77 e9 be
       -1.1145878 -1.0367981 -0.0019735696 -0.45598617
0003c0 b1 eb 11 3f 2a cd e9 be 03 e5 fd 3d 80 71 95 3e
       0.5700026 -0.4566434 0.12397196 0.29188156
0003d0 17 29 94 40 35 5d 20 3e 02 c9 9e be 53 20 05 be
       4.630016 0.15660556 -0.31012732 -0.13000612
0003e0 28 70 a2 be d3 9f dc bf 3a 60 ce 3d 91 e7 a3 bd
       -0.31726193 -1.7236274 0.100769475 -0.08003152
0003f0 60 69 af bf bd 0a c2 be 78 03 87 3e df 9a 9f 3e
       -1.3704033 -0.37898818 0.26369834 0.31172845

linear1.bias f4 [32]
000000 11 df 7a bb 74 05 73 bd 3f 80 b5 bd 13 51 ae 3e
       -0.003827993 -0.059331372 -0.088623516 0.3404623
000010 93 ec 21 bf 03 d1 51 bf e5 eb 06 3e 57 42 33 3f
       -0.6325161 -0.8195955 0.13175924 0.700231
000020 55 5c f3 3c 87 62 8d bc ae ba f6 be a6 78 af bd
       0.029707113 -0.017258896 -0.481893 -0.08567934
000030 af af 2e 3e a9 09 de be 5f 14 ef 3e b3 75 0d be
       0.17059205 -0.43366745 0.4669523 -0.1381443
000040 19 03 91 be f0 04 11 bf cc df fc be 77 77 a2 be
       -0.28322676 -0.5664816 -0.49389493 -0.3173177
000050 2e 0e 2e bf fe dd 8f bf 02 96 c0 be cb 9e 8a bd
       -0.67990386 -1.1239622 -0.37614447 -0.067685686
000060 0f 66 91 3e 69 f2 43 be 4c c4 24 be db 67 1e 3e
       0.28398177 -0.19135441 -0.16090506 0.15469305
000070 f4 47 e7 3e 5f 59 06 3e 16 1e b3 bd 12 91 bb 3e
       0.45172083 0.1312003 -0.08745973 0.36634117

encoder.layers.0.self_attn.linears.0.weight f4 [32, 32]
000000 b9 ac 91 bf 49 ae 1b be 6c 71 1a be 5e 22 ac 3d
       -1.1380836 -0.15203203 -0.1508233 0.084049925
000010 03 66 fb 3e 7a d6 27 3f 52 12 bb be 23 81 84 bf
       0.49101266 0.6556164 -0.36537415 -1.0351909
000020 20 16 f2 bd 79 2a 77 be 56 b5 1e be c2 22 1f be
       -0.11820626 -0.24137296 -0.15498862 -0.15540603
000030 d6 93 c0 3d cc bc 3c bc a3 50 86 3e 00 d2 93 3e
       0.094031975 -0.011519622 0.26233396 0.28871155
000040 8a ca 3d bf 84 a2 0e be ca 2a 03 3e 37 60 3c bf
       -0.74137175 -0.13929182 0.12809291 -0.7358431
000050 43 8c 4f be 0c f2 da 3e b2 d5 61 bd ed f7 30 bd
       -0.2026835 0.42762792 -0.055135436 -0.04320519
000060 5a 58 88 bf 7c 8c 5f 3e 01 d7 8b bc 62 72 33 bd
       -1.0651963 0.21830934 -0.017070295 -0.043810256
000070 e1 8a 0f 3f 64 07 40 bf 4c ce 20 3f ab 91 b2 be
       0.5607129 -0.7501128 0.62814784 -0.3487676
000080 1d c1 c7 3e a6 26 7f bd 80 69 bd be 5a 2e 19 be
       0.3901452 -0.062292717 -0.36994553 -0.14959088
000090 a3 d5 a6 be ff 41 2c bf 8a 22 9e 3e 4f ab a5 3e
       -0.32584867 -0.672882 0.30885726 0.3235726
0000a0 81 cd e0 3c 6c ef eb be e7 e1 69 3e 2e 0f 3e 3e
       0.027441742 -0.46081102 0.22840081 0.18560478
0000b0 ff b6 b4 be 3d a6 97 3e 5f bb 20 bf 46 c7 83 bf
       -0.35295865 0.29619017 -0.62785906 -1.0295188
0000c0 10 a1 7b bd fe fb 82 3e c6 5f 51 be 42 b4 0a 3f
       -0.061432898 0.2558288 -0.20446691 0.541813
0000d0 78 26 8c 3d 83 dc 96 be 84 76 09 3e 5e 30 8f bb
       0.06843275 -0.29465112 0.13424116 -0.0043697795
0000e0 f3 db 77 bd e1 39 be bf ae 50 c1 bc e0 1e ca bd
       -0.060512494 -1.4861413 -0.023598041 -0.0986917
0000f0 4a 0f 69 bf a9 51 9b 3e 4a 0a b0 be 95 29 8a 3d
       -0.91038954 0.3033574 -0.3438285 0.067462124
000100 67 f3 0a be c1 0d 48 bc 11 7c 23 3f a7 cb 47 3e
       -0.13569413 -0.01221031 0.63861185 0.19511281
000110 86 eb f8 3d 0a bf d9 3e be 41 46 bd 95 30 a5 3f
       0.121542975 0.42528564 -0.04840254 1.2905451
000120 a0 8d 6d 3e 71 65 10 bd 01 e7 1b 3f 46 44 e8 bd
       0.23198557 -0.035252992 0.6089936 -0.11341147
000130 36 d0 45 3e 10 76 2f 3f c5 03 c4 3e 4b 75 8b 3e
       0.19317707 0.68539524 0.38284126 0.27237925
000140 db 52 70 bc 43 9f e9 3e b1 d9 8c 3e 65 4e e3 3e
       -0.014668192 0.4562932 0.27509835 0.44395748
000150 84 5d a1 3e da a1 26 3f ec a0 fc 3d 71 a9 1c be
       0.3151666 0.65090716 0.12335381 -0.15299012
000160 ac 9f 10 3d eb 14 ec 3e 7b bb 1e 3c af f0 c4 3d
       0.035308525 0.4610971 0.0096882535 0.09616219
000170 c2 63 59 bf e7 73 af 3e 8f e8 c9 3e 12 26 8d bd
       -0.84917843 0.34268114 0.3943524 -0.06892027
000180 0f 18 ab 3e 98 62 c0 3d 36 53 51 be b7 64 f8 bd
       0.33416793 0.09393805 -0.20441899 -0.12128585
000190 13 2a 2a bf 59 c3 25 bf 25 8e 18 be 7b 4b 5e 3e
       -0.6647045 -0.647512 -0.14897974 0.21708481
0001a0 0f a9 c8 3d 3c 43 98 3f 7a 1a 68 be d0 a0 35 bd
       0.0979787 1.1895518 -0.2266635 -0.044342816
0001b0 0c e6 ed be 6a b6 7e bf 99 aa 0a be 22 04 28 bf
       -0.46464574 -0.9949709 -0.1354164 -0.65631306
0001c0 a8 26 a1 3e b1 bf f3 be 13 ee 39 be 97 5a 84 3e
       0.31474805 -0.47607186 -0.18157224 0.25850365
0001d0 ac 25 b3 be 95 b2 46 bf 79 37 7e 3d bb 5c ad bc
       -0.3498968 -0.77616245 0.06206462 -0.021162381
0001e0 6b 1a 31 3e f3 c6 a4 be b6 4c 2d 3e 90 18 59 be
       0.17295234 -0.32183036 0.16923794 -0.21200776
0001f0 9d 4d 48 3f 08 74 fa 3e 2f 44 5c bf 62 15 04 bf
       0.7824343 0.4891665 -0.8604154 -0.5159513
000200 2d 64 a4 3f 1b 6e 79 bb 3d 39 31 3f b1 e8 48 3e
       1.2843071 -0.0038060013 0.69227964 0.19620015
000210 31 02 e3 3e c3 28 79 3f ef 36 20 3e fa 58 05 3f
       0.4433761 0.9732782 0.15645956 0.5208889
000220 75 2c f0 3e 5a 30 0e 3f 33 5b 24 3f 24 92 11 3e
       0.46908918 0.5554253 0.6420166 0.14215904
000230 89 0e 23 be 54 2a 72 3f a2 17 d0 3e 4b fe 21 3d
       -0.15923513 0.9459584 0.4064303 0.039549153
000240 33 bc 97 3f 38 d6 2a 3f fc a4 68 3f 02 cb 6c 3e
       1.1854309 0.6673312 0.90876746 0.23124316
000250 1a 51 a1 3e 90 aa 99 3f 29 ab 8d bd f4 2b 0f 3e
       0.31507188 1.2005177 -0.06917412 0.1398161
000260 ed 47 eb 3f a8 e4 1a be 9b 22 e9 bd 22 ba 5b 3e
       1.8381325 -0.15126288 -0.113835536 0.21457723
000270 4c ed e7 3e ca 10 9b be 82 27 8f be 6a e1 b4 3e
       0.4529823 -0.30286247 -0.2795983 0.35328227
000280 c6 5d 81 3f 33 4d 7f 3d 1c ce 3a be f7 5b 83 3f
       1.0106742 0.062329482 -0.18242687 1.026244
000290 1d 52 30 be 9e 56 1b bf 77 15 07 3f be bc 08 bd
       -0.17218824 -0.6067904 0.5276713 -0.033383124
0002a0 ff df 2c bf 67 28 1f be c9 91 19 bd 01 65 c1 bd
       -0.6752929 -0.15542756 -0.037492547 -0.09443093
0002b0 83 44 52 3e 29 3e 34 bf 0d fa 50 3e 9c b4 ca 3e
       0.20533948 -0.7040735 0.20407887 0.3959092
0002c0 2f 1d a6 3f 3d 05 41 3d 55 62 95 be 95 64 22 3e
       1.2977656 0.047124136 -0.29176584 0.15858681
0002d0 76 99 c6 be f5 1c 1f 3b 31 6d 5c bd c4 f7 dc 3d
       -0.38788956 0.0024278734 -0.05381507 0.10789445
0002e0 92 46 38 be 68 5d 48 be c2 78 be 3c 39 19 05 bd
       -0.1799567 -0.19566882 0.023250941 -0.032494757
0002f0 08 92 4f be 88 cc eb 3e d4 7e 14 bf b2 50 25 bf
       -0.2027055 0.46054482 -0.58006024 -0.64576256
000300 79 4e 44 bf 0d df 1a 3d 9d c7 8a bd 1c 8a 1e bf
       -0.7668224 0.037810374 -0.067763545 -0.6192949
000310 9d 06 a3 be 44 ef 6a bc 22 d9 e0 3c c1 2f 19 3f
       -0.31840983 -0.014339272 0.027447287 0.5983849
000320 fe c6 02 3e 77 f3 fa 3e bc 56 4f be 86 9d 63 3e
       0.12771222 0.49013874 -0.2024793 0.22228059
000330 7e 2f e3 3d cc ce ba 3e 81 ad a4 bd 2c cf 83 3f
       0.11093043 0.36485898 -0.08040906 1.0297599
000340 02 ba 9e bf 7c 17 da 3e a9 0b 38 be 21 a3 ea 3d
       -1.2400515 0.42596042 -0.17973198 0.114568956
000350 ea 56 18 3c f2 e3 45 bd 06 30 ed bc 02 da 03 be
       0.009298066 -0.04831309 -0.028953563 -0.12876132
000360 b2 f3 9b bd f5 75 5c 3f a6 36 06 bd a2 88 a6 bd
       -0.076148406 0.8611749 -0.03276696 -0.081315294
000370 dd 21 33 be b3 df 17 be 55 5c 65 3e 2a e3 7e 3e
       -0.17493387 -0.14831428 0.22398503 0.24891344
000380 fc 97 13 c0 b5 8b 9a 3d ba fe 83 be 09 bc 19 bf
       -2.3061514 0.07546178 -0.25780278 -0.60052544
000390 f9 38 cf be 33 b7 1c bf ea 7b 84 bf 36 27 12 bf
       -0.40473154 -0.6121704 -1.0350316 -0.5709108
0003a0 45 da 84 be cf a3 1a 3c 58 b1 16 bf 3e f8 51 be
       -0.25947776 0.009438469 -0.58864355 -0.20504853
0003b0 ee 01 07 3e 29 90 0d bf b7 42 dc bd fb 5e 5e bf
       0.1318433 -0.55298096 -0.10754912 -0.8686368
0003c0 a9 2c 50 c0 78 cd c6 bf 0d 3f f1 be 00 bb 41 bf
       -3.2527258 -1.5531454 -0.47118416 -0.75675964
0003d0 0e b1 81 be 47 0e 4f bf 06 30 aa be a9 59 b0 bc
       -0.25330395 -0.8088116 -0.33239764 -0.021527128
0003e0 2e 36 01 c0 98 62 1a bf 5f 39 ba 3d 37 a7 08 be
       -2.0189319 -0.6030669 0.09092974 -0.13345037
0003f0 0c 14 9f 3e 23 e4 55 3d 5e d7 03 3f 4a 62 c5 3b
       0.31069982 0.05221952 0.515005 0.00602368

encoder.layers.0.self_attn.linears.0.bias f4 [32]
000000 25 38 f8 be 9b 83 13 3e 11 aa 35 3e 35 1f 0c 3f
       -0.48480335 0.14405672 0.17740656 0.5473512
000010 7b 14 34 3e b4 b4 4c bc a3 bd 9b be c5 b6 de bd
       0.17585938 -0.012494255 -0.3041812 -0.10874704
000020 d8 44 7c be f0 b6 63 bd f7 0c af be 0b d6 b5 be
       -0.24635637 -0.055594385 -0.3418958 -0.35514864
000030 69 16 a8 be a4 a3 c7 bd 08 83 4d 3e 52 d3 79 bd
       -0.32829598 -0.09748009 0.20069516 -0.060992546
000040 fc 07 b1 bd c8 d9 f0 3e 06 dc 05 bf bb 3b 04 be
       -0.08644101 0.47041154 -0.52288854 -0.1291341
000050 89 a3 61 be 76 96 76 be 5c 29 37 3e 10 6b 38 3d
       -0.2203504 -0.24080834 0.17886871 0.045023978
000060 e9 36 09 3e e1 51 8f 3e 3d 92 83 3e 39 e0 f3 3d
       0.13399853 0.27992156 0.25697508 0.119080015
000070 c6 d3 ef bd ca 9c d1 be 51 af 11 3d 75 c1 9e be
       -0.117103145 -0.40939933 0.035567585 -0.3100697

encoder.layers.0.self_attn.linears.1.weight f4 [32, 32]
000000 82 53 9b bd d3 4a fe bd dd 22 dd 3e f1 30 1b be
       -0.07584287 -0.12416615 0.4319066 -0.15155388
000010 2d 14 d5 be 89 85 7f 3e 8f 79 3b be 0d 1c a7 be
       -0.41616955 0.24953283 -0.1830809 -0.3263859
000020 65 8a 3a 3f fa 38 3c bf fe 22 0d 3f ba 81 a3 bd
       0.72867423 -0.7352444 0.5513152 -0.07983728
000030 41 58 df 3d 24 f1 ed 3d 1d df ef be 5d e8 60 3e
       0.10905505 0.116182595 -0.4684991 0.2196364
000040 73 db 21 bf 38 c8 c1 3e d6 cc 3e be a2 03 b9 3d
       -0.6322548 0.37848067 -0.18632826 0.09033896
000050 1f d5 24 3e ae 4c d8 3e 31 47 3d be 0e f1 87 bd
       0.16096924 0.42246002 -0.18484189 -0.066377744
000060 46 b4 97 3e e2 8c 15 bf 49 aa fb bd a4 3b e8 bd
       0.29629725 -0.58418095 -0.12288339 -0.113395005
000070 06 7c 99 bd 77 2d 89 be 26 df 77 be c9 67 00 3f
       -0.07494359 -0.267925 -0.24206218 0.50158364
000080 4b 35 ee be 21 81 82 3e 8d 66 b1 3d 81 00 e8 bc
       -0.46525034 0.25489143 0.08662138 -0.028320553
000090 4f b2 cd 3e 95 c3 41 be e8 9d b1 3d f6 2a 93 3e
       0.401751 -0.18922265 0.08672696 0.28743714
0000a0 6c d4 67 be ef ef 1c 3e 97 ab aa be 0f 84 c3 3e
       -0.22639626 0.15325902 -0.33334038 0.3818669
0000b0 a3 41 92 3e 72 50 15 3e a6 a5 54 3f 02 39 4a bc
       0.28565702 0.14581469 0.8306526 -0.012342693
0000c0 c2 2d 7b 3e 00 02 b8 be 9a de 96 3d 29 57 0a bf
       0.24529174 -0.35939026 0.07366677 -0.54039246
0000d0 69 29 4f 3e a2 06 00 bf 61 c0 f4 3e f2 11 a8 3e
       0.2023064 -0.5001012 0.47803023 0.3282619
0000e0 95 4f ca be 44 20 80 be fb 2d 9b 3e 5e f6 9d 3e
       -0.3951384 -0.25024617 0.30308518 0.30852026
0000f0 26 56 54 3e b2 c2 41 3e 32 6b 2a be df a0 ca bd
       0.20735988 0.18921927 -0.16642454 -0.09893965
000100 f4 20 e3 3d 09 0f 50 3e c4 dc 91 be f1 d8 48 be
       0.1109027 0.20318235 -0.28488743 -0.19614007
000110 fa cf d1 be 9a 6c d3 3e f3 23 29 3e 25 0a ce be
       -0.40978986 0.41293794 0.1651762 -0.40242115
000120 03 86 01 bf 6f 54 ea 3e e4 09 16 be 68 d7 f6 3d
       -0.5059511 0.45767543 -0.1465221 0.12052804
000130 66 ed f2 3c 74 06 36 bd 91 16 85 bd 22 d0 55 bf
       0.029654216 -0.044439748 -0.06498445 -0.8352071
000140 3d f9 88 3e b5 2f d8 3d 0e e7 39 3e 10 0d 9f 3e
       0.26752654 0.105559744 0.18154547 0.31064653
000150 7c c9 02 bf 36 41 15 3f d0 0e 9c 3e 02 74 0f bc
       -0.5108869 0.5830263 0.3048005 -0.008755686
000160 a4 26 01 bf 23 86 45 3f 5b 64 51 3e 53 65 73 3e
       -0.50449586 0.771578 0.20448439 0.23769121
000170 a9 1d 6a 3d ea 1e c5 be 8d 1a cf 3e 2b 2b 22 bf
       0.057157192 -0.38500148 0.40449944 -0.6334712
000180 85 94 04 be 59 d7 f0 bd b1 df 80 be 60 72 06 3f
       -0.1294728 -0.11759824 -0.25170663 0.5251827
000190 90 9a 0d 3f 96 d3 b2 be 84 fb 7d bf ac fa 3a 3f
       0.5531397 -0.34927052 -0.9921191 0.73038745
0001a0 ba 32 10 3d e4 2d a9 3e c0 05 3e be d3 ca 98 be
       0.035204627 0.33042824 -0.18556881 -0.29842243
0001b0 e8 6d e1 be 75 4e 26 bf d4 20 07 3f db 9b fd bd
       -0.44029164 -0.64963466 0.52784467 -0.12383243
0001c0 c3 3d 3a 3e 0c ef 02 bf eb 8a 11 3b 24 45 9b 3e
       0.18187623 -0.51146007 0.0022208046 0.30326188
0001d0 e3 1e 30 be fb cb 3a bf 05 8d 15 be 80 33 84 be
       -0.17199282 -0.729675 -0.14604576 -0.2582054
0001e0 fb f9 46 be d7 43 a8 be 4e 07 1a bd 39 d4 b1 be
       -0.19431297 -0.32864258 -0.037604623 -0.34732226
0001f0 aa 86 14 3e 97 f5 58 3f d4 75 a2 3e a6 9e 24 bf
       0.14504495 0.8474974 0.3173052 -0.6430458
000200 d7 d2 64 3f 89 05 05 bf a3 47 b5 be 51 6a cf bd
       0.89384216 -0.5196157 -0.35406217 -0.101277
000210 f4 23 2b 3e 17 bf 47 be 05 40 96 bd c2 fb 8e bd
       0.16712934 -0.19506489 -0.073364295 -0.06981613
000220 26 21 29 3c 13 9c dc 3c ed f6 b1 3e 29 71 8d be
       0.010322845 0.02692989 0.34758702 -0.27625397
000230 8a 1b 1d bf 13 a9 7a 3e 1f 3d cf be b2 9b 2c bf
       -0.61370146 0.24478559 -0.4047632 -0.6742507
000240 e3 d4 7d 3e 7e 39 53 3e e0 a5 9d be c9 7a 4e 3f
       0.24788241 0.206274 -0.30790615 0.80656105
000250 80 5e a3 3e 08 1c 06 bb a3 a0 e8 be 61 bc 80 be
       0.31908035 -0.0020463485 -0.45435056 -0.25143722
000260 36 8f 04 3f 15 f2 e0 be 52 07 0d bf 79 b4 c5 be
       0.5178102 -0.43934694 -0.55089295 -0.38614252
000270 c1 2e a7 3e 46 be 85 3c cf 92 cf be e7 fc d5 bc
       0.32652858 0.016326081 -0.40541694 -0.02612157
000280 0e 9e 87 bf 72 ca df 3e 00 d3 70 3e 05 e9 ca be
       -1.059511 0.4370914 0.2351799 -0.39630905
000290 12 98 2e 3e 62 6b 43 be cd 60 f6 3d 38 45 45 be
       0.17050198 -0.19083932 0.12030182 -0.19264686
0002a0 38 78 2f 3f 25 d4 97 be a9 1f c2 be 2c 65 90 3e
       0.68542814 -0.2965404 -0.3791478 0.28202188
0002b0 aa 6e 36 3f 85 8a 1a 3f f4 0f 84 3e 02 a6 cc 3e
       0.7126261 0.60367614 0.2579342 0.39970404
0002c0 9b 68 cf be f4 fb 30 bf cc 76 4b 3f 44 00 0f bf
       -0.40509495 -0.6913445 0.79478145 -0.5585978
0002d0 45 10 49 be 08 12 89 3e 75 2a 0b 3f a8 06 00 3f
       -0.19635113 0.2677157 0.5436166 0.50010157
0002e0 c5 76 38 bf 9b 57 8b 3e 55 22 f0 3e 9c 2b c9 3e
       -0.7205623 0.27215275 0.46901193 0.39291084
0002f0 03 f0 bd be 5e 4e f3 be 72 1f 20 3f a4 77 ba 3e
       -0.37097177 -0.47520727 0.6254798 0.36419404
000300 f3 7d 1a be d5 ef a4 3e ce 2e f3 3e 5b 77 04 3f
       -0.15087108 0.32214227 0.47496647 0.5174462
000310 2c c5 a4 3e 69 35 e1 3e ca 25 15 bf ca 10 11 3f
       0.3218168 0.4398606 -0.58260787 0.56666243
000320 7d 4b 01 bf c2 51 c8 3d fe 98 51 3e 68 6a 01 3f
       -0.5050581 0.09781219 0.20468518 0.5055299
000330 28 92 2e 3f 01 8c 18 be ea d2 76 3d 06 86 3c 3f
       0.68191767 -0.14897157 0.060259737 0.73642004
000340 d5 13 fb bc 99 0e 84 be 9f a2 29 3e 79 ba df be
       -0.030649105 -0.25792387 0.16565941 -0.43696955
000350 47 b0 0f be 18 8b 7c 3e b3 b6 7f 3e 73 23 35 3e
       -0.14032088 0.24662435 0.24972038 0.17689304
000360 fb f1 52 be 7d 69 fd 3e a9 6e b2 3e d3 b1 d6 3e
       -0.2060012 0.49494544 0.34850052 0.41932544
000370 d8 c0 a3 be 17 2b d4 bd 65 99 24 3f 20 85 cf bd
       -0.31983066 -0.10359781 0.6429656 -0.101328135
000380 67 00 34 bf 37 04 29 3f 4d 98 03 3f 37 ec b6 3e
       -0.70313114 0.66022056 0.5140427 0.35727093
000390 3e c2 b4 be 12 67 3a be 2b 48 9c 3d 66 06 61 3d
       -0.35304445 -0.1820338 0.076309524 0.054937743
0003a0 f4 79 2f be ab af 0e 3e 37 28 9f be 25 fc 9c 3e
       -0.17136365 0.139342 -0.3108537 0.3066112
0003b0 fa 00 28 3f 14 c8 69 be 21 69 f5 3e fc c4 07 3f
       0.6562649 -0.2283023 0.4793177 0.5303495
0003c0 4b d7 57 be 01 de de be 39 af 14 3e 3c ce 5a bf
       -0.21078221 -0.4352875 0.14519967 -0.8547094
0003d0 50 fb a7 be ed 8d 5d be 47 48 d7 3e ec 29 e6 3e
       -0.32808924 -0.21636172 0.4204733 0.4495386
0003e0 a2 52 9e be 2f 8e de 3e af 9a 14 3f 92 35 c3 3e
       -0.3092242 0.43467852 0.5804853 0.38126808
0003f0 87 78 1a bb 49 a2 71 3e 5a e6 08 3f 56 99 27 3e
       -0.0023570375 0.23597063 0.5347649 0.16367087

encoder.layers.0.self_attn.linears.1.bias f4 [32]
000000 99 3e b8 be 98 ed 85 3e 76 ba 05 bd 04 59 50 3e
       -0.35985258 0.26157832 -0.032648526 0.20346457
000010 a4 97 79 be 2c ed 71 3e 1a 4d 09 bd 82 e5 5a 3e
       -0.24374253 0.2362563 -0.033520795 0.21376613
000020 c4 50 38 3e f2 30 57 3e 3e 8c 2d ba 53 9b 01 3e
       0.1799956 0.21014765 -0.0006620324 0.12656908
000030 19 4f 2d be 8e da bb bd 76 65 2c 3e 71 d5 78 be
       -0.16924705 -0.091725454 0.1683558 -0.24300171
000040 6f be 01 be 6a e3 6b 3d 96 f6 4a 3d 4c 77 01 be
       -0.12670301 0.057589926 0.04955157 -0.12643164
000050 46 af f8 3c d9 69 97 be 58 25 bd 3e 3f 85 97 3e
       0.030357014 -0.29572943 0.36942554 0.29593846
000060 11 12 ff bd d9 68 8c bd 6e e0 9c 3c 09 78 1b 3e
       -0.12454618 -0.068559356 0.019149985 0.15182509
000070 43 90 12 3e e6 fe b0 3e 51 e7 01 3e b7 ce 96 3e
       0.14312844 0.34569472 0.12685896 0.29454586

encoder.layers.0.self_attn.linears.2.weight f4 [32, 32]
000000 48 44 7d be cb 7d b8 3d 50 2d 38 be 0c 53 9b 3d
       -0.24733078 0.09008368 -0.17986035 0.07584199
000010 71 03 95 bc 6f 93 b0 3d b2 6a ac 3c 7c 88 96 3d
       -0.018190118 0.08621871 0.02104697 0.07350251
000020 6d fa b7 bd 6e e5 69 be f7 66 21 be 6d 12 ad 3d
       -0.08983312 -0.22841427 -0.15761934 0.0845078
000030 b4 03 26 3d 09 ef 46 3e 48 8b 62 3e f3 62 ad bd
       0.040530875 0.19427122 0.22123444 -0.08466139
000040 18 40 d7 bd ba 9c c4 3e 79 46 b5 bd 7c 97 54 bd
       -0.10510272 0.38400823 -0.08851332 -0.05190228
000050 b5 c9 4a 3e 8d 92 9f ba dc d3 c1 bd 8c 6f cc 3d
       0.19803508 -0.0012174413 -0.09464237 0.099822134
000060 a0 9b 41 3e 56 c2 f8 3e 58 ef e6 bc fa 0e 60 bd
       0.18907022 0.48585767 -0.0281903 -0.054701783
000070 47 38 cd be 89 37 da be c0 a0 68 3e 7a ac 39 be
       -0.40082 -0.42620495 0.22717571 -0.18132201
000080 71 7c 02 be 04 38 04 be 43 c1 96 3c 50 78 c5 bc
       -0.12742783 -0.12911993 0.018402701 -0.024105221
000090 b1 24 32 bc b5 d4 05 bd 5e ef db 3d 6a 8d 2b be
       -0.010873006 -0.032673556 0.10739015 -0.16753164
0000a0 8c 4c 81 3e 99 89 bc bd b7 35 15 3e d9 06 41 bc
       0.25253713 -0.09205932 0.14571272 -0.011781418
0000b0 82 59 a6 bd 67 9b 62 bd cb 28 4a be 0a d4 74 3c
       -0.08122541 -0.055323984 -0.19742124 0.014943132
0000c0 0f 7f 9b bd 21 4f 13 be 29 1c f5 3d 86 e1 14 3e
       -0.07592594 -0.14385654 0.11968262 0.14539155
0000d0 6a 86 db 3d dd 53 e5 3d 26 9e 2a 3e 28 4f e7 bd
       0.10718997 0.11197636 0.16661891 -0.11294395
0000e0 08 9d 67 be 92 92 14 bf 09 b8 10 bb 94 27 c8 bc
       -0.22618496 -0.5803615 -0.002208235 -0.024432935
0000f0 fa 23 91 3e b0 64 da 3e d3 df 5a be 4f 39 d0 bc
       0.2834776 0.42654943 -0.21374445 -0.025417952
000100 a4 b7 e0 bd ce 40 b2 bc a0 10 d6 3d b3 60 c1 be
       -0.10972527 -0.021759417 0.1045239 -0.37769088
000110 6f 68 9d 3d 03 2b c5 bd 5d bd 22 3e d2 66 24 3b
       0.07685935 -0.096273445 0.15892549 0.00250857
000120 62 88 8e be 07 3d 1c 3e ba e0 a7 3e 11 38 f3 bd
       -0.27838427 0.15257655 0.3278864 -0.11875928
000130 21 12 1b bd 46 fd 82 3b c8 0e f0 3b e3 79 f7 be
       -0.037859086 0.0039974777 0.007325981 -0.4833518
000140 e3 98 33 3d 03 44 f8 3b 94 06 4b be e2 21 80 3e
       0.043846976 0.007576467 -0.19826728 0.2502585
000150 02 dc d6 3d 66 0c 00 3e e0 b9 c1 3d 87 95 a2 be
       0.10491182 0.1250473 0.09459281 -0.31754705
000160 d2 61 aa 3b 4f b8 b9 3e 26 c9 27 3d cc 92 af 3d
       0.0051996494 0.3627343 0.040963314 0.08572921
000170 10 90 53 be 96 96 9b bd 86 49 1f bc 6f 44 2c 3d
       -0.20660424 -0.07597081 -0.009722119 0.04205745
000180 66 aa 6a 3d 25 a8 a3 be 52 7e 3e bd 5f c2 c3 be
       0.05729141 -0.31964222 -0.046507187 -0.3823423
000190 c4 e0 46 3e b8 7b 7d bb 51 79 6a 3e 5d 03 9f be
       0.19421679 -0.0038678478 0.22897841 -0.31057253
0001a0 77 a6 34 3e 3e 1d bc 3e a4 5c 15 3d 3d 01 03 bf
       0.17641626 0.3674106 0.036465302 -0.51173764
0001b0 f3 36 16 be ac 7a cf 3b 4a cf a5 be aa 40 98 be
       -0.14669399 0.0063317623 -0.32384712 -0.29736835
0001c0 dc 9a 6c 3e f2 ef 05 bd f3 d2 97 3e 9c 6c bd 3e
       0.23105949 -0.032699533 0.2965313 0.36996925
0001d0 11 ea 7f bd bf 75 ac 3d 72 f4 20 be dd 6e 8f be
       -0.062479082 0.08420896 -0.15718248 -0.2801427
0001e0 7b af 82 bd e5 11 df 3d 39 f5 a1 bd aa 6f c7 be
       -0.063811265 0.10892085 -0.07908101 -0.3895238
0001f0 64 cb 1a 3f a2 a1 96 3d 49 8a 80 bc d0 10 b2 3d
       0.604666 0.07355048 -0.01569094 0.08694613
000200 59 1f c0 be ab 83 06 be 9d 0f 95 bd ba 16 70 3e
       -0.37523916 -0.13136165 -0.072783686 0.2344617
000210 56 58 92 3e 7e 72 32 bf ec af 27 3d 6d 6b aa 3d
       0.2858302 -0.6970595 0.040939257 0.08321271
000220 58 bc 86 3e 80 5a 01 3c 72 74 e5 3d f9 1c a3 bd
       0.2631557 0.007895112 0.11203851 -0.079645105
000230 8e 8d 85 bd 7d 67 17 3f eb 4d 9f bd b0 ae fa bd
       -0.0652114 0.59142286 -0.077785335 -0.1224035
000240 b5 1d 07 3e b5 4e 49 3e 47 b1 44 3e de 31 d6 3e
       0.13194926 0.1965893 0.19208251 0.4183492
000250 60 df 48 be 47 b5 9d be 44 87 b6 3d 9d 8d 60 3d
       -0.19616461 -0.30802366 0.089125186 0.054822553
000260 66 6e 57 be d2 8a 2e 3e 59 c5 9c bd 3c 02 07 3d
       -0.21038207 0.17045143 -0.076548286 0.032961115
000270 0a 38 82 3e a8 18 f3 3a 74 25 40 3e f4 e7 1c 3e
       0.2543338 0.0018546777 0.18764287 0.15322858
000280 05 65 c4 3e 30 c4 b5 3d bf 9f 11 3e 29 e9 f2 bd
       0.38358322 0.088753104 0.14221095 -0.11860878
000290 d5 24 dd be 47 53 ee 3c 39 b1 03 3c 3a b3 87 be
       -0.43192163 0.029092444 0.008037859 -0.26503927
0002a0 96 60 fc bd 2d d2 85 3e a3 35 17 bd e9 0e 7f 3c
       -0.1232311 0.26136914 -0.036916386 0.01556752
0002b0 84 3d b2 3e 23 0c 98 3d c2 85 49 3d f6 bb 34 3e
       0.34812558 0.0742419 0.049199827 0.17649826
0002c0 5b b8 01 3e 6a 3c 6d be 2a d0 62 be f1 12 04 be
       0.12667982 -0.23167577 -0.22149721 -0.1289785
0002d0 ff fa 17 be a6 da 8f 3d 30 a5 8b 3d f5 d1 f3 3d
       -0.14841841 0.07024126 0.068186164 0.119052805
0002e0 30 49 75 3e 6f 44 1c 3d 15 17 04 3e c0 12 74 3d
       0.239537 0.0381512 0.1289943 0.059588194
0002f0 37 71 c5 3e 08 14 09 bf 88 f8 44 bd 71 11 e4 3b
       0.3856294 -0.5354619 -0.04808858 0.006960087
000300 66 41 18 be 6e e5 83 3a 27 d6 7b 3c b9 a7 b3 3d
       -0.14868698 0.0010062882 0.015370882 0.08772225
000310 05 a6 99 be c5 cf 46 be db 77 33 3e 7a a5 0e 3f
       -0.30009475 -0.19415195 0.1752619 0.5572125
000320 64 89 35 3d 9c 03 e5 3d 58 e1 de bd d5 7e eb 3d
       0.04432048 0.11182329 -0.10882825 0.11498801
000330 97 15 85 3e 83 05 e8 3e b1 af 84 3d 5a 4c b3 bd
       0.25993034 0.45316705 0.06478823 -0.08754797
000340 39 30 38 be bf 4d 8d 3e 27 29 d2 3c 23 25 c6 3c
       -0.17987145 0.27598378 0.025654389 0.02418763
000350 0a 64 83 be 8e 85 8c 3e 4b c2 e7 bd 5e 02 c1 bc
       -0.2566226 0.27445644 -0.11316355 -0.0235607
000360 17 3d da bd f0 03 7c be 8e 38 00 bc a4 1f 47 3d
       -0.10656183 -0.24610877 -0.007825984 0.04861416
000370 e4 71 b6 3c 21 26 4b 3a a6 f9 b6 3d aa b2 8f 3e
       0.022271104 0.0007749517 0.089343354 0.28065997
000380 0c 9d d1 3d 06 e1 43 3e 3d 89 58 3e 8d f0 1d 3e
       0.102350324 0.19128808 0.21146102 0.15423794
000390 33 fe e5 be 4b 2b ae bd fd a6 a0 3d a7 7b 89 bc
       -0.449205 -0.08504351 0.078443505 -0.016782595
0003a0 7e 80 71 be 20 79 89 3d bb ae 26 3d 8e 8a 32 3b
       -0.23584172 0.06712556 0.04069398 0.002724323
0003b0 45 18 a6 3e 0b 89 93 bc 64 0e ef 3d 93 ca 7f be
       0.3244039 -0.018009683 0.11672667 -0.2497962
0003c0 e3 6d 2a 3d 85 26 9e be 27 d3 7b bd e7 52 b8 be
       0.041608702 -0.30888763 -0.061480667 -0.3600075
0003d0 90 dc 3b be 6a da 8a 3b 08 24 8b 3d 1d ec 09 bd
       -0.18345857 0.0042374628 0.06793982 -0.03367244
0003e0 a7 00 bb 3e f3 70 a9 be e4 7c 57 3e 5b 32 fd 3d
       0.36523935 -0.33093986 0.21043736 0.1236312
0003f0 21 c7 e7 3e 93 80 04 bb 26 04 9e be b2 ed 53 3e
       0.4526911 -0.0020218238 -0.3086254 0.20696142

encoder.layers.0.self_attn.linears.2.bias f4 [32]
000000 79 74 94 bc f8 fb da 3b 1a 0d 21 be 8b af c7 3d
       -0.018121945 0.006682869 -0.15727654 0.09750279
000010 c3 63 8e be e2 16 57 3d 83 2f c7 bd 2c 9c 0e 3e
       -0.27810487 0.052512057 -0.09725859 0.13926762
000020 19 59 ad 3c 1f 14 bc 3c e4 57 38 3d 6d 42 71 3d
       0.02116065 0.022958813 0.045005694 0.05890124
000030 cf d8 70 3d 84 53 a1 bd 5a 47 2f bd 8e 70 b7 3d
       0.058800515 -0.078772575 -0.042792656 0.08957015
000040 49 98 d0 3d 60 76 c0 3d 0c d1 df 3d 19 e0 4e bd
       0.10185296 0.09397578 0.109285444 -0.050506685
000050 f4 f5 17 be 1e 69 7b bd 97 f3 47 3d b2 8c 04 be
       -0.14839917 -0.061379544 0.04881629 -0.12944296
000060 f2 38 8d 3b 42 45 88 3d 09 1e 93 3d 3f 22 6c 3d
       0.004309767 0.06653835 0.07183463 0.057649847
000070 78 f4 7a 3b bd 96 ad bd ed fc 02 3e a1 18 92 3d
       0.0038292687 -0.08476017 0.12791796 0.07133604

encoder.layers.0.self_attn.linears.3.weight f4 [32, 32]
000000 08 b2 09 be 7b 47 6d 3d 27 00 ca bd 49 cd ca 3d
       -0.1344682 0.057929497 -0.0986331 0.09902436
000010 c7 9b b7 be e1 6c bc bd 43 be 40 be 77 64 e6 3d
       -0.35861036 -0.092004545 -0.18822579 0.11249631
000020 b3 0a 03 3f b5 91 c8 bd f3 e3 a2 3d 54 be 02 3f
       0.511882 -0.097934164 0.07953634 0.5107167
000030 05 69 9a 3e 3e f2 79 3c d7 b7 21 be ed ec 3f 3e
       0.3015825 0.015255509 -0.15792786 0.18742724
000040 5b 2f 3f 3e 27 2d 48 bd ba a9 29 3d 60 a1 43 3d
       0.18670408 -0.048871186 0.04142163 0.04776132
000050 5a 63 d1 bd 7a 82 82 3e 7b 73 72 3d 9e 05 6e bd
       -0.10224028 0.2549017 0.059192162 -0.058110826
000060 7d 7d f6 3d af ed 43 3d c4 b2 b3 bd e2 16 81 bd
       0.12035654 0.047834095 -0.08774331 -0.06303193
000070 ce 13 12 be 33 41 de bc 73 03 8f 3e 7e ac e4 bc
       -0.14265367 -0.027130699 0.2793232 -0.027914282
000080 e2 07 cb bd 66 66 07 3e a7 0c c0 3d cf c0 d7 3e
       -0.09913613 0.13222656 0.09377413 0.4213929
000090 f2 2b f1 3e 4f f6 76 be 36 b1 68 3e c7 03 d1 bd
       0.4710384 -0.24117397 0.2272385 -0.102057986
0000a0 f6 21 39 be 6a 9b 34 3e 8a 02 51 3e 61 e3 37 3e
       -0.18079361 0.17637411 0.20411125 0.17957832
0000b0 49 ee 0a 3e b6 72 a7 3c ae 73 e6 bd fe 35 70 be
       0.13567461 0.02044044 -0.11252533 -0.23458096
0000c0 0a 1a 85 3d a4 4f c5 bc a1 cd 3c bb fb 3d 68 bd
       0.06499107 -0.024085827 -0.0028809088 -0.056699734
0000d0 ce bf 03 bd 68 94 44 3e db 2c 6c 3e a7 a1 92 bd
       -0.03216534 0.19197237 0.23063986 -0.07159739
0000e0 db 52 87 3d cd d2 8e be 01 99 bd bd 50 07 03 3f
       0.066076 -0.27895203 -0.09257699 0.51183033
0000f0 ea dd 25 be b1 7a 12 3e 69 ad 68 3d 74 21 c9 3b
       -0.16197935 0.14304616 0.056806 0.006138021
000100 12 31 3c bd ab 4d 1a be 29 9f ea bd ad c5 04 be
       -0.045945235 -0.1506869 -0.11456139 -0.12966032
000110 91 3a 11 be 69 0f a3 3d 4c f7 47 be cf 5d 3b bc
       -0.14182498 0.07961924 -0.1952793 -0.01143594
000120 39 ac ef bd 84 e5 e5 bd 8d 7c b5 be 25 d8 df bd
       -0.11702771 -0.11225417 -0.35446587 -0.10929898
000130 9f 75 8b be d4 59 20 3d a5 09 b0 3e 8a 41 64 be
       -0.27238175 0.039148167 0.34382358 -0.22290626
000140 e2 e9 8b 3e 02 7b 03 bc a5 80 50 bd 64 25 b3 be
       0.27326876 -0.008024933 -0.050903935 -0.34989464
000150 53 bb 0c be 03 49 24 bc 03 01 24 be 6d 97 da bd
       -0.13743334 -0.010027173 -0.16016011 -0.106734134
000160 5b 38 97 bc 85 0c 51 3d d2 c1 2d 3e 27 5f 85 be
       -0.01845949 0.05103733 0.16968468 -0.26049158
000170 ce 55 1b be 4e 30 22 3e a8 22 d6 bc b0 bc 58 bd
       -0.1516945 0.1583874 -0.026139572 -0.05291432
000180 ee 1e af bd bf 51 ed 3d af dd e0 bc af a3 e4 3d
       -0.08550821 0.115878575 -0.027449457 0.11164033
000190 1c 1a 37 3e 5a aa ac 3c 35 06 de bd 0d 96 ab 3d
       0.17881054 0.021077324 -0.10841028 0.08378229
0001a0 f5 a8 d5 3d 8a 47 5e 3e 2d c4 80 bd 9b b5 10 bd
       0.104326166 0.21706977 -0.062874176 -0.035329442
0001b0 93 72 26 be 94 8a a6 3d dd 15 c8 bd 95 b1 c1 bd
       -0.16254644 0.081319004 -0.09769795 -0.09457699
0001c0 f2 20 1e be 63 c5 6c be b6 df 1d be 51 a4 3c bd
       -0.15442255 -0.23122172 -0.1541737 -0.04605514
0001d0 11 61 04 3e 93 65 a7 3d 88 80 8a 3e e2 8f e3 bd
       0.12927653 0.081736706 0.27051187 -0.11111428
0001e0 fe 2e 1c be 38 b4 36 be 23 32 b7 bd c1 4c 68 bc
       -0.15252301 -0.17842185 -0.0894511 -0.014178456
0001f0 f2 48 9a bd 52 fc bf 3c c0 8e 35 3c b3 f6 10 be
       -0.075334445 0.023435745 0.0110813975 -0.14156608
000200 f0 5e 21 3e 48 ae 06 be b2 19 80 3e 96 8e bf 3d
       0.15758872 -0.1315242 0.25019604 0.09353368
000210 93 25 08 3e 40 af 3e be 49 92 63 3d 54 da f9 3d
       0.13295583 -0.1862154 0.05555943 0.12199846
000220 0d 7e b9 3d 91 70 5b be 13 7b 4f be dc 73 a6 bd
       0.090572454 -0.2142966 -0.20261793 -0.08127567
000230 db ae 69 be 80 99 07 3e b7 55 8a bd f9 86 3d bd
       -0.22820608 0.1324215 -0.0675463 -0.046271298
000240 38 ea d8 3d f5 4e ea bd 4a e7 bc be 3a 51 5f be
       0.10591549 -0.11440841 -0.3689521 -0.21808329
000250 fb 16 23 3d 91 2b 49 be c0 6f 52 3e 95 8f a3 3d
       0.039816838 -0.19645526 0.20550442 0.079863705
000260 bd 36 01 3e b0 a0 15 3e 57 aa 07 be 11 41 c7 bc
       0.12618537 0.14612079 -0.13248573 -0.024323018
000270 d3 3a 11 3e 50 4c 8e 3d ae c3 b2 bd e9 22 95 bd
       0.14182596 0.06948149 -0.08728729 -0.07282049
000280 bc 0f 86 3e 74 40 7b bc ea 0e 34 3d 0d 0b 2c 3c
       0.2618388 -0.015335191 0.043959536 0.010500682
000290 2d 97 a3 bd 46 a4 17 3e fa ae 10 be 23 d6 36 3d
       -0.07987819 0.14808759 -0.14129248 0.04463781
0002a0 4d 77 d5 3c 96 49 1e be 68 d3 ae 3d fc 49 64 bd
       0.026057864 -0.15457758 0.08536416 -0.05573462
0002b0 b0 cf bb bb 6a 80 25 3e d8 dd a1 bd 18 e5 3f 3e
       -0.0057315454 0.16162267 -0.079036415 0.18739736
0002c0 be 6f 92 bc d0 6f dd bc f6 2d 7a bd ae e8 07 3e
       -0.017875548 -0.027030855 -0.061078988 0.13272354
0002d0 15 fc df bc fe 94 57 3e 42 4b 22 be 78 c1 28 3c
       -0.027341882 0.2105293 -0.15849021 0.010300033
0002e0 5e 85 8a be 38 35 33 be 50 a4 aa bd 5d 2d 26 be
       -0.27054876 -0.1750077 -0.08332121 -0.16228242
0002f0 42 59 3c 3e ca e9 42 be 57 0c 63 3e 71 1a 38 bd
       0.18393424 -0.19034496 0.22172676 -0.04494709
000300 37 00 aa be a4 39 a2 be 50 45 26 3e 45 00 ac 3e
       -0.3320329 -0.316846 0.16237378 0.33593956
000310 cd b8 45 3e b4 fc 89 be 5e c3 dd bd a9 d8 8e 3c
       0.19308777 -0.2695061 -0.10828279 0.017437296
000320 02 a2 a1 be 4a eb b1 3e 12 08 15 ba 41 8a a6 bc
       -0.31568915 0.34749824 -0.00056851015 -0.020329596
000330 04 74 8b bc 99 9f c5 3c 2b b3 7a 3e 9f 0d 5c bd
       -0.017023094 0.024123954 0.2448241 -0.053723928
000340 36 fe 4c 3d e8 b3 4a 3e ae ea dc be 42 22 24 bf
       0.050047122 0.19795191 -0.43147796 -0.64114773
000350 e2 f2 64 3d 7a 7c ef 3e ad d4 31 3e 1a 9b 92 3e
       0.055895694 0.46774656 0.17366286 0.28633958
000360 f1 ac 7f bd 34 75 16 be 63 c2 24 3e bb d5 a1 3e
       -0.06242079 -0.14693147 0.16089778 0.31608376
000370 89 6d b6 bd a6 33 a0 3d 57 19 38 be 5c af 0b bd
       -0.08907611 0.07822351 -0.17978416 -0.034102783
000380 0a 86 a5 bd 10 f4 f8 3d b3 38 02 3e 80 05 8f 3e
       -0.080822065 0.12155926 0.12716942 0.27933884
000390 9d 38 dc bd c2 7b 1e be b5 a7 bc 3d 96 9d 57 be
       -0.107529856 -0.15476897 0.09211675 -0.21056208
0003a0 06 db 24 be 9e e0 7d 3e b2 50 d5 3d f1 ac 90 be
       -0.16099176 0.24792716 0.10415782 -0.28256944
0003b0 fb 99 06 3e fe f3 92 3c c5 5f 84 be b9 ce 16 be
       0.13144676 0.01793861 -0.25854316 -0.14727296
0003c0 9e 42 77 be 3e a3 79 be 7a 26 27 be 1f 2f e3 3b
       -0.24146506 -0.24378678 -0.16323271 0.0069331075
0003d0 80 f0 16 3e 35 03 ac be 8a a3 38 3e 4b 8b 06 3e
       0.14740181 -0.33596197 0.18031135 0.13139074
0003e0 38 3e 07 3e 7d 9b 1d 3d 66 18 52 3e 6e 92 33 3e
       0.13207328 0.038478363 0.2051712 0.17536327
0003f0 60 98 91 3e 89 a8 77 3e 81 9f 0f be 96 f3 27 be
       0.28436565 0.24185385 -0.1402569 -0.16401514

encoder.layers.0.self_attn.linears.3.bias f4 [32]
000000 48 2d bb bd 4c d9 c4 3c cf f9 fa 3c 47 e9 27 3e
       -0.09139496 0.024029396 0.030636696 0.16397582
000010 3f bf 2d be d0 e8 d4 3d 6f 02 af bc f6 dd 6b bb
       -0.16967486 0.10395968 -0.021363465 -0.0035990453
000020 83 88 ac 3d d7 d5 c8 bc 70 5a 83 3d 07 c7 2a 3e
       0.08424475 -0.02451603 0.06413734 0.16677485
000030 9e 40 b0 bd 4d 16 5b bd ed 0d 08 3e 0d 91 95 3c
       -0.08606075 -0.053488065 0.13286562 0.018257642
000040 f3 6e 80 bd 63 39 54 bd f5 d9 80 bd da de 2a bd
       -0.06271162 -0.05181254 -0.06291572 -0.041716434
000050 e3 59 1f be 24 6a c6 bd 4c 69 0e be 76 d3 02 3e
       -0.15561633 -0.096882135 -0.13907355 0.12775978
000060 45 41 04 3e 98 e7 6f be 53 c7 38 3e 50 9c 56 bc
       0.12915523 -0.2342819 0.18044786 -0.013098791
000070 d9 12 6f bc b2 fa 99 bd 47 db 85 be e5 87 b6 3d
       -0.014591896 -0.075185195 -0.26143858 0.089126386

encoder.layers.0.feed_forward.w_1.weight f4 [128, 32]
000000 28 5a b1 3e c1 14 eb 3c 04 f8 37 3e 28 cd 09 bf
       0.34639096 0.02869642 0.17965704 -0.5382867
000010 ae 6f 83 be 5f 11 d6 3c ef 71 55 3e 98 bb 5b be
       -0.25671142 0.02613133 0.20844243 -0.2145828
000020 49 60 2b 3e 4f 08 b8 3e 5e 32 c5 be 9f 63 3d be
       0.16735949 0.3594384 -0.3851499 -0.18495034
000030 ec ad 19 3f d9 88 69 bd 60 96 77 3e 80 8e 19 bd
       0.6003101 -0.057015274 0.24178457 -0.037489414
000040 0e b2 8a 3e 87 d3 16 3e 06 fe bb be de 57 c7 bd
       0.2708897 0.14729129 -0.36717242 -0.09733556
000050 f8 39 8c 3d 31 59 a4 be 89 f5 f8 bc 4f ed ae bd
       0.06846994 -0.32099298 -0.030390518 -0.08541357
000060 f7 b3 85 3e 16 ba 39 be 20 9a d5 bd 75 be 92 3d
       0.26113865 -0.18137392 -0.10429788 0.07165233
000070 3b 9e 0e 3f 2f 4b 71 be 8a 3f 68 bd e5 56 90 3e
       0.5571019 -0.23563837 -0.05670122 0.28191295
000080 4d dc e6 bd 97 cf 5c be 08 c3 66 3e 25 34 00 3f
       -0.11272488 -0.21563564 0.22535336 0.50079566
000090 b9 93 0d b9 32 2e 26 be 38 b8 a6 bc 24 dd d5 3d
       -0.00013501839 -0.1622856 -0.020351514 0.1044257
0000a0 ce 95 4a 3e 95 cc 8b bd 28 d6 c1 3a 1b 7b c4 3e
       0.19783708 -0.0682613 0.0014788555 0.38375172
0000b0 33 0c 86 bc 0c 61 29 bb e3 cb 21 3c 18 bc 77 bd
       -0.016363239 -0.0025845198 0.009875271 -0.060482115
0000c0 1e 39 b3 3e f5 05 ac bd 85 0d a2 3e 3b b0 4a be
       0.35004514 -0.08399574 0.3165094 -0.19793789
0000d0 00 e5 54 bd d0 1e 62 3e f4 61 90 bd 87 e4 4d 3e
       -0.051976204 0.22082067 -0.07049933 0.20106708
0000e0 e7 e9 46 3d 8a a8 d8 3c 35 fa 91 3e 5c 37 e3 3e
       0.04856291 0.026447553 0.28511205 0.44378173
0000f0 47 69 af bd f8 66 da 3e a5 b5 c5 bb cb 72 c6 bc
       -0.08565002 0.42656684 -0.0060336166 -0.02422466
000100 b5 c2 96 3c ca 12 cf be a6 19 78 3d 48 be 7e 3d
       0.01840339 -0.40444022 0.060571335 0.062193185
000110 08 5a a8 bd b4 77 9b 3d ae da 20 bf ce 01 15 3f
       -0.08220297 0.07591191 -0.6283368 0.5820588
000120 fc 8e d9 3e ac df e1 3c 6d 54 90 bd 88 62 c3 bc
       0.424919 0.027572475 -0.07047353 -0.023850694
000130 8a 75 15 be a3 a6 63 bc d6 0d 0c 3d e7 3b 1c 3e
       -0.14595619 -0.01389471 0.034192882 0.15257226
000140 fc fb b3 3d 06 5d 8b bd 15 05 a4 3c dc c0 81 bf
       0.087882966 -0.06804852 0.020021955 -1.0136981
000150 41 1b 96 be e8 21 95 3e 58 3a 66 be b6 4d c1 3e
       -0.29317668 0.2912743 -0.22483194 0.377546
000160 50 8b bb 3e 15 e8 1c be 7a cb d3 3e 9f 48 c0 3e
       0.36629725 -0.15322907 0.41366178 0.37555405
000170 ea f3 3d 3e 14 95 97 bd 9c d9 af bb 24 07 56 be
       0.18550077 -0.07401481 -0.005366517 -0.20901161
000180 c5 b9 db 3e 33 c3 38 3e dc 9f 6d 3b c1 21 82 bf
       0.42915168 0.18043213 0.0036258614 -1.0166551
000190 80 ed 84 3b 9d 8f 41 3e c0 7f 3d bc 6c d7 10 be
       0.0040566325 0.1890244 -0.0115661025 -0.14144677
0001a0 c7 ac 13 bf 0b 45 08 3f 35 28 b3 bb c1 1d a7 bd
       -0.5768551 0.5323035 -0.0054674395 -0.08159972
0001b0 d0 9c 3a 3e 4f 76 f7 3d 16 4a bd be 14 88 f5 3c
       0.18223882 0.120831124 -0.36970586 0.029972114
0001c0 62 81 28 bb 35 d3 31 3e b7 c5 1c be ad c1 36 be
       -0.0025711884 0.17365725 -0.15309797 -0.17847319
0001d0 39 db 27 3e 1c 06 aa 3e 88 cd 71 3e 7d 17 4b be
       0.1639222 0.33207786 0.2361356 -0.19833179
0001e0 d6 ac 24 bd 02 c5 e5 bd e9 18 13 3d f4 23 22 3e
       -0.04020389 -0.11219217 0.035912428 0.15834028
0001f0 03 98 df bd e6 df d5 be 95 1e af 3e 9b 58 8f be
       -0.10917666 -0.41772383 0.3420302 -0.27997288
000200 81 db 23 3e 9d a9 bf 3d c5 be d5 bd 9a ac b2 3d
       0.16001703 0.09358523 -0.10436777 0.087243274
000210 76 9b 9f 3e b3 b4 ea 3c 39 7d e5 be 58 b0 46 3e
       0.31173295 0.028650617 -0.448221 0.19403207
000220 26 60 d1 be 07 66 cd bc 5b cc 15 be 05 d3 2f be
       -0.40893668 -0.025073064 -0.14628737 -0.17170341
000230 70 67 8d 3e 1a 53 54 be 0c de 53 3d 8e 5c 97 3d
       0.2761798 -0.20734826 0.051725432 0.073907
000240 be 62 92 3d 95 71 a0 3c 87 d9 27 3e f2 31 46 3e
       0.0714774 0.01958541 0.16391574 0.1935499
000250 7f 3b 95 3e 95 7f 48 3e 22 4c 56 3e f7 bf d5 3b
       0.29146954 0.19579919 0.2092748 0.006523128
000260 6b 0e fa be 38 40 62 3e 3e 30 c6 bc 8d c1 74 3d
       -0.48839125 0.2209481 -0.024192926 0.059754897
000270 32 6b 17 3c 34 94 05 3f 80 36 95 3e 96 4a 45 3c
       0.009241866 0.52179265 0.29143143 0.012041708
000280 dc 53 66 3e 85 17 1b 3e af 37 3d 36 b7 e3 00 bf
       0.22492927 0.1514569 2.8195607e-06 -0.50347465
000290 0e 47 65 bf 45 a2 dd 3e 74 2b 83 be d7 c0 fd be
       -0.89561546 0.43287864 -0.2561909 -0.49561188
0002a0 24 3e cb 3e 23 8f f5 3e 79 0c 3b bf 7a f9 2d be
       0.39695847 0.47960767 -0.73065907 -0.16989699
0002b0 0a 37 18 3e bc ca bf be ac 64 d8 3d 52 b9 4c bc
       0.14864746 -0.37459362 0.10566077 -0.012495356
0002c0 9a c4 54 3b 39 fa 98 bd 25 6b 2f bf 95 6d 90 3c
       0.0032465816 -0.07469601 -0.68522865 0.017630378
0002d0 87 0c 3d 3e 5a d5 a3 be fd e2 3e bd 6f db 7a 3e
       0.1846181 -0.31998712 -0.04660319 0.2449777
0002e0 94 7b fc 3d 7a d0 cf 3c ee 9b c5 3a 5e a0 9c 3c
       0.12328258 0.025367964 0.0015076378 0.019119438
0002f0 f1 8c 7a 3e 34 64 ce be 51 f8 82 3d 42 44 d1 3d
       0.24467827 -0.40310824 0.06395019 0.10218097
000300 8b 67 4b be d3 5c e0 bd e6 10 cb bd c3 26 23 3e
       -0.19863717 -0.10955205 -0.099153325 0.15932755
000310 1f 93 84 be 09 70 29 be 48 16 36 bd 31 1b 48 3f
       -0.25893494 -0.16546644 -0.044454843 0.7816649
000320 9f e3 09 3f f6 2a a2 be dd d7 85 bd c0 6b fc 3d
       0.5386295 -0.31673402 -0.06535313 0.12325239
000330 25 7e 85 3d 82 17 7b 3d e2 1d 17 3e 61 99 43 3d
       0.06518201 0.061301716 0.14757493 0.047753695
000340 94 34 61 3e 1f 5c 43 bd ac 27 97 be 69 81 97 3d
       0.21992713 -0.047695275 -0.29522455 0.0739773
000350 60 8a bd be 45 80 58 bf a5 4b bb bd eb ab 22 3e
       -0.37019634 -0.84570724 -0.091452874 0.15885894
000360 c5 96 3d be d9 eb ec bd 2a 9b 98 3d 49 2f 69 3e
       -0.18514545 -0.11568422 0.0745147 0.22771944
000370 68 eb 3f 3f 2e 9c c7 3e 47 44 49 3d 51 e6 94 3d
       0.74968576 0.38986343 0.04913738 0.07270492
000380 f7 a6 16 3e 3e b7 d7 3d ff 2e 01 3e 29 39 31 3d
       0.1471213 0.105329975 0.12615584 0.043267403
000390 f5 54 ac be 36 3b 36 bd 41 86 fc 3e 27 4a 8f 3e
       -0.33658567 -0.04449006 0.49321178 0.2798626
0003a0 d3 af 8c bd 42 e1 86 be 67 ba 51 be 81 73 16 3c
       -0.06869473 -0.26343733 -0.20481263 0.009182812
0003b0 3b 2a 94 3e 90 d3 18 be 17 85 8e bd 98 13 5e be
       0.2893847 -0.14924455 -0.069589786 -0.21687162
0003c0 5a 13 0d be fd b1 1f 3e 8e e1 90 be 94 66 8e 3e
       -0.13776913 0.15595241 -0.28297085 0.27812636
0003d0 7a 27 15 be c1 b3 32 be 0f 6c 02 3c c5 5c 84 3d
       -0.1456584 -0.17451383 0.0079603335 0.06463007
0003e0 2c 7a 92 bd 06 b2 ec bd b1 6c d5 3d f1 11 1e 3e
       -0.07152209 -0.11557393 0.10421122 0.15436532
0003f0 b7 3b 38 3f 31 7e dc be 9d 6a 27 be f4 87 ec 3e
       0.7196612 -0.43065026 -0.16349263 0.46197474
