index_advisor_selector/index_benefit_estimation/index_cost_lib/exp_res/exp_lib_tpcds_tgt_ep500_bat2048/model/lib_LIB_500.pt (torch, 414203 bytes, 120 tensors)

S f4 [1, 1, 32]
0.085880265 0.11684934 0.00305612 0.097033724 -0.16349073 -0.13608475 0.16204616 -0.072757564
-0.13888684 0.07119086 0.10298517 0.025165385 -0.1088444 -0.0041580056 -0.015206205 -0.27773267
-0.15145913 -0.15038487 -0.02391455 0.09082026 -0.008681688 0.11921575 0.12044081 -0.14210129
0.008712368 0.009246212 0.04542475 0.07601699 0.14869136 -0.07621721 -0.02615422 -0.009465876
00000000: fee1 af3d b54e ef3d 2f49 483b 9eb9 c63d
00000010: 1d6a 27be cd59 0bbe 6eef 253e eb01 95bd
00000020: 5a38 0ebe 83cc 913d e4e9 d23d a327 ce3c
00000030: d0e9 debd e13f 88bb 7223 79bc fa32 8ebe
00000040: 1a18 1bbe 7efe 19be 72e8 c3bc f9ff b93d
00000050: a43d 0ebc 6327 f43d aca9 f63d 0083 11be
00000060: 52be 0e3c 6d7d 173c 4d0f 3a3d ccae 9b3d
00000070: 8c42 183e c517 9cbd 6041 d6bc c316 1bbc

linear1.weight f4 [32, 12]
-0.18266742 0.031579804 0.21596788 0.22809243 1.5535413 -0.7194271 -0.5763478 -0.5073631
0.08069499 0.93605155 0.005610602 -0.5745051 -0.23592727 0.007575567 0.036718745 -0.41019303
-0.28216076 -0.027693702 0.16103421 -0.083463736 0.022274943 -0.22054867 -0.32470042 0.10044559
-0.33368254 -0.44674888 -0.24279527 0.17386833 3.51699 -0.15187201 -0.21972235 0.031846076
-0.72086924 -0.6528359 0.37945506 0.51039314 -0.40014225 0.5059898 0.5144066 -0.081577055
-3.7068758 -0.5181428 0.5436187 -1.2808304 -0.80072254 -0.30817896 0.26795995 -0.19448344
-0.15934041 0.059166994 0.27484554 0.23302272 4.2305837 -0.4389945 0.59968936 -0.29303047
-2.5580084 -1.2376488 -0.25517508 0.023074538 -0.62727684 -0.47355348 0.70917416 0.2655
5.2864165 0.08303724 0.15153812 -0.052820373 0.5407852 -0.78888714 -0.6236292 0.58284056
0.5248523 -0.51682484 0.024546767 0.1782929 2.666279 -0.40055352 1.3428315 -0.1995356
-0.1425493 -0.39706582 -0.31777835 -0.30818665 -2.1009126 1.1852545 0.16743734 0.20433949
-4.6839004 0.2194004 -0.47078612 1.3134515 0.28288168 0.22773309 -0.026510138 -0.28320512
0.9227604 -0.37752295 0.12246249 0.01810084 -4.6896987 -0.11621912 -0.14642379 0.93596274
-0.7829096 1.1824186 -0.1731088 -0.11984081 -0.3688564 0.040241525 -0.15209219 -0.21297325
0.06326899 0.6248775 0.05948011 -2.5701835 0.43698296 0.48066932 -0.47941902 0.46754718
-0.6887703 -0.5554629 0.03058809 0.27399874 4.557249 -0.87378645 -0.66709375 -0.45340836
-0.43625832 -0.85584825 -0.37442333 -0.17805366 -0.068740726 0.14810413 0.23768163 -0.005703996
0.36577326 0.17366484 0.12733315 0.44357228 0.35588598 -0.16968593 -0.08379326 -0.12255573
-0.15830167 -0.008315299 -0.20807426 -0.18111382 0.011077438 -0.060647838 -0.01730162 0.11647304
0.35611364 0.14424805 0.2558533 0.18728203 -0.15212455 -0.11165861 -0.32472807 0.13545954
3.597671 -1.8852471 -0.5521178 1.8428428 0.53420603 -1.1921854 -0.5772292 0.0031891724
-0.8940983 0.4324648 0.17441905 -0.19834651 -4.9229407 0.952543 1.190558 0.037630983
0.22760244 -0.25388113 -0.2035619 0.15123163 0.5211421 0.044611767 0.032463904 -0.7834744
0.3705247 0.40708473 0.18554997 -0.059780635 1.0326735 0.34123132 -0.0059789177 0.5608364
-0.6212323 0.5527106 0.1430875 0.06481743 2.176344 -0.9941024 0.319608 -0.087736495
-0.2804732 -0.5904757 -0.18203685 -0.49231827 -0.16848196 -0.3138434 0.25246295 0.31730536
5.7227187 -0.90390676 0.25442156 -0.20757425 0.5741716 -1.0400575 -0.6363702 -0.36721987
-0.7566406 -0.43741256 -0.15149903 0.8277202 3.0863047 -0.64554095 0.12711422 0.38151595
-1.5787172 0.5179824 -0.68612534 0.08160713 -0.14312987 -0.39281228 -0.23579413 0.28826293
4.4688587 0.19524364 -2.2429686 -0.5418995 -1.1228918 -1.0367981 -0.0324152 -0.48208654
0.7484166 -0.5983891 0.6326818 0.3222732 4.6538982 0.178804 -0.29344165 -0.11504369
-0.30502215 -1.7236274 0.13006252 -0.060927685 -1.351942 -0.4352912 0.20225412 0.4556868
00000000: 2b0d 3bbe d359 013d af26 5d3e 1091 693e
00000010: 71da c63f 602c 38bf 888b 13bf 8ce2 01bf
00000020: 6a43 a53d 13a1 6f3f 24d9 b73b c412 13bf
00000030: eb96 71be 763c f83b 6566 163d d204 d2be
00000040: 6077 90be e7dd e2bc 27e6 243e 09ef aabd
00000050: f179 b63c 83d7 61be 223f a6be 6bb6 cd3d
00000060: 70d8 aabe 45bc e4be 539f 78be 8a0a 323e
00000070: 5d16 6140 5684 1bbe e5fe 60be 0871 023d
00000080: e38a 38bf 4120 27bf ef47 c23e 20a9 023f
00000090: 72df ccbe 8c88 013f 27b0 033f df11 a7bd
000000a0: 743d 6dc0 02a5 04bf 982a 0b3f 40f2 a3bf
000000b0: 27fc 4cbf a2c9 9dbe 0c32 893e ab26 47be
000000c0: 222a 23be 1759 723d 8eb8 8c3e 829d 6e3e
000000d0: f160 8740 e3c3 e0be 3e85 193f 1708 96be
000000e0: 69b6 23c0 476b 9ebf 4fa6 82be d006 bd3c
000000f0: 3795 20bf 9a75 f2be 708c 353f 9eef 873e
00000100: 532a a940 6e0f aa3d cf2c 1b3e 2d5a 58bd
00000110: e670 0a3f 82f4 49bf 2aa6 1fbf 0a35 153f
00000120: b85c 063f a24e 04bf 4d16 c93c 6a92 363e
00000130: 51a4 2a40 5a15 cdbe e7e1 ab3f 0f53 4cbe
00000140: 72f8 11be 364c cbbe d8b3 a2be a4ca 9dbe
00000150: 5a75 06c0 6bb6 973f b274 2b3e 5f3e 513e
00000160: 83e2 95c0 80aa 603e e10a f1be 2e1f a83f
00000170: ded5 903e dd32 693e ca2b d9bc 4300 91be
00000180: 073a 6c3f b04a c1be 9dcd fa3d 3648 943c
00000190: 0312 96c0 4a04 eebd 1ef0 15be 419b 6f3f
000001a0: c36c 48bf 7e59 973f 6f43 31be 196f f5bd
000001b0: bfda bcbe 4cd4 243d 0ebe 1bbe a915 5abe
000001c0: 2c93 813d f9f7 1f3f 6aa1 733d e37d 24c0
000001d0: 3bbc df3e 4a1a f63e 6976 f5be 5862 ef3e
000001e0: 4053 30bf d132 0ebf e093 fa3c 9049 8c3e
000001f0: fcd4 9140 78b0 5fbf a8c6 2abf 2425 e8be
00000200: 405d dfbe df18 5bbf 6ab4 bfbe b353 36be
00000210: f0c7 8cbd 9ca8 173e d062 733e 96e8 babb
00000220: a246 bb3e 32d5 313e 9f63 023e e81b e33e
00000230: b036 b63e 26c2 2dbe cd9b abbd 80fe fabd
00000240: d519 22be e43c 08bc 6b11 55be e775 39be
00000250: 247e 353c de69 78bd 21bc 8dbc 6b89 ee3d
00000260: 8754 b63e c3b5 133e 34ff 823e dcc6 3f3e
00000270: 8ac6 1bbe 45ad e4bd c242 a6be e8b5 0a3e
00000280: 3e40 6640 c74f f1bf 9857 0dbf 46e2 eb3f
00000290: bac1 083f 8899 98bf 4bc5 13bf 6f01 513b
000002a0: a0e3 64bf 076c dd3e e89a 323e 591b 4bbe
000002b0: bb88 9dc0 dcd9 733f 3464 983f f222 1a3d
000002c0: 9d10 693e b5fc 81be 8872 50be 77dc 1a3e
000002d0: 9269 053f d4ba 363d dff8 043d c791 48bf
000002e0: 6ab5 bd3e 696d d03e d000 3e3e 8adc 74bd
000002f0: a52e 843f dfb5 ae3e ccea c3bb f992 0f3f
00000300: 1409 1fbf 717e 0d3f 8885 123e 00bf 843d
00000310: 3849 0b40 7f7d 7ebf a9a3 a33e 31af b3bd
00000320: 2f9a 8fbe 6a29 17bf de67 3abe 2411 fcbe
00000330: 8986 2cbe 15b0 a0be d342 813e d975 a23e
00000340: 8320 b740 6f66 67bf 8b43 823e 588e 54be
00000350: e9fc 123f 9b20 85bf 28e9 22bf 3e04 bcbe
00000360: 33b3 41bf 8af4 dfbe 9022 1bbe 79e5 533f
00000370: 0486 4540 2c42 25bf 3b2a 023e 0f56 c33e
00000380: 6813 cabf 7f9a 043f e9a5 2fbf a421 a73d
00000390: a390 12be b11e c9be 0474 71be 3397 933e
000003a0: e400 8f40 f3ed 473e cc8c 0fc0 edb9 0abf
000003b0: ebba 8fbf cdb5 84bf cdc5 04bd 0cd4 f6be
000003c0: 3b98 3f3f 0730 19bf 6ff7 213f fe00 a53e
000003d0: bcec 9440 6518 373e fc3d 96be 079c ebbd
000003e0: dd2b 9cbe d39f dcbf 1c2f 053e 4f8f 79bd
000003f0: 6f0c adbf 7dde debe b41b 4f3e c84f e93e

linear1.bias f4 [32]
-0.056306526 -0.07482681 -0.09922935 0.29675287 -0.6424777 -0.7985267 0.10459221 0.6353067
0.024300897 -0.01778897 -0.45969823 -0.0845845 0.16519968 -0.41699314 0.42385605 -0.13498439
-0.24457934 -0.5356635 -0.48296136 -0.34775952 -0.6506093 -1.142748 -0.410634 -0.082508035
0.28657582 -0.19990148 -0.16090506 0.15824051 0.43239242 0.119664855 -0.06199444 0.3951189
00000000: aca1 66bd cc3e 99bd c238 cbbd feef 973e
00000010: 6b79 24bf 3f6c 4cbf 7134 d63d 76a3 223f
00000020: ad12 c73c 2dba 91bc 915d ebbe a33a adbd
00000030: 1b2a 293e 2080 d5be a903 d93e 5939 0abe
00000040: 0273 7abe 3e21 09bf b646 f7be 890d b2be
00000050: 558e 26bf 9145 92bf 9f3e d2be f9f9 a8bd
00000060: 11ba 923e f9b2 4cbe 4cc4 24be cd09 223e
00000070: 8a62 dd3e d912 f53d e2ed 7dbd 064d ca3e

encoder.layers.0.self_attn.linears.0.weight f4 [32, 32]
-1.1369559 -0.13695796 -0.23760702 0.094015636 0.6113332 0.6729592 -0.3404664 -1.048576
-0.1144951 -0.2535 -0.13827495 -0.16694184 0.04267849 0.02812642 0.2534812 0.2716636
-0.78032774 -0.1765493 0.091350555 -0.73731226 -0.18179692 0.45807928 0.028667428 -0.05685366
-1.0753328 0.17925267 -0.017070295 0.0448508 0.5648488 -0.758333 0.5871263 -0.3101372
0.38884506 -0.07242113 -0.40430462 -0.15550525 -0.37727112 -0.6869297 0.30226055 0.33049086
0.019008556 -0.46445164 0.20337956 0.1834869 -0.28067952 0.24872965 -0.6316987 -1.0279841
-0.096584424 0.23408413 -0.21446311 0.54213405 0.038744867 -0.3164079 0.11713942 -0.007879648
-0.064181894 -1.4909023 -0.023598041 -0.13834113 -0.91608995 0.29774654 -0.38064885 -0.01430286
-0.13534191 -0.0058251964 0.600951 0.19044702 0.11650952 0.41630682 -0.055534802 1.2975658
0.21562128 -0.035506733 0.5858782 -0.11613451 0.10572045 0.6439964 0.38145503 0.26387683
0.005161815 0.47893223 0.2946053 0.44423878 0.33548266 0.66414315 0.12561373 -0.14917648
0.036466736 0.50613743 0.0096882535 0.006919115 -0.8531805 0.34506112 0.30966508 -0.17183405
0.33336264 0.09025698 -0.15192746 -0.1047804 -0.6685005 -0.64762527 -0.1417538 0.21300961
0.09755049 1.1900909 -0.22087891 -0.04113176 -0.384205 -0.97108144 -0.13238761 -0.6482297
0.32556593 -0.47432235 -0.18817967 0.26005295 -0.3825634 -0.7997691 0.05849528 -0.023280423
0.17097805 -0.3646702 0.16923794 -0.2686272 0.78839266 0.48800144 -0.74471474 -0.45921502
1.3219913 0.019803291 0.7034725 0.34035048 0.45399582 0.9860982 0.1956926 0.43135974
0.487041 0.5647774 0.57970685 0.17064399 -0.11493188 0.9327769 0.43459928 0.064178295
1.3708115 0.6900403 0.899853 0.2308631 0.3279239 1.2072325 -0.05269452 0.15249005
1.8114238 -0.13238166 -0.113835536 0.32481572 0.4967926 -0.3071152 -0.23240173 0.47234076
0.96596575 0.045048308 -0.18945837 0.9806619 -0.17535137 -0.61511016 0.51662046 0.06462653
-0.6683509 -0.15859075 0.0035355482 -0.104475185 0.19699904 -0.7250478 0.20241958 0.3862266
1.2308601 0.037621286 -0.28875434 0.15934175 -0.39759755 -0.0022216248 -0.17429274 0.10727384
-0.13093841 -0.2027659 0.023250941 -0.06621605 -0.21210253 0.47417235 -0.58060116 -0.6112802
-0.81412876 0.020114424 -0.08232151 -0.7218546 -0.3396152 -0.039194506 -0.019079486 0.55884254
0.1232144 0.47653505 -0.13476413 0.19209659 0.046192124 0.31142694 -0.10684716 1.0022962
-1.318033 0.40579894 -0.12711973 0.1155302 -0.009754451 -0.06886425 -0.025978617 -0.15523233
-0.09108249 0.83788526 -0.03276696 -0.08144344 -0.21361348 -0.14817695 0.15418611 0.11059207
-2.2838705 0.024291685 -0.25323698 -0.59514254 -0.44607413 -0.6144355 -1.0589659 -0.5816583
-0.25915423 -0.0121606765 -0.6327663 -0.2315658 0.16112614 -0.58800775 -0.15914774 -0.87867355
-3.152046 -1.5431964 -0.49100265 -0.7577328 -0.24930501 -0.80973387 -0.49730211 -0.04208567
-2.002915 -0.5943394 0.09092974 -0.13380478 0.26211026 -0.03010978 0.5241194 0.09145536
00000000: c587 91bf b53e 0cbe 414f 73be 458b c03d
00000010: 5580 1c3f 0e47 2c3f 9d51 aebe bd37 86bf
00000020: 687c eabd c1ca 81be f397 0dbe cdf2 2abe
00000030: a4cf 2e3d 6169 e63c 4ac8 813e 7e17 8b3e
00000040: 8fc3 47bf 57c9 34be 0016 bb3d 7fc0 3cbf
00000050: f928 3abe 5e89 ea3e f4d7 ea3c 62df 68bd
00000060: 81a4 89bf 038e 373e 01d7 8bbc 79b5 373d
00000070: ee99 103f 1d22 42bf e94d 163f 4eca 9ebe
00000080: b316 c73e 8851 94bd 0401 cfbe c53c 1fbe
00000090: ae29 c1be a0da 2fbf e5c1 9a3e 1936 a93e
000000a0: d5b7 9b3c 9bcc edbe bb42 503e fde3 3b3e
000000b0: 3ab5 8fbe fcb2 7e3e 02b7 21bf fc94 83bf
000000c0: 0ece c5bd c0b3 6f3e 389c 5bbe 4cc9 0a3f
000000d0: f0b2 1e3d 3700 a2be cbe6 ef3d a419 01bc
000000e0: cc71 83bd e3d5 bebf ae50 c1bc 4ca9 0dbe
000000f0: df84 6abf 3c72 983e 68e4 c2be 8b56 6abc
00000100: 1297 0abe 4ae1 bebb edd7 193f 8b04 433e
00000110: 8b9c ee3d 2b26 d53e 7678 63bd a316 a63f
00000120: d3cb 5c3e 826f 11bd 1dfc 153f eed7 edbd
00000130: f783 d83d f3dc 243f 134e c33e dd1a 873e
00000140: 7124 a93b 9b36 f53e 82d6 963e 4473 e33e
00000150: 62c4 ab3e 4905 2a3f e3a0 003e b8c1 18be
00000160: 255e 153d 3992 013f 7bbb 1e3c beb9 e23b
00000170: 0a6a 5abf daab b03e 6c8c 9e3e 44f5 2fbe
00000180: 82ae aa3e a7d8 b83d df92 1bbe 1b97 d6bd
00000190: d922 2bbf c5ca 25bf e827 11be 311f 5a3e
000001a0: 8dc8 c73d e654 983f 152e 62be c779 28bd
000001b0: 85b6 c4be cb98 78bf 9e90 07be 62f2 25bf
000001c0: 94b0 a63e 61da f2be 2cb2 40be a925 853e
000001d0: 5adf c3be abbd 4cbf bf98 6f3d 96b6 bebc
000001e0: df14 2f3e 0db6 babe b64c 2d3e 8189 89be
000001f0: 1ad4 493f 53db f93e a0a5 3ebf 3b1e ebbe
00000200: 0337 a93f 833a a23c c616 343f 6b42 ae3e
00000210: 2472 e83e ee70 7c3f a463 483e 2fdb dc3e
00000220: 705d f93e 4095 103f ab67 143f 4cbd 2e3e
00000230: 6861 ebbd 78ca 6e3f cc83 de3e e96f 833d
00000240: c076 af3f 7ba6 303f c45c 663f 6067 6c3e
00000250: a4e5 a73e 9886 9a3f 36d6 57bd 5a26 1c3e
00000260: bcdc e73f 0f8f 07be 9b22 e9bd 3f4e a63e
00000270: 9a5b fe3e 343e 9dbe b8fa 6dbe a6d6 f13e
00000280: 8849 773f 9384 383d 6001 42be a90c 7b3f
00000290: 4f8f 33be dc77 1dbf 3d41 043f ea5a 843d
000002a0: 0b19 2bbf 9d65 22be a8b4 673b 16f7 d5bd
000002b0: 1eba 493e bc9c 39bf 1447 4f3e 7ebf c53e
000002c0: d38c 9d3f c718 1a3d 9cd7 93be 7c2a 233e
000002d0: e891 cbbe ae98 11bb cc79 32be 63b2 db3d
000002e0: b814 06be dda1 4fbe c278 be3c 489c 87bd
000002f0: 6831 59be b8c6 f23e 47a2 14bf dc7c 1cbf
00000300: be6a 50bf 01c7 a43c 2e98 a8bd 77cb 38bf
00000310: 0be2 adbe 6b8a 20bd 954c 9cbc 4e10 0f3f
00000320: d557 fc3d 67fc f33e 9cff 09be f8b4 443e
00000330: f433 3d3d 5a73 9f3e afd2 dabd 3e4b 803f
00000340: 4eb5 a8bf e1c4 cf3e ad2b 02be 199b ec3d
00000350: 22d1 1fbc b308 8dbd 1cd1 d4bc 39f5 1ebe
00000360: 7589 babd a67f 563f a636 06bd d1cb a6bd
00000370: 7ebd 5abe b3bb 17be f7e2 1d3e 187e e23d
00000380: ef2a 12c0 5bff c63c 47a8 81be 435b 18bf
00000390: d463 e4be a54b 1dbf 328c 87bf 8fe7 14bf
000003a0: ddaf 84be 933d 47bc f9fc 21bf 961f 6dbe
000003b0: 40fe 243e ad87 16bf a0f7 22be c0f0 60bf
000003c0: 1fbb 49c0 7687 c5bf b364 fbbe c7fa 41bf
000003d0: d049 7fbe b84a 4fbf 629e febe 0662 2cbd
000003e0: c22f 00c0 a026 18bf 5f39 ba3d 1f04 09be
000003f0: 5133 863e c9a8 f6bc b02c 063f f34c bb3d

encoder.layers.0.self_attn.linears.0.bias f4 [32]
-0.51932263 0.16191754 0.14906907 0.5751591 0.20527357 -0.012339897 -0.355993 -0.10340297
-0.23433688 -0.038508475 -0.33031204 -0.35015458 -0.37624264 -0.10391107 0.20695496 -0.066011645
-0.08076027 0.47692645 -0.5166957 -0.09671859 -0.19919124 -0.2577656 0.19213587 0.058518678
0.20410106 0.32585102 0.27551535 0.076878496 -0.029249724 -0.46854633 0.08260211 -0.28853965
00000000: 54f2 04bf b6cd 253e 90a5 183e a03d 133f
00000010: 3c33 523e 482d 4abc b744 b6be f0c4 d3bd
00000020: 02f6 6fbe 10bb 1dbd a91e a9be 7647 b3be
00000030: e0a2 c0be 54cf d4bd 00ec 533e 1d31 87bd
00000040: a465 a5bd b42f f43e 2b46 04bf 6514 c6bd
00000050: caf8 4bbe daf9 83be 44bf 443e 48b1 6f3d
00000060: deff 503e f2d5 a63e 5910 8d3e 7972 9d3d
00000070: 1e9d efbc 4ee5 efbe 4c2b a93d 78bb 93be

encoder.layers.0.self_attn.linears.1.weight f4 [32, 32]
-0.06022068 -0.10974862 0.42700157 -0.20372754 -0.46272752 0.25325492 -0.2068178 -0.29815668
0.73619837 -0.7210951 0.5944767 -0.05765992 0.13418712 0.22250226 -0.4585233 0.22685763
-0.6283459 0.39180833 -0.22628097 0.09798007 0.16553909 0.43927726 -0.19485426 -0.044697218
0.29775384 -0.58504725 -0.11548951 -0.09782523 -0.12083541 -0.24523565 -0.26942202 0.462176
-0.4873858 0.24483988 0.08268207 -0.043613825 0.41821894 -0.16228561 0.08899456 0.3174558
-0.25201777 0.1509971 -0.3039292 0.37659252 0.26889098 0.23702835 0.8301832 -0.0087341815
0.2122957 -0.35463396 0.023693739 -0.5651196 0.19422618 -0.49461597 0.4810102 0.3328155
-0.4093558 -0.26710242 0.2779275 0.2876909 0.21503967 0.17870983 -0.15632163 -0.13838802
0.114121936 0.20161925 -0.28191003 -0.13657619 -0.3930196 0.3944419 0.17889203 -0.43572816
-0.49655524 0.44618577 -0.17937407 0.107346736 0.039071023 -0.14259174 -0.070807904 -0.8421457
0.2911431 0.095090024 0.22899622 0.3195266 -0.51069254 0.5573901 0.3210478 -0.03030457
-0.5005872 0.77871126 0.2136966 0.23991956 0.08653779 -0.39561266 0.4165783 -0.5813653
-0.12057426 -0.11774809 -0.24332032 0.53827107 0.55803406 -0.36701033 -0.98272055 0.7001226
0.04810833 0.32458904 -0.22020352 -0.30718625 -0.44736588 -0.7484037 0.5228126 -0.13904217
0.20484714 -0.5203102 0.05451824 0.31574923 -0.17147079 -0.7284469 -0.14915277 -0.26824313
-0.19127701 -0.31468523 -0.024819545 -0.3392874 0.16079067 0.8469824 0.32046604 -0.61124855
0.9013798 -0.5178904 -0.35877773 -0.101540424 0.18084861 -0.20163333 -0.06870547 -0.074489474
0.01736603 0.015994964 0.36459407 -0.263624 -0.63138115 0.25352207 -0.40343726 -0.6953146
0.25772372 0.18564601 -0.32540366 0.8134801 0.32686663 0.003663189 -0.42546755 -0.25287086
0.5217364 -0.44919956 -0.54362035 -0.3795965 0.31700504 0.023587111 -0.4199286 -0.004718927
-1.0554469 0.4251651 0.2304921 -0.39531425 0.17274672 -0.19376096 0.12748751 -0.20915066
0.6887839 -0.3069348 -0.3684308 0.29593384 0.71422434 0.6076498 0.2388461 0.3894166
-0.38022247 -0.69969994 0.77817446 -0.5549979 -0.17261371 0.28119928 0.5808943 0.49211684
-0.7091611 0.27768347 0.47259128 0.39371175 -0.3979617 -0.47138977 0.6195332 0.3838942
-0.1457132 0.32232192 0.46767333 0.5011119 0.3179943 0.43406758 -0.58470523 0.57482666
-0.5001654 0.10152489 0.21140444 0.51850003 0.673398 -0.14306055 0.06404213 0.74798137
-0.051490135 -0.26027504 0.16056424 -0.43217337 -0.14625943 0.24006665 0.23363905 0.17828956
-0.18838029 0.48593435 0.35364154 0.4240077 -0.33512592 -0.0990302 0.6450341 -0.09776922
-0.7177026 0.65035963 0.52035695 0.34139997 -0.3688021 -0.16750857 0.0733309 0.056009773
-0.18512204 0.15910777 -0.3367457 0.30029365 0.6689627 -0.24407552 0.4780204 0.56695914
-0.23122673 -0.41522753 0.15636563 -0.86841947 -0.33147034 -0.2136392 0.37366012 0.459717
-0.31630248 0.4434589 0.5662275 0.3678797 0.0009660818 0.22719707 0.54527384 0.13470398
00000000: f6a9 76bd e2c3 e0bd f39f da3e f49d 50be
00000010: 9fea ecbe a1aa 813e 0cc8 53be fea7 98be
00000020: 7f77 3c3f b099 38bf a02f 183f cf2c 6cbd
00000030: 5968 093e a2d7 633e 91c3 eabe 5e4d 683e
00000040: 47db 20bf 1a9b c83e 33b6 67be c6a9 c83d
00000050: 1483 293e f3e8 e03e e087 47be 6e14 37bd
00000060: 3173 983e a8c5 15bf c485 ecbd 9858 c8bd
00000070: 8e78 f7bd 0e1f 7bbe aff1 89be 55a2 ec3e
00000080: a28a f9be 4eb7 7a3e 3855 a93d 69a4 32bd
00000090: cb20 d63e 332e 26be c842 b63d 9189 a23e
000000a0: 7908 81be fc9e 1a3e 9c9c 9bbe bcd0 c03e
000000b0: 14ac 893e 8fb7 723e e386 543f d019 0fbc
000000c0: 0b64 593e 9592 b5be 5f19 c23c aeab 10bf
000000d0: 3ae3 463e 4e3e fdbe f846 f63e cb66 aa3e
000000e0: 1597 d1be a6c1 88be 834c 8e3e 394c 933e
000000f0: 5c33 5c3e b6ff 363e c712 20be 97b5 0dbe
00000100: c3b8 e93d 4775 4e3e 8356 90be a1da 0bbe
00000110: dd39 c9be 4af4 c93e 792f 373e c317 dfbe
00000120: 7d3c febe 7672 e43e d6ad 37be 9bd8 db3d
00000130: f008 203d 9203 12be bc03 91bd dc96 57bf
00000140: b510 953e 8fbe c23d fc7d 6a3e fe98 a33e
00000150: bfbc 02bf 1eb1 0e3f 6160 a43e 4a41 f8bc
00000160: 7c26 00bf 9f59 473f 48d3 5a3e 79ad 753e
00000170: ba3a b13d be8d cabe c049 d53e 5bd4 14bf
00000180: a3ef f6bd e925 f1bd f628 79be 22cc 093f
00000190: 52db 0e3f c7e8 bbbe 9393 7bbf 3c3b 333f
000001a0: 3e0d 453d 8930 a63e 087d 61be 8447 9dbe
000001b0: 240d e5be 6397 3fbf 0cd7 053f 1261 0ebe
000001c0: 73c3 513e 0d33 05bf 854e 5f3d e2a9 a13e
000001d0: 0a96 2fbe 7f7b 3abf 81bb 18be 2a57 89be
000001e0: 1fde 43be 6c1e a1be 5c52 cbbc 14b7 adbe
000001f0: 4fa6 243e d7d3 583f 2014 a43e c97a 1cbf
00000200: d4c0 663f 7794 04bf b7b1 b7be 6df4 cfbd
00000210: 6130 393e f878 4ebe 74b5 8cbd f08d 98bd
00000220: 3443 8e3c df07 833c 13ac ba3e baf9 86be
00000230: 32a2 21bf a5cd 813e 548f cebe 2300 32bf
00000240: 5df4 833e fd19 3e3e 4f9b a6be 3b40 503f
00000250: 105b a73e 1d12 703b e2d6 d9be 4a78 81be
00000260: 8490 053f 7cfd e5be b42a 0bbf 795a c2be
00000270: 7c4e a23e c239 c13c e200 d7be 3ba1 9abb
00000280: e218 87bf 3daf d93e 1f06 6c3e a166 cabe
00000290: 84e4 303e 4669 46be 168c 023e 972b 56be
000002a0: 2454 303f 8f26 9dbe f6a2 bcbe a484 973e
000002b0: 68d7 363f f08e 1b3f 1294 743e 9d61 c73e
000002c0: 85ac c2be 891f 33bf 7136 473f 5814 0ebf
000002d0: a6c1 30be 5af9 8f3e 7db5 143f bdf6 fb3e
000002e0: 958b 35bf 872c 8e3e 7cf7 f13e 9694 c93e
000002f0: a3c1 cbbe 005a f1be ba99 1e3f c88d c43e
00000300: d735 15be 6107 a53e e172 ef3e df48 003f
00000310: 26d0 a23e 1b3e de3e 3eaf 15bf d727 133f
00000320: d70a 00bf 48ec cf3d 687a 583e 6bbc 043f
00000330: d063 2c3f 777e 12be 8528 833d b57b 3f3f
00000340: 52e7 52bd c542 85be f46a 243e d445 ddbe
00000350: 08c5 15be 08d4 753e 133f 6f3e 8a91 363e
00000360: c3e6 40be 63cc f83e 8110 b53e 8a17 d93e
00000370: a095 abbe 58d0 cabd f420 253f 3b3b c8bd
00000380: 5cbb 37bf f87d 263f 1d36 053f facb ae3e
00000390: a1d3 bcbe 5e87 2bbe 832e 963d 816a 653d
000003a0: a290 3dbe 26ed 223e ef69 acbe 17c0 993e
000003b0: 2441 2b3f efee 79be 17bf f43e 3c24 113f
000003c0: b3c6 6cbe b498 d4be 501e 203e bd50 5ebf
000003d0: 7bb6 a9be 3cc4 5abe 6150 bf3e 0760 eb3e
000003e0: 66f2 a1be 0c0d e33e 49f4 103f ba5a bc3e
000003f0: a740 7d3a 59a6 683e 1197 0b3f d7ef 093e

encoder.layers.0.self_attn.linears.1.bias f4 [32]
-0.35019225 0.23406841 -0.041144375 0.22928496 -0.25522372 0.21859233 -0.031097818 0.22398868
0.20100853 0.19522804 0.01689579 0.11943509 -0.17500176 -0.100888066 0.16173172 -0.23051937
-0.11874428 0.0732087 0.047782227 -0.1395339 0.024038546 -0.29517952 0.37740275 0.29240993
-0.120567635 -0.068179935 0.016737094 0.1542279 0.14239505 0.34358788 0.1275908 0.29614365
00000000: 664c b3be a1af 6f3e 0187 28bd adc9 6a3e
00000010: afac 82be abd6 5f3e dac0 febc 4a5d 653e
00000020: 2ed5 4d3e dce9 473e 0a69 8a3c 629a f43d
00000030: a933 33be 679e cebd 009d 253e 450d 6cbe
00000040: 3330 f3bd 71ee 953d 4cb7 433d fae1 0ebe
00000050: 7cec c43c c521 97be ef3a c13e c1b6 953e
00000060: 2aec f6bd eca1 8bbd 3b1c 893c ebed 1d3e
00000070: 02d0 113e c0ea af3e 2aa7 023e 24a0 973e

encoder.layers.0.self_attn.linears.2.weight f4 [32, 32]
-0.28665614 0.07928436 -0.2302422 0.05343702 -0.02199055 0.08528184 0.05583081 0.05327639
-0.12713636 -0.1788281 -0.201626 0.13894983 0.007371623 0.15742701 0.27945116 -0.032555133
-0.1575896 0.358602 -0.1485485 -0.09139909 0.17675704 0.0106989965 -0.10022498 0.16381434
0.16600838 0.4853685 -0.058024038 -0.06756275 -0.34886307 -0.3738333 0.22421958 -0.21538602
-0.14252324 -0.18538143 0.016461974 -0.05438046 -0.009175436 -0.013120124 0.1050725 -0.16154763
0.23961867 -0.08706997 0.14000681 -0.011197477 -0.009413973 -0.058985416 -0.20153995 0.018561844
-0.058906153 -0.107420005 0.11534163 0.132036 0.11308189 0.1497888 0.10611933 -0.09983219
-0.24819137 -0.5502315 -0.021807343 -0.044062108 0.27252668 0.43405205 -0.1934416 -0.029146696
-0.11986932 -0.054787327 0.09621134 -0.41972014 0.051684164 -0.09534226 0.14212805 0.020944955
-0.28819898 0.18978417 0.32120132 -0.095250614 -0.020320017 -0.0014891719 0.020368718 -0.46367317
0.022406278 0.0044441875 -0.21145433 0.2397951 0.11109891 0.15638404 0.06765563 -0.28808174
0.043192778 0.36295784 0.036381464 0.08427462 -0.21909261 -0.035655655 -0.04010341 0.03403459
0.04674435 -0.37940916 -0.048917454 -0.432435 0.17332411 0.009628799 0.21295202 -0.29511598
0.16704439 0.3906614 0.032916196 -0.49839178 -0.09811766 0.0026693598 -0.31832984 -0.2856567
0.22160234 -0.020951819 0.2902409 0.3603311 -0.0500424 0.14002313 -0.22452442 -0.25907212
-0.05111963 0.12933001 -0.08851631 -0.40139085 0.59186226 0.10053201 -0.04277424 0.08574288
-0.40132707 -0.16802767 -0.09123646 0.22232552 0.32095253 -0.727158 0.051369835 0.08537098
0.23930167 0.023589198 0.093595214 -0.06691444 -0.0796443 0.57145 -0.06246735 -0.112059094
0.15736765 0.21983491 0.1776349 0.3940091 -0.20047408 -0.2765343 0.1427751 0.07388529
-0.19139843 0.197001 -0.09945309 0.013754438 0.26368394 0.036726344 0.1801638 0.13149324
0.4049245 0.11432947 0.15966064 -0.13358955 -0.46366963 0.05971607 -0.006334968 -0.26798227
-0.10408899 0.2505182 -0.017617559 0.0074132797 0.35954374 0.09705203 0.03018001 0.17296308
0.11546119 -0.22876973 -0.20433283 -0.108793065 -0.13811128 0.05468159 0.01873721 0.10299893
0.24358957 0.031026369 0.14663254 0.073997535 0.3672544 -0.5648131 -0.042623993 0.020301016
-0.1597224 -0.01797794 0.012686887 0.09176398 -0.28167054 -0.1782926 0.186666 0.55251586
0.03605765 0.084796436 -0.12065955 0.10585935 0.26344866 0.4382439 0.042035744 -0.0865709
-0.16314799 0.2922758 0.017517881 0.015475325 -0.24261872 0.28711906 -0.12156316 -0.031076638
-0.13035664 -0.23674394 -0.02377692 0.0340496 0.026742863 -0.034641672 0.106251165 0.27116898
0.10798038 0.17906612 0.23706485 0.14351301 -0.42651322 -0.05950712 0.069849186 -0.027128069
-0.22952004 0.042215023 0.055277932 -0.019664623 0.32276016 -0.005112851 0.08170276 -0.26948893
0.04507738 -0.29753953 -0.041058473 -0.35246176 -0.1475382 0.029852483 0.06108531 -0.057579264
0.35344347 -0.32899046 0.20526126 0.11563693 0.42726496 -0.03486413 -0.31187966 0.21014869
00000000: 98c4 92be d75f a23d 9cc4 6bbe c7e0 5a3d
00000010: 8725 b4bc 3fa8 ae3d d9ae 643d 5838 5a3d
00000020: 0930 02be b71e 37be 0c77 4ebe dd48 0e3e
00000030: a88d f13b 8c34 213e 3914 8f3e 8858 05bd
00000040: 2b5f 21be ae9a b73e 191d 18be 722f bbbd
00000050: ccff 343e d84a 2f3c c142 cdbd f2be 273e
00000060: 1afe 293e 3882 f83e 9daa 6dbd 575e 8abd
00000070: 2e9e b2be 1467 bfbe d199 653e 278e 5cbe
00000080: 9df1 11be a1d4 3dbe 43db 863c 0cbe 5ebd
00000090: 9154 16bc caf5 56bc 4030 d73d be6c 25be
000000a0: 995e 753e be51 b2bd f25d 0f3e 9f75 37bc
000000b0: 113d 1abc b19a 71bd 7d60 4ebe 020f 983c
000000c0: 9447 71bd 05ff dbbd 3c38 ec3d 7234 073e
000000d0: 7a97 e73d 3c62 193e 1755 d93d d274 ccbd
000000e0: e125 7ebe f9db 0cbf 50a5 b2bc 787a 34bd
000000f0: 9e88 8b3e 123c de3e 8e15 46be 0dc5 eebc
00000100: 0c7e f5bd ad68 60bd 730a c53d 8fe5 d6be
00000110: c6b2 533d ce42 c3bd 048a 113e c194 ab3c
00000120: d18e 93be c856 423e 8074 a43e c112 c3bd
00000130: 2a76 a6bc 5130 c3ba 4cdc a63c 9266 edbe
00000140: 5f8d b73c 8ca0 913b 7c87 58be d98c 753e
00000150: d387 e33d 2323 203e 098f 8a3d 737f 93be
00000160: e9ea 303d 9cd5 b93e bb04 153d 2c98 ac3d
00000170: d059 60be aa0b 12bd 7943 24bd db67 0b3d
00000180: 0177 3f3d eb41 c2be ab5d 48bd 1f68 ddbe
00000190: e07b 313e 1cc2 1d3c 1810 5a3e 7119 97be
000001a0: af0d 2b3e c504 c83e 22d3 063d 352d ffbe
000001b0: e9f1 c8bd 6df0 2e3b 21fc a2be 9841 92be
000001c0: b9eb 623e 26a3 abbc 759a 943e 517d b83e
000001d0: 42f9 4cbd 3962 0f3e bbe9 65be 1aa5 84be
000001e0: d162 51bd 166f 043e 0a48 b5bd 1a83 cdbe
000001f0: 4984 173f bae3 cd3d 0b34 2fbd f799 af3d
00000200: be7a cdbe 720f 2cbe 2eda babd 4da9 633e
00000210: e453 a43e 0727 3abf 2d69 523d fbd6 ae3d
00000220: 7f0b 753e 223e c13c d9ae bf3d 700a 89bd
00000230: 8d1c a3bd 8c4a 123f c4dd 7fbd 3d7f e5bd
00000240: fc24 213e 671c 613e ece5 353e 90bb c93e
00000250: 1449 4dbe e795 8dbe a333 123e 2c51 973d
00000260: f3fd 43be a1ba 493e 10ae cbbd 4b5a 613c
00000270: 9501 873e 5d6e 163d dc7c 383e 2aa6 063e
00000280: 4452 cf3e 9225 ea3d 147e 233e b3cb 08be
00000290: 1b66 edbe d698 743d 9095 cfbb f934 89be
000002a0: 9c2c d5bd ec43 803e b352 90bc 19eb f23b
000002b0: 1e16 b83e 37c3 c63d 113c f73c 3c1d 313e
000002c0: eb76 ec3d 9d42 6abe a03c 51be e6ce debd
000002d0: 0b6d 0dbe cef9 5f3d c77e 993c 1af1 d23d
000002e0: 8b6f 793e 032b fe3c d726 163e 058c 973d
000002f0: c508 bc3e 9797 10bf 7f96 2ebd 514e a63c
00000300: 458e 23be 7946 93bc a9dc 4f3c c1ee bb3d
00000310: 1f37 90be 5692 36be 5f25 3f3e ae71 0d3f
00000320: 30b1 133d c1a9 ad3d 5b1c f7bd c9cc d83d
00000330: bee2 863e 8161 e03e ac2d 2c3d 164c b1bd
00000340: 4410 27be 2ca5 953e a981 8f3c 388c 7d3c
00000350: 0b71 78be 4501 933e 1bf6 f8bd 6f94 febc
00000360: 367c 05be 016d 72be d1c7 c2bc 9877 0b3d
00000370: d913 db3c 6de4 0dbd 369a d93d a9d6 8a3e
00000380: d124 dd3d 1c5d 373e 21c1 723e 13f5 123e
00000390: f15f dabe bdbd 73bd 170d 8f3d af3b debc
000003a0: 4d07 6bbe a9e9 2c3d 1d6b 623d b417 a1bc
000003b0: d240 a53e b489 a7bb c753 a73d 74fa 89be
000003c0: 0fa3 383d 1a57 98be ee2c 28bd de75 b4be
000003d0: 4114 17be 328d f43c 9734 7a3d 3cd8 6bbd
000003e0: 8bf6 b43e 7071 a8be 0230 523e 0ed3 ec3d
000003f0: 79c2 da3e b1cd 0ebd b1ae 9fbe 3831 573e

encoder.layers.0.self_attn.linears.2.bias f4 [32]
0.027921109 0.018989533 -0.14517045 0.10701282 -0.25323927 0.031004708 -0.08974817 0.12627503
0.028084196 0.027750045 0.040209744 0.06250003 0.08980979 -0.08390276 -0.043839972 0.08547271
0.10056623 0.083680645 0.10706875 -0.0488967 -0.122715436 -0.074502125 0.06541091 -0.13302754
-0.011631151 0.06182481 0.056030028 0.059346016 0.001062869 -0.06512559 0.12374748 0.064953096
00000000: cfba e43c f08f 9b3c 90a7 14be 8a29 db3d
00000010: 94a8 81be 96fd fd3c e3cd b7bd 3e4e 013e
00000020: d410 e63c 1054 e33c f9b2 243d 0400 803d
00000030: 32ee b73d 36d5 abbd 8b91 33bd 510c af3d
00000040: abf5 cd3d c260 ab3d dc46 db3d e847 48bd
00000050: 3b52 fbbd 9294 98bd 28f6 853d 5f38 08be
00000060: 9590 3ebc 033c 7d3d be7f 653d cf14 733d
00000070: f74f 8b3a 9160 85bd 526f fd3d 2106 853d

encoder.layers.0.self_attn.linears.3.weight f4 [32, 32]
-0.1299361 0.05249174 -0.09485307 0.106093474 -0.3604644 -0.08218739 -0.18906495 0.105542585
0.51075363 -0.093756914 0.08135409 0.5000353 0.29196745 0.015817516 -0.1565121 0.20516145
0.18029882 -0.039433975 0.10062155 0.0970769 -0.09952984 0.26705933 0.05157669 -0.04523802
0.124030404 0.0464028 -0.083326966 -0.069081225 -0.15790492 -0.026978534 0.33254138 0.015443228
-0.09564275 0.12646908 0.12611136 0.38580608 0.48510182 -0.2806223 0.21597448 -0.12127593
-0.19834511 0.23072283 0.22401367 0.16687089 0.14974834 -0.0036039595 -0.08017995 -0.2468923
0.043823197 -0.0658829 -0.011719471 -0.014876554 -0.018839763 0.17609355 0.24088027 -0.08866735
0.0492767 -0.3168268 -0.13818637 0.49182487 -0.20133048 0.14863455 0.07676745 0.043748066
-0.0369587 -0.14778663 -0.13750134 -0.10137962 -0.12913702 0.04480817 -0.20434736 -0.0043191044
-0.1417159 -0.15744069 -0.36385223 -0.14650209 -0.27892977 0.06475779 0.31544456 -0.21607056
0.28739154 -0.0068310853 -0.087978445 -0.41688982 -0.13360259 -0.018090256 -0.17747927 -0.10150498
-0.0067295455 0.05655606 0.18210018 -0.24545294 -0.13043447 0.19366817 -0.04166827 -0.101823896
-0.0890476 0.1253618 -0.027997999 0.08832925 0.18032801 -0.013591837 -0.09902258 0.0965731
0.06278522 0.2409696 -0.02440598 -0.06795664 -0.15347649 0.082892686 -0.092457056 -0.09578226
-0.15830396 -0.24010669 -0.20834513 -0.033173487 0.12944226 0.025469659 0.26856554 -0.14625573
-0.148555 -0.19188027 -0.09052668 -0.0035503642 -0.06679799 0.01826843 0.021809725 -0.14939106
0.14017794 -0.10130403 0.22770905 0.045862168 0.124735095 -0.21341737 0.05315705 0.1298931
0.04920738 -0.19900614 -0.16342595 -0.11284958 -0.22304685 0.13169263 -0.05225412 -0.053168554
0.12052569 -0.115545645 -0.39619395 -0.26184896 0.027897982 -0.22146143 0.1994368 0.059714448
0.11982715 0.14587808 -0.1232099 0.002945455 0.16480051 0.080482654 -0.082427256 -0.10359697
0.24596912 -0.0020531758 0.024961088 -0.023680478 -0.12225636 0.15624082 -0.13714047 0.06850639
0.04292412 -0.20358966 0.06500111 -0.051103983 -0.020890757 0.17705046 -0.09673165 0.1997332
-0.008061083 0.016876224 -0.05863479 0.10273803 -0.048583016 0.21393286 -0.14944565 0.004186859
-0.2737065 -0.16311595 -0.061773606 -0.15271601 0.2141208 -0.17068686 0.17611164 -0.09897671
-0.34930655 -0.30232444 0.16860768 0.2635394 0.20278251 -0.30794105 -0.13024326 0.018956767
-0.31872347 0.36921436 0.0029351255 -0.030039443 -0.01961838 0.025561227 0.23034084 -0.05926367
0.04418797 0.18427376 -0.4504222 -0.6615872 0.02400804 0.4318736 0.19195032 0.24967837
-0.06340532 -0.14041385 0.16415177 0.33424366 -0.073916234 0.11974541 -0.16588251 -0.053715657
-0.06470195 0.117688924 0.12854977 0.27754855 -0.11008628 -0.16440807 0.118877985 -0.21361865
-0.19231582 0.2670124 0.12633982 -0.29753253 0.14319219 0.007176637 -0.2357181 -0.15580519
-0.21515726 -0.24505757 -0.22345057 0.021305852 0.16670518 -0.47803465 0.17948784 0.09772817
0.10389701 -0.029859427 0.15000924 0.12604576 0.29926842 0.19555636 -0.14927933 -0.20105377
00000000: f80d 05be 9401 573d 5442 c2bd 8947 d93d
00000010: ca8e b8be dd51 a8bd 3e9a 41be b626 d83d
00000020: c0c0 023f a003 c0bd f99c a63d 5002 003f
00000030: c27c 953e bc93 813c b544 20be d815 523e
00000040: 41a0 383e 8585 21bd ac12 ce3d 41d0 c63d
00000050: 4dd6 cbbd 00bc 883e 1442 533d 814b 39bd
00000060: a703 fe3d dd10 3e3d 54a7 aabd 757a 8dbd
00000070: d4b1 21be 1602 ddbc dd42 aa3e 9805 7d3c
00000080: 59e0 c3bd 1c81 013e 5623 013e 6088 c53e
00000090: 445f f83e baad 8fbe 6a28 5d3e 845f f8bd
000000a0: fb1a 4bbe 9b42 6c3e d763 653e 34e0 2a3e
000000b0: a157 193e 6830 6cbb 6335 a4bd 56d1 7cbe
000000c0: f47f 333d 9ded 86bd 0603 40bc cabc 73bc
000000d0: d955 9abc de51 343e 51a9 763e 3a97 b5bd
000000e0: 5dd6 493d 1f37 a2be ba80 0dbe 78d0 fb3e
000000f0: 9429 4ebe a833 183e 4138 9d3d 2c31 333d
00000100: 0162 17bd 6155 17be 27cd 0cbe 1ea0 cfbd
00000110: 7f3c 04be c688 373d 6f40 51be 4687 8dbb
00000120: f91d 11be 2238 21be d74a babe a504 16be
00000130: e2cf 8ebe bb9f 843d f381 a13e 9a41 5dbe
00000140: fc24 933e 4cd7 dfbb 0b2e b4bd 9572 d5be
00000150: 1ecf 08be 0432 94bc 20bd 35be d8e1 cfbd
00000160: 8583 dcbb 54a7 673d 7878 3a3e 0458 7bbe
00000170: 9d90 05be f350 463e 59ac 2abd 0c89 d0bd
00000180: 975e b6bd d85e 003e 0f5c e5bc f7e5 b43d
00000190: e8a7 383e 4cb0 5ebc 5acc cabd 1ec8 c53d
000001a0: 8a95 803d bcc0 763e 0def c7bc da2c 8bbd
000001b0: f128 1dbe a4c3 a93d 205a bdbd 7d29 c4bd
000001c0: 6f1a 22be 87de 75be 6d58 55be ece0 07bd
000001d0: 838c 043e bfa5 d03c 6c81 893e 10c4 15be
000001e0: cd1e 18be 437c 44be 0d66 b9bd 3aad 68bb
000001f0: 62cd 88bd ada7 953c 4faa b23c f8f9 18be
00000200: ce8a 0f3e 7d78 cfbd 902c 693e f8d9 3b3d
00000210: 1d75 ff3d 158a 5abe 35bb 593d b202 053e
00000220: ad8d 493d 44c8 4bbe 2259 27be ae1d e7bd
00000230: 6566 64be 6fda 063e 6b08 56bd 45c7 59bd
00000240: 2cd6 f63d 32a3 ecbd efd9 cabe 1111 86be
00000250: 4f8a e43c c9c6 62be 2939 4c3e 2397 743d
00000260: f067 f53d 1061 153e 7955 fcbd 8908 413b
00000270: 77c1 283e 17d4 a43d 9fcf a8bd a62a d4bd
00000280: 54df 7b3e 938e 06bb 327b cc3c 90fd c1bc
00000290: 8b61 fabd 98fd 1f3e 8d6e 0cbe 144d 8c3d
000002a0: 34d1 2f3d cf79 50be 4d1f 853d 6952 51bd
000002b0: 1823 abbc b74c 353e 3e1b c6bd dc86 4c3e
000002c0: a212 04bc 0240 8a3c 092b 70bd 5168 d23d
000002d0: fcfe 46bd 3711 5b3e 4808 19be eb31 893b
000002e0: 4223 8cbe de07 27be 5206 7dbd 9661 1cbe
000002f0: 7c42 5b3e 89c8 2ebe 9c56 343e 4db4 cabd
00000300: 4fd8 b2be 45ca 9abe 7ea7 2c3e a3ee 863e
00000310: 38a6 4f3e 73aa 9dbe 7d5e 05be 394b 9b3c
00000320: b92f a3be aa09 bd3e 3c5b 403b 4715 f6bc
00000330: bab6 a0bc c765 d13c 78de 6b3e 76be 72bd
00000340: 72fe 343d 43b2 3c3e bd9d e6be c75d 29bf
00000350: 82ac c43c 891e dd3e a08e 443e b0ab 7f3e
00000360: a6da 81bd a6c8 0fbe 6717 283e fc21 ab3e
00000370: 6561 97bd 153d f53d 1bdd 29be f304 5cbd
00000380: 7582 84bd e406 f13d 8da2 033e d81a 8e3e
00000390: ea74 e1bd 975a 28be 4d76 f33d d9be 5abe
000003a0: 70ee 44be d9b5 883e 3a5f 013e 2f56 98be
000003b0: f9a0 123e ff29 eb3b 1660 71be 658b 1fbe
000003c0: 2f52 5cbe 5ff0 7abe 3ad0 64be 9c89 ae3c
000003d0: c3b4 2a3e f5c0 f4be a9cb 373e b525 c83d
000003e0: f5c7 d43d c29b f4bc 069c 193e 2412 013e
000003f0: b639 993e ed3f 483e aedc 18be 0ae1 4dbe

encoder.layers.0.self_attn.linears.3.bias f4 [32]
-0.07723923 0.0007232697 0.03547269 0.15517764 -0.17580271 0.1171927 -0.03924462 -0.020384517
0.08547413 -0.051030237 0.08727126 0.16476376 -0.10246879 -0.026197925 0.102333225 0.034457892
-0.07927548 -0.050820053 -0.06853909 -0.019335544 -0.15506983 -0.11884206 -0.15272947 0.11508601
0.15649812 -0.22593424 0.19083661 0.00319254 -0.058146644 -0.06570159 -0.22941642 0.09980086
00000000: 9a2f 9ebd cf99 3d3a d04b 113d e3e6 1e3e
00000010: a005 34be ba02 f03d f7be 20bd 6efd a6bc
00000020: 100d af3d 1505 51bd 46bb b23d d5b7 283e
00000030: 28db d1bd 089d d6bc 1594 d13d b823 0d3d
00000040: 2f5b a2bd b028 50bd 395e 8cbd 9365 9ebc
00000050: a0ca 1ebe 7763 f3bd 1d65 1cbe 37b2 eb3d
00000060: 0b41 203e 4e5b 67be ac6a 433e ef39 513b
00000070: 2d2b 6ebd 8e8e 86bd 23ec 6abe 6564 cc3d

encoder.layers.0.feed_forward.w_1.weight f4 [128, 32]
0.37182334 0.015958078 0.19848722 -0.5339007 -0.22787745 0.02850538 0.20489691 -0.20965815
0.18349247 0.32880774 -0.37710884 -0.2065269 0.6125254 -0.03590262 0.22979374 -0.06742451
0.27441695 0.15456693 -0.35897818 -0.06940199 0.11042612 -0.29417536 -0.03231894 -0.099180944
0.27409744 -0.17274721 -0.10559732 0.074548475 0.53949726 -0.26041588 0.008983146 0.29836905
-0.10908009 -0.22337043 0.20586614 0.49063137 0.0075483336 -0.17551658 -0.022340719 0.16295986
0.17957208 -0.058510624 -0.0046256725 0.35647354 0.0062786792 -0.021685483 0.021608198 -0.081059724
0.35411215 -0.08122261 0.30903217 -0.21974753 -0.1016846 0.25222173 -0.069491565 0.18636373
0.040087506 0.035813436 0.20994641 0.43273273 -0.087200195 0.44986308 -0.010269046 -0.03917781
-0.0068113734 -0.429784 0.046464078 0.03628513 -0.09897566 0.09367795 -0.6158086 0.65033036
0.39286464 0.02543514 -0.093348294 -0.012167047 -0.13779002 -0.031874027 0.05706748 0.14746669
0.09399303 -0.08400945 0.00064283115 -1.019965 -0.35767588 0.33085853 -0.25565422 0.3745482
0.3561876 -0.17428115 0.4128923 0.3696912 0.25745302 -0.057760876 -0.020124717 -0.22112927
0.4335182 0.1861722 0.011773221 -1.0080991 -0.039683294 0.1859559 -0.031227289 -0.15566239
-0.561524 0.53198814 0.005811469 -0.07758921 0.21140449 0.17891914 -0.41338396 0.047051325
-0.0008796839 0.1880017 -0.14443384 -0.17261225 0.18926464 0.32338226 0.23641366 -0.19629297
0.023012115 -0.11277215 0.05148477 0.16179076 -0.18480878 -0.42526838 0.33903396 -0.2650406
0.16017267 0.09269432 -0.112349 0.063620314 0.3037334 0.033074666 -0.4492139 0.18747273
-0.41260839 -0.012570686 -0.15081641 -0.16086206 0.2634568 -0.2173987 0.05839655 0.09054686
0.059868585 0.013312613 0.15389316 0.19354905 0.29531968 0.20301805 0.20541528 0.014488059
-0.4943219 0.21243395 -0.018851599 0.057164676 0.006401552 0.5337226 0.2859522 0.009326818
0.24730441 0.13068411 0.01139177 -0.51262164 -0.8743621 0.44030982 -0.25439474 -0.5001183
0.4023356 0.45983273 -0.7302391 -0.19075999 0.1435074 -0.3640926 0.10050919 -0.02546017
0.008187878 -0.0709041 -0.6766269 0.04640571 0.21980035 -0.30210268 -0.05396494 0.23538324
0.1362711 0.032152668 -0.0006070067 0.0138402805 0.23411122 -0.4158711 0.10862998 0.10761915
-0.19696388 -0.11847418 -0.11020492 0.15182336 -0.23424764 -0.14704607 -0.036517028 0.7855414
0.53894466 -0.31160688 -0.07630867 0.11596355 0.059364747 0.05940362 0.14855967 0.032550484
0.2213886 -0.05160031 -0.30522588 0.06564546 -0.37536284 -0.8268402 -0.09526219 0.14751749
-0.1928615 -0.114243895 0.07233618 0.23296969 0.75029004 0.39243713 0.048680063 0.075975105
0.15556057 0.11149067 0.13524678 0.040487736 -0.33929813 -0.05000037 0.48090726 0.29443783
-0.06520095 -0.2613468 -0.19634989 0.006364781 0.29983556 -0.14271483 -0.084683485 -0.22561301
-0.12206396 0.1623925 -0.27118918 0.27882314 -0.14789991 -0.17719127 0.013671928 0.059177756
-0.06762402 -0.10858678 0.11943786 0.16638413 0.704408 -0.43051568 -0.16946568 0.4650689
00000000: a15f be3e 84ba 823c 3c40 4b3e b7ad 08bf
00000010: b558 69be 1d84 e93c 7fd0 513e a0b0 56be
00000020: 73e5 3b3e 7d59 a83e 6914 c1be ca7b 53be
00000030: 77ce 1c3f a00e 13bd 0d4f 6b3e dd15 8abd
00000040: 6180 8c3e cb46 1e3e fdcb b7be a122 8ebd
00000050: 1727 e23d 279e 96be dd60 04bd 611f cbbd
00000060: 8056 8c3e a5e4 30be 6843 d8bd dfac 983d
00000070: 7e1c 0a3f 3b55 85be 0c2e 133c d4c3 983e
00000080: 6265 dfbd 38bb 64be 93ce 523e 0934 fb3e
00000090: 0358 f73b 9eba 33be e203 b7bc f3de 263e
000000a0: bee1 373e d6a8 6fbd f492 97bb b383 b63e
000000b0: 61bd cd3b c1a5 b1bc ad03 b13c a402 a6bd
000000c0: 304e b53e 0a58 a6bd 7739 9e3e 7f05 61be
000000d0: 0440 d0bd 3523 813e 9851 8ebd 22d6 3e3e
000000e0: cc32 243d 1cb1 123d 31fc 563e 258f dd3e
000000f0: 0496 b2bd 7454 e63e 803f 28bc e978 20bd
00000100: f131 dfbb a60c dcbe 1e51 3e3d b79f 143d
00000110: c0b3 cabd 3ada bf3d a2a5 1dbf 0d7c 263f
00000120: 8e25 c93e 5b5d d03c 642d bfbd 4b58 47bc
00000130: d418 0dbe 578e 02bd 97bf 693d 8201 173e
00000140: 6b7f c03d 260d acbd ab83 283a 378e 82bf
00000150: 4b21 b7be 4a66 a93e 1ce5 82be c8c4 bf3e
00000160: 395e b63e c276 32be 9f66 d33e 2a48 bd3e
00000170: e2d0 833e ab96 6cbd 97dc a4bc b66f 62be
00000180: 19f6 dd3e eda3 3e3e 78e4 403c 6409 81bf
00000190: f38a 22bd 396b 3e3e 5fd0 ffbc f665 1fbe
000001a0: 09c0 0fbf 6030 083f 236e be3b 17e7 9ebd
000001b0: 6b7a 583e 9436 373e 10a7 d3be e4b8 403d
000001c0: 969a 66ba 8583 403e 77e6 13be 44c1 30be
000001d0: 97ce 413e 5c92 a53e 6c16 723e 0601 49be
000001e0: e783 bc3c 16f5 e6bd b2e1 523d 7aac 253e
000001f0: 833e 3dbe c7bc d9be dc95 ad3e 67b3 87be
00000200: 4e04 243e 85d6 bd3d 3c17 e6bd 5e4b 823d
00000210: f282 9b3e 4d79 073d 5dff e5be daf8 3f3e
00000220: 6841 d3be 47f5 4dbc 9e6f 1abe 06b9 24be
00000230: cfe3 863e c49d 5ebe 3931 6f3d a270 b93d
00000240: c338 753d 251d 5a3c 2b96 1d3e b931 463e
00000250: 2434 973e f7e3 4f3e 6258 523e 535f 6d3c
00000260: c317 fdbe 4988 593e ab6e 9abc 8225 6a3d
00000270: 1cc4 d13b 0ba2 083f 5468 923e 83cf 183c
00000280: 5e3d 7d3e 0ed2 053e 8ca4 3a3c 2c3b 03bf
00000290: 32d6 5fbf 4a70 e13e 0740 82be c107 00bf
000002a0: effe cd3e 326f eb3e f3f0 3abf 9656 43be
000002b0: 9bf3 123e 586a babe c3d7 cd3d d991 d0bc
000002c0: 7326 063c 2b36 91bd 6c37 2dbf ea13 3e3d
000002d0: 5813 613e 34ad 9abe 570a 5dbd 4e08 713e
000002e0: a78a 0b3e 84b2 033d 881f 1fba 58c2 623c
000002f0: daba 6f3e 0fed d4be 6579 de3d 6e67 dc3d
00000300: e6b0 49be 97a2 f2bd 1eb3 e1bd 9577 1b3e
00000310: 9dde 6fbe 3f93 16be e192 15bd 3e19 493f
00000320: 47f8 093f f08a 9fbe b847 9cbd 4c7e ed3d
00000330: 7328 733d 3651 733d 0720 183e a853 053d
00000340: b1b3 623e d95a 53bd 9146 9cbe 2071 863d
00000350: 8f2f c0be cdab 53bf d318 c3bd d30e 173e
00000360: 7c7d 45be b4f8 e9bd fe24 943d 9b8f 6e3e
00000370: 0213 403f 85ed c83e bf64 473d d698 9b3d
00000380: 454b 1f3e 3855 e43d 227e 0a3e 78d6 253d
00000390: 7cb8 adbe 30cd 4cbd 7a39 f63e 8ec0 963e
000003a0: 1388 85bd 3fcf 85be f20f 49be a78f d03b
000003b0: 0c84 993e d623 12be 896e adbd 1907 67be
000003c0: abfc f9bd 384a 263e 4fd9 8abe e8c1 8e3e
000003d0: 1373 17be a171 35be 3900 603c 6064 723d
000003e0: 767e 8abd bf62 debd d69b f43d 9a60 2a3e
000003f0: 1554 343f 8d6c dcbe 6988 2dbe 831d ee3e

encoder.layers.0.feed_forward.w_1.bias f4 [128]
-0.06040947 -0.23759185 0.27280295 -0.07096146 -0.027277928 -0.0067627705 -0.3063774 0.00021551734
-0.015819391 -0.10274671 -0.0914311 0.03570299 0.035798598 -0.4237157 -0.3869291 -0.19762053
-0.35480604 0.06515913 -0.11958806 -0.33383793 0.05436619 -0.06436559 -0.14194661 0.078054436
0.019208435 -0.033139374 0.040213063 0.19362938 -0.3431647 -0.046707638 -0.11398944 -0.29052344
-0.1569666 -0.14947788 -0.117375284 -0.17372766 0.015383873 0.105374046 -0.1980079 -0.5859823
-0.12406006 -0.17939603 -0.083683185 -0.121609606 -0.20959103 -0.026620198 -0.22782513 0.024936354
0.06570493 -0.10418998 -0.09682357 0.009545106 0.06500005 -0.12033151 0.016077803 0.106714614
0.054663204 0.069739014 0.05948807 -0.4026717 -0.058576386 -0.047358193 -0.120409325 -0.46959165
-0.17146556 -0.1937759 0.039033353 -0.35659328 -0.031039644 -0.37558314 -0.15242623 -0.34393433
-0.11209659 -0.1300396 -0.25841072 -0.30275443 -0.25851077 -0.009508347 -0.1852544 -0.021054272
-0.058253977 -0.18176638 0.12292998 -0.0742401 -0.02212447 -0.25134236 -0.2810454 -0.042686213
-0.17637837 -0.35537332 -0.058745373 -0.19610219 0.2282984 -0.1952367 0.0012361454 -0.014802748
-0.35197067 -0.2270922 -0.25727826 -0.37753686 -0.12933548 -0.19116157 -0.13288642 -0.29084733
0.07426996 -0.16246146 -0.00021894719 -0.086165406 -0.15009654 -0.1889556 -0.04237278 -0.11221329
-0.03468158 0.059294954 -0.064119905 -0.16966625 -0.12545064 -0.18096067 0.04622252 -0.082739845
-0.093681596 -0.14888757 -0.1799963 -0.15770547 -0.26061082 -0.29942176 -0.050092094 -0.023913858
00000000: ec6f 77bd 474b 73be d4ac 8b3e 3e54 91bd
00000010: f675 dfbc 3b9a ddbb 80dd 9cbe 7ffc 6139
00000020: ab97 81bc de6c d2bd 3b40 bbbd 4c3d 123d
00000030: 8da1 123d 44f1 d8be 921b c6be 095d 4abe
00000040: 23a9 b5be 2672 853d 96ea f4bd ceec aabe
00000050: 15af 5e3d 1bd2 83bd 745a 11be 01db 9f3d
00000060: 025b 9d3c 27bd 07bd 74b6 243d c846 463e
00000070: 49b3 afbe 8250 3fbd 4c73 e9bd 7dbf 94be
00000080: dabb 20be bb10 19be 7462 f0bd aae5 31be
00000090: a40c 7c3c 59ce d73d 95c2 4abe f002 16bf
000000a0: 3313 febd 98b3 37be 1762 abbd 750e f9bd
000000b0: 089f 56be 9a12 dabc fe4a 69be 5347 cc3c
000000c0: 4e90 863d 8e61 d5bd 704b c6bd 1463 1c3c
000000d0: bf1e 853d 5e70 f6bd 99b5 833c 318d da3d
000000e0: 86e6 5f3d 54d3 8e3d c3a9 733d fc2a cebe
000000f0: cbed 6fbd aafa 41bd 2a99 f6bd 516e f0be
00000100: ab94 2fbe 316d 46be 70e1 1f3d 6593 b6be
00000110: da46 febc 6f4c c0be 9f15 1cbe 2918 b0be
00000120: e692 e5bd 1a29 05be 694e 84be a102 9bbe
00000130: 865b 84be e6c8 1bbc 54b3 3dbe 027a acbc
00000140: b99b 6ebd f720 3abe b7c2 fb3d 320b 98bd
00000150: 603e b5bc f2af 80be 2fe5 8fbe bdd7 2ebd
00000160: 889c 34be 7ef3 b5be fd9e 70bd 03cf 48be
00000170: 0ec7 693e 21ec 47be 2806 a23a 3a87 72bc
00000180: 8035 b4be dc8a 68be fab9 83be 834c c1be
00000190: 8570 04be dcbf 43be 6113 08be f1e9 94be
000001a0: d91a 983d 4c5c 26be 3095 65b9 7d77 b0bd
000001b0: e8b2 19be 947d 41be 158f 2dbd 15d0 e5bd
000001c0: 460e 0ebd 44df 723d 4c51 83bd fdbc 2dbe
000001d0: 2276 00be c14d 39be d353 3d3d 8273 a9bd
000001e0: 23dc bfbd fc75 18be f350 38be 8b7d 21be
000001f0: c86e 85be cf4d 99be 5e2d 4dbd ffe6 c3bc
