index_advisor_selector/index_benefit_estimation/index_cost_lib/exp_res/exp_lib_tpcds_tgt_ep500_bat2048/model/lib_LIB_300.pt (torch, 414203 bytes, 120 tensors)

S f4 [1, 1, 32]
000000 cc c4 b1 3d 4d 70 ef 3d c1 ba 40 3b aa cb c6 3d
       0.08680114 0.116913415 0.002940819 0.097068146
000010 c3 b5 27 be c9 7f 0b be 98 0f 26 3e 6c 34 94 bd
       -0.1637793 -0.13622965 0.16216886 -0.07236561
000020 f8 21 0e be 3e 52 92 3d 81 52 d3 3d 85 cd cc 3c
       -0.13880146 0.07144593 0.10318471 0.025000343
000030 d9 83 df bd 4d 55 8a bb 5a 65 79 bc 6f 0a 8e be
       -0.1091382 -0.0042215944 -0.015221918 -0.27742335
000040 3c 84 1b be 73 7d 1a be 88 43 c5 bc 4a f6 b9 3d
       -0.15187162 -0.15086918 -0.024080053 0.09080179
000050 ba 78 10 bc 3e 31 f5 3d 8a c4 f5 3d 8c 8c 11 be
       -0.008817846 0.11972283 0.120003775 -0.1421377
000060 ba 4d 0e 3c 81 a6 19 3c a5 27 3a 3d f7 f6 9b 3d
       0.008685524 0.0093780765 0.045447964 0.07615464
000070 20 be 18 3e 69 10 9c bd 09 c7 d4 bc 35 f6 18 bc
       0.14916277 -0.076203175 -0.025973814 -0.009336044

linear1.weight f4 [32, 12]
000000 2b 0d 3b be d3 59 01 3d af 26 5d 3e 10 91 69 3e
       -0.18266742 0.031579804 0.21596788 0.22809243
000010 3f a5 c6 3f 60 2c 38 bf 64 f4 13 bf 8c e2 01 bf
       1.5519179 -0.7194271 -0.57794785 -0.5073631
000020 f6 c5 9d 3d 13 a1 6f 3f 89 9d 82 3b 2e 7d 13 bf
       0.07703774 0.93605155 0.003986065 -0.57612884
000030 8f 47 71 be ad 94 ac 3a 85 34 19 3d 6c d0 cf be
       -0.23562454 0.0013166867 0.037403602 -0.405887
000040 4a 96 90 be f6 43 de bc 18 1d 24 3e b9 72 a3 bd
       -0.2823966 -0.027132016 0.16026723 -0.07980866
000050 6e ae c1 3c 83 d7 61 be 98 ff a5 be 5a 63 ca 3d
       0.023642745 -0.22054867 -0.32421565 0.09882231
000060 70 d8 aa be 45 bc e4 be 72 81 7a be d0 95 32 3e
       -0.33368254 -0.44674888 -0.24463442 0.17439961
000070 29 28 61 40 c9 b5 19 be bb 1b 60 be 3e 28 09 3d
       3.5180762 -0.15010752 -0.21885578 0.033485644
000080 19 0f 39 bf 41 20 27 bf 83 e0 c2 3e e3 bd 02 3f
       -0.7228866 -0.6528359 0.38061914 0.51070994
000090 18 08 cd be 40 9b 01 3f fa 18 04 3f 34 5a 9f bd
       -0.40045238 0.5062752 0.5160061 -0.07780877
0000a0 7f 36 6d c0 a0 7f 04 bf 72 37 0b 3f 9d a7 a3 bf
       -3.7064512 -0.5175724 0.5438148 -1.2785527
0000b0 5b 3b 4b bf a2 c9 9d be 95 e9 89 3e b3 35 47 be
       -0.79387444 -0.30817896 0.2693602 -0.19454078
0000c0 ac 52 23 be eb a2 82 3d 51 7e 8d 3e 4f db 6e 3e
       -0.15949506 0.063787304 0.27635434 0.23325847
0000d0 b9 5d 87 40 4d b0 e0 be e3 6a 19 3f 59 27 94 be
       4.2301908 -0.43884507 0.5992872 -0.2893627
0000e0 2e 94 23 c0 47 6b 9e bf e3 5a 82 be 68 13 c0 3c
       -2.5559192 -1.2376488 -0.25459966 0.023446754
0000f0 a2 68 20 bf 9d 11 f2 be 06 93 35 3f c6 6f 86 3e
       -0.62659657 -0.47279063 0.70927465 0.2625715
000100 d7 27 a9 40 3e 73 aa 3d 97 b7 1a 3e 46 80 5f bd
       5.2861133 0.08322762 0.15109096 -0.05456569
000110 05 57 09 3f 82 f4 49 bf 6e ca 1f bf 45 d3 14 3f
       0.53648406 -0.78888714 -0.6241826 0.5813487
000120 85 42 06 3f 82 d8 02 bf 0f 28 b4 3c 02 0c 38 3e
       0.5244525 -0.51111615 0.021991758 0.1797333
000130 04 a7 2a 40 fd 18 cc be ba 07 ac 3f c1 62 4e be
       2.6664438 -0.39862815 1.3439858 -0.20154859
000140 c6 02 14 be 36 4c cb be 15 c0 a1 be 39 4b 9c be
       -0.14454183 -0.39706582 -0.3159186 -0.3052614
000150 bd 29 06 c0 d9 6e 97 3f a3 fb 36 3e 79 68 58 3e
       -2.0962975 1.1830703 0.1786943 0.21133603
000160 83 e2 95 c0 28 b8 61 3e e4 03 f0 be c6 a1 a7 3f
       -4.6839004 0.22042906 -0.46877968 1.3096244
000170 68 e4 92 3e dd 32 69 3e 9c e5 bf bc a2 ab 8e be
       0.28689885 0.22773309 -0.023424916 -0.2786532
000180 04 36 6c 3f b0 4a c1 be 9d cd fa 3d 36 48 94 3c
       0.9226992 -0.37752295 0.12246249 0.01810084
000190 03 12 96 c0 4a 04 ee bd cb 45 16 be 5a 14 6f 3f
       -4.6896987 -0.11621912 -0.14675061 0.9339043
0001a0 c0 21 48 bf 7e 59 97 3f b5 53 31 be bd 8a f5 bd
       -0.781765 1.1824186 -0.17317088 -0.11989353
0001b0 39 cf bc be ad 72 1c 3d 95 f7 1d be f3 58 57 be
       -0.36876848 0.0381953 -0.15426476 -0.21030025
0001c0 7d 29 81 3d a7 18 20 3f 62 da 77 3d 16 45 24 c0
       0.063067414 0.62537616 0.060511 -2.5667167
0001d0 89 f3 dc 3e 4a 1a f6 3e 19 a9 f5 be d7 88 ee 3e
       0.43154553 0.48066932 -0.47980574 0.46588776
0001e0 40 53 30 bf d1 32 0e bf e0 93 fa 3c 90 49 8c 3e
       -0.6887703 -0.5554629 0.03058809 0.27399874
0001f0 8e d3 91 40 8b 93 5f bf 36 bd 2a bf b3 44 e6 be
       4.5570745 -0.8733451 -0.6669496 -0.44974288
000200 43 81 df be df 18 5b bf e2 cb bf be a0 24 36 be
       -0.43653306 -0.85584825 -0.37460238 -0.17787409
000210 09 4d 8b bd a0 6e 16 3e 8f 46 73 3e 99 51 db bb
       -0.06801803 0.14690638 0.23757385 -0.006693077
000220 c6 18 bb 3e 92 a4 31 3e 55 12 01 3e 9b 19 e3 3e
       0.36542338 0.17347935 0.1260465 0.44355473
000230 e3 9a b6 3e 26 c2 2d be d8 ad ab bd bf 9e fb bd
       0.35665044 -0.16968593 -0.083827674 -0.12286138
000240 b2 38 23 be 54 08 28 bb b7 6e 57 be 05 f9 38 be
       -0.15939596 -0.002563973 -0.21038328 -0.18063743
000250 2d 05 21 3c cf 34 75 bd 30 b7 8d bc f8 06 ea 3d
       0.009827894 -0.059864815 -0.017299265 0.114271104
000260 d8 cb b5 3e c3 b5 13 3e 49 27 83 3e 98 f6 3d 3e
       0.35507083 0.14424805 0.2561591 0.185511
000270 8a c6 1b be 45 ad e4 bd c2 42 a6 be e8 b5 0a 3e
       -0.15212455 -0.11165861 -0.32472807 0.13545954
000280 09 14 66 40 69 11 f0 bf 9a f6 0d bf 58 f7 eb 3f
       3.5949728 -1.8755313 -0.5545441 1.8434858
000290 dc 01 08 3f 88 99 98 bf 57 76 14 bf 01 38 74 3a
       0.5312784 -1.1921854 -0.5799307 0.00093162066
0002a0 89 96 64 bf 4d 99 dd 3e 10 18 32 3e da 17 4a be
       -0.892922 0.43281022 0.17391992 -0.19735661
0002b0 15 89 9d c0 c5 33 74 3f eb 89 98 3f cf 22 2a 3d
       -4.9229836 0.95391494 1.1917089 0.041537102
0002c0 b9 a1 6b 3e b5 fc 81 be 91 f6 4d be 13 13 1b 3e
       0.23010911 -0.25388113 -0.20113589 0.15143995
0002d0 1f 2f 05 3f 2e 0c 37 3d 82 97 ec 3c ba d2 47 bf
       0.52025026 0.04468935 0.028880838 -0.7805592
0002e0 b7 ce bd 3e 09 4d d0 3e e7 d7 3d 3e 23 21 79 bd
       0.37071773 0.40683773 0.18539391 -0.060822617
0002f0 17 36 84 3f df b5 ae 3e 13 6e c6 bb a5 96 0f 3f
       1.0329007 0.34123132 -0.0060556023 0.5608924
000300 16 68 21 bf e3 bc 0c 3f e5 6a 10 3e d3 28 84 3d
       -0.6304945 0.5497572 0.14103277 0.06453099
000310 7f 40 0b 40 1d 95 7e bf 39 d9 a3 3e cb 15 b5 bd
       2.1758115 -0.9944628 0.32001665 -0.08842047
000320 3f 69 90 be 6a 29 17 bf 1c a9 3b be d8 3c fc be
       -0.28205296 -0.5904757 -0.18326229 -0.4926517
000330 04 c7 31 be 98 5c a0 be 44 03 7e 3e d3 67 a1 3e
       -0.17361075 -0.31320643 0.24805933 0.31524524
000340 5e 24 b7 40 6c 2e 67 bf 3e d4 81 3e d8 cd 53 be
       5.7231894 -0.9030521 0.2535724 -0.20683992
000350 57 c6 12 3f 9b 20 85 bf e3 25 23 bf 1f 5b bb be
       0.5733389 -1.0400575 -0.63729686 -0.36592957
000360 20 9b 40 bf 66 37 de be ac eb 16 be 7f 35 53 3f
       -0.752367 -0.4340164 -0.14738339 0.82503504
000370 5f 86 45 40 96 ee 25 bf 7d 1e 02 3e c2 92 c4 3e
       3.0863264 -0.6481718 0.12706943 0.38393217
000380 06 b0 c9 bf 7f 9a 04 3f 10 b8 2f bf ab 5c a8 3d
       -1.5756843 0.5179824 -0.6864023 0.082208
000390 a3 90 12 be b1 1e c9 be 04 74 71 be 33 97 93 3e
       -0.14312987 -0.39281228 -0.23579413 0.28826293
0003a0 4c 0a 8f 40 64 21 48 3e 13 7b 0f c0 ed b9 0a bf
       4.470007 0.19543988 -2.2418869 -0.5418995
0003b0 58 ab 8f bf cd b5 84 bf bc 46 00 bd ed 4d f6 be
       -1.1224165 -1.0367981 -0.031317458 -0.48106328
0003c0 34 fc 3e 3f 66 d4 18 bf 6f 2a 1f 3f e2 a5 a3 3e
       0.7460358 -0.59699094 0.62174124 0.31962496
0003d0 69 e8 94 40 d5 23 36 3e e5 53 96 be e3 e2 eb bd
       4.6533704 0.17787106 -0.2936088 -0.115178846
0003e0 61 6d 9b be d3 9f dc bf 13 12 04 3e c5 55 7e bd
       -0.30356887 -1.7236274 0.1289752 -0.062093515
0003f0 be 6e ad bf 79 e2 dd be cb 57 53 3e 5d 3f e8 3e
       -1.3549421 -0.43336847 0.20638959 0.45360842

linear1.bias f4 [32]
000000 27 49 6d bd e5 40 98 bd 94 d6 c8 bd 87 a7 98 3e
       -0.05793109 -0.07434253 -0.098065525 0.29815313
000010 b2 53 24 bf 83 90 4c bf 72 03 da 3d 9c 6d 23 3f
       -0.6419021 -0.7990801 0.106451884 0.63839126
000020 ad 90 c6 3c 51 e6 94 bc 09 75 eb be ae 4c ad bd
       0.024238909 -0.01817623 -0.45987728 -0.08461891
000030 4e 7a 29 3e 31 e2 d6 be 95 41 da 3e 71 4d 0a be
       0.16550562 -0.41969445 0.4262816 -0.13506104
000040 40 b4 7b be f9 5d 09 bf 15 6b f7 be a6 7d b1 be
       -0.24580479 -0.53659016 -0.48323885 -0.34666175
000050 a2 d5 26 bf 8c 3c 92 bf 12 df d1 be 17 e0 a7 bd
       -0.6516973 -1.1424727 -0.40990502 -0.081970386
000060 7e a9 92 3e 36 d4 4c be 4c c4 24 be 98 b3 21 3e
       0.28644937 -0.20002827 -0.16090506 0.15791166
000070 e1 bf dd 3e 19 11 f3 3d a6 2e 7d bd f9 d2 c9 3e
       0.43310454 0.118684955 -0.061812066 0.39418772

encoder.layers.0.self_attn.linears.0.weight f4 [32, 32]
000000 8e 8a 91 bf 1f 27 0d be 7c 28 71 be d6 cb c3 3d
       -1.1370409 -0.13784455 -0.235506 0.09560363
000010 6d e6 1b 3f c1 fc 2b 3f e5 b2 ae be 82 44 86 bf
       0.60898477 0.67182547 -0.3412086 -1.0489657
000020 c9 d1 e7 bd 42 ec 81 be 59 f7 0d be 3b 20 2b be
       -0.1131931 -0.25375563 -0.13863887 -0.16711514
000030 89 8b 3b 3d aa 3c e2 3c f3 ba 81 3e 73 22 8b 3e
       0.045787368 0.027616818 0.25337943 0.2717472
000040 03 60 47 bf b9 31 34 be da 2c bf 3d 2a be 3c bf
       -0.7788088 -0.17597093 0.09334727 -0.7372767
000050 78 bf 3b be 65 cd e9 3e 97 d0 d8 3c c0 9f 69 bd
       -0.18334758 0.45664516 0.02646665 -0.057037115
000060 c7 b3 89 bf 9b 0c 3a 3e 01 d7 8b bc f1 f0 37 3d
       -1.0757989 0.18168871 -0.017070295 0.044907514
000070 ac b7 10 3f 7f 36 42 bf af 30 17 3f e5 cf 9e be
       0.5653026 -0.75864404 0.5905866 -0.31017986
000080 3a 15 c7 3e f3 6b 92 bd 79 83 ce be 53 de 1e be
       0.38883382 -0.07149496 -0.4033468 -0.15514497
000090 32 9c c0 be 38 ca 2f bf 94 e6 9a 3e 1d 67 a9 3e
       -0.37619168 -0.68667936 0.30254042 0.33086482
0000a0 bb 21 94 3c 35 96 ed be c8 a8 50 3e 8b 33 3c 3e
       0.01808249 -0.4640366 0.20376885 0.18379037
0000b0 f5 71 91 be 9e 34 7f 3e 1d a2 21 bf ca 90 83 bf
       -0.28407255 0.24922416 -0.6313799 -1.0278561
0000c0 3e 1f c5 bd 4c f6 6e 3e ab 0b 5c be 75 ca 0a 3f
       -0.096250996 0.23336142 -0.21488826 0.54215175
0000d0 cd d0 24 3d 30 7c a1 be ec b8 f1 3d 9b af f5 bb
       0.04023819 -0.3154006 0.11802849 -0.0074977404
0000e0 2e 27 82 bd fa 21 bf bf ae 50 c1 bc 11 b0 0f be
       -0.06355129 -1.4932244 -0.023598041 -0.14032008
0000f0 56 91 6a bf d4 b2 98 3e 06 97 c2 be af 8c 59 bc
       -0.91628015 0.29823935 -0.38005847 -0.0132781705
000100 26 95 0a be 3f 07 e1 bb 80 35 1a 3f 6d 34 42 3e
       -0.13533458 -0.006867319 0.60237885 0.18965311
000110 47 48 ed 3d 3a 38 d5 3e c6 8a 64 bd c2 21 a6 3f
       0.115860514 0.4164446 -0.055796407 1.2979052
000120 65 b5 5e 3e 92 e9 10 bd d5 11 16 3f 7d 7c ed bd
       0.21748884 -0.035379 0.5862096 -0.1159601
000130 5a 38 da 3d ac f8 24 3f eb 5b c3 3e b2 49 87 3e
       0.106552795 0.64441943 0.38156065 0.26423413
000140 c5 31 c7 3a 1f d2 f3 3e e8 8e 95 3e 2a 72 e3 3e
       0.0015197328 0.47621247 0.2921059 0.44423038
000150 ea 04 ab 3e d1 d6 29 3f f4 a7 ff 3d d2 aa 18 be
       0.33402187 0.6634341 0.124832064 -0.14908913
000160 23 8e 15 3d e9 c5 00 3f 7b bb 1e 3c 25 93 fe 3b
       0.036512505 0.50301987 0.0096882535 0.007769006
000170 65 61 5a bf b4 ab b0 3e 8b 0d 9f 3e 35 0c 2e be
       -0.8530486 0.34506 0.3106502 -0.16996844
000180 8f b7 aa 3e 04 c2 ba 3d 0c 5d 1d be da 03 d8 bd
       0.3334317 0.09119037 -0.15367526 -0.105476096
000190 5e ea 2a bf c9 af 25 bf f1 e3 10 be b3 d3 59 3e
       -0.66763866 -0.6472135 -0.14149453 0.21272163
0001a0 90 ca c4 3d 78 52 98 3f e4 09 62 be d0 05 29 bd
       0.09608948 1.1900167 -0.22074085 -0.04126531
0001b0 54 82 c5 be d5 a5 78 bf 83 b6 07 be 7e 07 26 bf
       -0.38575995 -0.9712804 -0.13253216 -0.6485518
0001c0 d6 33 a8 3e 0f 06 f1 be 1f fd 3d be 7b 21 85 3e
       0.32852048 -0.47074935 -0.1855359 0.26002106
0001d0 bc 03 c3 be d7 78 4c bf 98 ed 71 3d 5d 51 bf bc
       -0.38088787 -0.79871887 0.059064478 -0.023354227
0001e0 95 15 2f 3e 3c 4d b9 be b6 4c 2d 3e 10 4f 8a be
       0.17098077 -0.36191738 0.16923794 -0.27013445
0001f0 27 bd 49 3f 32 db f9 3e 16 7c 3f bf f1 fa eb be
       0.7880425 0.48800045 -0.74798715 -0.4608989
000200 78 df a8 3f ee c6 90 3c c2 fe 33 3f 9a f2 ab 3e
       1.3193197 0.017672982 0.70310605 0.33583528
000210 b2 eb e7 3e 53 56 7c 3f d0 47 46 3e 87 7a df 3e
       0.4529701 0.9856922 0.19363332 0.43648168
000220 d1 5e f8 3e 8e 93 10 3f 45 7e 15 3f 46 d2 2d 3e
       0.4850984 0.5647515 0.58395797 0.16974744
000230 80 50 ef bd 28 73 6e 3f a0 ec dd 3e b8 4a 81 3d
       -0.11685276 0.93144464 0.43344593 0.063130796
000240 82 ab ae 3f b9 3e 30 3f b7 67 66 3f dd 69 6c 3e
       1.364609 0.6884571 0.90002006 0.23087259
000250 52 9c a7 3e 28 8b 9a 3f e7 59 5b bd 7a eb 1b 3e
       0.3273645 1.2073717 -0.053552534 0.15226546
000260 0f f6 e7 3f 21 81 08 be 9b 22 e9 bd c7 a9 a5 3e
       1.8121966 -0.13330509 -0.113835536 0.32356092
000270 e9 57 fd 3e c2 30 9d be 4e dd 70 be 19 53 f0 3e
       0.49481133 -0.30701262 -0.23521921 0.46938398
000280 56 13 78 3f 9c 41 40 3d 52 b5 41 be 0d 74 7b 3f
       0.96904504 0.04693757 -0.18916824 0.98223954
000290 61 c6 32 be 6c 71 1d bf 58 5b 04 3f 3c 20 74 3d
       -0.17458488 -0.61501193 0.5170188 0.059601054
0002a0 db 2a 2b bf d7 9a 22 be e4 ce 91 3a 01 da d5 bd
       -0.6686227 -0.15879379 0.001112428 -0.104419716
0002b0 1f 01 49 3e 3a 06 39 bf 20 39 4f 3e bd d2 c5 3e
       0.19629334 -0.72275126 0.20236635 0.38637343
0002c0 91 e9 9d 3f 06 22 1c 3d 38 29 93 be b1 25 23 3e
       1.2336904 0.038118385 -0.28742385 0.15932347
0002d0 09 57 cb be 17 de 20 bb fa 33 2d be 08 94 da 3d
       -0.3971484 -0.0024546438 -0.16914359 0.10672766
0002e0 1d 99 07 be cc 8b 4f be c2 78 be 3c f9 27 86 bd
       -0.13242002 -0.20268172 0.023250941 -0.06550593
0002f0 2f c2 58 be 78 b2 f2 3e 1b c3 14 bf c4 0b 1d bf
       -0.21167825 0.47401786 -0.5811021 -0.6134608
000300 41 9a 4f bf df 12 bb 3c 86 6c a7 bd 17 5f 37 bf
       -0.8109475 0.022836147 -0.08174996 -0.7162947
000310 29 9b ac be ac e6 19 bd f7 1e 76 bc 01 68 0f 3f
       -0.33712128 -0.0375735 -0.015022031 0.5601807
000320 f6 26 fd 3d 03 42 f4 3e 57 a1 0d be 0a 97 46 3e
       0.12360947 0.47706613 -0.13831078 0.19393554
000330 77 ec 4e 3d 7f 90 a0 3e ef 35 d6 bd 61 81 80 3f
       0.05051848 0.31360242 -0.10459506 1.0039483
000340 db 36 a8 bf 42 4a d0 3e 47 51 05 be 22 8e ec 3d
       -1.314174 0.40681654 -0.13019286 0.11550547
000350 88 9a 0f bc 29 8b 8a bd c7 fa ca bc e4 13 1d be
       -0.00876487 -0.06764824 -0.024777783 -0.15339619
000360 d4 85 bb bd 55 d6 56 3f a6 36 06 bd 1f 2b a7 bd
       -0.09156385 0.83920795 -0.03276696 -0.081625216
000370 24 29 57 be 11 86 17 be d1 47 23 3e e1 cc ef 3d
       -0.21011788 -0.14797236 0.15945365 0.117089994
000380 9a 53 12 c0 03 5b d6 3c a5 c2 81 be 4b a5 18 bf
       -2.2863526 0.026166445 -0.25343814 -0.5962722
000390 42 1d e3 be d7 25 1d bf 9e 67 87 bf 82 a1 14 bf
       -0.4435826 -0.61385864 -1.0578496 -0.5805894
0003a0 cd 6b 84 be bc 0e 29 bc a4 36 21 bf 42 5d 6b be
       -0.25863495 -0.010318454 -0.62974 -0.22984794
0003b0 26 32 23 3e 4c 8f 16 bf c6 fd 20 be e4 af 60 bf
       0.15937099 -0.58812404 -0.15721807 -0.8776839
0003c0 b5 f3 49 c0 54 a1 c5 bf 1a e7 fa be 7a f9 41 bf
       -3.1554997 -1.5439858 -0.49004441 -0.75771296
0003d0 35 59 7f be d2 28 4f bf e2 85 fc be af aa 25 bd
       -0.24936374 -0.8092166 -0.49320894 -0.04044598
0003e0 3e 3b 00 c0 25 49 18 bf 5f 39 ba 3d 69 7e 08 be
       -2.0036159 -0.5948661 0.09092974 -0.13329472
0003f0 ca f8 86 3e 86 18 de bc 89 ef 05 3f a7 c5 b5 3d
       0.26361686 -0.027111303 0.52318627 0.0887559

encoder.layers.0.self_attn.linears.0.bias f4 [32]
000000 6d 93 04 bf 28 f0 24 3e 5b e3 19 3e c0 e1 12 3f
       -0.51787454 0.16107237 0.15028135 0.5737572
000010 20 0a 51 3e 5b 90 5a bc b3 40 b4 be 6b 3c d4 bd
       0.20414019 -0.013340081 -0.35205612 -0.10363086
000020 d9 23 70 be fa 06 20 bd 06 28 a9 be f3 36 b3 be
       -0.23451175 -0.039069153 -0.33038348 -0.3500286
000030 73 e5 c0 be 07 16 d5 bd 1f 8a 53 3e 8c 2d 89 bd
       -0.37675056 -0.10404592 0.20658158 -0.066981405
000040 8d de a5 bd 67 0c f4 3e c6 56 04 bf 0e bc c7 bd
       -0.08099089 0.47665712 -0.51694906 -0.097526655
000050 e5 15 4d be 88 7e 83 be 95 d0 43 3e ba 42 6c 3d
       -0.20027883 -0.25682473 0.19122536 0.057680823
000060 7c 5a 4f 3e 3c c1 a6 3e f4 d6 8c 3e ff 2c a0 3d
       0.20249361 0.325693 0.27507746 0.07821082
000070 d2 40 01 bd af 80 ef be 36 3e a4 3d 59 2e 94 be
       -0.031555958 -0.46777865 0.08019678 -0.2894161

encoder.layers.0.self_attn.linears.1.weight f4 [32, 32]
000000 bf ee 76 bd 1a 7f e2 bd 47 f5 da 3e 1c 36 50 be
       -0.06028628 -0.11059399 0.42765257 -0.20333141
000010 aa da ec be e4 d8 81 3e 55 66 54 be 8a 7b 98 be
       -0.46260577 0.25360787 -0.20742162 -0.29781753
000020 01 75 3c 3f 20 7f 38 bf 1e 06 18 3f e9 83 6c bd
       0.73616034 -0.7206898 0.59384334 -0.057742987
000030 3a 71 0a 3e 15 c7 5f 3e bc 02 eb be ee a5 6a 3e
       0.13519755 0.21853288 -0.45900524 0.2291486
000040 ec 8c 21 bf 5d 9d c8 3e c5 6a 67 be 63 95 c8 3d
       -0.63105655 0.3918256 -0.22599323 0.09794118
000050 ec ed 29 3e 1b 06 e1 3e 00 fe 47 be 7b 67 35 bd
       0.16594666 0.4394997 -0.19530487 -0.04428814
000060 03 86 98 3e c3 a6 15 bf c9 99 ec bd a1 08 c9 bd
       0.29789743 -0.58457583 -0.1155277 -0.09816099
000070 37 a4 f9 bd 0f 5f 7b be 3e cd 89 be c3 d5 ec 3e
       -0.121895246 -0.2454798 -0.269144 0.46256837
000080 42 07 f9 be dc 7b 7b 3e 51 ec a9 3d 0c a2 2c bd
       -0.4863835 0.24558967 0.08297027 -0.042146727
000090 a2 94 d5 3e 74 e3 26 be 11 fd b5 3d 04 98 a2 3e
       0.4171496 -0.16297704 0.08886159 0.31756604
0000a0 50 80 80 be fd 92 1a 3e 33 f6 9b be a3 df c0 3e
       -0.25097895 0.15095134 -0.30461273 0.3767062
0000b0 b7 72 8a 3e 42 57 6f 3e 11 89 54 3f eb 42 09 bc
       0.27040645 0.2337313 0.83021647 -0.008377771
0000c0 96 f8 59 3e ae ae b5 be 73 25 c8 3c e9 68 10 bf
       0.21286234 -0.35484833 0.02443192 -0.5641008
0000d0 19 ae 46 3e ef 61 fd be fd 31 f6 3e 63 78 aa 3e
       0.1940235 -0.4948878 0.48085013 0.33294973
0000e0 3f 7d d1 be 42 96 88 be 81 d2 8e 3e b6 ae 93 3e
       -0.40915868 -0.26677138 0.27894977 0.2884423
0000f0 35 75 5c 3e 3f 22 37 3e 0b 62 20 be cd c2 0b be
       0.21529086 0.17884158 -0.156624 -0.1364853
000100 9c 6f e9 3d 43 fe 4e 3e e7 a7 90 be 29 e7 0c be
       0.11398241 0.2021418 -0.282531 -0.13760056
000110 db 28 c9 be a2 db c9 3e 6c 8b 37 3e 8e 20 df be
       -0.39288983 0.3942538 0.17924279 -0.43579525
000120 ed 52 fe be 5f 58 e4 3e 57 1f 37 be c4 0a dc 3d
       -0.49672642 0.44598672 -0.17883049 0.10744241
000130 bb 74 19 3d 40 27 0e be 67 2a 90 bd 53 17 58 bf
       0.03746484 -0.1388216 -0.070393376 -0.8441059
000140 14 0a 96 3e 66 ae c2 3d 93 07 6a 3e 3b 83 a3 3e
       0.29304564 0.0950592 0.22854452 0.31936058
000150 96 d4 02 bf 0c ac 0e 3f 8f 82 a4 3e e7 9c f9 bc
       -0.5110563 0.5573127 0.32130858 -0.030470325
000160 5c 27 00 bf b8 37 47 3f 8a a7 5a 3e 13 d2 75 3e
       -0.5006006 0.77819395 0.21352974 0.24005918
000170 6d 4e b2 3d 05 6c ca be 14 3d d5 3e 0f 19 15 bf
       0.08706365 -0.39535537 0.4164816 -0.5824136
000180 91 7f f8 bd 7e 72 f1 bd ad 8c 79 be 1e 73 09 3f
       -0.12133706 -0.11789416 -0.2437007 0.5369128
000190 7a 0f 0f 3f 3d a5 bb be 20 73 7b bf ae 11 33 3f
       0.5588299 -0.36649504 -0.9822254 0.6994885
0001a0 7c cc 41 3d 2a 1b a6 3e d7 db 60 be 21 3f 9d be
       0.047314152 0.324426 -0.21958862 -0.30712226
0001b0 64 a2 e5 be 5f b3 3e bf a0 de 05 3f dd e1 0e be
       -0.44850457 -0.7449245 0.52292824 -0.13953348
0001c0 56 ba 51 3e 7e 1e 05 bf 22 20 5c 3d 0e 43 a1 3e
       0.20481238 -0.5199965 0.05374158 0.3149647
0001d0 c7 7f 2f be 28 70 3a bf 9c 5a 18 be 5a 8b 89 be
       -0.17138587 -0.72827387 -0.14878315 -0.2686413
0001e0 6c 49 44 be e8 45 a1 be 19 c3 d1 bc 60 f9 ad be
       -0.19168633 -0.31498647 -0.025605725 -0.3397932
0001f0 1c de 24 3e 10 cb 58 3f 73 17 a4 3e 63 d8 1c bf
       0.16100353 0.8468485 0.3204914 -0.6126768
000200 3a b3 66 3f 49 82 04 bf 24 98 b7 be da 55 d0 bd
       0.9011723 -0.517613 -0.35858262 -0.10172625
000210 0a bc 38 3e f5 59 4e be 3a 5f 8e bd ed 76 95 bd
       0.18040481 -0.20151503 -0.06951757 -0.07298074
000220 a8 ae 8c 3c d3 8d 88 3c bd 2f ba 3e 55 86 87 be
       0.017173126 0.01666919 0.36364546 -0.26469675
000230 8d 95 21 bf e8 a2 81 3e 3b a7 ce be c1 c7 31 bf
       -0.6311882 0.253196 -0.40361962 -0.69445425
000240 aa eb 83 3e e1 9c 3f 3e b1 bb a5 be 59 34 50 3f
       0.25765735 0.18712188 -0.3236976 0.81329876
000250 e7 d8 a6 3e cf 46 47 3b 5b 31 db be 0e 6d 81 be
       0.32587358 0.0030407195 -0.42811093 -0.25278515
000260 0f ae 05 3f cf bd e5 be b7 36 0b bf 82 6d c2 be
       0.5221872 -0.44871375 -0.54380363 -0.37974173
000270 f1 4b a2 3e de d1 bd 3c 9b 8e d6 be 2b 12 d0 bb
       0.31698564 0.023171362 -0.41905674 -0.006349822
000280 3a 2a 87 bf bf f3 d9 3e ea ca 6c 3e a1 78 ca be
       -1.0559762 0.42568776 0.2312428 -0.39545158
000290 bd 08 31 3e 10 27 46 be ba 7d 02 3e 9a 83 54 be
       0.1728849 -0.19350839 0.12743273 -0.20753327
0002a0 f6 31 30 3f 5a fb 9c be 50 fd bc be 89 0d 97 3e
       0.68826234 -0.30660516 -0.36912012 0.29502514
0002b0 63 e2 36 3f e6 6a 1b 3f f6 8d 74 3e 22 c6 c7 3e
       0.7143919 0.6070999 0.23882279 0.3901835
0002c0 d5 11 c3 be ce d2 32 bf c7 34 47 3f ef 36 0e bf
       -0.38099542 -0.6985291 0.77814907 -0.5555257
0002d0 30 96 31 be 1e ac 8f 3e b1 0a 14 3f bd f4 fb 3e
       -0.17342448 0.28061002 0.57828814 0.49210158
0002e0 37 8d 35 bf 01 38 8e 3e fb b1 f1 3e 6a 61 c9 3e
       -0.709186 0.27777103 0.472061 0.39332134
0002f0 09 65 cb be 52 e1 f1 be 0c d2 1e 3f 3f d2 c3 3e
       -0.3972552 -0.47242218 0.62039256 0.38246343
000300 62 8c 14 be 37 d6 a5 3e a3 04 ef 3e 94 7d 00 3f
       -0.14506677 0.32389995 0.46683225 0.50191617
000310 e9 b8 a3 3e c7 d8 dd 3e cc cd 15 bf 6b 34 13 3f
       0.31977013 0.4332945 -0.58517146 0.5750186
000320 72 c2 ff be 5c d6 cf 3d 84 fe 58 3e 89 8a 04 3f
       -0.49953038 0.10148308 0.2119084 0.5177389
000330 03 e7 2b 3f 89 e4 11 be 93 0e 85 3d 1a 04 3f 3f
       0.6714937 -0.14247335 0.064969204 0.74615633
000340 17 25 4a bd 17 e3 85 be 7c 39 27 3e cb f1 dc be
       -0.049351778 -0.26149818 0.16330522 -0.43153223
000350 ba a4 16 be c6 8d 75 3e eb 93 72 3e d7 b7 36 3e
       -0.14711276 0.23979864 0.23689239 0.17843567
000360 6a c1 41 be 34 a7 f8 3e ef 65 b5 3e 1e 6c d9 3e
       -0.18921438 0.48565066 0.35429332 0.424653
000370 05 01 ab be ea 1b c9 bd a1 ce 24 3f 26 79 c7 bd
       -0.33399215 -0.09819777 0.6437779 -0.09739904
000380 d6 8e 37 bf ea 87 26 3f 20 24 05 3f 60 14 af 3e
       -0.71702325 0.6505114 0.5200825 0.34195232
000390 2c 8e bc be 2d 13 2c be 0f 8d 97 3d 92 2e 60 3d
       -0.3682722 -0.1680419 0.07399952 0.054731913
0003a0 f6 e6 3c be 56 15 22 3e 96 9e ab be 08 1f 9a 3e
       -0.1844748 0.15828452 -0.3351943 0.301018
0003b0 de 39 2b 3f 61 1c 79 be 0e db f4 3e 7c d5 10 3f
       0.66885173 -0.24327232 0.47823375 0.5657575
0003c0 86 7c 6c be 19 5e d5 be 02 ce 1e 3e 9f 26 5e bf
       -0.23094377 -0.41673353 0.15508273 -0.8677768
0003d0 5e 5a a9 be 56 85 5a be 7b fe c0 3e fb 36 eb 3e
       -0.33076757 -0.21339926 0.37694153 0.45940384
0003e0 5f 17 a2 be f6 d6 e2 3e d3 1e 11 3f 9d aa bc 3e
       -0.31658456 0.44304627 0.5668766 0.36848918
0003f0 2e 46 96 3a be 38 69 3e af 65 0b 3f 7c b3 0b 3e
       0.0011465007 0.22775552 0.5445203 0.13642687

encoder.layers.0.self_attn.linears.1.bias f4 [32]
000000 0d 04 b3 be d7 99 6e 3e a2 fd 24 bd af 82 6a 3e
       -0.34964028 0.23300873 -0.040280946 0.22901414
000010 7c 3e 82 be 51 c5 61 3e 40 54 f8 bc d9 76 64 3e
       -0.25438297 0.22047926 -0.030313611 0.22310962
000020 36 a6 4d 3e 9c bc 47 3e ea 92 86 3c 8a ba f4 3d
       0.20082936 0.19505543 0.016427476 0.11949642
000030 71 45 34 be 04 d0 cf bd 3b 71 26 3e b9 0f 6c be
       -0.17604615 -0.10147098 0.16254131 -0.23052873
000040 40 b8 f3 bd 3a 09 96 3d c4 ad 42 3d fa 80 0e be
       -0.11900377 0.073259786 0.047528997 -0.13916388
000050 5a 18 c0 3c 00 0f 97 be e8 67 c1 3e aa 7e 95 3e
       0.023449112 -0.29503632 0.37774587 0.291982
000060 1a a2 f5 bd 72 cc 8a bd a0 61 8d 3c 54 57 1d 3e
       -0.11993809 -0.06777276 0.017258465 0.15365344
000070 92 36 12 3e 7c a4 af 3e da 30 03 3e 33 d0 97 3e
       0.1427863 0.3430518 0.12811604 0.2965103

encoder.layers.0.self_attn.linears.2.weight f4 [32, 32]
000000 c0 86 92 be ae 33 a3 3d c5 a5 6b be a4 78 59 3d
       -0.2861843 0.079688415 -0.23012455 0.053093567
000010 17 33 c0 bc 3c 44 ad 3d d3 6c 61 3d f3 b7 5d 3d
       -0.023461862 0.0846028 0.055035423 0.054130506
000020 b1 c3 01 be 82 ef 36 be 47 36 4e be 46 4d 0e 3e
       -0.12672307 -0.17864802 -0.20137893 0.13896665
000030 a0 43 0c 3c ce ba 21 3e f1 f4 8e 3e d4 fa 04 bd
       0.008561045 0.15793917 0.2792125 -0.03246577
000040 a8 d8 1f be d8 6c b8 3e 58 de 17 be 12 63 ba bd
       -0.15609992 0.3602054 -0.14830911 -0.091009274
000050 58 9c 34 3e 78 c9 1c 3c 18 24 ce bd 62 7e 27 3e
       0.17637765 0.009569518 -0.10065478 0.16356805
000060 c5 d1 2b 3e 68 d4 f8 3e 1d f1 69 bd 92 fe 88 bd
       0.1677924 0.48599553 -0.05711471 -0.066891804
000070 70 04 b3 be 68 62 bf be db 01 66 3e 33 3c 5c be
       -0.34964323 -0.37379766 0.22461645 -0.21507339
000080 3d 19 11 be 4b a1 3a be e5 d8 87 3c 31 a8 59 bd
       -0.14169784 -0.18225591 0.016582916 -0.053138915
000090 2f 2c 1d bc 66 e0 75 bc c2 26 d6 3d 14 ff 23 be
       -0.009593054 -0.015007114 0.10456611 -0.16015273
0000a0 7e 1c 76 3e e4 b9 b2 bd d3 b2 0f 3e 4f 94 39 bc
       0.24034306 -0.08726862 0.1403306 -0.011326863
0000b0 0f 08 37 bc aa d7 6e bd f7 24 4e be 4a 0d 94 3c
       -0.011171355 -0.058311142 -0.20131288 0.018072743
0000c0 e3 0e 72 bd 65 43 e1 bd 3d 70 ed 3d 66 ea 07 3e
       -0.05909623 -0.109991826 0.115936734 0.1327301
0000d0 b0 bf e5 3d a4 a0 17 3e 88 96 e2 3d 10 9d cc bd
       0.11218202 0.14807373 0.11063868 -0.09990895
0000e0 d6 a1 7c be a2 72 0d bf 9e 87 a7 bc fc 71 2d bd
       -0.2467111 -0.5525304 -0.02045041 -0.042345032
0000f0 6e b0 8b 3e 2e 6f de 3e a7 56 48 be 27 a4 ea bc
       0.27283043 0.43444198 -0.19564305 -0.028642727
000100 32 7a f4 bd 39 b5 55 bd 16 7d c5 3d 98 5a d6 be
       -0.119373694 -0.05217478 0.09642999 -0.41865993
000110 43 4d 56 3d 3f 96 c4 bd e5 ee 11 3e 30 07 ab 3c
       0.052319776 -0.0959897 0.14251287 0.02087745
000120 a3 50 93 be 66 51 41 3e bd 83 a4 3e 8f 22 c4 bd
       -0.28772458 0.18878707 0.32131758 -0.09576904
000130 5b 43 b3 bc 6f eb b0 ba 02 ee a4 3c d5 c8 ed be
       -0.021882704 -0.0013497899 0.020133022 -0.46442285
000140 98 32 c4 3c ac c0 8d 3b f5 bd 57 be 4b 09 76 3e
       0.023949906 0.004325947 -0.21068557 0.24026982
000150 37 ef e1 3d f4 b0 1e 3e 86 c6 8f 3d 64 cb 93 be
       0.11031955 0.1549719 0.07020287 -0.28866112
000160 37 10 2e 3d 13 a5 b9 3e 28 02 17 3d 28 82 ad 3d
       0.042495932 0.36258754 0.03686729 0.08472091
000170 b3 e3 5f be 76 d4 14 bd 95 f7 23 bd 70 03 0c 3d
       -0.21864204 -0.03633543 -0.040031034 0.034182966
000180 56 b9 40 3d a3 1a c1 be 23 36 48 bd 22 f9 dc be
       0.04705175 -0.37715635 -0.048879754 -0.43158823
000190 2d 79 32 3e 13 dc 0d 3c 42 5b 5a 3e 94 c1 96 be
       0.17429037 0.008658427 0.21323875 -0.29444563
0001a0 14 5a 2b 3e cf a4 c7 3e 88 83 06 3d 5b 60 ff be
       0.16733581 0.38992926 0.03284028 -0.498782
0001b0 98 18 cd bd 5d e2 2d 3b e3 0e a3 be c4 8e 92 be
       -0.100144565 0.0026532628 -0.31847295 -0.28624547
0001c0 62 b3 64 3e 68 7d ab bc 3c f2 94 3e c9 a3 b8 3e
       0.22334054 -0.020933822 0.2909106 0.36062458
0001d0 11 73 51 bd 40 b9 0d 3e 22 cd 62 be 1e d4 84 be
       -0.051135127 0.13840199 -0.22148564 -0.25943083
0001e0 1c 5d 4f bd 04 26 04 3e de a7 b4 bd 54 3b cd be
       -0.050625905 0.12905127 -0.088210806 -0.40084326
0001f0 84 9c 17 3f 12 0b cd 3d 56 74 2e bd 55 61 af 3d
       0.592232 0.10011877 -0.042591415 0.085634865
000200 25 f3 cc be d7 4a 2a be 76 5d b9 bd ab 75 64 3e
       -0.40029255 -0.16630112 -0.090510294 0.22310512
000210 8d 44 a4 3e ea 33 3a bf 79 85 50 3d c3 72 af 3d
       0.3208355 -0.72735465 0.05090854 0.08566811
000220 6c 13 76 3e 16 70 b8 3c 03 b0 c0 3d 52 90 8a bd
       0.24030846 0.022514384 0.094085716 -0.06765808
000230 73 25 a3 bd fa 60 12 3f 8c 6e 81 bd 34 73 e7 bd
       -0.07966127 0.57179224 -0.06319913 -0.1130127
000240 f5 3c 23 3e d7 7d 61 3e 52 2f 37 3e 64 40 ca 3e
       0.15941222 0.2202066 0.17889145 0.3950225
000250 6d f5 4d be f8 a2 8e be 5c 27 11 3e 71 84 95 3d
       -0.20113154 -0.2785871 0.1417517 0.07300652
000260 87 47 44 be 12 95 49 3e a7 af c9 bd 12 f1 70 3c
       -0.1916791 0.19685772 -0.09847956 0.014705913
000270 5c e0 86 3e 98 b2 11 3d e1 cf 38 3e 60 82 07 3e
       0.26343048 0.03557071 0.1804805 0.13233328
000280 37 10 cf 3e ba 5b e8 3d 40 17 23 3e a0 2c 08 be
       0.40442058 0.113456205 0.15926838 -0.13298273
000290 f7 49 ed be ce fe 70 3d f1 5c c9 bb bf fe 88 be
       -0.46345493 0.05883675 -0.0061451127 -0.26756856
0002a0 c3 2e d6 bd e1 82 80 3e 76 a8 91 bc bb 54 fb 3b
       -0.10458138 0.25099853 -0.017780524 0.007670013
0002b0 8d 29 b8 3e c4 96 c6 3d 9c 41 fb 3c 27 6c 31 3e
       0.359692 0.09696725 0.030670933 0.17326413
0002c0 83 84 e9 3d d9 1d 6b be 08 12 52 be 8c d9 df bd
       0.11402228 -0.22960605 -0.20514691 -0.10930166
0002d0 5a 1c 0d be f6 c5 63 3d 66 66 a9 3c 3e a1 d3 3d
       -0.13780347 0.055608712 0.02067871 0.10333489
0002e0 6a 6d 7a 3e 23 d1 fa 3c d0 c4 15 3e c0 d2 96 3d
       0.244558 0.030617302 0.1462586 0.07364416
0002f0 72 1e bc 3e 3d 66 10 bf 1e 84 30 bd 9e 7e a4 3c
       0.36741978 -0.56406003 -0.043094747 0.020079907
000300 4b 33 23 be c3 59 89 bc f4 86 4c 3c b0 a3 bb 3d
       -0.15937535 -0.016766435 0.012483347 0.0916208
000310 2f cc 90 be c5 57 37 be 10 fb 3e 3e 96 52 0d 3f
       -0.2828078 -0.17904575 0.1865046 0.5520414
000320 d8 c5 14 3d c7 e7 ae 3d 4c 1d f7 bd 10 cd d9 3d
       0.03632149 0.08540302 -0.12066135 0.10634816
000330 06 cd 86 3e 2c 82 e0 3e 92 36 2f 3d 59 dc b0 bd
       0.26328295 0.43849313 0.04277665 -0.08635778
000340 7b c7 27 be 14 e2 94 3e 16 4f 90 3c 9b d5 80 3c
       -0.1638469 0.29078734 0.017615836 0.015726855
000350 d8 72 79 be 19 78 92 3e eb a6 f8 bd 91 05 fc bc
       -0.24360216 0.28607252 -0.12141212 -0.030764373
000360 18 a8 05 be ef 03 73 be c4 33 bd bc e7 dc 0e 3d
       -0.13052404 -0.2373197 -0.023095973 0.034878638
000370 a4 38 e0 3c 4c ac 09 bd d6 8e d7 3d 7b 0b 8b 3e
       0.027370758 -0.03361158 0.10525291 0.27157196
000380 bf 30 db 3d 88 fd 37 3e b0 21 71 3e 02 1e 13 3e
       0.10702657 0.17967808 0.23548007 0.14366916
000390 f2 c8 da be b4 d9 77 bd 09 46 91 3d 95 26 e0 bc
       -0.42731434 -0.060510352 0.07093436 -0.027362147
0003a0 9a 08 6c be 65 eb 32 3d de 55 5c 3d 4d 85 95 bc
       -0.23050156 0.04368152 0.053792827 -0.01825204
0003b0 10 a2 a4 3e e7 03 d8 bb ad d7 aa 3d 41 4a 89 be
       0.32154894 -0.006592262 0.08341918 -0.26814464
0003c0 f5 f7 36 3d 95 fc 98 be 86 83 2d bd 2b fd b4 be
       0.044670064 -0.29880205 -0.04236176 -0.35349402
0003d0 d0 10 19 be 9f 3f ed 3c 77 d4 7a 3d 32 54 66 bd
       -0.1494782 0.028961001 0.06123778 -0.05623264
0003e0 41 ff b4 3e b0 9d a8 be 06 c0 51 3e d7 9c ec 3d
       0.35350993 -0.32932806 0.20483407 0.11553352
0003f0 2f 9d db 3e 70 f8 07 bd fa ac 9f be e0 63 56 3e
       0.4289336 -0.033195913 -0.31186658 0.20936537

encoder.layers.0.self_attn.linears.2.bias f4 [32]
000000 80 6e e2 3c 1a 5c 97 3c 46 1f 15 be 9f 96 da 3d
       0.027640581 0.018476535 -0.14562711 0.1067326
000010 03 2c 82 be 69 28 01 3d 81 09 b8 bd 3c 8d 02 3e
       -0.25424203 0.03153268 -0.08986188 0.12749189
000020 1e 7f e8 3c fe 25 de 3c bc 03 25 3d 9c 16 81 3d
       0.028380927 0.027117725 0.040286765 0.063031405
000030 ea fb b5 3d 60 9c aa bd 6e e7 33 bd 7e f6 ae 3d
       0.088859394 -0.083306074 -0.04392188 0.085431084
000040 3e 5d ce 3d b1 ef ab 3d 0a 37 db 3d 3c 88 49 bd
       0.10076378 0.08395327 0.10703857 -0.04920219
000050 3f f5 fc bd c0 a1 98 bd 04 0d 85 3d 8e ff 07 be
       -0.123514645 -0.07452726 0.06496623 -0.1328108
000060 c5 0b 35 bc 6f 36 7f 3d a3 b4 67 3d 23 65 72 3d
       -0.011050169 0.06230777 0.056568753 0.059178483
000070 38 eb e3 3a 70 ff 84 bd 65 75 fd 3d 93 6a 84 3d
       0.0017388826 -0.06494033 0.12375907 0.0646564

encoder.layers.0.self_attn.linears.3.weight f4 [32, 32]
000000 a3 14 05 be 59 19 57 3d 80 1e c2 bd bf 6d d9 3d
       -0.12996154 0.052514408 -0.09478474 0.106166355
000010 cb 39 b8 be 78 5e aa bd db fa 41 be f4 18 d8 3d
       -0.35981593 -0.083188 -0.1894335 0.105516344
000020 ba 8c 02 3f 34 2e bf bd af bd a8 3d 88 ff ff 3e
       0.5099598 -0.093349844 0.08239304 0.49999642
000030 b9 2b 96 3e 07 67 75 3c c3 3b 1f be 13 45 50 3e
       0.29330233 0.014978177 -0.15550141 0.2033885
000040 6d 6a 38 3e 9a 50 24 bd 0d 54 cb 3d bf 4b c5 3d
       0.18009348 -0.04011593 0.09928141 0.09633588
000050 00 48 cb bd 1e 2f 88 3e f8 f9 53 3d 9e cd 3a bd
       -0.09925842 0.26598448 0.05175206 -0.045606248
000060 ac 87 fc 3d e3 78 3c 3d 98 36 ab bd fc 06 8d bd
       0.12330565 0.046013724 -0.08360022 -0.06886098
000070 6f c1 21 be 3c 83 e8 bc f2 7d a9 3e fa ad 6a 3c
       -0.15796445 -0.02838289 0.331039 0.014323706
000080 e5 19 c4 bd 29 74 01 3e 5d 23 00 3e 9d d7 c6 3e
       -0.095752515 0.12641968 0.1251349 0.38836375
000090 e0 2e f9 3e b4 71 8f be 1e c7 5c 3e 06 6a f7 bd
       0.48668575 -0.28016436 0.21560332 -0.12080769
0000a0 28 59 4a be 77 c3 6a 3e fb 84 64 3e de bc 2b 3e
       -0.19760573 0.22926126 0.22316353 0.16771266
0000b0 ff 01 19 3e 93 a8 34 bb cb 41 aa bd 24 4b 7c be
       0.14942168 -0.0027566298 -0.0831333 -0.24638039
0000c0 08 38 39 3d 7e 60 84 bd ac 7f 41 bc f8 8e 88 bc
       0.04521945 -0.06463717 -0.0118102245 -0.016669735
0000d0 34 18 9c bc e9 03 35 3e 79 ae 75 3e b5 b0 b2 bd
       -0.01905451 0.17677273 0.23992337 -0.087251104
0000e0 fa 23 4e 3d 93 12 a1 be 35 e8 0b be 1d d7 fc 3e
       0.05032728 -0.31459484 -0.13662799 0.49382868
0000f0 51 34 4c be 80 3f 17 3e bd bd 98 3d 53 dd 2a 3d
       -0.19941832 0.14770317 0.07458065 0.041714977
000100 ae 80 19 bd e6 42 17 be eb 8f 0c be 7d bf d2 bd
       -0.037476234 -0.14771613 -0.13726775 -0.1029043
000110 62 54 05 be c9 79 3f 3d 4e ab 50 be 65 43 8c bb
       -0.1302047 0.046747003 -0.20377848 -0.004280495
000120 86 ee 0f be c3 c8 20 be aa e1 ba be f6 40 15 be
       -0.14055833 -0.15701585 -0.36500293 -0.14575562
000130 d1 35 8f be d4 38 85 3d 38 a5 a1 3e b2 21 5c be
       -0.27970746 0.0650498 0.31571364 -0.21497229
000140 d6 b2 92 3e d2 dc d9 bb b2 db b0 bd ee 2f d4 be
       0.28652066 -0.0066486383 -0.086356536 -0.41442817
000150 c1 a1 09 be bd 28 8d bc 97 8c 34 be 81 60 d1 bd
       -0.1344061 -0.01723134 -0.17631756 -0.10223485
000160 45 1b e8 bb 2b dd 64 3d 5c d5 39 3e 0b 55 7c be
       -0.007083329 0.055874985 0.18147796 -0.24641816
000170 aa 05 05 be 63 b3 46 3e 6e 4c 27 bd 72 fb cf bd
       -0.12990442 0.19404368 -0.040844373 -0.10155381
000180 35 57 b7 bd ba 00 00 3e 65 3c e5 bc e4 a4 b6 3d
       -0.0895218 0.12500277 -0.0279829 0.08918169
000190 31 40 39 3e 42 cf 4c bc d2 fb cc bd d5 ba c4 3d
       0.18090893 -0.012500586 -0.100089684 0.09605948
0001a0 41 a9 84 3d ca 67 76 3e b5 8a da bc 97 34 88 bd
       0.06477595 0.2406303 -0.026677469 -0.06650656
0001b0 48 bc 1d be ca 21 aa 3d 31 be bf bd dd 97 c2 bd
       -0.15403855 0.08307226 -0.09362448 -0.09501622
0001c0 b2 d6 21 be ab da 75 be 25 e7 53 be 26 d7 0a bd
       -0.15804556 -0.24009196 -0.20693643 -0.033896588
0001d0 b6 41 04 3e b8 85 ea 3c ba 20 89 3e 48 0e 14 be
       0.12915692 0.028628215 0.2678278 -0.14458573
0001e0 af 43 18 be a9 41 44 be 16 23 ba bd 94 20 5a bb
       -0.14869569 -0.19165672 -0.09088723 -0.0033283578
0001f0 00 9b 87 bd 63 58 9c 3c a7 44 ab 3c 63 1f 1a be
       -0.06621361 0.019085115 0.02090676 -0.15051036
000200 2e db 0f 3e 33 e4 d0 bd 32 79 69 3e a4 63 3f 3d
       0.14048454 -0.101997755 0.22800139 0.046725884
000210 47 6a fe 3d 58 69 58 be 59 51 5b 3d d9 20 05 3e
       0.124226145 -0.21133935 0.053544376 0.13000812
000220 37 ea 4e 3d a4 7a 4c be f0 7c 29 be 9e 4a e6 bd
       0.050516333 -0.19968659 -0.16551566 -0.11244701
000230 43 7a 65 be 10 82 07 3e 67 df 57 bd 3e b6 53 bd
       -0.2240992 0.13233209 -0.052703287 -0.05168747
000240 03 00 f6 3d f7 96 eb bd 01 ac ca be cc 85 85 be
       0.12011721 -0.11503404 -0.39584354 -0.2607864
000250 99 ae e3 3c 71 57 61 be 97 37 4c 3e 96 3e 76 3d
       0.027793216 -0.22006012 0.19943081 0.06011828
000260 f2 af f5 3d 95 1e 15 3e 9d 01 fd bd c6 cc fb 3a
       0.119964495 0.14562447 -0.12353823 0.0019210808
000270 2f 33 29 3e 62 2e a6 3d 8a b9 a7 bd 46 a1 d3 bd
       0.16523431 0.081143156 -0.08189686 -0.10333495
000280 27 d6 7c 3e 46 d6 32 bb 10 2d cd 3c 12 04 c2 bc
       0.24691068 -0.0027288361 0.025045902 -0.023683582
000290 5e 67 f9 bd b4 bd 1f 3e 5c 19 0c be 9e 82 8b 3d
       -0.12177919 0.1559971 -0.13681549 0.068120226
0002a0 c1 54 2b 3d 7b aa 4e be 56 94 88 3d 25 65 53 bd
       0.041828874 -0.2018222 0.06668918 -0.05161013
0002b0 6c d6 a7 bc 0b 13 35 3e c6 1e c3 bd c2 63 4c 3e
       -0.020487987 0.17683046 -0.09527354 0.1995993
0002c0 75 db 09 bc 97 5e 82 3c cf a3 73 bd 84 e0 d3 3d
       -0.008414139 0.015914245 -0.059482392 0.10345557
0002d0 ee 4c 43 bd 76 e5 5a 3e 8b cf 19 be 2e 56 94 3b
       -0.047680788 0.21376595 -0.15020578 0.004526875
0002e0 7f 0f 8c be ac ac 27 be 3d 48 7f bd e3 15 1d be
       -0.27355573 -0.16374463 -0.06232475 -0.1534038
0002f0 0f b6 58 3e c6 be 2e be 4d dc 36 3e c3 ba c4 bd
       0.211632 -0.17064962 0.17857476 -0.096059345
000300 8b f6 b1 be e9 55 9b be 02 69 2c 3e a4 23 89 3e
       -0.3475841 -0.30338982 0.16836932 0.26785004
000310 cc ab 4f 3e 9a ed 9c be 74 12 05 be 26 e7 9a 3c
       0.20280379 -0.30650026 -0.1299532 0.018909048
000320 9d b8 a3 be ed 06 bd 3e 4c 4b 98 3b 74 91 f6 bc
       -0.31976786 0.36919346 0.004647648 -0.030098654
000330 b9 28 a3 bc e2 83 d7 3c 97 f2 6b 3e a3 68 6e bd
       -0.019916879 0.026308004 0.2304176 -0.058205258
000340 22 da 3a 3d 10 ee 3d 3e bd 9b e6 be 0e 6e 29 bf
       0.045618184 0.18547845 -0.45040694 -0.66183555
000350 7e fe d1 3c 12 fb dd 3e 05 3c 42 3e 51 fd 80 3e
       0.025634047 0.43355614 0.18968208 0.25193265
000360 fd 66 82 bd c4 91 10 be d8 9b 27 3e 6e e4 aa 3e
       -0.063673 -0.14118105 0.16368043 0.33377403
000370 41 ea 97 bd 6e e1 ee 3d bb c3 2a be db 57 59 bd
       -0.07417727 0.11664091 -0.16676228 -0.0530623
000380 2d c6 87 bd 7e 1f f1 3d 62 ee 03 3e b5 c5 8d 3e
       -0.06629596 0.11773585 0.12883905 0.276899
000390 3a 6d e0 bd f8 3d 27 be 19 de ef 3d ef ee 5a be
       -0.10958333 -0.16332233 0.11712284 -0.21380208
0003a0 1b b7 42 be 0d 7d 88 3e d2 df fd 3d da b1 97 be
       -0.19015162 0.26657906 0.12396206 -0.29627877
0003b0 c3 4e 12 3e 24 0b ec 3b b6 a7 71 be eb d7 1e be
       0.14287858 0.0072034765 -0.23599133 -0.15512054
0003c0 9c b5 5b be ee dd 7a be d0 89 63 be a1 34 9f 3c
       -0.21455997 -0.24498722 -0.2222054 0.019434275
0003d0 d7 79 2a 3e 0b c8 f1 be c1 82 36 3e 87 ed cb 3d
       0.1664804 -0.47222933 0.17823316 0.09957414
0003e0 9a 02 d7 3d e6 dc e5 bc a9 b3 1a 3e 2d f6 02 3e
       0.10498543 -0.028059434 0.15107597 0.12789221
0003f0 10 a3 99 3e e2 29 4b 3e d0 92 18 be 3d ee 4e be
       0.3000722 0.19840196 -0.14899755 -0.20208068

encoder.layers.0.self_attn.linears.3.bias f4 [32]
000000 cc 14 a0 bd 87 6c 72 3a 54 9a 13 3d 1a 0f 1f 3e
       -0.07816467 0.0009247739 0.03603585 0.15533105
000010 e5 40 33 be a9 80 ef 3d 99 f4 1d bd 7c 70 a5 bc
       -0.17505224 0.11694462 -0.038563345 -0.020195238
000020 3b f8 ae 3d 4a 8a 4c bd 84 ce b2 3d d9 3a 28 3e
       0.0854344 -0.04993657 0.08730796 0.16428699
000030 9d 98 d0 bd 13 fd dd bc dc d0 d4 3d 74 6c 07 3d
       -0.10185359 -0.027098214 0.10391399 0.033062413
000040 07 1a a1 bd 36 61 51 bd 62 ed 8b bd a1 66 9f bc
       -0.078662924 -0.0511181 -0.068323866 -0.019458117
000050 10 26 1f be 45 65 f1 bd 06 f3 1b be 38 42 ed 3d
       -0.15541863 -0.11786894 -0.15229425 0.11584896
000060 3f b1 1f 3e 4b 09 68 be 54 a4 42 3e 8d d5 38 3b
       0.15594958 -0.22659795 0.19007999 0.0028203458
000070 ba a8 6b bd 94 8c 88 bd e5 b2 6b be 4a 9b cb 3d
       -0.057533957 -0.06667438 -0.23017462 0.099417284

encoder.layers.0.feed_forward.w_1.weight f4 [128, 32]
000000 56 f5 bd 3e 21 b7 83 3c fe 45 4a 3e e6 a2 08 bf
       0.3710124 0.016078534 0.19753262 -0.53373563
000010 e6 a6 69 be 97 62 e7 3c 61 1e 52 3e 22 0e 57 be
       -0.22817573 0.028245253 0.20519401 -0.21001485
000020 06 60 3b 3e e8 c9 a8 3e 13 5b c1 be ef 6a 52 be
       0.18298349 0.32966542 -0.37764797 -0.20548604
000030 02 a5 1c 3f c2 e1 15 bd 7f e7 6b 3e 99 3e 88 bd
       0.6118928 -0.036592253 0.23037528 -0.066525646
000040 fc 50 8c 3e f1 a0 1d 3e 79 10 b8 be f9 c1 8f bd
       0.27405536 0.15393426 -0.35950068 -0.07019419
000050 ff cc de 3d e0 2d 97 be 1b ab 04 bd d0 8a c9 bd
       0.10878944 -0.29527187 -0.03238974 -0.098409295
000060 bc 42 8c 3e cd 8c 31 be 58 c9 d7 bd a7 22 98 3d
       0.27394664 -0.17338867 -0.1053645 0.074284844
000070 fe 55 0a 3f 89 fb 84 be ef 53 f4 3b 71 89 98 3e
       0.54037464 -0.25973156 0.0074562947 0.2979236
000080 60 9d dd bd b7 69 65 be f2 f0 53 3e 69 49 fb 3e
       -0.108210325 -0.22403608 0.20697382 0.49079445
000090 4f e4 f7 3b ea db 32 be 88 43 ba bc d5 20 23 3e
       0.0075650583 -0.17466703 -0.02273728 0.15930493
0000a0 05 d5 38 3e 68 e5 70 bd b7 d8 96 bb 14 06 b7 3e
       0.1805001 -0.05881253 -0.004603471 0.35746825
0000b0 4e bf a8 3b 40 65 ac bc 4c aa b1 3c f5 8f a4 bd
       0.0051497584 -0.021044374 0.02168765 -0.0803527
0000c0 de 19 b5 3e 7f 0a a8 bd d3 55 9e 3e fa f9 5e be
       0.35371298 -0.08205127 0.30924854 -0.21775046
0000d0 42 c2 cb bd 8d 5b 7e 3e de 6f 8f bd c7 39 40 3e
       -0.09949161 0.24839611 -0.07003759 0.1877204
0000e0 b2 92 23 3d bf 05 13 3d 59 3c 58 3e 32 99 dd 3e
       0.03993482 0.03589415 0.21116771 0.4328094
0000f0 e0 ea b0 bd c8 2f e6 3e 2a f3 2c bc 0b 78 1e bd
       -0.08638549 0.4495833 -0.010556022 -0.0386887
000100 14 7c aa bb b1 d6 db be f9 2b 40 3d 4b 8e 17 3d
       -0.0052027795 -0.42937234 0.046916936 0.037000936
000110 10 37 c9 bd b2 74 bf 3d ce d1 1d bf 91 ee 25 3f
       -0.098249555 0.0934843 -0.6164826 0.6481715
000120 43 4f c9 3e cc 35 d0 3c f5 43 be bd ee fc 4b bc
       0.39318284 0.025416277 -0.092903055 -0.01245044
000130 d5 3f 0d be ea ff 00 bd 42 f9 67 3d 58 d4 16 3e
       -0.13793881 -0.03149406 0.056634195 0.1472944
000140 a1 77 c0 3d eb 15 ac bd 39 a5 5f 3a 31 a8 82 bf
       0.093978174 -0.08402618 0.0008531395 -1.0207578
000150 8c 25 b6 be 29 0f a9 3e c1 75 82 be 44 0b c0 3e
       -0.3557552 0.3301938 -0.25480464 0.37508595
000160 3d 7a b6 3e ca 8e 31 be 18 98 d3 3e 2a 67 bd 3e
       0.35640135 -0.17339626 0.41326976 0.3699277
000170 82 01 83 3e 0a 26 6e bd 34 c8 9f bc 78 61 62 be
       0.25587088 -0.058141746 -0.019504644 -0.22107494
000180 0b 4c dd 3e 18 61 3e 3e 40 9a 37 3c 73 1c 81 bf
       0.4322208 0.18591726 0.01120621 -1.0086807
000190 cc 67 16 bd f9 d7 3e 3e 73 9d f0 bc 16 ec 1f be
       -0.036720082 0.18637075 -0.029371953 -0.15617403
0001a0 00 2c 10 bf 0d 47 08 3f 53 20 8d 3b 7b 51 9e bd
       -0.5631714 0.53233415 0.004306832 -0.07730385
0001b0 be 92 55 3e 55 8b 34 3e 97 5d d2 be f6 1b 3d 3d
       0.20856759 0.17631276 -0.41087028 0.046169244
0001c0 73 fe dc b9 e5 c3 3f 3e 0b bb 14 be b8 0a 32 be
       -0.0004215125 0.18727072 -0.14524476 -0.17386901
0001d0 d6 77 40 3e fe d7 a5 3e 5f 13 72 3e 05 1f 49 be
       0.18795714 0.3239135 0.23640202 -0.1964074
0001e0 ab 29 9a 3c 24 91 e6 bd 24 35 4a 3d 1a f7 24 3e
       0.018818697 -0.11258152 0.049367085 0.16109887
0001f0 e1 7b 39 be b2 16 da be 1f 6c ae 3e 98 83 88 be
       -0.18113662 -0.4259544 0.34066865 -0.26662898
000200 d6 6c 24 3e e6 ee bd 3d 6d 10 e6 bd 1d 92 83 3d
       0.16057143 0.09274082 -0.11233602 0.06424353
000210 c0 e3 9b 3e 63 33 07 3d ea e9 e5 be 5a ed 3f 3e
       0.30447197 0.03300799 -0.44905025 0.18742886
000220 4d 19 d3 be 34 c7 58 bc e4 97 1a be 55 3b 25 be
       -0.4123024 -0.0132310875 -0.15097004 -0.16135915
000230 1a d4 86 3e 10 94 5e be 4a af 6e 3d 7b 49 b8 3d
       0.26333696 -0.21736169 0.058272637 0.0899839
000240 04 9c 75 3d 1f 89 59 3c 6d db 1d 3e fc e6 45 3e
       0.05996324 0.013277321 0.15415736 0.19326395
000250 65 0a 97 3e 8f f1 4f 3e 18 c0 52 3e 97 0f 6e 3c
       0.29500118 0.20306991 0.2058109 0.014530084
000260 27 07 fd be ec 99 59 3e 73 d5 9a bc 23 f0 6a 3d
       -0.4941952 0.21250123 -0.018900609 0.05735792
000270 9e e8 db 3b 85 83 08 3f 96 73 92 3e bd bd 1b 3c
       0.0067110797 0.5332568 0.2860381 0.009505686
000280 1d 30 7c 3e 27 dc 05 3e 59 45 2d 3c 4c 2d 03 bf
       0.24627729 0.13072263 0.010575616 -0.5124099
000290 0c cb 5f bf 71 81 e1 3e e8 00 82 be 5b 23 00 bf
       -0.874192 0.44044068 -0.25391316 -0.5005395
0002a0 b3 b2 cd 3e 47 96 eb 3e 2c 03 3b bf 80 b3 42 be
       0.401754 0.4601309 -0.73051715 -0.19013786
0002b0 a0 d7 12 3e ca be ba be db d8 ce 3d a3 6d cb bc
       0.14340067 -0.36473686 0.10099956 -0.024832552
0002c0 a5 54 fb 3b 6e 47 92 bd ff 61 2d bf d8 58 3d 3d
       0.0076700025 -0.071425304 -0.67727655 0.046227306
0002d0 01 7a 60 3e 20 e5 9a be 2b e0 5d bd da 6d 71 3e
       0.21921541 -0.30252934 -0.05416886 0.23577061
0002e0 92 30 0b 3e 9f 2b 01 3d 78 14 2c ba 49 ae 5c 3c
       0.13592747 0.03153574 -0.00065643294 0.013469287
0002f0 8d 83 70 3e 4a ba d4 be 27 a5 dc 3d 69 92 db 3d
       0.23487683 -0.41548377 0.10773688 0.10721285
000300 55 3f 4a be 48 e6 f3 bd 2b 51 e2 bd b0 21 1b 3e
       -0.19750722 -0.11909157 -0.11050638 0.1514957
000310 f7 c6 6f be 6b 47 15 be 22 97 13 bd 9e fc 48 3f
       -0.23415743 -0.14578025 -0.036032803 0.78510463
000320 31 d8 09 3f 50 69 9f be 51 0a 9d bd dc 7e ed 3d
       0.53845507 -0.31135035 -0.07667983 0.11596462
000330 4a 5b 72 3d 48 f7 71 3d 66 82 18 3e 73 23 07 3d
       0.05916909 0.059073716 0.14893493 0.03299279
000340 da 61 62 3e 38 82 55 bd 89 76 9c be ad 1c 86 3d
       0.2210764 -0.05212614 -0.30559185 0.06548438
000350 53 5f c0 be 47 af 53 bf 4a c3 c3 bd 09 49 17 3e
       -0.37572727 -0.82689327 -0.09558733 0.14773954
000360 96 ba 45 be 85 7b ea bd 4a 26 92 3d f3 27 6e 3e
       -0.19309458 -0.11449341 0.07136209 0.23257427
000370 1a 2d 40 3f fb 0f c9 3e a0 61 46 3d 8d 9f 9a 3d
       0.7506882 0.39270005 0.048432946 0.07549963
000380 37 f7 1e 3e c4 a2 e3 3d 3d 8a 0a 3e 4c b3 2b 3d
       0.15523992 0.111150295 0.13529296 0.041919038
000390 84 fc ad be a7 04 4e bd 30 6d f6 3e 96 75 96 3e
       -0.33981717 -0.050297406 0.48130178 0.29386586
0003a0 42 a9 85 bd b4 05 86 be d4 b3 48 be 4e 0c d6 3b
       -0.06526424 -0.26176226 -0.19599849 0.0065322286
0003b0 5a 6a 99 3e 71 33 12 be 44 a8 ac bd 6e 9e 67 be
       0.29963952 -0.14277436 -0.084305316 -0.2261903
0003c0 bb 56 fa bd b0 c7 25 3e 05 15 8b be 30 ec 8e 3e
       -0.12223574 0.16189456 -0.27164474 0.27914572
0003d0 c2 6d 17 be c1 ea 35 be 44 bf 5a 3c ff f2 74 3d
       -0.14787963 -0.17765333 0.013351265 0.05980205
0003e0 7a 21 8a bd 0f a7 df bd bd 3b f4 3d 59 f1 29 3e
       -0.067446664 -0.10920536 0.11925457 0.16595973
0003f0 f4 78 34 3f fd 45 dc be d6 35 2d be 3a 23 ee 3e
       0.7049706 -0.43022147 -0.16915068 0.4651125
