index_advisor_selector/index_benefit_estimation/index_cost_lib/exp_res/exp_lib_tpcds_tgt_ep500_bat2048/model/lib_LIB_200.pt (torch, 414203 bytes, 120 tensors)

S f4 [1, 1, 32]
0	0x3db34646	0.08753638
1	0x3deedb46	0.11662917
2	0x3b52da97	0.0032173747
3	0x3dc60825	0.09669522
4	0xbe279169	-0.16364063
5	0xbe0b4317	-0.13599811
6	0x3e25d7af	0.16195558
7	0xbd944104	-0.07238963
8	0xbe0dbda0	-0.13841867
9	0x3d92fc8f	0.07177078
10	0x3dd3032e	0.10303341
11	0x3cce313b	0.02516996
12	0xbddfe73e	-0.10932778
13	0xbb965889	-0.004588191
14	0xbc755dd0	-0.01497598
15	0xbe8e0d49	-0.2774451
16	0xbe1b8e7c	-0.15191072
17	0xbe1a98fc	-0.15097421
18	0xbcc457ea	-0.023967702
19	0x3db956f6	0.090497896
20	0xbc0d848f	-0.008637561
21	0x3df53456	0.11972873
22	0x3df5c065	0.11999587
23	0xbe114129	-0.14185013
24	0x3c117af7	0.008879415
25	0x3c204e53	0.009784299
26	0x3d3b65bf	0.04575133
27	0x3d9b2419	0.075752445
28	0x3e18d696	0.14925608
29	0xbd9b53d8	-0.07584351
30	0xbcd6d252	-0.026223335
31	0xbc1c16a5	-0.009526883

linear1.weight f4 [32, 12]
0	0xbe3b0d2b	-0.18266742
1	0x3d0159d3	0.031579804
2	0x3e5d26af	0.21596788
3	0x3e699110	0.22809243
4	0x3fc68a37	1.551093
5	0xbf382c60	-0.7194271
6	0xbf142909	-0.57875115
7	0xbf01e28c	-0.5073631
8	0x3d9980e9	0.07495291
9	0x3f6fa113	0.93605155
10	0x3b4f1f40	0.003160432
11	0xbf13b34f	-0.5769548
12	0xbe712a24	-0.23551232
13	0xbb42b540	-0.0029710084
14	0x3d190d2e	0.037366085
15	0xbecdd508	-0.40201592
16	0xbe909c5a	-0.28244287
17	0xbcd36759	-0.025806116
18	0x3e23f76a	0.1601235
19	0xbd9da954	-0.076983124
20	0x3cd28e17	0.02570252
21	0xbe61d783	-0.22054867
22	0xbea5579b	-0.322934
23	0x3dc8961e	0.097942576
24	0xbeaad870	-0.33368254
25	0xbee4bc45	-0.44674888
26	0xbe7c1a72	-0.24619463
27	0x3e344fde	0.17608592
28	0x4061315b	3.5186374
29	0xbe185342	-0.1487551
30	0xbe5f714a	-0.2182056
31	0x3d0cdfd5	0.03439315
32	0xbf3964ee	-0.7241963
33	0xbf272041	-0.6528359
34	0x3ec3553d	0.3815097
35	0x3f02cc6a	0.5109316
36	0xbecd6993	-0.4011961
37	0x3f01ad54	0.506551
38	0x3f047934	0.5174744
39	0xbd9a23f3	-0.07526388
40	0xc06d2d17	-3.705877
41	0xbf047ba9	-0.5175119
42	0x3f0b26dd	0.54356176
43	0xbfa37305	-1.2769476
44	0xbf49fba9	-0.7889963
45	0xbe9dc9a2	-0.30817896
46	0x3e8a43e2	0.27004915
47	0xbe47a637	-0.19497
48	0xbe241574	-0.16023809
49	0x3d8c1a80	0.06840992
50	0x3e8e5c18	0.27804637
51	0x3e6e8afb	0.23295204
52	0x40875ba2	4.2299356
53	0xbee0c408	-0.4389956
54	0x3f193ee5	0.59861594
55	0xbe9324bc	-0.28738964
56	0xc023863e	-2.5550685
57	0xbf9e6b47	-1.2376488
58	0xbe82586d	-0.2545809
59	0x3cbe07c6	0.023197066
60	0xbf205cab	-0.626414
61	0xbef1c21c	-0.47218406
62	0x3f358b87	0.70916027
63	0x3e85d917	0.2614219
64	0x40a928b1	5.286217
65	0x3da9e0df	0.08294844
66	0x3e1a938d	0.15095349
67	0xbd62073d	-0.055182684
68	0x3f08a2c1	0.5337334
69	0xbf49f482	-0.78888714
70	0xbf1fd6de	-0.62437236
71	0x3f14ad34	0.58076787
72	0x3f063187	0.5241932
73	0xbf019d47	-0.5063061
74	0x3ca42bbc	0.020040385
75	0x3e3892d4	0.1802476
76	0x402aa39e	2.6662364
77	0xbecb8530	-0.39750051
78	0x3fac1cba	1.3446267
79	0xbe4f4018	-0.20239294
80	0xbe167ef7	-0.1469687
81	0xbecb4c36	-0.39706582
82	0xbea15835	-0.3151261
83	0xbe9b7f8d	-0.3037075
84	0xc005e1d5	-2.0919087
85	0x3f973065	1.1811644
86	0x3e4024b2	0.18763998
87	0x3e5dfdc6	0.21678838
88	0xc095e283	-4.6839004
89	0x3e62be5e	0.22142932
90	0xbeef432f	-0.46730945
91	0x3fa71fa2	1.3056529
92	0x3e950ff5	0.29113737
93	0x3e6932dd	0.22773309
94	0xbca933bd	-0.020654554
95	0xbe8c96bc	-0.2745875
96	0x3f6c3403	0.92266864
97	0xbec14ab0	-0.37752295
98	0x3dfacd9d	0.12246249
99	0x3c944836	0.01810084
100	0xc0961203	-4.6896987
101	0xbdee044a	-0.11621912
102	0xbe1665dc	-0.14687294
103	0x3f6ec09e	0.9326266
104	0xbf47ff64	-0.7812407
105	0x3f97597e	1.1824186
106	0xbe315bb9	-0.17320146
107	0xbdf595e2	-0.119914785
108	0xbebcfe45	-0.36912742
109	0x3d145b4b	0.036219876
110	0xbe1eccb4	-0.15507776
111	0xbe54d41d	-0.2078404
112	0x3d81c87b	0.06337067
113	0x3f203623	0.62582606
114	0x3d7b443a	0.061344363
115	0xc024009a	-2.5625367
116	0x3edae862	0.4275542
117	0x3ef61a4a	0.48066932
118	0xbef5a939	-0.4798067
119	0x3eee1be9	0.4650567
120	0xbf305340	-0.6887703
121	0xbf0e32d1	-0.5554629
122	0x3cfa93e0	0.03058809
123	0x3e8c4990	0.27399874
124	0x4091cf86	4.5565825
125	0xbf5f97ae	-0.8734082
126	0xbf2acbae	-0.6671704
127	0xbee56120	-0.44800663
128	0xbedfabe3	-0.43685827
129	0xbf5b18df	-0.85584825
130	0xbec00cac	-0.37509668
131	0xbe36523d	-0.17804809
132	0xbd8a253d	-0.06745384
133	0x3e161647	0.14656936
134	0x3e728cba	0.23686495
135	0xbbdedf05	-0.0068014883
136	0x3ebaffc7	0.36523268
137	0x3e31b0c3	0.17352585
138	0x3e005717	0.12533222
139	0x3ee333b5	0.44375387
140	0x3eb736ec	0.3578409
141	0xbe2dc226	-0.16968593
142	0xbdab0cb9	-0.08352036
143	0xbdfaa25a	-0.12237997
144	0xbe23e9b5	-0.16007121
145	0x3b13ccc8	0.002255248
146	0xbe5a1e24	-0.2130056
147	0xbe380205	-0.1796952
148	0x3c0f634f	0.008751704
149	0xbd727bb1	-0.059199993
150	0xbc8bae88	-0.017050996
151	0x3de6e875	0.112748064
152	0x3eb5906b	0.35461745
153	0x3e13b5c3	0.14424805
154	0x3e8369f2	0.25666767
155	0x3e3cccba	0.18437472
156	0xbe1bc68a	-0.15212455
157	0xbde4ad45	-0.11165861
158	0xbea642c2	-0.32472807
159	0x3e0ab5e8	0.13545954
160	0x406600ce	3.593799
161	0xbfef27a8	-1.8683977
162	0xbf0e41fb	-0.5556943
163	0x3febfbf4	1.8436265
164	0x3f0783dd	0.5293558
165	0xbf989988	-1.1921854
166	0xbf14c35e	-0.58110607
167	0xb7d60aee	-2.5515877e-05
168	0xbf647663	-0.89243144
169	0x3eddec4b	0.4334434
170	0x3e31411e	0.17309996
171	0xbe48c745	-0.19607265
172	0xc09d8701	-4.92273
173	0x3f746643	0.9546854
174	0x3f98a1f6	1.1924427
175	0x3d340842	0.043953188
176	0x3e6da35e	0.23206851
177	0xbe81fcb5	-0.25388113
178	0xbe4c65e5	-0.19960745
179	0x3e1ba313	0.15198927
180	0x3f0517b8	0.51989317
181	0x3d33c9ff	0.04389381
182	0x3cd3e99c	0.02586823
183	0xbf472f40	-0.7780647
184	0x3ebdcb73	0.37069282
185	0x3ed03025	0.4066173
186	0x3e3e08ae	0.18557999
187	0xbd78d6ce	-0.06075173
188	0x3f844e12	1.0336325
189	0x3eaeb5df	0.34123132
190	0xbbc26fd1	-0.0059337397
191	0x3f0f91ad	0.5608166
192	0xbf236291	-0.63822275
193	0x3f0beeda	0.54661334
194	0x3e0e4008	0.13891613
195	0x3d82e316	0.063909695
196	0x400b38bd	2.175338
197	0xbf7ea328	-0.99467707
198	0x3ea3d0dd	0.31995288
199	0xbdb626e5	-0.08894137
200	0xbe9138d8	-0.2836368
201	0xbf17296a	-0.5904757
202	0xbe3cc44e	-0.1843426
203	0xbefc7e0b	-0.49314913
204	0xbe362f7d	-0.17791553
205	0xbea0b663	-0.3138915
206	0x3e785733	0.24252014
207	0x3ea04550	0.3130288
208	0x40b72574	5.723322
209	0xbf67075c	-0.90245605
210	0x3e8170ab	0.2528127
211	0xbe53c1b0	-0.20679355
212	0x3f1282ab	0.57230633
213	0xbf85209b	-1.0400575
214	0xbf2367e2	-0.6383039
215	0xbebb29e7	-0.36555406
216	0xbf3fece9	-0.7497087
217	0xbedcc92c	-0.43122232
218	0xbe140983	-0.14456753
219	0x3f5292c7	0.82255214
220	0x40458904	3.0864878
221	0xbf263b74	-0.6493447
222	0x3e0236cd	0.12716217
223	0x3ec530f7	0.3851392
224	0xbfc95ede	-1.5732076
225	0x3f049a7f	0.5179824
226	0xbf2fbe16	-0.68649423
227	0x3da96c90	0.0827266
228	0xbe1290a3	-0.14312987
229	0xbec91eb1	-0.39281228
230	0xbe717404	-0.23579413
231	0x3e939733	0.28826293
232	0x408f0a8c	4.4700375
233	0x3e481d9d	0.19542547
234	0xc00f7a86	-2.2418532
235	0xbf0ab9ed	-0.5418995
236	0xbf8faba8	-1.122426
237	0xbf84b5cd	-1.0367981
238	0xbd00235a	-0.031283714
239	0xbef649b1	-0.48103097
240	0x3f3e66fd	0.743759
241	0xbf188114	-0.5957196
242	0x3f1ca629	0.6119104
243	0x3ea26a38	0.31721663
244	0x4094e317	4.652721
245	0x3e3520ae	0.17688248
246	0xbe96782b	-0.29388556
247	0xbdee0cc0	-0.116235256
248	0xbe9af3bb	-0.30264077
249	0xbfdc9fd3	-1.7236274
250	0x3e02ed16	0.12785754
251	0xbd80f81d	-0.06297324
252	0xbfadcb98	-1.3577757
253	0xbedd3131	-0.43201593
254	0x3e569691	0.20955874
255	0x3ee768cc	0.4519714

linear1.bias f4 [32]
0	0xbd70aae7	-0.058756735
1	0xbd95a0d6	-0.07306068
2	0xbdc703c0	-0.09717512
3	0x3e9901d4	0.29884207
4	0xbf245260	-0.64188194
5	0xbf4c9cf3	-0.79926986
6	0x3ddba31f	0.10724472
7	0x3f24232b	0.6411616
8	0x3cc650e3	0.024208492
9	0xbc94e914	-0.018177547
10	0xbeebb5d3	-0.46037158
11	0xbdacab8f	-0.0843116
12	0x3e29ff8f	0.16601394
13	0xbed77c35	-0.4208695
14	0x3edb09e0	0.42780972
15	0xbe0a2d86	-0.13493928
16	0xbe7ccf72	-0.24688509
17	0xbf099ff8	-0.5375972
18	0xbef7771e	-0.48333067
19	0xbeb1793b	-0.34662804
20	0xbf271ee9	-0.6528154
21	0xbf92345e	-1.1422231
22	0xbed19f1a	-0.40941697
23	0xbda5fa2c	-0.08104357
24	0x3e9296cf	0.28630683
25	0xbe4ced65	-0.20012434
26	0xbe24c44c	-0.16090506
27	0x3e219a6b	0.15781562
28	0x3eddfea2	0.43358332
29	0x3df19d2e	0.11797558
30	0xbd7f29a7	-0.062295582
31	0x3ec99f96	0.39379567

encoder.layers.0.self_attn.linears.0.weight f4 [32, 32]
0	0xbf918ac4	-1.1370473
1	0xbe0db56d	-0.1383874
2	0xbe6ea9f2	-0.23307016
3	0x3dc5fc16	0.09667222
4	0x3f1b8853	0.6075489
5	0x3f2bab68	0.6705842
6	0xbeaeeaaf	-0.34163424
7	0xbf865827	-1.0495652
8	0xbde5ae40	-0.11214876
9	0xbe822970	-0.2542224
10	0xbe0e048d	-0.13868923
11	0xbe2b8a91	-0.16752078
12	0x3d43193b	0.047631484
13	0x3ce02267	0.027360154
14	0x3e81925d	0.2530698
15	0x3e8b14cc	0.27164304
16	0xbf47123e	-0.7776221
17	0xbe33a980	-0.17545128
18	0x3dc34c69	0.095360585
19	0xbf3cbb70	-0.73723507
20	0xbe3debab	-0.18546931
21	0x3ee89bdb	0.45431408
22	0x3ccf082d	0.025272453
23	0xbd6b5883	-0.05745746
24	0xbf89ca2a	-1.076482
25	0x3e3c87e8	0.18411219
26	0xbc8bd701	-0.017070295
27	0x3d38555a	0.045003273
28	0x3f10bdb7	0.5653948
29	0xbf425a71	-0.7591925
30	0x3f17e128	0.59327936
31	0xbe9eba2f	-0.31001422
32	0x3ec7172c	0.38884866
33	0xbd916ae6	-0.071004674
34	0xbecdf82e	-0.4022841
35	0xbe1ee419	-0.155167
36	0xbec030d7	-0.37537262
37	0xbf2fa95f	-0.68617815
38	0x3e9afb0a	0.30269653
39	0x3ea9afd8	0.3314197
40	0x3c8df1bf	0.017327188
41	0xbeed4e2c	-0.46348703
42	0x3e511809	0.20419325
43	0x3e3ca84c	0.18423575
44	0xbe926a58	-0.2859676
45	0x3e7f9fd1	0.24963309
46	0xbf218704	-0.6309664
47	0xbf8388c4	-1.0276113
48	0xbdc4dd2f	-0.096125
49	0x3e6e71f5	0.23285659
50	0xbe5be7c3	-0.21475129
51	0x3f0acc83	0.5421831
52	0x3d2d13cc	0.042255208
53	0xbea0b184	-0.31385434
54	0x3df28eea	0.11843665
55	0xbbe3e1af	-0.006954394
56	0xbd8071e0	-0.0627172
57	0xbfbf6618	-1.4953032
58	0xbcc150ae	-0.023598041
59	0xbe11ed8e	-0.14250776
60	0xbf6a8df5	-0.9162286
61	0x3e990456	0.2988612
62	0xbec258e2	-0.37958437
63	0xbc488c7b	-0.012240524
64	0xbe0a95bb	-0.1353368
65	0xbbec05bf	-0.0072028334
66	0x3f1a5348	0.6028333
67	0x3e41eb22	0.18937352
68	0x3ded44f8	0.1158542
69	0x3ed57314	0.4168936
70	0xbd63ed93	-0.05564649
71	0x3fa62ba6	1.298207
72	0x3e60966a	0.21932378
73	0xbd1071ba	-0.035264708
74	0x3f1617b7	0.58629936
75	0xbded02f3	-0.11572828
76	0x3ddbfa69	0.10741121
77	0x3f250985	0.6446765
78	0x3ec36d80	0.3816948
79	0x3e877b83	0.2646142
80	0xba8d5ced	-0.001078514
81	0x3ef2ac03	0.4739686
82	0x3e945bd7	0.28976318
83	0x3ee370d2	0.44422013
84	0x3eaa058e	0.33207363
85	0x3f29a433	0.66266173
86	0x3dff2dc2	0.124598995
87	0xbe1891ed	-0.14899416
88	0x3d1544a1	0.036442403
89	0x3effe354	0.49978125
90	0x3c1ebb7b	0.0096882535
91	0x3c0a225e	0.008431045
92	0xbf5a5464	-0.8528502
93	0x3eb0a76d	0.34502736
94	0x3e9fa19d	0.3117799
95	0xbe2ba395	-0.1676162
96	0x3eaab78d	0.33343163
97	0x3dbb4f64	0.09146002
98	0xbe1e62dd	-0.15467401
99	0xbdd90b50	-0.10597861
100	0xbf2ae4a3	-0.6675512
101	0xbf25b54e	-0.64729774
102	0xbe110f72	-0.14166048
103	0x3e599b29	0.21250595
104	0x3dc23904	0.09483531
105	0x3f9850c4	1.1899648
106	0xbe6248e9	-0.22098126
107	0xbd29bf54	-0.04144223
108	0xbec64733	-0.38726196
109	0xbf78b5c8	-0.97152376
110	0xbe07df7c	-0.13268846
111	0xbf261e1d	-0.648897
112	0x3ea8ff5c	0.33007324
113	0xbeeff8aa	-0.46869403
114	0xbe3bfffc	-0.18359369
115	0x3e851c77	0.2599828
116	0xbec1dd01	-0.37863925
117	0xbf4c27c4	-0.7974818
118	0x3d727167	0.05919018
119	0xbcbfda99	-0.023419665
120	0x3e2f3a4d	0.17112084
121	0xbeb7f371	-0.3592792
122	0x3e2d4cb6	0.16923794
123	0xbe8b3a26	-0.271928
124	0x3f49a896	0.78772867
125	0x3ef9e16d	0.488048
126	0xbf4038fa	-0.7508694
127	0xbeed4450	-0.4634118
128	0x3fa8bfc0	1.3183517
129	0x3c87b6a7	0.016566588
130	0x3f33fc01	0.703064
131	0x3ea9f720	0.33196354
132	0x3ee7ec86	0.4529764
133	0x3f7c63a2	0.9858953
134	0x3e455623	0.1927114
135	0x3ee1a2b3	0.44069442
136	0x3ef7eb8b	0.48421893
137	0x3f10bc93	0.5653774
138	0x3f160bd5	0.58611804
139	0x3e2de28a	0.16980949
140	0xbdf1a9ac	-0.117999405
141	0x3f6e3c10	0.930604
142	0x3eddc9ce	0.43318027
143	0x3d80fcc5	0.06298212
144	0x3fadfbb1	1.3592435
145	0x3f300e34	0.6877167
146	0x3f667cee	0.9003438
147	0x3e6c68e3	0.23086886
148	0x3ea79d18	0.3273704
149	0x3f9a9ac6	1.2078483
150	0xbd5c3a1d	-0.05376636
151	0x3e1c6b3a	0.15275279
152	0x3fe810ed	1.8130165
153	0xbe08e460	-0.13368368
154	0xbde9229b	-0.113835536
155	0x3ea46f02	0.32115942
156	0x3efcd350	0.4937997
157	0xbe9cd211	-0.30629018
158	0xbe727642	-0.23677924
159	0x3eeebca2	0.4662829
160	0x3f786f67	0.97044986
161	0x3d425ea8	0.047453552
162	0xbe41b233	-0.18915634
163	0x3f7bb9a3	0.98330134
164	0xbe33092a	-0.17483965
165	0xbf1d8880	-0.6153641
166	0x3f043fa9	0.5165964
167	0x3d63a9ee	0.05558198
168	0xbf2b33c7	-0.6687588
169	0xbe2345d8	-0.15944612
170	0xb8a2db90	-7.765659e-05
171	0xbdd73756	-0.10508601
172	0x3e487fa9	0.19579948
173	0xbf387bbc	-0.72063804
174	0x3e4e6f99	0.20159759
175	0x3ec5a83a	0.3860491
176	0x3f9e33b9	1.2359535
177	0x3d1cb616	0.03825959
178	0xbe92dda5	-0.28684726
179	0x3e232752	0.15932968
180	0xbecb5c49	-0.39718845
181	0xbb411c75	-0.0029466425
182	0xbe29a29c	-0.16565937
183	0x3dd8a53e	0.105783924
184	0xbe08c38b	-0.13355844
185	0xbe4f989d	-0.20273061
186	0x3cbe78c2	0.023250941
187	0xbd82b7e1	-0.06382728
188	0xbe5931ee	-0.21210453
189	0x3ef25587	0.47330877
190	0xbf14ecbe	-0.5817374
191	0xbf1d5ebf	-0.61472696
192	0xbf4f35ec	-0.80941653
193	0x3ccae504	0.024767406
194	0xbda71180	-0.08157635
195	0xbf3624cf	-0.71149915
196	0xbeab966b	-0.33513197
197	0xbd15c6af	-0.036566433
198	0xbc44f187	-0.012020475
199	0x3f0fbdbc	0.56148887
200	0x3dfd8fa9	0.123809166
201	0x3ef478c1	0.47748378
202	0xbe0fc636	-0.14040455
203	0x3e480f84	0.19537169
204	0x3d5a45fa	0.05328939
205	0x3ea1a92e	0.31574386
206	0xbdd29a66	-0.102833554
207	0x3f80a472	1.0050185
208	0xbfa7cb16	-1.3108852
209	0x3ed084b2	0.40726238
210	0xbe081a58	-0.132913
211	0x3dec9219	0.115513034
212	0xbc067cdd	-0.008208481
213	0xbd88e300	-0.06683922
214	0xbcc306b4	-0.023806907
215	0xbe1ba979	-0.15201367
216	0xbdbc4817	-0.091934375
217	0x3f56fc79	0.8397899
218	0xbd0636a6	-0.03276696
219	0xbda988b0	-0.08278024
220	0xbe54674d	-0.20742531
221	0xbe1742ed	-0.14771624
222	0x3e270be4	0.1631313
223	0x3dfab39a	0.122412875
224	0xc0126923	-2.287667
225	0x3ce3a408	0.027788177
226	0xbe81c208	-0.25343347
227	0xbf18fb12	-0.597581
228	0xbee227fe	-0.44171137
229	0xbf1d031c	-0.6133287
230	0xbf874b98	-1.0569944
231	0xbf1458ff	-0.579483
232	0xbe844984	-0.25837338
233	0xbc11d905	-0.008901839
234	0xbf20d1b2	-0.6281997
235	0xbe69cdbd	-0.22832389
236	0x3e21fab4	0.15818292
237	0xbf16a0b4	-0.58838964
238	0xbe1f4bab	-0.15556209
239	0xbf607b29	-0.8768793
240	0xc04a2b97	-3.1589105
241	0xbfc5abf9	-1.5443107
242	0xbefa8c2f	-0.48935077
243	0xbf41fa3c	-0.7577245
244	0xbe7f32fc	-0.24921793
245	0xbf4f09df	-0.8087444
246	0xbefa8b43	-0.48934373
247	0xbd208361	-0.039187793
248	0xc0003ec6	-2.0038314
249	0xbf18578c	-0.59508586
250	0x3dba395f	0.09092974
251	0xbe08eaaf	-0.13370775
252	0x3e879baf	0.26485965
253	0xbcc8902d	-0.02448281
254	0x3f05c5f7	0.52255195
255	0x3daee59c	0.08539888

encoder.layers.0.self_attn.linears.0.bias f4 [32]
0	0xbf045002	-0.5168458
1	0x3e246cbf	0.16057108
2	0x3e1af783	0.1513348
3	0x3f129105	0.5725253
4	0x3e509f2e	0.20373222
5	0xbc68a254	-0.014198858
6	0xbeb2eb16	-0.3494498
7	0xbdd4a767	-0.10383492
8	0xbe7058f6	-0.23471436
9	0xbd21bb52	-0.039485283
10	0xbea965b9	-0.3308542
11	0xbeb35992	-0.35029274
12	0xbec1520b	-0.37757906
13	0xbdd50a2a	-0.10402329
14	0x3e537b66	0.20652542
15	0xbd8a5b16	-0.067556545
16	0xbda730e1	-0.0816362
17	0x3ef3d49d	0.4762315
18	0xbf0457cd	-0.51696473
19	0xbdc9bec4	-0.09850839
20	0xbe4e0f23	-0.20122962
21	0xbe8315cd	-0.2560257
22	0x3e4312ff	0.19050215
23	0x3d693475	0.056934793
24	0x3e4cfbc9	0.20017923
25	0x3ea617ad	0.32439938
26	0x3e8cf994	0.27534163
27	0x3da10b81	0.07863522
28	0xbd0b31b5	-0.03398295
29	0xbeef79cd	-0.46772614
30	0x3da02c1f	0.078209154
31	0xbe94d999	-0.29072264

encoder.layers.0.self_attn.linears.1.weight f4 [32, 32]
0	0xbd77cffe	-0.06050109
1	0xbde49cf3	-0.11162748
2	0x3edb8635	0.4287583
3	0xbe500d87	-0.2031766
4	0xbeecbe63	-0.46239004
5	0x3e823799	0.25433043
6	0xbe54cb35	-0.20780642
7	0xbe985fbe	-0.29760545
8	0x3f3c688c	0.73597026
9	0xbf3867a4	-0.72033143
10	0x3f17ced3	0.59299964
11	0xbd6cdc11	-0.05782706
12	0x3e0becc0	0.13664532
13	0x3e5b5194	0.21417838
14	0xbeeb6217	-0.45973274
15	0x3e6cb9dc	0.23117775
16	0xbf221f19	-0.633287
17	0x3ec8b630	0.39201498
18	0xbe672d79	-0.2257594
19	0x3dc830d3	0.097749375
20	0x3e2a9775	0.16659339
21	0x3ee131a8	0.43983197
22	0xbe48ddd0	-0.19615865
23	0xbd33fb45	-0.0439408
24	0x3e98718c	0.2977413
25	0xbf157330	-0.5837889
26	0xbdecfe00	-0.11571884
27	0xbdca34ea	-0.09873374
28	0xbdfaa302	-0.122381225
29	0xbe7be497	-0.24598919
30	0xbe899547	-0.26871702
31	0x3eecfd6b	0.46287093
32	0xbef896bb	-0.48552498
33	0x3e7be9e4	0.24600941
34	0x3dabbef3	0.0838603
35	0xbd2ad8d8	-0.041710705
36	0x3ed51a70	0.41621733
37	0xbe27714e	-0.16351816
38	0x3db55faf	0.08856141
39	0x3ea2cb39	0.31795672
40	0xbe800fb1	-0.25011972
41	0x3e1abdce	0.15111467
42	0xbe9c320b	-0.3050693
43	0x3ec0ec88	0.3768046
44	0x3e8b0a7e	0.27156442
45	0x3e6d0ce2	0.23149446
46	0x3f547eb9	0.83005863
47	0xbc057be8	-0.008147217
48	0x3e5a3e84	0.2131291
49	0xbeb597df	-0.3546743
50	0x3ccfbf2b	0.02535971
51	0xbf1030fa	-0.5632473
52	0x3e46cf06	0.1941491
53	0xbefd7dd7	-0.4951007
54	0x3ef61b8b	0.4806789
55	0x3eaa9e15	0.33323732
56	0xbed160f2	-0.40894276
57	0xbe883aa7	-0.26607248
58	0x3e8f42d4	0.27980673
59	0x3e9404fb	0.2891005
60	0x3e5c2f3f	0.21502398
61	0x3e377a04	0.17917639
62	0xbe20d7d7	-0.15707336
63	0xbe0af107	-0.13568507
64	0x3de92a42	0.11385013
65	0x3e4fb75d	0.20284791
66	0xbe913e74	-0.2836796
67	0xbe0d2e08	-0.13787091
68	0xbec90fbb	-0.39269814
69	0x3ec9a09e	0.39380354
70	0x3e37eaab	0.17960612
71	0xbedf3172	-0.4359241
72	0xbefe6750	-0.49688196
73	0x3ee42d4f	0.44565818
74	0xbe3665ab	-0.17812221
75	0x3ddc293e	0.10750054
76	0x3d120fa8	0.035659462
77	0xbe0a1be3	-0.134872
78	0xbd8ed6d4	-0.06974569
79	0xbf5880db	-0.8457162
80	0x3e96d183	0.2945672
81	0x3dc23185	0.09482101
82	0x3e6975ca	0.22798839
83	0x3ea36fa0	0.319211
84	0xbf02ffd7	-0.5117163
85	0x3f0e9f7a	0.5571209
86	0x3ea4ccce	0.32187504
87	0xbcfc3123	-0.030785149
88	0xbf001fab	-0.5004832
89	0x3f46fdbb	0.7773091
90	0x3e5a8009	0.21337904
91	0x3e760a1a	0.24027291
92	0x3db34f08	0.087553084
93	0xbeca4581	-0.39506152
94	0x3ed53b6d	0.416469
95	0xbf1543c4	-0.5830653
96	0xbdf9dd85	-0.122004546
97	0xbdf17ed8	-0.11791772
98	0xbe7a7c8d	-0.24461575
99	0x3f095769	0.53649
100	0x3f0f3f66	0.55956113
101	0xbebb7678	-0.36613822
102	0xbf7b5ea6	-0.981913
103	0x3f32ed2b	0.6989314
104	0x3d3f0cff	0.046643253
105	0x3ea60984	0.32429135
106	0xbe604cd8	-0.21904314
107	0xbe9d33fb	-0.3070372
108	0xbee6462b	-0.4497541
109	0xbf3e0018	-0.74218893
110	0x3f05f216	0.5232252
111	0xbe0f46d9	-0.1399187
112	0x3e51b3ac	0.20478696
113	0xbf0522dc	-0.52006316
114	0x3d5880af	0.052857097
115	0x3ea0ebcc	0.314299
116	0xbe2fad7e	-0.17156026
117	0xbf3a67fc	-0.7281492
118	0xbe17e2e3	-0.14832644
119	0xbe89b273	-0.26893958
120	0xbe4460d4	-0.19177562
121	0xbea1a0a0	-0.3156786
122	0xbcd73f8e	-0.026275422
123	0xbeae3281	-0.34022906
124	0x3e2507db	0.16116278
125	0x3f58c2cb	0.8467223
126	0x3ea42590	0.32059908
127	0xbf1d0e77	-0.61350197
128	0x3f66c8ca	0.9015013
129	0xbf047756	-0.5174459
130	0xbeb7964f	-0.35856864
131	0xbdd0820c	-0.101810545
132	0x3e37f8b1	0.17965962
133	0xbe4eb150	-0.20184827
134	0xbd9057cd	-0.07047997
135	0xbd929191	-0.07156671
136	0x3c8f4bdc	0.017492227
137	0x3c8e0fb6	0.017341476
138	0x3eba1ef1	0.3635173
139	0xbe87cc23	-0.2652293
140	0xbf218701	-0.63096625
141	0x3e81c38c	0.25344503
142	0xbeceaa97	-0.40364525
143	0xbf319b54	-0.69377637
144	0x3e83e000	0.25756836
145	0x3e40771a	0.18795434
146	0xbea4de04	-0.32200634
147	0x3f5049c6	0.8136257
148	0x3ea674eb	0.32511076
149	0x3b17e171	0.0023175145
150	0xbedbe71e	-0.42949766
151	0xbe815c1a	-0.2526558
152	0x3f05ed14	0.5231488
153	0xbee5a94a	-0.4485572
154	0xbf0b20d6	-0.5434698
155	0xbec23f18	-0.37938762
156	0x3ea1ff6f	0.31640193
157	0x3cbf3917	0.023342652
158	0xbed64be1	-0.41854766
159	0xbbf5715e	-0.007490321
160	0xbf8730d6	-1.0561779
161	0x3eda1b2f	0.42598864
162	0x3e6d6a77	0.23185144
163	0xbeca9544	-0.39567006
164	0x3e31047a	0.17286864
165	0xbe45fe2d	-0.19335242
166	0x3e022c01	0.12712099
167	0xbe532404	-0.20619208
168	0x3f302541	0.68806845
169	0xbe9cc6d9	-0.3062046
170	0xbebd2d25	-0.36948505
171	0x3e96c83b	0.2944964
172	0x3f36e632	0.71445
173	0x3f1b5d61	0.6068936
174	0x3e747ab7	0.23874937
175	0x3ec82afd	0.39095297
176	0xbec37bdd	-0.38180438
177	0xbf329ae7	-0.6976761
178	0x3f474569	0.77840286
179	0xbf0e43f1	-0.5557242
180	0xbe321775	-0.1739176
181	0x3e8f7501	0.28018954
182	0x3f1397bd	0.5765341
183	0x3efbfcb3	0.49216232
184	0xbf3573e7	-0.7087998
185	0x3e8e3297	0.27772972
186	0x3ef19798	0.4718597
187	0x3ec95652	0.3932367
188	0xbecb48c7	-0.39703962
189	0xbef21c07	-0.47287008
190	0x3f1ef465	0.62091666
191	0x3ec31bcb	0.38107142
192	0xbe140301	-0.14454271
193	0x3ea65b0c	0.32491338
194	0x3eeec73e	0.46636385
195	0x3f00d48b	0.50324315
196	0x3ea41a88	0.32051492
197	0x3edd7fe3	0.43261632
198	0xbf15de96	-0.58542764
199	0x3f13497b	0.57534
200	0xbeff80a4	-0.49902833
201	0x3dcee80e	0.10102855
202	0x3e597522	0.21236089
203	0x3f045c5b	0.51703423
204	0x3f2ba8ae	0.6705426
205	0xbe116692	-0.14199284
206	0x3d85e89d	0.06538508
207	0x3f3e7fa2	0.744135
208	0xbd419b6f	-0.047267374
209	0xbe86223b	-0.2619799
210	0x3e290bac	0.16508359
211	0xbedcaf5d	-0.43102542
212	0xbe175590	-0.14778733
213	0x3e750dac	0.23930997
214	0x3e74d7ba	0.23910418
215	0x3e367047	0.17816268
216	0xbe4207fa	-0.18948355
217	0x3ef8a260	0.48561382
218	0x3eb5aa0f	0.35481307
219	0x3ed9afc3	0.42516908
220	0xbeaa65d4	-0.33280814
221	0xbdc84925	-0.09779576
222	0x3f24afbd	0.64330655
223	0xbdc600a3	-0.0966809
224	0xbf378f6e	-0.7170323
225	0x3f268f80	0.65062714
226	0x3f05212b	0.52003735
227	0x3eaf53e9	0.34243706
228	0xbebc2aed	-0.367515
229	0xbe2c13f6	-0.1680449
230	0x3d9951ba	0.07486291
231	0x3d5b16cb	0.053488534
232	0xbe3ceb4d	-0.18449135
233	0x3e2134b7	0.15742765
234	0xbeab58f2	-0.33466297
235	0x3e9a437f	0.3012962
236	0x3f2b361c	0.6687944
237	0xbe7909ec	-0.24320191
238	0x3ef4dc9c	0.47824562
239	0x3f109179	0.56471974
240	0xbe6c1f85	-0.23058899
241	0xbed5c9f0	-0.4175563
242	0x3e1d6567	0.15370713
243	0xbf5e27f0	-0.8677969
244	0xbea90ed7	-0.33019134
245	0xbe5a1ec0	-0.21300793
246	0x3ec200b1	0.37891153
247	0x3eeb06dd	0.45903674
248	0xbea280e4	-0.3173896
249	0x3ee2cbf3	0.44296226
250	0x3f111d6f	0.5668554
251	0x3ebca4d4	0.36844504
252	0x3af1e798	0.0018455861
253	0x3e692313	0.22767286
254	0x3f0b4c9c	0.5441377
255	0x3e0d1212	0.13776425

encoder.layers.0.self_attn.linears.1.bias f4 [32]
0	0xbeb3205a	-0.3498562
1	0x3e6e9af5	0.23301299
2	0xbd232a76	-0.039835416
3	0x3e6a608a	0.22888389
4	0xbe81e89d	-0.25372782
5	0x3e6300bb	0.22168247
6	0xbcf1a458	-0.02949731
7	0x3e640cea	0.22270551
8	0x3e4d4b38	0.20048225
9	0x3e4849e4	0.19559437
10	0x3c7fa1c2	0.015602531
11	0x3df52114	0.119692
12	0xbe346770	-0.17617583
13	0xbdcfeb18	-0.101522624
14	0x3e26c88a	0.16287437
15	0xbe6bfde1	-0.23046066
16	0xbdf4b64d	-0.119488336
17	0x3d95f1f9	0.07321543
18	0x3d42721a	0.047472097
19	0xbe0e8fc3	-0.13922028
20	0x3cbdce9e	0.023169812
21	0xbe9771a9	-0.29578903
22	0x3ec193c1	0.3780804
23	0x3e953291	0.29140142
24	0xbdf5ca6e	-0.12001501
25	0xbd8b1cf2	-0.0679263
26	0x3c8f62a0	0.017503083
27	0x3e1d09de	0.15335795
28	0x3e123829	0.14279236
29	0x3eafa200	0.34303284
30	0x3e032904	0.12808615
31	0x3e97d67f	0.29655835

encoder.layers.0.self_attn.linears.2.weight f4 [32, 32]
0	0xbe9234f2	-0.2855602
1	0x3da4016e	0.08008085
2	0xbe6b60a5	-0.22986086
3	0x3d58183d	0.05275749
4	0xbccbfe37	-0.024901493
5	0x3dacce61	0.08437801
6	0x3d5df5c1	0.054189447
7	0x3d6198b6	0.055077277
8	0xbe01326c	-0.1261689
9	0xbe36a181	-0.17835046
10	0xbe4dc1f6	-0.20093521
11	0x3e0e5054	0.1389783
12	0x3c1b0908	0.009462602
13	0x3e227abc	0.15867132
14	0x3e8ecd88	0.27891183
15	0xbd0490d6	-0.03236469
16	0xbe1eb91f	-0.15500306
17	0x3eb8e249	0.36110142
18	0xbe178df3	-0.14800243
19	0xbdb945d0	-0.09046519
20	0x3e346dfa	0.17620078
21	0x3c13591f	0.008993416
22	0xbdcefe7b	-0.10107132
23	0x3e2731dc	0.16327614
24	0x3e2d54e3	0.16926913
25	0x3ef8eb70	0.48617125
26	0xbd66bb4c	-0.056330964
27	0xbd8845f0	-0.066539645
28	0xbeb37f00	-0.3505783
29	0xbebf5e31	-0.3737655
30	0x3e660e61	0.22466423
31	0xbe5beb36	-0.21476445
32	0xbe104697	-0.14089428
33	0xbe38ea86	-0.18058214
34	0x3c8c47be	0.017124053
35	0xbd56146b	-0.052265566
36	0xbc18c302	-0.009323837
37	0xbc7f0e5b	-0.015567387
38	0x3dd51c15	0.10405747
39	0xbe22e78f	-0.15908645
40	0x3e76dfe6	0.24108848
41	0xbdb3c666	-0.08778076
42	0x3e105120	0.14093447
43	0xbc432363	-0.011910292
44	0xbc4c940c	-0.012486469
45	0xbd6c3d77	-0.057675805
46	0xbe4e815b	-0.20166533
47	0x3c8e482b	0.017368397
48	0xbd742630	-0.05960673
49	0xbde43c4c	-0.11144313
50	0x3def03bb	0.116706334
51	0x3e08b0dd	0.13348718
52	0x3de60d19	0.11232967
53	0x3e171f42	0.14758018
54	0x3de89a58	0.11357564
55	0xbdcd7bec	-0.10033402
56	0xbe7b85ab	-0.24562709
57	0xbf0dbd01	-0.5536652
58	0xbca11670	-0.01966402
59	0xbd2a2cb4	-0.04154654
60	0x3e8b8f99	0.27257994
61	0x3ede42f9	0.4341047
62	0xbe49bf3e	-0.1970186
63	0xbce5cf32	-0.0280529
64	0xbdf4305b	-0.119232856
65	0xbd4fa833	-0.050697517
66	0x3dc5b7b2	0.09654178
67	0xbed61269	-0.4181092
68	0x3d5b0627	0.053472664
69	0xbdc44230	-0.09582937
70	0x3e127ddd	0.14305826
71	0x3ca9154a	0.020640034
72	0xbe933bc4	-0.28756535
73	0x3e40839a	0.18800202
74	0x3ea486ed	0.3213419
75	0xbdc4ffaf	-0.0961908
76	0xbcc21828	-0.02369316
77	0xbac0a58c	-0.0014697774
78	0x3ca34f15	0.01993517
79	0xbeee135f	-0.46499154
80	0x3ccae389	0.0247667
81	0x3b8f8bef	0.004380695
82	0xbe57495b	-0.21024077
83	0x3e763770	0.24044585
84	0x3de1195d	0.10991166
85	0x3e1e3bd1	0.15452506
86	0x3d92cd28	0.07168037
87	0xbe93fc55	-0.28903452
88	0x3d297b14	0.041377142
89	0x3eb99752	0.3624826
90	0x3d1669d2	0.036722012
91	0x3dacf32c	0.08444819
92	0xbe5f8117	-0.21826588
93	0xbd17be30	-0.03704661
94	0xbd22a794	-0.039710596
95	0x3d0b698a	0.034036197
96	0x3d41630d	0.047213603
97	0xbec073c5	-0.37588325
98	0xbd47bccd	-0.04876404
99	0xbedcb609	-0.43107632
100	0x3e33c58d	0.17555828
101	0x3c0c3904	0.008558515
102	0x3e5aa78a	0.21352974
103	0xbe96800c	-0.29394567
104	0x3e2b88bc	0.16751379
105	0x3ec75093	0.3892866
106	0x3d06988d	0.032860328
107	0xbeff9990	-0.49921846
108	0xbdd0a17b	-0.1018705
109	0x3b286558	0.0025695171
110	0xbea32eb1	-0.3187156
111	0xbe92d2ec	-0.28676546
112	0x3e65a086	0.22424516
113	0xbcaa720b	-0.020806333
114	0x3e953128	0.29139066
115	0x3eb8bd1f	0.36081788
116	0xbd5373ba	-0.051624037
117	0x3e0d1301	0.1377678
118	0xbe60bda4	-0.21947342
119	0xbe84fcd5	-0.25974146
120	0xbd4eefa6	-0.050521515
121	0x3e0421ca	0.12903515
122	0xbdb4e146	-0.0883203
123	0xbecd45c5	-0.40092292
124	0x3f17a702	0.5923921
125	0x3dcbddc1	0.099544056
126	0xbd2d6a1c	-0.042337522
127	0x3daf2e0c	0.085537046
128	0xbeccaa40	-0.3997364
129	0xbe294ad1	-0.16532446
130	0xbdb88f77	-0.09011739
131	0x3e64b3aa	0.22334161
132	0x3ea441d5	0.32081476
133	0xbf3a15d9	-0.72689587
134	0x3d4fb8f8	0.05071351
135	0x3daf96b3	0.085736655
136	0x3e76a0ea	0.24084821
137	0x3cb4087a	0.021976698
138	0x3dc1319c	0.0943329
139	0xbd8b5986	-0.068041846
140	0xbda3677f	-0.07978725
141	0x3f126a8f	0.57193846
142	0xbd8255e7	-0.06364041
143	0xbde85a10	-0.11345303
144	0x3e243cc9	0.16038813
145	0x3e61b8d6	0.22043166
146	0x3e37dab1	0.17954518
147	0x3eca8884	0.39557278
148	0xbe4e5821	-0.20150806
149	0xbe8f2177	-0.2795522
150	0x3e0fdcf7	0.14049135
151	0x3d9499b7	0.07255881
152	0xbe44752d	-0.19185324
153	0x3e49981f	0.19686936
154	0xbdc8dd88	-0.09807879
155	0x3c765a8d	0.015036237
156	0x3e86c858	0.26324725
157	0x3d0e21a8	0.034700066
158	0x3e3932ab	0.18085735
159	0x3e07f5d9	0.13277377
160	0x3eced3db	0.40396008
161	0x3de70e0f	0.11281978
162	0x3e22b2e8	0.1588856
163	0xbe075634	-0.13216478
164	0xbeed2591	-0.46317723
165	0x3d6c9433	0.05775852
166	0xbbc03230	-0.005865358
167	0xbe88df19	-0.2673271
168	0xbdd71ab5	-0.10503141
169	0x3e80a25d	0.25123873
170	0xbc93e95b	-0.018055608
171	0x3c00b62e	0.007855935
172	0x3eb84b2a	0.35994846
173	0x3dc626d3	0.09675374
174	0x3cfec11c	0.031097941
175	0x3e319c62	0.17344812
176	0x3de82c32	0.113365546
177	0xbe6b7b6c	-0.229963
178	0xbe52b1bd	-0.20575614
179	0xbde0ce93	-0.10976901
180	0xbe0d1c26	-0.13780269
181	0x3d64277c	0.055701718
182	0x3cb731a4	0.022362538
183	0x3dd41fe2	0.10357644
184	0x3e7b1ab2	0.24521902
185	0x3cfa4886	0.03055216
186	0x3e157d7a	0.14598647
187	0x3d966c00	0.07344818
188	0x3ebc49b9	0.36774996
189	0xbf103cd0	-0.5634279
190	0xbd306011	-0.043060366
191	0x3ca2338c	0.01979997
192	0xbe22cdb9	-0.1589879
193	0xbc83b23a	-0.016076196
194	0x3c4fb930	0.0126784295
195	0x3dbad4e9	0.09122641
196	0xbe912a81	-0.2835274
197	0xbe37a84a	-0.17935291
198	0x3e3e968f	0.18612121
199	0x3f0d4fbb	0.55199784
200	0x3d160308	0.036623985
201	0x3daffcec	0.08593163
202	0xbdf65ec4	-0.12029794
203	0x3dda35c8	0.10654789
204	0x3e86d3c4	0.2633344
205	0x3ee0c023	0.4389659
206	0x3d304d55	0.0430425
207	0xbdb0bd8a	-0.08629902
208	0xbe28a13b	-0.16467755
209	0x3e9480c0	0.29004478
210	0x3c92f3bb	0.017938485
211	0x3c836c35	0.016042808
212	0xbe79c3db	-0.24391119
213	0x3e924e57	0.28575394
214	0xbdf86f1f	-0.1213057
215	0xbcfbd11d	-0.030739361
216	0xbe055af9	-0.13022985
217	0xbe734755	-0.2375768
218	0xbcb8ef1f	-0.02257496
219	0x3d10dd8d	0.035367537
220	0x3cdf8ce1	0.027288856
221	0xbd06a6a3	-0.03287376
222	0x3dd61d4e	0.10454808
223	0x3e8b3a3b	0.27192864
224	0x3dd97b5d	0.10619233
225	0x3e389d2b	0.18028705
226	0x3e6f8bb8	0.23393142
227	0x3e133b64	0.14378124
228	0xbedb1ec3	-0.42796907
229	0xbd7be372	-0.061496206
230	0x3d932a25	0.07185773
231	0xbce2f12d	-0.027702892
232	0xbe6cde8e	-0.23131773
233	0x3d38dc0c	0.045131728
234	0x3d5728e7	0.052529242
235	0xbc8a0ff4	-0.01685331
236	0x3ea410db	0.3204411
237	0xbbfbd56c	-0.007685354
238	0x3dae79eb	0.08519348
239	0xbe889d7a	-0.26682645
240	0x3d347240	0.04405427
241	0xbe9974d4	-0.29971945
242	0xbd32e67a	-0.04367683
243	0xbeb5715b	-0.35438046
244	0xbe1af69d	-0.15133138
245	0x3ce58ffa	0.028022755
246	0x3d7be69a	0.061499216
247	0xbd60a1ae	-0.05484169
248	0x3eb4e0e9	0.35327843
249	0xbea8bb83	-0.3295556
250	0x3e517110	0.20453286
251	0x3dec9f5e	0.115538344
252	0x3edc7a32	0.43061978
253	0xbd010887	-0.031502273
254	0xbe9facc2	-0.3118649
255	0x3e55a9fa	0.20865622

encoder.layers.0.self_attn.linears.2.bias f4 [32]
0	0x3cdeabae	0.027181473
1	0x3c9132fe	0.01772451
2	0xbe155fc5	-0.14587314
3	0x3dda1217	0.106479816
4	0xbe827846	-0.25482386
5	0x3d033fbd	0.032043207
6	0xbdb8a043	-0.090149425
7	0x3e03b4fa	0.12862006
8	0x3ceac591	0.02865866
9	0x3cd94853	0.026523745
10	0x3d24339c	0.04008828
11	0x3d8222cf	0.063542955
12	0x3db49b23	0.088186525
13	0xbdaac945	-0.0833917
14	0xbd325e0b	-0.043546718
15	0x3db00612	0.08594908
16	0x3dce18d6	0.10063331
17	0x3dacb3fa	0.08432765
18	0x3ddb8c55	0.107201256
19	0xbd49c250	-0.049257576
20	0xbdfdfb0a	-0.124013975
21	0xbd990c60	-0.074730635
22	0x3d846593	0.06464686
23	0xbe07a9c2	-0.13248351
24	0xbc238b59	-0.009981954
25	0x3d808a8b	0.06276425
26	0x3d6ab2c9	0.05729941
27	0x3d70eb71	0.058818284
28	0x3b0bd4a8	0.002133647
29	0xbd84bf25	-0.064817704
30	0x3dfda7fe	0.123855576
31	0x3d842a10	0.06453335

encoder.layers.0.self_attn.linears.3.weight f4 [32, 32]
0	0xbe058942	-0.13040641
1	0x3d586782	0.052833088
2	0xbdc2a69f	-0.09504437
3	0x3dd8b818	0.10581988
4	0xbeb79578	-0.35856223
5	0xbdac64b6	-0.084176466
6	0xbe41fc83	-0.18943982
7	0x3dd8f03c	0.10592696
8	0x3f02649b	0.5093476
9	0xbdbe3405	-0.09287266
10	0x3daa4737	0.083143644
11	0x3f000a03	0.50015277
12	0x3e967354	0.29384863
13	0x3c73a4c9	0.014870831
14	0xbe1f3046	-0.15545759
15	0x3e4f5966	0.20248947
16	0x3e384746	0.17995939
17	0xbd26927d	-0.040667046
18	0x3dc7ad50	0.097498536
19	0x3dc362c6	0.09540324
20	0xbdca1663	-0.09867551
21	0x3e87f184	0.2655145
22	0x3d544c0a	0.05183033
23	0xbd3b32ed	-0.045702863
24	0x3dfce901	0.123491295
25	0x3d3d5f33	0.046233367
26	0xbdabd0a8	-0.083894074
27	0xbd8c5df9	-0.06853861
28	0xbe218793	-0.15774374
29	0xbcee12fd	-0.029061789
30	0x3ea8b4a6	0.32950324
31	0x3c59c3d7	0.013291321
32	0xbdc3ef23	-0.09567096
33	0x3e015c99	0.1263298
34	0x3dff8fe3	0.12478616
35	0x3ec7d685	0.39030853
36	0x3ef94dea	0.48692256
37	0xbe8f42f8	-0.2798078
38	0x3e5ca36b	0.21546714
39	0xbdf6d1e9	-0.12051756
40	0xbe49e923	-0.19717841
41	0x3e698ed1	0.22808386
42	0x3e64113f	0.22272204
43	0x3e2c4d8f	0.16826461
44	0x3e18cfc7	0.14923011
45	0xbb0d6461	-0.0021574723
46	0xbdaebf72	-0.08532609
47	0xbe7c3692	-0.24630192
48	0x3d3d4ea6	0.046217583
49	0xbd82aaec	-0.06380257
50	0xbc3bc6d7	-0.011460981
51	0xbc9251bf	-0.017861245
52	0xbca0e3c7	-0.019639863
53	0x3e356da1	0.17717601
54	0x3e75844b	0.23976247
55	0xbdb16bcb	-0.08663138
56	0x3d4fc3fb	0.05072401
57	0xbea02966	-0.31281585
58	0xbe0a28ee	-0.13492176
59	0x3efdad6b	0.4954637
60	0xbe4af0be	-0.19818398
61	0x3e167331	0.1469238
62	0x3d959adc	0.07304928
63	0x3d24dd57	0.04025015
64	0xbd1ba79d	-0.038001645
65	0xbe177e74	-0.14794332
66	0xbe0c00b8	-0.13672149
67	0xbdd5349f	-0.10410427
68	0xbe064aaa	-0.1311442
69	0x3d4612d9	0.04835782
70	0xbe506e29	-0.20354523
71	0xbb96dec1	-0.004604191
72	0xbe0e8e56	-0.13921484
73	0xbe1fbdea	-0.1559979
74	0xbebb1cf3	-0.36545524
75	0xbe13eac7	-0.14445029
76	0xbe8f0826	-0.27935904
77	0x3d83b662	0.06431271
78	0x3ea1efa4	0.31628144
79	0xbe5c3362	-0.21503976
80	0x3e928835	0.28619543
81	0xbbd8e518	-0.006619107
82	0xbdad77f8	-0.08470148
83	0xbed31883	-0.41229638
84	0xbe0a12f2	-0.1348379
85	0xbc8b1036	-0.016975503
86	0xbe338bd7	-0.17533813
87	0xbdd26c36	-0.10274546
88	0xbbffc2a2	-0.0078051845
89	0x3d62bb4b	0.055354398
90	0x3e38a43c	0.180314
91	0xbe7d323c	-0.24726194
92	0xbe04f0e8	-0.12982523
93	0x3e46c8c6	0.19412526
94	0xbd269adb	-0.040675025
95	0xbdcf7c13	-0.10131087
96	0xbdb7b8b0	-0.08970773
97	0x3dff2116	0.124574825
98	0xbce3071f	-0.027713357
99	0x3db7d0dd	0.089753844
100	0x3e39750c	0.18111056
101	0xbc3d2295	-0.0115438895
102	0xbdce0a67	-0.10060578
103	0x3dc425e1	0.09577537
104	0x3d88293d	0.066484906
105	0x3e762180	0.24036217
106	0xbce99a03	-0.028515821
107	0xbd85b65c	-0.06528923
108	0xbe1dca17	-0.15409122
109	0x3da9abc5	0.082847156
110	0xbdc1f750	-0.09470999
111	0xbdc27675	-0.0949525
112	0xbe216e49	-0.15764727
113	0xbe75b2f7	-0.23994051
114	0xbe52c272	-0.20581988
115	0xbd0d73c5	-0.034534235
116	0x3e03a2ab	0.12855022
117	0x3cfd06bd	0.030887002
118	0x3e8922d5	0.26784387
119	0xbe1318ab	-0.14364879
120	0xbe18f3e4	-0.14936787
121	0xbe44251b	-0.1915478
122	0xbdbacfd1	-0.09121669
123	0xbb4f488c	-0.0031628935
124	0xbd86a883	-0.0657511
125	0x3ca12a09	0.019673364
126	0x3ca541d9	0.020173
127	0xbe1b14b9	-0.15144624
128	0x3e0fc850	0.14041257
129	0xbdd19248	-0.10232979
130	0x3e69bb8c	0.2282545
131	0x3d41cebb	0.047316294
132	0x3dfdeb75	0.123984255
133	0xbe571044	-0.21002299
134	0x3d5c5b21	0.053797845
135	0x3e0546f9	0.13015355
136	0x3d545900	0.05184269
137	0xbe4cde85	-0.2000676
138	0xbe2b2fe2	-0.16717485
139	0xbde4fee0	-0.11181426
140	0xbe6596fc	-0.22420877
141	0x3e077835	0.13229449
142	0xbd5b9141	-0.05360532
143	0xbd51aabf	-0.051188227
144	0x3df4f06a	0.11959918
145	0xbdeb4a1d	-0.11488745
146	0xbeca5ce9	-0.3952401
147	0xbe84c424	-0.25930893
148	0x3ce13302	0.027490143
149	0xbe60f11b	-0.21966974
150	0x3e4cfb28	0.20017684
151	0x3d75260e	0.059850745
152	0x3df4e604	0.119579345
153	0x3e1529b2	0.14566687
154	0xbdfdfbfa	-0.12401576
155	0x3acc8e1c	0.0015606317
156	0x3e29aab2	0.16569021
157	0x3da63ef8	0.08117479
158	0xbda75146	-0.081697986
159	0xbdd3a28b	-0.10333737
160	0x3e7d5e58	0.2474302
161	0xbb52c2b8	-0.0032159518
162	0x3ccdcd04	0.025122173
163	0xbcc2287a	-0.023700941
164	0xbdf82bb0	-0.12117708
165	0x3e1fbb57	0.15598808
166	0xbe0beccd	-0.13664551
167	0x3d8acf6e	0.06777845
168	0x3d286ef8	0.041121453
169	0xbe4d17fb	-0.20028679
170	0x3d8a7cce	0.06762086
171	0xbd54d044	-0.05195643
172	0xbca48939	-0.020084964
173	0x3e34ea13	0.17667417
174	0xbdc0d23f	-0.09415101
175	0x3e4c58a1	0.19955684
176	0xbc0f4e86	-0.008746749
177	0x3c760d32	0.015017794
178	0xbd76810e	-0.06018167
179	0x3dd57bca	0.104240015
180	0xbd3e8d50	-0.046521485
181	0x3e5ace06	0.21367654
182	0xbe1a959c	-0.15096134
183	0x3ba6a127	0.005085129
184	0xbe8be701	-0.2732468
185	0xbe27fac7	-0.16404258
186	0xbd807ccd	-0.06273804
187	0xbe1d812b	-0.15381305
188	0x3e570433	0.20997696
189	0xbe2ee380	-0.17078972
190	0x3e391cf5	0.18077452
191	0xbdbfb0b7	-0.093598776
192	0xbeb15c0d	-0.34640542
193	0xbe9bca75	-0.304279
194	0x3e2c78b4	0.1684292
195	0x3e8ac4d8	0.27103305
196	0x3e4f1de3	0.20226245
197	0xbe9c74f6	-0.30557984
198	0xbe04e0bd	-0.12976356
199	0x3c992205	0.01869298
200	0xbea3e16f	-0.3200793
201	0x3ebd03b8	0.369169
202	0x3bacb5a7	0.005270678
203	0xbcf56bca	-0.029958624
204	0xbca0dd7c	-0.019636862
205	0x3cd7bdc0	0.026335597
206	0x3e6c0d7a	0.23052016
207	0xbd6dd591	-0.058065
208	0x3d3ebae8	0.046564966
209	0x3e3e98fe	0.1861305
210	0xbee66d0b	-0.45005068
211	0xbf2986e4	-0.6622145
212	0x3cda491e	0.026646193
213	0x3ede6f2b	0.4344419
214	0x3e411e78	0.18859279
215	0x3e81aaca	0.25325614
216	0xbd83df5f	-0.06439089
217	0xbe1153e6	-0.14192161
218	0x3e2709d5	0.16312344
219	0x3eaab136	0.33338326
220	0xbd98a47c	-0.07453248
221	0x3deb05ad	0.11475692
222	0xbe2ba22f	-0.16761087
223	0xbd57e26e	-0.052706175
224	0xbd8970be	-0.06710957
225	0x3df0c2ff	0.117559426
226	0x3e0460fc	0.12927622
227	0x3e8db32e	0.27675766
228	0xbde040d1	-0.10949863
229	0xbe26329f	-0.16230248
230	0x3decbb14	0.1155912
231	0xbe5b1aa6	-0.21396884
232	0xbe4134a4	-0.18867737
233	0x3e8863f2	0.26638752
234	0x3dfada3d	0.12248657
235	0xbe97395f	-0.29535958
236	0x3e128058	0.14306772
237	0x3be10ee6	0.006868231
238	0xbe719a70	-0.2359407
239	0xbe1edc57	-0.1551374
240	0xbe5b0d08	-0.2139169
241	0xbe7ada39	-0.24497308
242	0xbe624f57	-0.22100578
243	0x3c92f3ce	0.01793852
244	0x3e29df5a	0.16589108
245	0xbeef85ab	-0.46781668
246	0x3e35de19	0.17760505
247	0x3dce707a	0.10080047
248	0x3dd796ef	0.10526835
249	0xbcda8891	-0.026676448
250	0x3e1b9c7d	0.15196414
251	0x3e04a515	0.12953599
252	0x3e99a760	0.3001051
253	0x3e4cc5d7	0.19997345
254	0xbe185876	-0.14877495
255	0xbe4ed1ba	-0.20197192

encoder.layers.0.self_attn.linears.3.bias f4 [32]
0	0xbda17407	-0.078834586
1	0x3aab6e48	0.0013079131
2	0x3d128583	0.035771858
3	0x3e1f1038	0.1553353
4	0xbe32fe3f	-0.174798
5	0x3def0ae7	0.11672001
6	0xbd1d113e	-0.03834652
7	0xbca4f08c	-0.020134233
8	0x3daec5a1	0.085337885
9	0xbd47ef5b	-0.04881225
10	0x3db226f2	0.086988345
11	0x3e280474	0.16407949
12	0xbdd0195c	-0.10161087
13	0xbce2094f	-0.02759233
14	0x3dd6eb0c	0.104940504
15	0x3d0381f3	0.03210635
16	0xbd9ffb12	-0.0781156
17	0xbd511bc5	-0.051051874
18	0xbd8c5bb4	-0.068534285
19	0xbc9eab10	-0.019368678
20	0xbe1f1cf2	-0.15538386
21	0xbdf003c5	-0.11719469
22	0xbe1ba5f7	-0.1520003
23	0x3defc1b1	0.117068656
24	0x3e1f2fa2	0.15545514
25	0xbe67eb89	-0.22648443
26	0x3e424bab	0.18974178
27	0x3b43f1ef	0.0029898842
28	0xbd6960d1	-0.056977097
29	0xbd89f13d	-0.06735466
30	0xbe6c4f91	-0.23077227
31	0x3dcb52a3	0.09927871

encoder.layers.0.feed_forward.w_1.weight f4 [128, 32]
0	0x3ebda455	0.37039438
1	0x3c82c7e5	0.015964458
2	0x3e49d79c	0.19711155
3	0xbf08a2b2	-0.53373253
4	0xbe6ad90c	-0.2293436
5	0x3ce4f2e4	0.02794785
6	0x3e523054	0.20526248
7	0xbe57255e	-0.21010348
8	0x3e3afa7f	0.18259619
9	0x3ea90b78	0.33016562
10	0xbec18038	-0.37793136
11	0xbe51a865	-0.20474394
12	0x3f1c9aa0	0.6117344
13	0xbd176926	-0.03696551
14	0x3e6c54ac	0.23079175
15	0xbd86681e	-0.065628275
16	0x3e8c2abd	0.27376357
17	0x3e1d4e7f	0.15361975
18	0xbeb84b4c	-0.35994947
19	0xbd907aa5	-0.070546426
20	0x3ddd263f	0.107983105
21	0xbe97e6d6	-0.296683
22	0xbd058101	-0.03259373
23	0xbdc86847	-0.09785514
24	0x3e8c62f3	0.27419242
25	0xbe322029	-0.1739508
26	0xbdd73fbf	-0.105102055
27	0x3d97ae61	0.07406307
28	0x3f0a787f	0.5409011
29	0xbe849e70	-0.25902128
30	0x3bc6ef43	0.0060710027
31	0x3e986483	0.29764184
32	0xbddd21fb	-0.10797497
33	0xbe657249	-0.22406878
34	0x3e55231a	0.20814171
35	0x3efb852e	0.49125046
36	0x3bfae277	0.0076563912
37	0xbe32929c	-0.1743874
38	0xbcbadf89	-0.022811668
39	0x3e2023c0	0.15638638
40	0x3e39d8aa	0.18149057
41	0xbd72c460	-0.05926931
42	0xbb909b60	-0.0044130534
43	0x3eb7534b	0.35805735
44	0x3b9d9689	0.004809205
45	0xbca3b0cc	-0.019981764
46	0x3cadc5a2	0.021212403
47	0xbda3b390	-0.07993233
48	0x3eb52755	0.3538157
49	0xbda7f5b3	-0.0820116
50	0x3e9ea275	0.3098332
51	0xbe5dc1ee	-0.2165601
52	0xbdc7fc10	-0.09764874
53	0x3e7c2c5c	0.24626297
54	0xbd8f8ddd	-0.0700948
55	0x3e4075fe	0.1879501
56	0x3d22bcb2	0.039730735
57	0x3d14d761	0.036338214
58	0x3e59d746	0.21273527
59	0x3eddc003	0.43310556
60	0xbdb0b77b	-0.08628746
61	0x3ee5d4a6	0.448888
62	0xbc2b286d	-0.01044665
63	0xbd1af8af	-0.03783482
64	0xbb86ba0d	-0.0041115345
65	0xbedb3a04	-0.428177
66	0x3d43850a	0.047734298
67	0x3d1d0752	0.03833706
68	0xbdc6ff1d	-0.09716628
69	0x3dbe1c44	0.09282735
70	0xbf1daa58	-0.6158805
71	0x3f256ecf	0.64622205
72	0x3ec9fdd8	0.3945148
73	0x3cc8f593	0.024531161
74	0xbdbc7ea9	-0.09203846
75	0xbc5130a1	-0.012767942
76	0xbe0c613f	-0.13708971
77	0xbcf67372	-0.030084345
78	0x3d63045d	0.055424083
79	0x3e160ab5	0.14652522
80	0x3dc18dfd	0.0945091
81	0xbdaa8146	-0.08325438
82	0x3aee5edd	0.001818623
83	0xbf82bee7	-1.0214509
84	0xbeb56795	-0.3543059
85	0x3ea8d4c7	0.32974836
86	0xbe81d9ba	-0.25361425
87	0x3ebfe10b	0.37476382
88	0x3eb62ee8	0.35582662
89	0xbe306b6e	-0.17228481
90	0x3ed4114c	0.41419446
91	0x3ebdd195	0.3707396
92	0x3e827da6	0.25486487
93	0xbd733329	-0.059374962
94	0xbc95b246	-0.018273484
95	0xbe615d35	-0.22008212
96	0x3edcfa41	0.4315968
97	0x3e3e39d5	0.18576749
98	0x3c350d99	0.011050605
99	0xbf8124bb	-1.0089334
100	0xbd0d12e1	-0.034441832
101	0x3e3f35b0	0.18672824
102	0xbce8501b	-0.02835851
103	0xbe203211	-0.15644099
104	0xbf106fac	-0.564204
105	0x3f085d42	0.532673
106	0x3b7a550f	0.0038197672
107	0xbd9e4246	-0.077274844
108	0x3e532484	0.20619398
109	0x3e3242ac	0.17408246
110	0xbed1ab6b	-0.40951094
111	0x3d3aa982	0.04557181
112	0x38db6729	0.00010461949
113	0x3e3f6039	0.1868905
114	0xbe14ee63	-0.14544062
115	0xbe329052	-0.17437866
116	0x3e3f8370	0.18702483
117	0x3ea62faa	0.3245824
118	0x3e71e14d	0.23621102
119	0xbe492d3a	-0.19646159
120	0x3c82065e	0.015872177
121	0xbde5bffd	-0.112182595
122	0x3d42ffde	0.047607295
123	0x3e24487a	0.16043273
124	0xbe373d4e	-0.1789448
125	0xbeda713c	-0.42664516
126	0x3eaeed31	0.34165338
127	0xbe890280	-0.2675972
128	0x3e2400b3	0.16015892
129	0x3dbc223d	0.09186218
130	0xbde78dc8	-0.113063395
131	0x3d81d1f7	0.06338876
132	0x3e9c4fac	0.30529535
133	0x3d0c28d5	0.034218628
134	0xbee56d9d	-0.4481019
135	0x3e3ecd55	0.18633015
136	0xbed38391	-0.41311315
137	0xbc554dd5	-0.013019045
138	0xbe1b9dad	-0.15196867
139	0xbe2543f0	-0.16139197
140	0x3e866ab6	0.2625329
141	0xbe5f5372	-0.21809176
142	0x3d71cb22	0.059031613
143	0x3db9b4b2	0.09067668
144	0x3d721e8b	0.05911116
145	0x3c4e791a	0.012602115
146	0x3e1d237e	0.1534557
147	0x3e467a2e	0.19382545
148	0x3e976f21	0.29576972
149	0x3e511c82	0.20421031
150	0x3e51ed84	0.20500761
151	0x3c7044b7	0.01466482
152	0xbefd5d73	-0.4948536
153	0x3e58fbaf	0.2118976
154	0xbca49b26	-0.020093512
155	0x3d67a694	0.056555346
156	0x3bf6ede5	0.0075356835
157	0x3f089a82	0.5336076
158	0x3e920d1e	0.28525633
159	0x3c11d33a	0.008900458
160	0x3e7b8d3d	0.24565597
161	0x3e05e212	0.1307452
162	0x3c25f2b7	0.0101286685
163	0xbf031dd4	-0.5121739
164	0xbf5febee	-0.87469375
165	0x3ee150af	0.4400687
166	0xbe81e364	-0.25368798
167	0xbf0028bc	-0.50062156
168	0x3ecd7d02	0.40134436
169	0x3eeba498	0.46024013
170	0xbf3b0464	-0.73053575
171	0xbe4227b5	-0.1896046
172	0x3e12e154	0.14343768
173	0xbebae596	-0.36503285
174	0x3dcfa279	0.10138411
175	0xbcc6f7c2	-0.024288062
176	0x3bf2875f	0.0074013914
177	0xbd92ae15	-0.0716211
178	0xbf2d7ef0	-0.67771816
179	0x3d3bdb92	0.045863695
180	0x3e5f86d7	0.21828781
181	0xbe9bb2f3	-0.30409965
182	0xbd5d7dbe	-0.054074995
183	0x3e718b40	0.23588276
184	0x3e0b5f2c	0.13610524
185	0x3cfeaa44	0.031087048
186	0xba2acd2d	-0.0006515559
187	0x3c581e7c	0.013190862
188	0x3e711a49	0.23545183
189	0xbed46b07	-0.41487905
190	0x3ddaec96	0.106896564
191	0x3ddae169	0.10687525
192	0xbe4a1dc2	-0.19737914
193	0xbdf24c09	-0.11830909
194	0xbde123c6	-0.10993151
195	0x3e1b6fd8	0.15179384
196	0xbe6fae53	-0.23406343
197	0xbe14ed30	-0.14543605
198	0xbd1591a1	-0.036515836
199	0x3f491b31	0.78557116
200	0x3f09f400	0.5388794
201	0xbe9f7e17	-0.31150886
202	0xbd9b4c0e	-0.07582866
203	0x3deb4b8a	0.11489017
204	0x3d75d3cd	0.060016442
205	0x3d74a13c	0.059724078
206	0x3e17ebd0	0.14836049
207	0x3d06e98f	0.032937583
208	0x3e62cfba	0.22149554
209	0xbd53fe64	-0.051756278
210	0xbe9c222b	-0.30494818
211	0x3d872999	0.06599731
212	0xbebfe951	-0.37482694
213	0xbf5377f4	-0.8260491
214	0xbdc26593	-0.0949203
215	0x3e1664f1	0.14686944
216	0xbe455a53	-0.19272737
217	0xbde8b812	-0.113632336
218	0x3d924646	0.0714231
219	0x3e6e851f	0.23292969
220	0x3f400550	0.75008106
221	0x3ec8bbe2	0.39205843
222	0x3d487583	0.048940193
223	0x3d9b82df	0.07593321
224	0x3e1ecb45	0.15507229
225	0x3de38659	0.11109609
226	0x3e0a9e90	0.1353705
227	0x3d2de5f7	0.04245564
228	0xbeae1fe2	-0.340087
229	0xbd4e23d1	-0.050327126
230	0x3ef67d43	0.48142442
231	0x3e9658eb	0.29364714
232	0xbd85a591	-0.0652572
233	0xbe8616fa	-0.26189405
234	0xbe4891ea	-0.19586912
235	0x3bd86da2	0.006604866
236	0x3e99479b	0.29937443
237	0xbe120070	-0.1425798
238	0xbdac7677	-0.08421033
239	0xbe67db83	-0.22642331
240	0xbdfa4008	-0.12219244
241	0x3e25ae44	0.16179758
242	0xbe8b2fe8	-0.27184987
243	0x3e8eef33	0.2791687
244	0xbe1756c0	-0.14779186
245	0xbe36200a	-0.1778566
246	0x3c592320	0.013253003
247	0x3d75accd	0.05997925
248	0xbd8985e6	-0.06714992
249	0xbddffc85	-0.10936836
250	0x3df3fadf	0.11913084
251	0x3e29ba54	0.16574985
252	0x3f348288	0.70511675
253	0xbedc3c8d	-0.43014947
254	0xbe2d2109	-0.16907133
255	0x3eee2f3e	0.46520418

encoder.layers.0.feed_forward.w_1.bias f4 [128]
0	0xbd73e744	-0.059546724
1	0xbe73b416	-0.23799166
2	0x3e8acf21	0.27111152
3	0xbd8dba14	-0.06920257
4	0xbcdb6d72	-0.026785586
5	0xbbc05aa8	-0.005870182
6	0xbe9d000a	-0.30664092
7	0x3a1c2e8a	0.00059578626
8	0xbc727cbd	-0.014800248
9	0xbdd1879f	-0.10230946
10	0xbdbdd701	-0.09269524
11	0x3d0d054d	0.034428883
12	0x3d13eaed	0.036112715
13	0xbed8179c	-0.42205513
14	0xbec60de4	-0.38682473
15	0xbe49712b	-0.19672076
16	0xbeb576f0	-0.35442305
17	0x3d878c49	0.06618554
18	0xbdf2f51a	-0.11863156
19	0xbeaafc42	-0.33395582
20	0x3d5f67a0	0.054542184
21	0xbd821088	-0.06350809
22	0xbe127ac7	-0.14304648
23	0x3da1d03f	0.07901048
24	0x3ca2e31c	0.019883685
25	0xbd0a2ff7	-0.03373715
26	0x3d250136	0.040284358
27	0x3e460326	0.19337139
28	0xbeaf1a68	-0.34199834
29	0xbd49e1e1	-0.04928768
30	0xbdea6a90	-0.114461064
31	0xbe94b49a	-0.29044038
32	0xbe1f9e39	-0.15587701
33	0xbe189229	-0.14899506
34	0xbdee9f60	-0.11651492
35	0xbe3231d7	-0.17401825
36	0x3c8c3bf4	0.017118432
37	0x3dda0d55	0.10647074
38	0xbe4bcf38	-0.19903266
39	0xbf15ce76	-0.5851816
40	0xbdfe139c	-0.12406084
41	0xbe37ccb1	-0.17949177
42	0xbdad536c	-0.08463177
43	0xbdf701bb	-0.12060877
44	0xbe558103	-0.20849995
45	0xbccd717c	-0.025078528
46	0xbe68f49a	-0.22749558
47	0x3cd3ed4b	0.025869986
48	0x3d8993ea	0.067176655
49	0xbdd54457	-0.104134254
50	0xbdc90786	-0.09815888
51	0x3c2417f5	0.010015477
52	0x3d87e0eb	0.066346966
53	0xbdf85881	-0.12126256
54	0x3c878de7	0.016547156
55	0x3dd9f93a	0.10643239
56	0x3d626211	0.055269305
57	0x3d8e23b7	0.06940406
58	0x3d73ffb8	0.059570044
59	0xbece52cf	-0.40297553
60	0xbd69ba69	-0.05706254
61	0xbd4331c7	-0.047654893
62	0xbdf80900	-0.121110916
63	0xbef0341f	-0.46914765
64	0xbe2f40c6	-0.17114553
65	0xbe44c40b	-0.1921541
66	0x3d2040d9	0.039124344
67	0xbeb61efa	-0.35570508
68	0xbcf84185	-0.03030468
69	0xbec007c4	-0.37505925
70	0xbe1aea54	-0.15128452
71	0xbeafe11b	-0.3435143
72	0xbde6706d	-0.11251912
73	0xbe068c45	-0.13139446
74	0xbe848b96	-0.25887746
75	0xbe9acb06	-0.3023302
76	0xbe83b6ea	-0.2572549
77	0xbc0e460e	-0.0086836945
78	0xbe3cc903	-0.18436055
79	0xbcb7e041	-0.0224458
80	0xbd6a95b5	-0.057271678
81	0xbe39e09e	-0.18152091
82	0x3dfbfc72	0.123040095
83	0xbd98c74c	-0.07459888
84	0xbcb549ab	-0.022129854
85	0xbe81037c	-0.2519797
86	0xbe900c17	-0.28134224
87	0xbd2ea866	-0.042641066
88	0xbe33cb61	-0.17558052
89	0xbeb66dfd	-0.3563079
90	0xbd6f48ad	-0.05841892
91	0xbe4968dc	-0.19668907
92	0x3e6abdf6	0.22924027
93	0xbe4657ca	-0.19369426
94	0x3a53d542	0.0008080789
95	0xbc5835db	-0.013196434
96	0xbeb38111	-0.35059407
97	0xbe6892c3	-0.22712235
98	0xbe83f61a	-0.25773698
99	0xbec0fbc3	-0.3769208
100	0xbe053ecd	-0.13012238
101	0xbe447f53	-0.19189195
102	0xbe07c819	-0.13259925
103	0xbe94a4d5	-0.29032007
104	0x3d98e5cb	0.074657045
105	0xbe25b6b6	-0.1618298
106	0x39deca0e	0.00042493682
107	0xbdadecc6	-0.084924266
108	0xbe189ca7	-0.14903508
109	0xbe4168cf	-0.18887638
110	0xbd2fbcca	-0.042904653
111	0xbde48f61	-0.1116016
112	0xbd0d4afe	-0.034495346
113	0x3d775640	0.06038499
114	0xbd8142c6	-0.06311564
115	0xbe2deb27	-0.16984235
116	0xbdff0ab9	-0.12453217
117	0xbe39cc86	-0.18144426
118	0x3d37e786	0.044898532
119	0xbdab80c8	-0.083741724
120	0xbdbe0285	-0.09277824
121	0xbe16e9d5	-0.14737637
122	0xbe39cf8c	-0.18145579
123	0xbe2029f1	-0.15641
124	0xbe8551f6	-0.26039094
125	0xbe996db8	-0.2996652
126	0xbd4d66e3	-0.05014695
127	0xbcc5efa6	-0.024162125
