index_advisor_selector/index_benefit_estimation/index_cost_lib/exp_res/exp_lib_tpch_tgt_ep500_bat2048/model/lib_LIB_400.pt (torch, 413135 bytes, 120 tensors)

S f4 [1, 1, 32]
000000 dc d3 07 3e 59 a8 ef 3d f3 c7 20 bd ff e5 0a 3e
       0.13264412 0.11702032 -0.039253186 0.13564299
000010 3a eb 25 be 3c f1 52 be 13 bb 2b 3e 24 94 5f bd
       -0.16203013 -0.20599836 0.16770582 -0.054584637
000020 46 f4 44 be 5e 13 32 be 07 d0 0b 3e 7b 86 a4 bb
       -0.19233808 -0.173902 0.13653575 -0.005020914
000030 c8 5f 31 be 8c c7 c5 3c 6d 9e 22 bd 56 ee 7c be
       -0.17321694 0.024143003 -0.039701868 -0.24700293
000040 d8 a8 38 be 94 76 fd bd 00 c4 04 bd 03 8f 0d be
       -0.18033159 -0.123761326 -0.032413483 -0.13824086
000050 78 73 6a bd 8c 13 31 3e 32 b6 c3 3d 61 3a 00 3e
       -0.057239026 0.17292613 0.095562354 0.1252227
000060 a9 31 2a bc 3c 01 12 bc c5 4e 1e 3d a4 ca e9 3c
       -0.0103878165 -0.008911427 0.03864934 0.02853901
000070 c3 ae 1f 3e 1d 91 97 3d 53 37 9d bb af a2 87 3b
       0.1559401 0.07400725 -0.004797855 0.0041392664

linear1.weight f4 [32, 12]
000000 2b 0d 3b be d3 59 01 3d af 26 5d 3e 10 91 69 3e
       -0.18266742 0.031579804 0.21596788 0.22809243
000010 0a 9f df 3f 44 d9 ab bc 69 5d 2f bf 8c e2 01 bf
       1.747041 -0.020977624 -0.6850191 -0.5073631
000020 f0 0a 84 3e 13 a1 6f 3f 4e e3 4b 3e 8d ad 24 be
       0.25789595 0.93605155 0.19910929 -0.1608183
000030 4c 18 82 3d af 83 de 3b d6 0c 45 bf 8d cf 15 bf
       0.063522905 0.0067906003 -0.7697271 -0.5851982
000040 f9 28 2f be fe 23 2d 3d a7 a7 f5 3d bc 1f 93 bd
       -0.17105474 0.042270653 0.11994868 -0.07183787
000050 2a 1f a6 3e 83 d7 61 be f0 db e8 be 4e 20 9a 3e
       0.3244565 -0.22054867 -0.454803 0.30102772
000060 44 12 f6 3c 12 6c cb be dd cf 6e be 0e ee 61 3d
       0.030038007 -0.3973089 -0.23321481 0.055158667
000070 84 76 67 40 11 62 89 be c7 11 7d be dd 63 80 3d
       3.6166086 -0.2683263 -0.24713813 0.062690474
000080 7f 73 97 bf 41 20 27 bf 53 a8 fb 3e 57 88 2f 3f
       -1.1832122 -0.6528359 0.4915186 0.68567413
000090 85 e4 a8 be 83 9e 96 3f 26 13 d8 be 47 e4 e4 bd
       -0.32986847 1.1767124 -0.4220211 -0.11176353
0000a0 f5 72 63 c0 df 1e e9 be a6 f2 06 3f 4a ca 9d bf
       -3.5538914 -0.45531365 0.52714 -1.2327359
0000b0 3a c7 44 bf a2 c9 9d be ae 77 20 3e b3 82 ce be
       -0.76866496 -0.30817896 0.15670654 -0.4033409
0000c0 c7 19 cc 3d c8 3d bd be 29 66 e1 bd a6 fa 6b bd
       0.09965854 -0.36961198 -0.11005814 -0.057612084
0000d0 0f 22 85 40 9c f2 f1 be 0b 3b f1 3e 57 cd 75 be
       4.1604075 -0.4725541 0.4711536 -0.24004112
0000e0 7d e3 4b c0 47 6b 9e bf cf e4 a4 be 38 54 19 be
       -3.1857598 -1.2376488 -0.32205817 -0.14973533
0000f0 1a 61 8f bf 66 ae 06 bf 66 2c d5 3f 08 56 28 3f
       -1.1201508 -0.5260986 1.6654174 0.65756273
000100 57 ed a7 40 3e 73 06 3d d6 f3 2b 3e bb 6b c3 bd
       5.247722 0.032824747 0.16792235 -0.09542032
000110 0b 3a 20 3f 82 f4 49 bf ce f2 12 bf 48 c0 20 3f
       0.62588567 -0.78888714 -0.5740174 0.627934
000120 e9 6e 9a 3e 98 0a 9a be a0 00 d8 bd c6 0d 86 3e
       0.30162743 -0.30086207 -0.10546994 0.26182383
000130 99 a6 23 40 c5 98 0a bf 9b ce 92 3f 00 05 61 be
       2.5570433 -0.5413936 1.1469301 -0.21974564
000140 47 4a 8c 3e 36 4c cb be 88 25 e2 be e9 83 90 bd
       0.2740042 -0.39706582 -0.4416926 -0.0705641
000150 a8 b7 1a c0 07 c5 85 3f c2 f9 8a 3e a3 29 9e 3d
       -2.4174595 1.0450753 0.27143675 0.07722785
000160 83 e2 95 c0 52 9d 06 3f 9e 1a 1e bf 3b 13 48 3f
       -4.6839004 0.525838 -0.61759365 0.78154343
000170 e7 e8 2b 3f dd 32 69 3e 0f 01 46 be 55 44 58 bd
       0.67152256 0.22773309 -0.19336341 -0.05279954
000180 d7 a1 f2 3f 02 45 21 bf 71 3c 58 bf b4 7d 9e be
       1.895564 -0.6299592 -0.84467226 -0.3095528
000190 10 ca 86 c0 90 6f 90 3e 71 b4 38 3d ae 47 8b 3f
       -4.212166 0.28210115 0.045093957 1.088125
0001a0 e2 6c 0c c0 7e 59 97 3f 68 e5 73 bc 16 4c ed bb
       -2.1941457 1.1824186 -0.014886238 -0.007241736
0001b0 72 1f 39 be cd cd 50 3e 19 12 3c bf c2 b5 5c 3e
       -0.18078402 0.20391007 -0.73465115 0.2155371
0001c0 30 b1 14 3d 1a 2e fa 3e 7f 52 e3 3c f3 f2 13 c0
       0.03630179 0.48863298 0.027749298 -2.3117034
0001d0 98 c6 b6 3e 4a 1a f6 3e 06 6d b9 be 2f c2 5d 3f
       0.3569839 0.48066932 -0.3621599 0.86624426
0001e0 40 53 30 bf d1 32 0e bf e0 93 fa 3c 90 49 8c 3e
       -0.6887703 -0.5554629 0.03058809 0.27399874
0001f0 b2 bd 95 40 37 7e 79 bf 2a 57 11 bf 3e 1e ae be
       4.679406 -0.97458214 -0.56773627 -0.34007448
000200 1d cf 93 be df 18 5b bf 36 2b 81 be 13 7f 5d 3d
       -0.28868952 -0.85584825 -0.2522828 0.054076266
000210 f4 f0 20 3f d9 db f2 bd 6c 5c e3 be 23 dc 8d be
       0.62867665 -0.11858339 -0.4440645 -0.27707013
000220 78 09 a2 3e 7f f9 7f 3e 5d e1 be 3d ee 08 0c 3e
       0.3164785 0.24997519 0.093203284 0.13675281
000230 ed aa 30 3f 26 c2 2d be 57 9b 68 be a0 30 54 bf
       0.6901081 -0.16968593 -0.22715507 -0.82886696
000240 e6 16 ab 3e b4 ed dd 3e ef ef 59 3f ab e2 05 bf
       0.33415908 0.43345416 0.85131735 -0.5229899
000250 b9 0f 1f be a3 27 b3 be 28 f4 19 bb 16 8d dd bc
       -0.15533341 -0.34991178 -0.0023491476 -0.027044814
000260 de 60 1f 3f c3 b5 13 3e 5f fb 90 3e 4a 3f 02 3f
       0.6225718 0.14424805 0.2831678 0.5087782
000270 8a c6 1b be 45 ad e4 bd c2 42 a6 be e8 b5 0a 3e
       -0.15212455 -0.11165861 -0.32472807 0.13545954
000280 a1 3c 69 40 1b 44 3d c0 d3 19 be be 43 21 e6 3f
       3.6443255 -2.9572818 -0.37129077 1.7978901
000290 5e 07 f6 3e 88 99 98 bf e5 d3 07 bf 8f 47 cc 3d
       0.48052496 -1.1921854 -0.530577 0.09974586
0002a0 f3 2c 13 bf da df a2 3e f2 07 59 3f 01 22 5e be
       -0.5749046 0.3181141 0.8477775 -0.21692659
0002b0 7c 74 a3 c0 61 5b 64 3f 32 b6 85 3f 3f ed b2 3d
       -5.1079693 0.89201933 1.0446227 0.08736657
0002c0 84 50 1c be b5 fc 81 be 10 7a b8 be d4 24 06 be
       -0.1526509 -0.25388113 -0.36030626 -0.13099986
0002d0 f8 c0 e1 be 03 c6 c1 3b 57 66 2d 3f a1 f1 a7 bd
       -0.44092536 0.0059134974 0.67734283 -0.08200384
0002e0 fb 74 c0 3e b6 0c e1 3e fd 31 29 3e 4a b5 a6 bd
       0.3758925 0.4395501 0.16522975 -0.08140047
0002f0 36 4f 15 3f df b5 ae 3e cb a1 60 3d b5 22 22 3f
       0.5832399 0.34123132 0.054841798 0.6333421
000300 02 f5 e8 bf e9 ee 23 be 5f 06 f4 3e 11 dd 14 3f
       -1.819977 -0.16009106 0.4766111 0.5814982
000310 28 b0 08 40 02 66 99 bf af 75 e3 3e 38 f7 b0 bd
       2.1357517 -1.1984255 0.44425723 -0.08640903
000320 16 c7 c3 be 6a 29 17 bf c7 8b c8 bd 61 08 0b bf
       -0.38237828 -0.5904757 -0.097922854 -0.5430966
000330 3d 56 2f bf dd fb 27 be 47 c1 8c bd 37 84 cb 3e
       -0.68490964 -0.16404672 -0.06872802 0.3974931
000340 23 18 b5 40 15 24 8e bf 6b f8 a5 3e 5d 2e 2e be
       5.6591964 -1.1104761 0.3241609 -0.17009874
000350 f3 a0 f7 3e 9b 20 85 bf 5d a2 27 bf 1d 9e 9a be
       0.48364982 -1.0400575 -0.6548212 -0.30198756
000360 91 35 2c 3e 7b 66 af be 18 09 4b be d0 4e 10 3d
       0.16817309 -0.34257874 -0.19827688 0.03523141
000370 c9 a3 3f 40 59 af 47 be ef 2b 30 3e cb 37 e2 3e
       2.9943717 -0.19500484 0.1720426 0.44183192
000380 73 44 3d c0 7f 9a 04 3f 82 28 5e bf 97 49 ce bd
       -2.9573028 0.5179824 -0.8678056 -0.1007263
000390 14 e7 1e be b2 6a b9 be 04 74 71 be 33 97 93 3e
       -0.15517837 -0.36214215 -0.23579413 0.28826293
0003a0 ee 2a 92 40 fe 24 63 3e 18 bc 08 c0 ed b9 0a bf
       4.5677404 0.2218208 -2.1364803 -0.5418995
0003b0 47 98 8b bf cd b5 84 bf ef d2 96 3d a0 28 c8 be
       -1.0905846 -1.0367981 0.07364451 -0.39093494
0003c0 df db 12 3f 74 68 59 bf 32 4f fd 3f 71 b6 b7 3e
       0.57366747 -0.8492501 1.9789793 0.3588138
0003d0 34 15 97 40 d2 bf 0a 3f 70 d5 4a be c8 0a 0f be
       4.7213383 0.54198945 -0.19807982 -0.13968956
0003e0 6d 8b 86 be d3 9f dc bf 12 ef 78 3e 60 bb 14 3c
       -0.26278248 -1.7236274 0.24309948 0.009077877
0003f0 98 ba 45 bf 7e 9d cc be 7a 88 9c 3e 64 8a fb 3d
       -0.77237844 -0.39963907 0.30572873 0.12282255

linear1.bias f4 [32]
000000 18 7c 0c 3e bd d8 51 be ed 47 52 3c 90 f3 3d 3e
       0.13719213 -0.20492835 0.012834531 0.18549943
000010 7b 98 35 bf df b8 3f bf 33 48 9e bc 30 d9 ef 3e
       -0.7093579 -0.74891466 -0.019321537 0.46845388
000020 76 e7 3a 3e d0 b6 cb 3d 5e d4 ac be c4 6a 69 be
       0.18252358 0.09946978 -0.33755773 -0.22794634
000030 5b 22 45 3e 41 9d bd be 85 c2 88 3e 17 e3 97 bd
       0.19251387 -0.37034038 0.26710907 -0.07416361
000040 c6 50 24 be 72 da 0d bf 03 26 2a bf fe 7f 77 be
       -0.16046438 -0.55411446 -0.6646425 -0.24169919
000050 49 9e 09 bf b5 62 90 bf 66 38 cd be dd 9d 3a bd
       -0.5375715 -1.1280123 -0.4008209 -0.045560706
000060 29 90 d2 3c 8c bf b7 bd 4c c4 24 be ef 78 63 3e
       0.025703507 -0.089720815 -0.16090506 0.22214101
000070 cd 75 c6 3e 4b 36 8e 3e 04 b5 86 be 2b de a9 3e
       0.3876175 0.27775797 -0.2630998 0.33177313

encoder.layers.0.self_attn.linears.0.weight f4 [32, 32]
000000 18 94 8f bf cd 62 22 be 19 31 cf 3e c6 16 9e 3d
       -1.121707 -0.15858002 0.40467146 0.077191874
000010 ca 2c a5 3e 7f ca 25 3f 8b 50 be be 38 83 72 bf
       0.32260734 0.6476211 -0.37170824 -0.94731474
000020 9f 75 33 bf 20 36 04 be 4c 38 06 be 2d 50 35 be
       -0.7010135 -0.12911272 -0.13107413 -0.17706366
000030 39 2b 1c 3e 88 54 e9 3b b5 af b0 3e b1 33 c6 3e
       0.15250863 0.0071206726 0.34509054 0.38711312
000040 de a3 d2 be 9b dc 58 3e 62 47 fb 3e ba ae 37 bf
       -0.41140646 0.21177904 0.49077898 -0.71750987
000050 41 bd b5 be 9e 6c 5e 3e 65 88 e5 be 25 46 7b bd
       -0.35495952 0.21721122 -0.44830623 -0.061346192
000060 be 4c 7d bf 11 a3 6b 3e 01 d7 8b bc 93 26 cb bd
       -0.98945224 0.23011424 -0.017070295 -0.09919467
000070 df 31 14 3f bc be 1d bf a1 89 46 3f 52 78 c2 be
       0.578886 -0.6161916 0.77553755 -0.37982422
000080 7d 45 bf 3e 26 cf d1 be 71 fb 95 be 15 3f 41 be
       0.37357703 -0.40978354 -0.29293397 -0.1887172
000090 6a c5 c5 be 00 6b 5a bf b5 4f 1c 3e 94 15 f8 3e
       -0.38627177 -0.8531952 0.15264781 0.48453963
0000a0 4e 2e 08 bf ad a6 4c bf 14 39 5d 3e 5e e2 cd be
       -0.53195655 -0.7994183 0.21603805 -0.40211767
0000b0 ef 3b 31 be ff 75 9a 3e 3e bf 5e bf f8 e7 a9 bf
       -0.17308019 0.3016815 -0.8701056 -1.3273916
0000c0 5d 67 09 3d bd 95 b2 3e 81 bf 98 bd b1 cf 04 3f
       0.03354584 0.34879866 -0.074584015 0.5187941
0000d0 08 c0 14 bf 8a a6 3b bf cc 8c ca bd 48 65 ca be
       -0.58105516 -0.73300993 -0.09890136 -0.39530396
0000e0 b2 5b e7 bc 7c ab c9 bf ae 50 c1 bc 58 6a 99 be
       -0.028241966 -1.5755458 -0.023598041 -0.29963946
0000f0 3d cb 8f bf 4a 46 d8 3c 5a f0 81 be 8b 3d b6 3d
       -1.1233898 0.026400704 -0.25378686 0.08898457
000100 ef 23 ee bd f1 2e 34 3e 47 b8 36 3e 1a e9 bd 3e
       -0.116279475 0.17596032 0.17843734 0.37091905
000110 b5 1d ab 3e 39 ab 37 3f 9f ea 3d 3e ef 9c a0 3f
       0.33421102 0.7174564 0.18546532 1.2547892
000120 18 b7 24 3d c1 5e 0a 3d 86 b3 19 3f da 03 9d bd
       0.040213674 0.03378177 0.60039556 -0.0766675
000130 74 0a 9d be da 91 29 3f ac 85 0c 3f f7 1c cc 3e
       -0.30672038 0.66238177 0.5489147 0.39865848
000140 f5 51 18 3a 4f e3 db 3e e8 04 80 3e c1 ff da 3e
       0.00058105524 0.4294686 0.25003743 0.4277325
000150 c3 a7 c5 3e ca 88 5f 3f 29 7a d9 3e a5 96 25 bd
       0.38604555 0.873181 0.42476013 -0.04042687
000160 44 1b c5 bb 38 80 97 3e 7b bb 1e 3c 3c ff 32 3e
       -0.006015213 0.2959001 0.0096882535 0.17480177
000170 b6 48 27 bf 1e 77 df 3e 0d 64 fc 3e 36 da 51 be
       -0.65345323 0.43645567 0.49295083 -0.20493397
000180 cf 59 a0 3e c4 93 d1 3d 54 ce a0 3e 9c a9 3e be
       0.3131852 0.10233262 0.31407416 -0.18619388
000190 7a ee 1b bf 1d 70 25 bf 1e 9d 46 be 2b 8c 55 3e
       -0.6091076 -0.64624196 -0.19395873 0.20854251
0001a0 3c 32 0c 3f 5a 4a 95 3f 58 7a 71 be 48 96 4f 3d
       0.5476415 1.1663315 -0.23581827 0.05068043
0001b0 37 8c a4 3e 08 2f 82 bf cc 49 56 be fd 18 2c bf
       0.32138225 -1.0170603 -0.20926589 -0.6722563
0001c0 ca f1 24 3e 60 e1 18 bf 40 7d d5 be ba 26 79 3e
       0.1610786 -0.59718895 -0.4169712 0.2433118
0001d0 67 b4 15 be b7 7f 29 bf ce 23 8f 3e cb a1 46 bc
       -0.146196 -0.662105 0.27957004 -0.012123535
0001e0 a9 94 4e 3e 65 58 94 3e b6 4c 2d 3e bd 5c 23 be
       0.20173897 0.2897369 0.16923794 -0.15953346
0001f0 d6 de 40 3f 72 42 c7 3e 9d e2 59 bf 84 61 36 bd
       0.7534002 0.3891788 -0.8511141 -0.044526592
000200 50 59 93 3f 37 10 8d bb 14 4c 36 3f 5d 91 d5 3d
       1.1511631 -0.0043049115 0.71209836 0.104281165
000210 28 f1 2d 3e 4d a3 90 3f 45 c6 01 3e 21 a0 3e 3f
       0.16986525 1.1299835 0.1267329 0.7446309
000220 7e ae 0a 3f ed dc 2b 3f 16 a1 02 3f 76 27 1a 3e
       0.54172504 0.6713398 0.5102705 0.15054116
000230 b7 1d bc 3d b1 47 13 3f f8 20 d4 3e 71 e3 2b 3e
       0.09185355 0.5753127 0.41431403 0.16785981
000240 fd 56 88 3f 1b 2e 42 3f d0 d8 79 3f f9 dd 27 3e
       1.0651547 0.758516 0.97596455 0.1639327
000250 a1 69 07 3e 04 23 8f 3f dd 11 e2 be 08 29 4f 3e
       0.13223888 1.1182561 -0.44154254 0.20230496
000260 03 2d ba 3f 45 83 b1 be 9b 22 e9 bd f8 e7 d0 3e
       1.4544986 -0.34670463 -0.113835536 0.40801978
000270 a8 64 e1 3e e7 a2 96 be cd 88 cb be b0 65 0b 3f
       0.44022107 -0.2942116 -0.39752808 0.5445204
000280 da 0b 17 3f b5 0c 86 3e d8 98 89 bd 46 6c 8a 3f
       0.5900246 0.2618157 -0.06718606 1.0814292
000290 44 be 40 3e 10 23 f2 be 26 02 3a 3f 75 9b bd be
       0.1882258 -0.47292376 0.7265953 -0.37032667
0002a0 53 c5 81 bf 76 d4 fd bd 49 60 56 3d 3b 62 b3 bc
       -1.0138344 -0.12394039 0.05233792 -0.021897426
0002b0 76 cd ac bc 77 97 da be 30 49 9f 3e 03 32 d5 3e
       -0.021094065 -0.42693684 0.31110525 0.41639718
0002c0 32 aa c4 3f f3 80 d6 3d 13 a6 b6 be 42 9c 6a 3e
       1.536444 0.10473814 -0.3567358 0.2291117
0002d0 c2 1a 84 bd 8d 5c b7 3e c3 18 cf 3e 1e 69 45 3e
       -0.06450416 0.35812798 0.4044858 0.1927838
0002e0 6c 75 86 be d9 95 03 bd c2 78 be 3c 2f 12 7f be
       -0.2626146 -0.032125328 0.023250941 -0.2490928
0002f0 aa 7a 85 bd 50 1c f5 3e c5 b4 8a be 19 82 b7 bf
       -0.06517537 0.47873163 -0.2709104 -1.4336578
000300 73 1f 10 bf 5e 7d a4 be c7 73 21 bc f5 e1 ed be
       -0.5629799 -0.32126898 -0.009854264 -0.46461454
000310 78 d5 4f be f0 72 ce 39 94 71 e3 bd 41 e3 76 3f
       -0.20296276 0.00039377017 -0.11105648 0.9644051
000320 99 c2 30 be c9 59 03 3e a2 1e da bd e3 3e 40 be
       -0.17261733 0.12827219 -0.10650374 -0.1877399
000330 94 b8 1b 3f b9 1b 4e 3f bc e5 af be 9e 57 39 3f
       0.6082852 0.8051105 -0.3435496 0.7239932
000340 1b 1b 72 bf 39 91 23 3f f0 23 3e be 6f 85 fa 3d
       -0.9457261 0.6389347 -0.18568397 0.12232482
000350 01 2f 3e be ec 05 0e be 1a 4a 0b be d1 6a f5 be
       -0.18572618 -0.13869447 -0.13602486 -0.47933057
000360 bf ea ef 3d 77 27 8a 3f a6 36 06 bd 39 46 15 be
       0.11714696 1.0793294 -0.03276696 -0.14577569
000370 82 85 c5 be 18 bb 02 bf 45 c8 07 3f d7 fa 32 3f
       -0.3857842 -0.5106673 0.5303996 0.69914
000380 65 71 1c c0 0f c6 a6 3e b4 6a 9f be b7 b4 e4 be
       -2.444421 0.32572982 -0.31136096 -0.44669124
000390 c2 1b d5 be 37 2e 7b bf 02 2f 72 bf f5 0b 87 bf
       -0.4162274 -0.98117393 -0.9460298 -1.0550524
0003a0 cc fa 72 3e 5a 4e 3d 3e f5 c1 2f bf 20 f2 a8 bd
       0.23728484 0.1848692 -0.6865533 -0.08249307
0003b0 1b d7 05 bd a7 50 52 bf 4b 1b 0c 3d 84 1b 34 bf
       -0.032675844 -0.82154316 0.034205716 -0.70354486
0003c0 40 4a 56 c0 19 20 d4 bf 60 2a 12 bf 26 42 56 bf
       -3.3482819 -1.6572295 -0.5709591 -0.83694685
0003d0 49 a3 96 be 72 45 99 bf 89 06 ef bc 1b 94 fd 3d
       -0.29421452 -1.1974318 -0.02917792 0.123817645
0003e0 e5 2e e2 bf 08 2d 6b bf 5f 39 ba 3d 9f b8 69 be
       -1.7670561 -0.9186559 0.09092974 -0.22824334
0003f0 03 f3 f7 3e 51 80 51 3e 73 47 df 3e 37 93 dc be
       0.4842759 0.20459105 0.436092 -0.43081066

encoder.layers.0.self_attn.linears.0.bias f4 [32]
000000 52 b8 cc be 6c 56 3d bd bd e2 e2 3d 6f 35 48 3f
       -0.39984375 -0.046224996 0.11078403 0.78206533
000010 7f 96 d3 3e ff c1 89 be 3b c2 f3 be 15 d4 98 3d
       0.41325757 -0.2690582 -0.47609124 0.074623264
000020 99 ce 23 be 71 38 ae 3d d3 02 03 bf b7 89 8c be
       -0.1599678 0.08506859 -0.51176184 -0.27448818
000030 45 a0 4a bd d2 f8 ad bd 36 c7 85 3e 4d 78 a1 bd
       -0.04946925 -0.08494724 0.26128548 -0.07884274
000040 8d d4 40 be 3b 43 d3 3e d1 82 e5 be 45 76 86 be
       -0.18831082 0.4126223 -0.44826367 -0.26262107
000050 cc cb 57 be 09 56 16 be 4f ae 41 3c 2c 74 38 bd
       -0.21073836 -0.14681257 0.011821344 -0.045032665
000060 a2 56 4d 3e 40 bf 2e 3e ca 11 4d 3e a9 2d 0f 3c
       0.20052579 0.17065144 0.20026317 0.008738914
000070 c0 7f 4f 3d 35 c7 7e be 8e 2c 13 3e 6d 17 ff bc
       0.05065894 -0.24880679 0.14372465 -0.0311391

encoder.layers.0.self_attn.linears.1.weight f4 [32, 32]
000000 e2 b6 31 be 7a 16 70 be 5e 90 8e 3f e3 6d 8b be
       -0.1735492 -0.23446074 1.1137807 -0.27232274
000010 97 cc c6 be 76 84 7b 3e a4 a8 1f be 32 a7 6a be
       -0.38827965 0.24562249 -0.15591675 -0.22915342
000020 00 4b 06 3e a0 49 2f bf e4 56 b6 3e 74 17 a7 be
       0.13114548 -0.6847172 0.35613167 -0.3263508
000030 9d ff 72 bd 16 2a 14 be e5 69 91 be 0a 7d 8a 3e
       -0.059325803 -0.1446918 -0.28401104 0.27048522
000040 87 df 2d bf 9e 9a 9c 3e 8c f2 ab be 49 4b 2f bd
       -0.679192 0.30586714 -0.33583486 -0.042796407
000050 5d cc 08 3e ad 5d c8 3e e6 5d cf be 0a 3f 98 bd
       0.13359208 0.3913397 -0.40501326 -0.07433899
000060 dd 3f cf 3e c7 41 e5 be 31 66 81 be ab 84 48 be
       0.4047841 -0.44776747 -0.25273278 -0.19581859
000070 b6 88 ef bd 13 85 2e be 77 7c 43 be cd ba aa 3e
       -0.116959974 -0.17042951 -0.19090448 0.33345643
000080 b4 c6 8b be 03 9d c5 3e cc 71 56 bf ea 6d 8b bd
       -0.27300036 0.38596353 -0.8376739 -0.06808074
000090 06 3d ad 3e f2 b2 61 be 18 e1 fa bd 24 a3 4f 3e
       0.3383562 -0.22040918 -0.122499645 0.20277077
0000a0 9b 71 83 3e d1 e6 7b 3e 8c 25 84 be 29 53 23 3f
       0.25672612 0.24599768 -0.25809896 0.6379877
0000b0 60 41 28 3f d1 38 c0 3d 1b 70 23 3f 5a 7a 1d 3d
       0.65724754 0.09385837 0.63842934 0.03844676
0000c0 ca ce ca 3e 55 67 a9 be 92 68 81 3e 9c 71 c5 be
       0.39610893 -0.3308665 0.25275093 -0.3856324
0000d0 39 21 f3 3d 1f 6c ee be 73 92 3e 3f f7 6b be 3e
       0.11871571 -0.46566865 0.74442214 0.37191746
0000e0 4b 52 35 bf fa 34 72 be 4d 8c eb 3e 01 d6 f2 3e
       -0.70828694 -0.23653021 0.46005479 0.47428897
0000f0 92 69 44 3e 38 1f 59 3e 6b 7d 8c be 28 8b 39 3e
       0.19180897 0.21203315 -0.27439436 0.1811949
000100 5b 19 f0 bd 2e c7 e9 3d 85 62 28 3f 43 a0 94 be
       -0.11723586 0.11414944 0.6577533 -0.2902852
000110 5f 22 c0 be 23 1c 02 3f e7 d1 9f 3e 41 af b7 be
       -0.37526223 0.50824183 0.3121483 -0.35875896
000120 5c 2f 8c bf bc 78 e1 3e 7c a6 6b be c1 bf 35 be
       -1.0951953 0.44037426 -0.23012727 -0.1774893
000130 35 33 96 be 40 95 99 bb 25 33 2c 3e 94 97 4d bf
       -0.29335943 -0.0046869814 0.16816385 -0.80309415
000140 94 ec 3c bd 78 d3 06 3d 27 89 aa bd 48 79 11 3e
       -0.046124056 0.032916516 -0.08326941 0.14206421
000150 f1 f0 ac be a2 11 28 3f ea 97 0d be c7 66 cc 3a
       -0.33777574 0.65651906 -0.13827482 0.0015594595
000160 2d bd b6 be c8 01 57 3f e1 ce 03 3d f6 a9 b0 3d
       -0.35691205 0.8398709 0.032179717 0.086261675
000170 f7 48 68 3d b8 ea bd be 75 f9 df 3e 3f 94 73 bf
       0.05671021 -0.3709314 0.43745008 -0.9514808
000180 8e 77 c8 bc 2f dc 85 be 13 4e 2b bf 41 db 45 3f
       -0.02447107 -0.2614455 -0.66916007 0.7728768
000190 fc 4a 02 3f 17 f1 cd be 7a d6 60 bf 1c 45 5f 3f
       0.5089567 -0.40223 -0.87827265 0.8721483
0001a0 17 31 46 3e 7e 00 0a 3e f3 79 b1 3c e5 b8 5d bd
       0.19354664 0.1347675 0.021664595 -0.054131407
0001b0 bd 4a 18 bf 12 55 9c be 52 ab aa 3e 1f 80 8f be
       -0.5948904 -0.30533653 0.33333832 -0.28027436
0001c0 91 1a af 3e da ca 9c be 46 60 e5 3d e3 ee de 3e
       0.34199956 -0.30623513 0.11200003 0.4354163
0001d0 ee df 0e be 54 c1 4f bf 2d 8b e0 3d 5c 06 93 be
       -0.1395261 -0.8115437 0.10964046 -0.2871579
0001e0 fe c8 2d 3d a1 84 32 bf 2f 85 bb 3d 6e bf aa be
       0.04242801 -0.69733626 0.09156262 -0.33349174
0001f0 23 ee 3c 3d 14 31 2f 3f 1a 09 c2 3e 8d f5 12 bf
       0.046125542 0.6843426 0.3789757 -0.5740593
000200 81 82 7c 3f 27 72 85 be d0 69 17 bf 7b a6 97 be
       0.98636633 -0.26063654 -0.5914583 -0.29619202
000210 18 f4 10 be d1 ff b0 bd 89 45 2d 3e da aa b8 bd
       -0.14155614 -0.08642543 0.16921057 -0.09016962
000220 1f 24 59 be 36 42 09 3e 59 3e bb 3e 2b 76 8f be
       -0.21205185 0.13404164 0.36571005 -0.28019843
000230 22 99 05 bf 93 e4 62 3e 2e 9b 8f be 14 83 f4 be
       -0.5218679 0.22157507 -0.2804808 -0.47756255
000240 f0 3e dd 3d 71 1e b4 3e 06 ce a4 be dc 84 62 3f
       0.1080302 0.35179475 -0.32188433 0.8848398
000250 08 f7 8f 3e 6e 74 11 3d 83 85 2d bf ac 2b 64 be
       0.28118157 0.035511427 -0.6778185 -0.22282284
000260 d3 b6 0a 3f f1 87 54 bf fa 18 f1 be f8 d1 9a be
       0.5418522 -0.8301993 -0.47089368 -0.30238318
000270 89 14 d1 3e a3 18 92 ba ac aa 90 be 18 16 9a be
       0.4083598 -0.0011146258 -0.28255212 -0.3009498
000280 27 18 5c bf e0 00 36 3f 66 5c e0 3d be 11 0c bf
       -0.85974354 0.71095085 0.109551236 -0.5471457
000290 75 38 4f be 7f 79 33 be 2b e6 bb 3e 0e 59 cf bd
       -0.2023638 -0.17526816 0.36699042 -0.10124408
0002a0 b7 13 1c 3f cd a6 90 be 20 d9 62 be 44 7c 59 3e
       0.6096758 -0.2825226 -0.22153139 0.2123881
0002b0 d0 31 56 3f c1 65 37 3f cc 64 ba 3e 7a d6 fb 3e
       0.8366976 0.7163964 0.36405027 0.4918707
0002c0 0e 06 ff be 7a 73 ed be 59 c1 61 3f 39 03 bd be
       -0.49809307 -0.46377164 0.8818565 -0.3691652
0002d0 5e cd a4 be 35 4a 65 3e bc b3 bb 3e 81 73 e7 3e
       -0.32187933 0.22391589 0.36660564 0.4520531
0002e0 b1 01 1a bf df c9 fe bd c2 c4 28 3f b1 f5 16 3f
       -0.6015883 -0.124408476 0.6592523 0.58968645
0002f0 8f 6e 72 be d3 81 f9 be a1 fd 44 3f 38 b3 dc 3d
       -0.23674987 -0.4873186 0.76949507 0.10776371
000300 ca 75 57 be 5d 19 55 3d f0 96 46 3f c1 31 42 3f
       -0.21041027 0.05202614 0.7757406 0.7585717
000310 07 7a 04 3f 2d cb 95 3e ae ab 4e bf 56 3d 03 3f
       0.517487 0.29256573 -0.8073071 0.51265466
000320 4e 51 88 be f6 d0 9e bc 23 06 43 3e 26 84 f7 3e
       -0.2662453 -0.01938675 0.1904531 0.4834301
000330 63 4c fb 3e 7a 6c e9 bd 0e 64 8f bd 1f 94 12 3f
       0.49081716 -0.113976434 -0.07001506 0.57257265
000340 20 1e 17 3e 6c 7b c0 be b5 c2 72 3e 7a 66 f8 be
       0.14757586 -0.37594163 0.23707087 -0.48515683
000350 a6 6c 30 be fd 0a 14 3e a3 c9 09 3f 5a 52 bd 3d
       -0.17228946 0.14457317 0.538233 0.09244223
000360 1b 03 81 be d8 5d 63 3f 88 4b 99 3e 2d 47 ba 3e
       -0.25197682 0.8881507 0.29940438 0.36382428
000370 b7 23 ad be e7 64 09 be 35 48 08 3f 9a e2 c0 3d
       -0.3381631 -0.13417397 0.5323518 0.09418221
000380 96 12 5d bf 32 77 19 3f a5 c5 0e 3f 86 2e ab 3e
       -0.86356485 0.599475 0.5577033 0.33433932
000390 18 ca 46 be 98 5f 34 be 0c 21 94 bd 86 80 4d bb
       -0.1941303 -0.17614591 -0.07232866 -0.0031357124
0003a0 be 47 47 bd 17 77 64 3e ff 1a c7 be f6 86 ca 3e
       -0.048652403 0.22311054 -0.38887784 0.39556092
0003b0 aa 21 f2 3e f1 c4 93 be dd de 10 3f 99 aa 0a 3f
       0.4729131 -0.28861192 0.5659006 0.5416656
0003c0 bc 02 71 be 98 a3 12 bf 51 a5 54 be 2f 59 80 bf
       -0.235362 -0.57280874 -0.20766188 -1.0027217
0003d0 e4 36 81 be ce a7 49 be 15 52 ba 3e 79 97 06 3f
       -0.2523719 -0.19692919 0.3639075 0.5257488
0003e0 a4 99 c6 be 2c cf 36 3f 36 e4 dc 3e 87 b6 66 3e
       -0.38789093 0.7140987 0.4314286 0.22530566
0003f0 00 10 d4 bd c5 28 b8 3e 9b 27 ce 3e 69 b3 c9 3e
       -0.10354614 0.35968605 0.40264592 0.39394692

encoder.layers.0.self_attn.linears.1.bias f4 [32]
000000 75 74 a7 be 80 4f 3f 3e e7 bd 1b 3d 13 99 6b 3e
       -0.32706037 0.1868267 0.038022902 0.23007612
000010 89 07 96 be 36 2d 5d 3e cc 26 a2 3c d9 cb 66 3e
       -0.29302624 0.21599278 0.01979389 0.22538699
000020 d1 99 49 3e c3 c5 53 3e 8f 08 b2 bc 0e a9 36 3e
       0.19687583 0.20680909 -0.021732597 0.17837927
000030 05 c9 22 be d2 d2 00 be 05 4e 2f 3e 6d 36 32 be
       -0.15896995 -0.12580422 0.17119606 -0.17403574
000040 b5 e9 87 bc 8d 33 09 3e 61 8e 1a 3e 85 37 77 be
       -0.016590932 0.13398571 0.15093376 -0.24142273
000050 08 ed 1c 3d 5f 9c b6 be 42 fe d5 3e 01 e7 93 3e
       0.038311988 -0.35666177 0.41795546 0.2888718
000060 d5 97 ff bd c1 be 8d bd 90 64 14 3d 9e 3a 0b 3e
       -0.124801315 -0.06921149 0.036228716 0.1359658
000070 ac d3 2f 3e b2 a1 c8 3e 17 69 14 3e a5 55 b5 3e
       0.1717059 0.39185864 0.14493214 0.35416904

encoder.layers.0.self_attn.linears.2.weight f4 [32, 32]
000000 de 08 50 be 66 24 9b 3c 5a 3e eb bd 13 d1 9b 3e
       -0.20315883 0.018938255 -0.11486502 0.30432948
000010 44 c1 65 be 7d a0 eb bd d8 eb a4 3c ce a0 d0 3d
       -0.22437006 -0.1150522 0.02013199 0.10186921
000020 17 12 cd bd b6 16 e9 be 3a e0 03 be 6c ab 28 3f
       -0.10013216 -0.4552514 -0.12878504 0.6588657
000030 3b 6a e3 3d 04 7b 4d 3e 09 09 61 3e a9 c7 4c be
       0.11104246 0.20066458 0.21976103 -0.1999804
000040 40 ac 00 bd b7 04 ac 3e 5c 1e b9 bd 1f 17 12 3a
       -0.03141427 0.33597347 -0.09038994 0.00055729033
000050 00 de 45 3e d1 ec b5 bd 54 b3 af bc b4 68 90 3d
       0.19322968 -0.0888306 -0.021447815 0.070512205
000060 58 98 74 3e bc 9b 7d 3e dc 37 b7 3d f6 d3 2c bc
       0.2388624 0.24766439 0.08946201 -0.010548582
000070 f7 bc e8 be 4a 6b 77 be 73 e3 6b 3e b8 45 11 be
       -0.4545667 -0.24162021 0.23035984 -0.14186752
000080 86 21 10 be 97 8a c1 be 53 6e a0 3c 86 83 5f bd
       -0.14075288 -0.37801048 0.019583857 -0.05456879
000090 c2 23 cd 3e 1c 4b cc bc 6b f2 f8 3d 3f c7 2b be
       0.40066344 -0.024938159 0.121556126 -0.16775225
0000a0 0a 46 50 3e a9 f9 a7 be 54 7a 07 3e 40 bf fe bd
       0.20339218 -0.32807663 0.13230258 -0.12438822
0000b0 dc db f7 be af a4 ab bd 6b c0 f5 bd 03 e9 ea bc
       -0.48409927 -0.0838102 -0.119995914 -0.028675562
0000c0 c9 78 aa bd 74 3c 0a be 93 91 13 3e 73 96 0c 3e
       -0.08323819 -0.13499624 0.14411001 0.13729267
0000d0 7b 63 ae 3d de 27 11 3e b9 fc e4 3e 29 9a 04 be
       0.08515068 0.14175364 0.44724062 -0.12949432
0000e0 2f eb 2a be 46 dd 0f bf e2 b4 6e bd 48 f8 32 be
       -0.16691278 -0.5619701 -0.058277972 -0.17477524
0000f0 f1 f0 8c 3e d9 a8 98 3e c1 47 43 be 93 f9 f0 bc
       0.27527574 0.2981632 -0.1907034 -0.029415881
000100 b8 e4 13 be 65 77 b8 bc bc 93 a1 3c 86 60 1d be
       -0.14442718 -0.02251787 0.019723766 -0.15368852
000110 16 47 ac 3d 0e df 56 be b3 1e 60 3e f1 33 81 3d
       0.08411996 -0.20983526 0.21886711 0.06308735
000120 0e 6b ba be 09 ac 46 3e 76 03 8c 3e 27 18 6f 3c
       -0.364098 0.19401564 0.2734639 0.014593161
000130 a7 ca 24 3d 03 de 15 bd 06 5a 92 3d 1a e0 e6 be
       0.040232327 -0.03658868 0.07146077 -0.4509285
000140 aa 8f 0f 3e 4f 37 57 3c 36 2f a9 be ce db 6c 3e
       0.14019647 0.013135745 -0.33043832 0.23130724
000150 52 45 36 bd 73 5b 53 3c c7 82 6c 3e 81 b8 2c be
       -0.044499703 0.012900221 0.23096763 -0.16867258
000160 ec 66 01 3e 9f c2 91 3e 7e e6 cd 3d a9 ef 52 3e
       0.12636918 0.28468797 0.100537285 0.20599236
000170 35 83 3e be 7f 13 a9 3c 01 f5 a2 3d b2 0a 07 3d
       -0.18604739 0.02063918 0.07956887 0.032969184
000180 87 3f e0 3d 50 79 fb bd 24 3f 52 bd 22 43 4b be
       0.10949617 -0.12278998 -0.051329747 -0.19849828
000190 e1 cc 67 3d 12 4f 0f ba 58 96 1c 3e 5b 8c 82 be
       0.056591872 -0.00054667995 0.15291727 -0.25497708
0001a0 78 d1 6f 3e 8a 02 28 3f 33 ed fa 3d dc 46 87 bf
       0.2341975 0.65628874 0.122522734 -1.05685
0001b0 68 62 7e bd f4 59 2e 3e 82 52 a9 be 84 37 4c be
       -0.062105566 0.17026502 -0.3307076 -0.19943053
0001c0 9a 90 85 3d fe 0a 23 be a2 b6 85 3e 43 9a dc 3e
       0.06521721 -0.15922162 0.261159 0.43086442
0001d0 ec 25 a1 bd 7e f7 88 bd 2a da 94 be 5c e3 ac be
       -0.07868561 -0.066878304 -0.29072696 -0.3376721
0001e0 fb f3 06 3e f7 e2 bc 3d 08 75 ca 3c 15 b5 54 be
       0.13179009 0.092229776 0.024714008 -0.20772202
0001f0 50 12 13 3f 98 02 e8 3d 37 38 46 bd 00 8d eb 3d
       0.5744982 0.1132862 -0.048393454 0.11501503
000200 fd 47 c2 be 5e f3 de 3d 8a 64 09 be 53 ed 2f 3d
       -0.37945548 0.10886262 -0.13417259 0.04295094
000210 34 4b 6a 3e 12 ff 36 bf f4 10 51 3d e7 63 91 3c
       0.2288025 -0.71482956 0.05104156 0.017747832
000220 83 4d fa 3e f3 37 89 3e e5 c3 0c 3e 37 6d 6c be
       0.48887262 0.26800498 0.13746603 -0.23088537
000230 b0 dd 8c be b3 5e 24 3f d3 1f e4 bd ac 57 52 bb
       -0.27512884 0.64207 -0.111388825 -0.0032095714
000240 d2 ac 11 be ec 0c 75 3e a8 96 cf 3d 61 17 db 3e
       -0.14226082 0.2393071 0.10136157 0.42791274
000250 13 00 83 bd 20 67 ae be 72 eb c9 3e 50 56 07 3e
       -0.063964985 -0.34063053 0.39437443 0.1321652
000260 20 11 7e be 7e fb 50 3e 94 ed a4 bd b2 37 da 3d
       -0.2481122 0.20408437 -0.08053127 0.10655154
000270 18 e7 8a 3e 55 15 c6 bd c2 0d 60 3e 02 69 ab 3d
       0.27129436 -0.096720375 0.21880248 0.08369638
000280 02 f1 dc 3e ce 7f d8 bb 4d 8b 42 3e e7 92 09 be
       0.43152624 -0.0066070324 0.18998452 -0.13434945
000290 95 84 02 bf 24 3a 07 be 36 e6 23 bd 51 46 67 be
       -0.50983554 -0.13205773 -0.040014468 -0.22585417
0002a0 f3 bf 48 bb ef 61 5c 3e e1 f9 fb bb 74 86 2c be
       -0.0030631989 0.21521734 -0.0076897 -0.16848165
0002b0 66 8a 37 3f 24 43 ce 3d d9 0f 41 bd d5 cd e9 3d
       0.71695554 0.100714 -0.047134254 0.114162125
0002c0 1f e0 88 3e 87 43 3a be 74 1f 24 be 46 ab c6 bd
       0.2673349 -0.18189822 -0.16027623 -0.097006366
0002d0 86 57 31 be 9d 89 28 bd 11 52 75 bc ff 12 d8 bc
       -0.17318544 -0.041146863 -0.014973179 -0.026376246
0002e0 07 32 7b 3e e5 2c d8 3d ec 7a 3a 3e d2 a1 46 3e
       0.24530803 0.10555438 0.18210953 0.19397667
0002f0 64 fb cb 3e e4 82 e3 be 9f 35 cd bd 1d 7c c0 3d
       0.39840233 -0.444358 -0.10019993 0.09398673
000300 d0 53 2f be ed 86 27 3e 87 e9 2b bd 9a a8 23 be
       -0.17121816 0.16360064 -0.041970756 -0.15982285
000310 ee 24 cb be 91 38 55 be 6a 4d 36 3e ee 31 0e 3f
       -0.39676613 -0.2082236 0.17802969 0.55544937
000320 a9 ef 54 3e 5e c8 4b 3e 7d a3 00 be e0 d3 b9 3d
       0.20794548 0.19900653 -0.12562366 0.09073615
000330 e8 2a 2f 3e 36 24 e7 3e 2e ec ac 3d 19 0a 17 bd
       0.17106211 0.45144814 0.08443485 -0.036874864
000340 38 0a 99 be d7 65 b2 3e 69 02 3e bc a9 14 7c 3c
       -0.2989061 0.34843323 -0.011597254 0.015385785
000350 1c 01 7f be 00 37 7f 3e f9 61 f8 bc e9 1e 93 3c
       -0.24902767 0.24923325 -0.030320155 0.017959075
000360 3f 57 df bd 4e dc 59 be df b7 81 bc 33 6c a9 3d
       -0.10905313 -0.21275446 -0.015834747 0.082725905
000370 3e 70 7a 3d bf 86 b4 bc 81 c5 c2 3d 04 ca 75 3e
       0.0611422 -0.022036908 0.09510327 0.24002844
000380 26 08 f8 3d f9 80 1b bc ba 85 70 3e 30 0d 85 3d
       0.12110929 -0.009491199 0.23488513 0.06496656
000390 1b cf a8 be f3 43 4c 3d c2 33 48 3d 5e 8a ae bc
       -0.3297051 0.04986949 0.048877485 -0.021306213
0003a0 0d 17 af be 39 6a 12 3e 35 b1 91 3d 05 26 68 3d
       -0.34197274 0.14298333 0.07113878 0.056676883
0003b0 69 69 9d 3e b8 2b f6 3c ed ce 37 3e 8d 07 74 be
       0.30744484 0.030050144 0.1795003 -0.23831005
0003c0 a8 23 ef bc 66 5f ab be 0d 60 95 bc 5c 37 b3 be
       -0.029191807 -0.3347122 -0.018234277 -0.35003173
0003d0 63 b4 3a be 4d 49 ad 3d 1c 41 3b bc 1e bb 43 3d
       -0.18232875 0.08461247 -0.0114290975 0.04778587
0003e0 1e 9d b6 3e 3a 26 51 be e5 be 28 3e 9b 95 ff 3c
       0.35666746 -0.20424739 0.1647907 0.031199267
0003f0 9e 53 d2 3e 42 3b 0a bd 5e a8 b1 be a4 fd 68 3e
       0.4107942 -0.03374792 -0.34698766 0.22753006

encoder.layers.0.self_attn.linears.2.bias f4 [32]
000000 87 3f 7f bd da b2 d1 3b 3f 6a f5 bd 21 95 4b 3d
       -0.062316444 0.0063994946 -0.119831555 0.049702767
000010 50 e9 95 be 37 10 f1 3c a4 2c b4 bd 30 79 00 3e
       -0.29279566 0.029426677 -0.08797577 0.1254623
000020 7f 1f ed 3d 65 e7 f2 3c 31 55 a2 bc 21 83 ba 3d
       0.11578273 0.029651353 -0.019816013 0.09107042
000030 d2 18 d8 3d 18 3b c6 bd c2 9e bf bd 1f 28 82 3c
       0.10551609 -0.0967924 -0.093564525 0.015888272
000040 45 48 66 3d 7f e0 ba 3d f6 12 f1 3d f3 79 ad bc
       0.056221265 0.091248505 0.11771195 -0.021176314
000050 12 43 3a be 5e 76 ce bd b8 40 91 3d 04 54 2f be
       -0.18189648 -0.100811705 0.07092422 -0.17121893
000060 ee 0b b8 bb bf 36 bd 3d 7b c5 e4 3d 07 49 bf 3d
       -0.0056166565 0.092389576 0.11170479 0.09340101
000070 21 f4 c6 bb d8 18 44 bd aa f9 1d 3d 1f b2 aa 3c
       -0.006071583 -0.047875255 0.038568176 0.020836888

encoder.layers.0.self_attn.linears.3.weight f4 [32, 32]
000000 d3 53 93 bd de 5c 19 3e 96 60 c8 bd ba 61 12 3e
       -0.071937226 0.14976832 -0.09784047 0.14295092
000010 ad 66 80 be a7 d9 b0 be df f8 ae be 9a a7 83 bd
       -0.25078335 -0.34541056 -0.3417425 -0.06428452
000020 a2 19 95 3e e8 d9 37 bd 4b 2e 56 3d b8 15 d9 3e
       0.2912112 -0.044885546 0.052290242 0.42399383
000030 bd bb d5 3e 85 4c 5e bd 4a 97 af bd e5 51 97 3e
       0.41744795 -0.054272193 -0.08573778 0.29554668
000040 90 b8 1b 3e f5 2e 3d bd c9 da ce be 6d 96 dc 3d
       0.15207124 -0.04618736 -0.40401295 0.10770879
000050 c0 f4 72 be da 74 b8 3e d7 9c 8f 3d 36 d3 cc bd
       -0.23726177 0.3602665 0.07012337 -0.10001223
000060 4e 6c 6c 3e c2 69 67 3e 63 6d a9 be 24 8e 13 be
       0.2308819 0.22598937 -0.33091268 -0.14409691
000070 38 e9 3b 3b d5 d5 4e 3e 36 18 14 3d d7 6b 5f be
       0.0028672945 0.20198758 0.0361559 -0.21818481
000080 d6 2a 01 be a3 c5 43 3e db 56 5a 3d 41 e3 0f 3f
       -0.12613997 0.19118361 0.053305488 0.56206137
000090 c4 83 25 3f 91 4e e9 bd ac c2 43 3e 18 30 4f be
       0.64654183 -0.113919385 0.1911723 -0.2023319
0000a0 e2 6f a6 bc c0 54 0a 3e cc e1 04 3e cf ab 4e 3e
       -0.020317022 0.13508892 0.1297676 0.20182727
0000b0 d6 09 39 3d dc e2 5d bd c5 d1 df 3d 93 8c 66 be
       0.045175396 -0.054171428 0.10928682 -0.22514562
0000c0 69 68 ae 3d 47 55 03 be 20 0e 85 3e c7 80 88 bd
       0.085160084 -0.128255 0.2598734 -0.06665187
0000d0 1c 1a 10 bd 76 ba 0c 3e 66 b2 5c 3e 74 1a 1d be
       -0.03518115 0.13743004 0.21552429 -0.15342122
0000e0 c2 94 ae 3b 6a 26 d7 be b4 f3 e4 bd 1a 76 d2 3e
       0.005327792 -0.42021495 -0.11179295 0.4110573
0000f0 1a 02 27 be fd 39 84 3e a3 59 bd 3d 68 70 12 3e
       -0.16309395 0.25825492 0.092456125 0.14300692
000100 34 48 10 be 15 5a af bd 05 77 74 be f7 53 96 bd
       -0.14090043 -0.08562104 -0.23873527 -0.07340234
000110 93 6d 46 be 02 5b 42 3e cb c4 d3 bd 68 80 f6 3b
       -0.19377737 0.18980029 -0.1034027 0.0075226314
000120 f7 52 3b bc bd af 7e bd de a6 16 bf ba c1 33 bd
       -0.011433355 -0.062179316 -0.5884837 -0.043885924
000130 96 fc a8 be 6b d9 f7 3b 54 1f ec 3e 56 c9 59 be
       -0.33005208 0.00756376 0.4611765 -0.2126821
000140 7a 5e 38 3f e5 70 c7 3d 98 48 39 3e 64 00 2a bf
       0.7201916 0.0973833 0.18094099 -0.66406846
000150 08 b2 0c 3c e0 f9 aa 3b f5 e4 06 be 66 b8 18 bd
       0.008587368 0.0052177757 -0.13173278 -0.03728523
000160 99 53 fe 3d 4d 39 8b bd 12 10 7c 3e 56 c0 33 be
       0.12418289 -0.06798039 0.24615505 -0.17553839
000170 e5 f4 c6 3c ff bb a5 3e 83 f1 b4 bd 0c a5 37 be
       0.024286697 0.32369992 -0.08835127 -0.17934054
000180 a8 47 c0 bd 07 56 db 3a f9 df 22 bd 0f 80 78 3e
       -0.09388667 0.0016734012 -0.03976438 0.242676
000190 be 67 89 3e f7 ac fc bb c2 04 b2 3c 56 78 07 3e
       0.26836962 -0.0077110487 0.021730784 0.13229498
0001a0 84 90 09 3e 84 ab 84 bd c3 9f a3 bd f9 12 1c be
       0.13434035 -0.064780265 -0.079894565 -0.15241612
0001b0 d3 c8 20 bd f9 6f ef 3d e9 c7 4d be 13 e7 d4 bd
       -0.03925402 0.11691279 -0.20095791 -0.103956364
0001c0 73 c3 a3 bd 4e b9 3a be 53 ce 15 3e f6 8a f0 bd
       -0.07996263 -0.1823475 0.14629488 -0.11745255
0001d0 ca a8 44 3e 55 76 05 3d be d9 48 3e 5f 69 d3 3a
       0.19205013 0.032583553 0.19614312 0.0016129425
0001e0 74 bc 1e be 7d 07 50 bd a0 63 89 bd 51 04 21 3d
       -0.15501577 -0.05078839 -0.06708455 0.039310757
0001f0 74 f1 ba bd a7 d9 66 3c 77 03 2e 3d db bf e2 bd
       -0.09128085 0.014089978 0.042483773 -0.1107175
000200 1d cf c7 3d 75 f7 62 be 9f 70 04 3e 49 6a a6 3d
       0.097563006 -0.2216471 0.12933587 0.08125741
000210 83 30 3e bd 92 94 30 be 9f 49 3c 3e f0 05 72 3c
       -0.046432983 -0.17244175 0.18387459 0.014771923
000220 97 ec 12 3e 6b 79 90 be 81 77 af be ad 3e 82 bd
       0.14348064 -0.28217635 -0.34270862 -0.06359611
000230 13 79 52 be 6e f5 54 3e 04 aa 6a be ad 2c ab be
       -0.20553999 0.20796749 -0.22916418 -0.33432522
000240 86 2f e2 3d 7d 46 9d bd a3 f1 52 bd b2 1f ad bd
       0.110442206 -0.0767946 -0.051499974 -0.08453311
000250 7e 84 12 3e aa a9 0d be 1f a2 1d 3e 0c bb 5f 3e
       0.14308354 -0.13834253 0.15393876 0.21848696
000260 7f 9a 80 3d 67 27 8b 3d cc a8 47 bd 1a d0 39 3c
       0.06279468 0.06794625 -0.04874496 0.011341119
000270 9e b2 4a 3c 85 85 c6 3d 8d f0 84 3b b7 be c1 3c
       0.012371687 0.096934356 0.004056996 0.02365051
000280 ef e1 3c 3e 1d 35 07 3e cb 24 0f 3d 45 7d b0 bd
       0.18445562 0.13203855 0.034947198 -0.08617643
000290 05 23 14 be 96 33 61 3e ce 39 46 be d5 46 91 3d
       -0.14466484 0.21992335 -0.19357988 0.07093588
0002a0 3a 2d e1 bd 6d d3 d7 3d 38 76 a9 3e 34 fb 7c bc
       -0.109949544 0.10538373 0.33098006 -0.015440751
0002b0 ae 05 b1 bb 2b 69 a1 3d 9e 74 77 be aa 2a 7b 3e
       -0.0054022884 0.07881387 -0.2416558 0.24527994
0002c0 37 ac cf 3d 29 44 c2 bc 38 7e 1d bd 0d 0c 23 3d
       0.10140269 -0.023714142 -0.03845045 0.039806414
0002d0 11 38 5a bd 3b e9 00 3e b1 8b 8c bd 26 b8 81 bd
       -0.053276125 0.1258897 -0.068625815 -0.06333952
0002e0 ea 4c 47 be 68 9a a9 bd 09 f7 1b bd 07 da b4 bd
       -0.19462934 -0.08281404 -0.038077388 -0.08830648
0002f0 0d aa 6c 3e 83 58 1a be a6 b2 c5 3d 7a 6b 93 bd
       0.23111744 -0.15072827 0.09653215 -0.07198234
000300 ca ed 98 be 91 16 75 be 7b d0 27 3d 96 7e 93 3c
       -0.2986892 -0.2393439 0.040970307 0.018004697
000310 bd 33 83 3d d3 c9 d4 3c 68 00 90 3d 78 ec 6b bd
       0.06406353 0.025975144 0.070313275 -0.05759856
000320 54 d8 13 be 55 3b 7e 3e 6d fa e4 bd c5 90 41 bd
       -0.14437991 0.24827321 -0.111805774 -0.047257204
000330 b5 6b 3e bd b9 ac ad 3e e2 1c 60 bd cd 50 c4 3d
       -0.046489436 0.3392084 -0.054715045 0.09585724
000340 ed 55 b4 bb 85 0d 71 3e f6 62 05 be eb 71 e5 be
       -0.005503407 0.23540314 -0.13026032 -0.44813475
000350 c2 99 24 bd 37 6c e7 3e 03 39 cc 3e 0f c9 a1 3d
       -0.040185697 0.4519975 0.39887246 0.07899677
000360 df aa 2a be 27 49 61 be d9 28 79 3e c2 50 3b 3e
       -0.16666745 -0.22000562 0.24331988 0.18292525
000370 17 20 3a 3c 52 25 f2 3e 30 f4 c9 bd ea 0b 6e 3d
       0.01136019 0.47294098 -0.09861028 0.05811683
000380 d7 69 b0 bd f8 e9 47 bd af 68 1f 3e d2 e7 9e 3e
       -0.08613937 -0.048807114 0.15567277 0.3103624
000390 3a 69 ba 3c 19 91 dd bc b0 a9 8d 3d 5b e0 05 be
       0.022755254 -0.027046727 0.06917131 -0.13073866
0003a0 ad 19 d2 bd a0 9d b6 3d b9 2c 67 3e 83 51 8e be
       -0.102588035 0.08916783 0.22575654 -0.27796564
0003b0 31 c2 34 3e 61 ed 23 be f8 6c f9 bd 29 5d 43 3e
       0.17652203 -0.16008522 -0.12178987 0.19078507
0003c0 d8 8a 4a bd 00 e4 26 bd 36 b8 cb 3e 61 74 43 bd
       -0.049448818 -0.04074478 0.3978898 -0.04771841
0003d0 a4 26 23 3d 1c 75 06 be 20 91 55 3e e3 e4 23 3e
       0.039831772 -0.13130611 0.20856142 0.16005282
0003e0 d6 45 58 3d 8c 0d 21 3e 35 2b 26 3d 54 bb 93 3d
       0.052800976 0.15727824 0.04056855 0.072134644
0003f0 29 d8 93 3d 1b ae d5 3d d4 72 b1 3d cb d4 42 3d
       0.07218964 0.104335986 0.0866448 0.047566216

encoder.layers.0.self_attn.linears.3.bias f4 [32]
000000 53 4e 5f bd 64 0e 0d bc d5 1d 9f 3b 41 ed c7 3d
       -0.054518055 -0.008609388 0.004855851 0.097620495
000010 bc 4c 4a be c8 4f 10 3e 2c bf 9d bb 87 d6 32 bd
       -0.19755834 0.14092934 -0.004814049 -0.04366162
000020 b5 8a 4b 3c ff cc 81 3c fe 5c 00 3d c3 53 79 3e
       0.012423207 0.01584482 0.031338684 0.24348359
000030 d7 cc f6 bd c1 94 83 bd 50 eb dd 3d 6d 04 3e 3d
       -0.12050789 -0.06424857 0.10835898 0.04639094
000040 28 6f 22 3c fd 3a 56 be 0f 54 ef bd 2e 63 91 3c
       0.009914197 -0.2092094 -0.11685955 0.017747488
000050 7c ed 80 bd 23 e7 9d bd 29 71 3b be ee 52 04 3e
       -0.062952965 -0.077101015 -0.18304886 0.1292226
000060 d8 83 35 3e 0b ad 41 be 3a be 01 3e f4 ed aa 3d
       0.17726076 -0.18913667 0.12670222 0.08346167
000070 89 0d 12 3d 0e 05 08 3d 44 9b 93 be 9c e6 16 3e
       0.03565744 0.033207946 -0.28829396 0.14736408

encoder.layers.0.feed_forward.w_1.weight f4 [128, 32]
000000 7f 6d b8 3e 6b 56 10 3c 13 90 9b 3e c4 0a 28 bf
       0.3602104 0.008809666 0.30383357 -0.6564143
000010 d6 a6 9f be ad f3 92 3d ec b1 25 3e 3b 10 b5 bd
       -0.31181973 0.07175384 0.16181153 -0.08840986
000020 98 b6 f5 3d ae ee cb 3e a0 b5 a9 be 50 cb 65 be
       0.119977176 0.39830536 -0.3314638 -0.22440839
000030 0b d4 2b 3f c6 1a b6 bd ed 8c 63 3e 67 48 9b 3c
       0.67120427 -0.088918254 0.22221728 0.018955423
000040 a4 09 86 3e 14 ff 63 3e ca 9f d6 be 2b 98 05 bd
       0.2617923 0.22265273 -0.41918784 -0.03261582
000050 2f 91 99 3e b5 a9 05 be ed 30 91 bd 28 7c 06 be
       0.2999358 -0.1305302 -0.0708941 -0.131333
000060 f7 43 99 3e 15 ff 01 be 86 13 7a bd a7 f2 c8 3d
       0.29934666 -0.12694962 -0.061053775 0.09811907
000070 65 b3 03 3f d7 7e 63 be b0 e3 3e be 13 a4 96 3e
       0.5144561 -0.22216354 -0.18641543 0.29422054
000080 8b 46 49 be bf b4 aa be fe 6a 60 3e c9 00 e0 3e
       -0.19655816 -0.33341023 0.21915814 0.437506
000090 66 e8 dd be 9a ba b4 3c 8c 0f f6 3b a9 6a 8e bd
       -0.43341368 0.022061635 0.0075091776 -0.069539376
0000a0 55 65 83 3e 6e da 0d be 8d ec e3 3d 89 10 48 3f
       0.25663248 -0.13852856 0.11129103 0.7815023
0000b0 59 4b 38 bd 72 85 2f 3d 23 32 ba 3d fa 0c 8c bd
       -0.044993732 0.042851873 0.09091594 -0.068384126
0000c0 8d 29 4f 3e 32 6f 1e be 7f 45 72 3e d3 42 99 be
       0.20230694 -0.15472105 0.23659323 -0.29933795
0000d0 fa ba 18 be b5 0c c2 3c e8 ab 79 be 31 94 fb 3e
       -0.14915076 0.0236877 -0.24381983 0.491365
0000e0 c4 59 3e be 46 02 bd bd b1 1d 02 3f d1 ca d9 3e
       -0.1858893 -0.09228949 0.50826555 0.4253755
0000f0 41 06 56 bd a3 4c 09 3f 5f 7a 33 be 1c 89 fe ba
       -0.052252058 0.53632563 -0.1752715 -0.0019419524
000100 86 34 71 be 42 fb 00 bf cb 83 bb 3e bc 78 8a 3e
       -0.23555192 -0.5038339 0.36623988 0.27045238
000110 6c f5 49 3e 1a 5b 17 3c 4e 1c 0c bf 79 f1 88 3f
       0.19722527 0.009238029 -0.5473069 1.0698692
000120 1d 3b 84 3e 1f b6 54 be eb 4e 28 3e 71 07 06 bf
       0.2582635 -0.20772599 0.16436355 -0.52355105
000130 29 8a d4 bd 6c a3 4b 3f 4e 66 3a bd 34 1b 05 3e
       -0.103779145 0.79546237 -0.04550772 0.12998658
000140 e7 40 97 3e cc 6f b6 3e 49 fb 70 3e a0 65 e3 be
       0.29541704 0.3563217 0.23533358 -0.4441347
000150 76 b2 ca be c5 26 cc 3e ab 2d 52 be 1d b2 1b bc
       -0.3958928 0.3987333 -0.20525233 -0.009502915
000160 a3 40 82 be db 62 22 3f 06 54 4c 3f ee 18 95 3e
       -0.2543994 0.6343209 0.7981571 0.29120582
000170 fd 7e b9 3d 6d ab 4e be a1 c1 94 be f4 8c ca 3e
       0.09057424 -0.20182581 -0.29053977 0.39560664
000180 37 bc 07 3f 4d dc 40 3e 97 1e cc 3d a3 44 77 bf
       0.5302157 0.18834038 0.09966772 -0.96589106
000190 d0 1d 65 bd 73 18 2e 3e 0d 0d 69 bd 75 98 90 bd
       -0.055936635 0.17001514 -0.05689721 -0.07060329
0001a0 86 f8 09 bf 7c 43 c8 3e 54 69 8e 3c ea e2 07 be
       -0.5389484 0.39113986 0.017384209 -0.13270155
0001b0 37 51 5c 3e 08 be 13 3e 95 95 f4 be 32 3e dc bd
       0.21515356 0.1442796 -0.47770372 -0.1075405
0001c0 c3 f4 98 3d b0 4c a3 3e ad 03 f9 bd e6 95 8b be
       0.074685596 0.31894445 -0.12158904 -0.272628
0001d0 ed cf b8 3d b0 37 cc 3e 0a 48 b9 3e c8 18 f3 bd
       0.09024034 0.39886236 0.36187774 -0.11869961
0001e0 50 66 22 3d d6 22 55 be 1c f6 fd 3d 22 78 04 3e
       0.039648354 -0.2081407 0.12400457 0.12936452
0001f0 fa 62 34 be 51 bb d3 be 60 0b c4 3e de b7 8d be
       -0.17615882 -0.4135385 0.38289928 -0.27679342
000200 d3 1d 4c 3e fd 8a f7 3c 16 9f 07 bd 85 4e cf 3d
       0.19933252 0.030217642 -0.0331107 0.10122398
000210 5a 57 b3 3e bc f7 19 3e 40 12 e1 be cd 04 47 3e
       0.3502758 0.1503591 -0.43959236 0.19435425
000220 18 89 d8 be 12 8f 51 3d 23 92 2a be 69 9a a9 be
       -0.42292094 0.051161833 -0.16657309 -0.33125618
000230 68 58 a7 3e 6b 9c 11 be fd a6 c4 3d 9b 1e 69 3d
       0.32684636 -0.14219825 0.09602163 0.056913953
000240 77 4a 99 be 56 28 54 3d c8 21 82 3e 53 56 b0 3d
       -0.29939625 0.05179628 0.25416398 0.08610215
000250 35 b0 cf 3d 8d 9d 4a 3e 1c 91 42 3e d9 ae 01 3d
       0.10141031 0.19786663 0.19000667 0.03166089
000260 5e cb 10 bf 83 19 5b 3e 7b fb d2 bb de b3 1b 3d
       -0.56560314 0.2139645 -0.00643867 0.03801333
000270 d4 9a a5 3d 4b 78 0b 3f af 4e 81 3e 48 35 7f 3c
       0.08086172 0.5448043 0.25255343 0.015576668
000280 b6 f5 3e 3e 77 92 9d 3d 6f f5 34 3d ca ba df be
       0.18648419 0.076939516 0.044179376 -0.43697196
000290 8c ae 71 bf f6 c8 ab 3e 58 ac 6e be e2 1f cf be
       -0.9440696 0.3355176 -0.23307931 -0.40454012
0002a0 63 d8 85 3e 9f 11 0b 3f 0a 2d 33 bf 29 52 6e be
       0.26141652 0.5432376 -0.699906 -0.23273529
0002b0 c3 78 4e 3e 96 c8 f5 be e9 d1 e8 3d a9 c2 d3 bd
       0.20163254 -0.48004597 0.11368162 -0.10339863
0002c0 2f fc e0 3d cd 10 c5 3c 65 b6 2c bf e4 8b 25 bd
       0.109856 0.024055863 -0.6746581 -0.040416613
0002d0 b1 7c 17 3e 62 7f 3c be 74 0b 54 bb 98 7b 31 3e
       0.1479366 -0.18407968 -0.003235546 0.17332304
0002e0 e3 70 1a 3e df 91 a1 3d bf 7f a0 bd 19 ec ac 3b
       0.15082125 0.07889151 -0.07836866 0.0052771685
0002f0 43 a1 8d 3e d0 1d f0 be da 46 21 3c a5 c5 36 bb
       0.27662095 -0.46897745 0.0098435525 -0.0027888801
000300 01 e7 4d be bf d8 c2 bd 28 1c 48 3c e9 ec 1a 3e
       -0.20107652 -0.09513997 0.012213744 0.15129437
000310 a7 39 ce be be 01 16 be f6 5b 8d bd d4 84 36 3f
       -0.4027836 -0.14649102 -0.06902306 0.7129643
000320 4d 6f 24 3f 2a c3 b0 be d5 08 9f 3a e9 63 08 3e
       0.6423233 -0.34523898 0.001213337 0.13319363
000330 33 aa 47 3d 04 98 27 3e ec 98 5f 3d 90 05 90 3e
       0.0487463 0.16366583 0.054589197 0.28129244
000340 8a d1 60 3e af a3 e6 3d ae 2c 06 be 7d 45 cc 3e
       0.21954933 0.11261689 -0.13102981 0.39896765
000350 fa 7f a2 be ea c2 61 bf e2 6a d2 bd 95 97 d3 3d
       -0.31738263 -0.8818804 -0.102742925 0.10331646
000360 cf 99 0d be 7a d0 e8 3d dc b2 08 3e 5c 59 64 3e
       -0.13828205 0.11367889 0.1334948 0.22299713
000370 09 db 3c 3f e2 1b c1 3d bd 0f 26 3e f6 73 2f 3e
       0.7377172 0.09429146 0.16216941 0.1713408
000380 a3 2c 2d 3e cb c0 49 3e 23 c2 67 3e 08 20 33 be
       0.16911559 0.19702451 0.22632651 -0.17492688
000390 08 a1 04 bf 63 5a a1 bc 9d f7 e7 3e 4a 49 ad 3e
       -0.51808214 -0.01969642 0.453061 0.33844978
0003a0 2d 97 cf bd 3d 4c 09 be aa 7d 4e be dc 9a 65 3e
       -0.10136256 -0.13407989 -0.20165125 0.22422355
0003b0 3a 40 bc 3e ed 1d 05 be 89 ef 2e bd 7c 85 ac bd
       0.3676775 -0.12999697 -0.042708907 -0.084238976
0003c0 97 0a 9b be d0 82 e7 3d ca 9c e3 be 6b e1 4b 3e
       -0.30281517 0.113042474 -0.44455558 0.19910209
0003d0 9d 33 c7 bb 4c 2d 83 bd 3a a5 a1 bc 83 28 45 3e
       -0.006079151 -0.06405124 -0.019732106 0.19253735
0003e0 f0 ea 6f 3d 02 2c 42 be e4 04 14 3e 19 d9 4d 3e
       0.058573663 -0.189621 0.1445499 0.20102347
0003f0 08 8b 2c 3f 95 99 8c be ca 69 87 be 6a 4b 01 3f
       0.67399645 -0.27460924 -0.26447898 0.505057
