index_advisor_selector/index_benefit_estimation/index_cost_lib/exp_res/exp_lib_tpch_tgt_ep500_bat2048/model/lib_LIB_500.pt (torch, 413135 bytes, 120 tensors)

S f4 [1, 1, 32]
00000000: 5d03 093e aa25 ee3d b611 1dbd 0a22 0a3e
00000010: 288f 25be 74d9 52be 6f94 2b3e 37aa 62bd
00000020: 15ff 43be 61c4 31be b90b 0b3e fdf9 89bb
00000030: 0cdd 31be 3973 bf3c d28f 1fbd f8a0 7dbe
00000040: 9562 38be 3d35 febd ca4d 01bd 0806 0dbe
00000050: 2d30 67bd a99e 303e 0ce0 c43d c666 013e
00000060: 4326 1cbc a24e 02bc 5937 223d b72f e33c
00000070: dc2a 203e 2ae4 983d 1e7e b9bb e677 643b
0.13380189 0.116282776 -0.03834697 0.13489547 -0.16167891 -0.20590764 0.16755842 -0.05533811
-0.19140275 -0.17360069 0.1357869 -0.004210709 -0.17369479 0.023370372 -0.038955517 -0.24768436
-0.18006356 -0.12412498 -0.031568326 -0.13771832 -0.05644243 0.17248024 0.09613046 0.12636861
-0.009530607 -0.007953318 0.039603565 0.027732713 0.1564135 0.07465394 -0.0056607863 0.0034861504

linear1.weight f4 [32, 12]
00000000: 2b0d 3bbe d359 013d af26 5d3e 1091 693e
00000010: bcb7 df3f cc3d a6bc ff38 2fbf 8ce2 01bf
00000020: 6f6d 843e 13a1 6f3f 44a8 4c3e 98bd 23be
00000030: 05a6 7f3d 98aa b33b b0f7 44bf ece9 15bf
00000040: 8c5b 2fbe 8045 2e3d ee41 f63d bc1f 93bd
00000050: ce4c a53e 83d7 61be 1ec1 e9be 7592 9a3e
00000060: 35cc f33c 3247 cabe ddcf 6ebe 432e 573d
00000070: c27f 6740 6e87 89be fd8d 7cbe dd63 803d
00000080: a698 97bf 4120 27bf 5ce7 fb3e 2abc 2f3f
00000090: 8b1f a9be 8530 963f acd2 d9be 0360 e4bd
000000a0: 4878 63c0 fe74 e9be ace1 063f 4aca 9dbf
000000b0: b3e4 44bf a2c9 9dbe c3c1 1f3e e4a8 cebe
000000c0: 7a6c cd3d 8414 bfbe 8a73 e6bd 91c6 6abd
000000d0: e821 8540 2c0f f3be 501e f13e 57cd 75be
000000e0: f6f6 4bc0 476b 9ebf f8fb a4be 8b7c 1abe
000000f0: f87c 8fbf 9156 07bf 0edb d53f 0696 283f
00000100: f7ec a740 31c9 073d eb38 2c3e bb6b c3bd
00000110: c42a 203f 82f4 49bf 6aff 12bf 1de1 203f
00000120: 065f 9a3e 0b0f 9abe 3547 dbbd d36e 863e
00000130: 599f 2340 deac 0abf 74ba 923f 0005 61be
00000140: 114a 8d3e 364c cbbe 2b56 e2be aeb8 90bd
00000150: b6fd 1ac0 83ab 853f c840 8a3e 4c1c 9e3d
00000160: 83e2 95c0 cf75 063f ed72 1ebf 3b13 483f
00000170: 39a4 2b3f dd32 693e ab2a 48be de12 5cbd
00000180: a19f f23f 600b 22bf 927e 58bf f03c 9ebe
00000190: 80d3 86c0 5681 903e 48e7 373d ae47 8b3f
000001a0: e7be 0cc0 7e59 973f bbed 77bc 0411 07bc
000001b0: 8c09 39be a9c2 503e c7dd 3cbf fc07 5e3e
000001c0: c6e3 143d 5831 fa3e 4264 e53c f3f2 13c0
000001d0: 5cb1 b63e 4a1a f63e ea24 b9be c430 5e3f
000001e0: 4053 30bf d132 0ebf e093 fa3c 9049 8c3e
000001f0: 10c0 9540 3ae2 79bf b65a 11bf 3e1e aebe
00000200: 09dd 93be df18 5bbf 7506 81be 4f88 653d
00000210: 55e0 203f 5f83 f1bd 0041 e4be af64 8ebe
00000220: a519 a23e 753b 803e 936d bf3d ee08 0c3e
00000230: 667b 303f 26c2 2dbe eb32 69be a787 54bf
00000240: 72bb ab3e 233e df3e c71d 5b3f 081a 06bf
00000250: 1a61 1fbe 5bc7 b3be 8346 07bb 168d ddbc
00000260: 0991 1e3f c3b5 133e f51d 913e c46f 023f
00000270: 8ac6 1bbe 45ad e4bd c242 a6be e8b5 0a3e
00000280: b442 6940 63af 3dc0 e524 bebe 4321 e63f
00000290: 5ef7 f53e 8899 98bf d5bb 07bf f7f7 cb3d
000002a0: 5d15 13bf 7f1b a23e e801 5a3f b099 5ebe
000002b0: d979 a3c0 3c74 643f c0ab 853f 3fed b23d
000002c0: 7c58 1ebe b5fc 81be 27e4 b8be 1eae 05be
000002d0: 6aba e1be f701 d73b 04d2 2e3f 346f a9bd
000002e0: a847 c03e e9dd e03e 54a7 283e 4ab5 a6bd
000002f0: 50d8 143f dfb5 ae3e 9301 603d 7406 223f
00000300: c933 e9bf 3c78 23be e8cf f33e 7afd 143f
00000310: afaa 0840 3680 99bf cf51 e33e 38f7 b0bd
00000320: 949f c3be 6a29 17bf e25e c8bd ac21 0bbf
00000330: f2c3 2fbf a004 28be 76cb 8bbd 2aed cb3e
00000340: 2b16 b540 1e3b 8ebf 2e05 a63e 5d2e 2ebe
00000350: 8c69 f83e 9b20 85bf d08d 27bf a381 9abe
00000360: 5ff4 2c3e 650d b1be ebf4 4abe 8fa9 113d
00000370: 799a 3f40 eb41 48be 052f 303e cb37 e23e
00000380: 6b91 3dc0 7f9a 043f 973c 5ebf 9b58 cfbd
00000390: 14e7 1ebe b26a b9be 0474 71be 3397 933e
000003a0: ee2a 9240 fe24 633e 18bc 08c0 edb9 0abf
000003b0: 4798 8bbf cdb5 84bf efd2 963d a028 c8be
000003c0: 40d7 123f 2562 59bf a37c fe3f d303 b73e
000003d0: ac16 9740 92d4 0a3f 47ae 4abe c80a 0fbe
000003e0: bd4b 85be d39f dcbf 4635 793e 638f 153c
000003f0: d6d8 45bf a8ac cdbe 2e32 9d3e 33d7 003e
-0.18266742 0.031579804 0.21596788 0.22809243 1.7477946 -0.020293139 -0.68446344 -0.5073631
0.2586474 0.93605155 0.19986063 -0.15990293 0.062414188 0.005482983 -0.7694044 -0.5856006
-0.17124766 0.04254675 0.12024294 -0.07183787 0.3228516 -0.22054867 -0.4565515 0.30189863
0.02976046 -0.39507443 -0.23321481 0.052534353 3.6171727 -0.26861137 -0.24663539 0.062690474
-1.184346 -0.6528359 0.4919995 0.6864649 -0.33031878 1.1733557 -0.42543542 -0.11151125
-3.5542164 -0.4559707 0.526881 -1.2327359 -0.7691147 -0.30817896 0.15601258 -0.40363228
0.10030456 -0.3732034 -0.11252506 -0.057318274 4.160389 -0.47472513 0.4709344 -0.24004112
-3.1869483 -1.2376488 -0.32223487 -0.15086572 -1.1210012 -0.52866465 1.6707475 0.6585392
5.2476764 0.033150855 0.16818587 -0.09542032 0.62565255 -0.78888714 -0.5742098 0.62843496
0.30150622 -0.30089602 -0.10706941 0.26256427 2.5566008 -0.54170024 1.1463151 -0.21974564
0.2759557 -0.39706582 -0.44206366 -0.07066475 -2.4217353 1.0442966 0.2700255 0.07720241
-4.6839004 0.5252351 -0.6189411 0.78154343 0.6704746 0.22773309 -0.19547527 -0.05372893
1.8954965 -0.63298607 -0.8456813 -0.30905867 -4.213318 0.28223675 0.0448983 1.088125
-2.1991518 1.1824186 -0.015132363 -0.008243803 -0.18070048 0.20386757 -0.73775905 0.21682733
0.036350034 0.4886577 0.028001908 -2.3117034 0.3568219 0.48066932 -0.36160976 0.8679316
-0.6887703 -0.5554629 0.03058809 0.27399874 4.679695 -0.9761082 -0.5677904 -0.34007448
-0.28879574 -0.85584825 -0.2520024 0.056038197 0.62842304 -0.11792635 -0.4458084 -0.2781119
0.3166019 0.25045362 0.093470715 0.13675281 0.6893829 -0.16968593 -0.2277333 -0.8301949
0.33541447 0.43602094 0.8559231 -0.5238347 -0.15564385 -0.35113034 -0.0020641393 -0.027044814
0.61940056 0.14424805 0.28343168 0.5095179 -0.15212455 -0.11165861 -0.32472807 0.13545954
3.6446962 -2.9638298 -0.37137523 1.7978901 0.4804029 -1.1921854 -0.53020984 0.09959405
-0.5745447 0.31661603 0.8515916 -0.21738315 -5.108624 0.8923986 1.0443039 0.08736657
-0.15463442 -0.25388113 -0.36111566 -0.13054702 -0.44087535 0.0065615135 0.6828921 -0.082731634
0.3755467 0.43919304 0.1647008 -0.08140047 0.58142567 0.34123132 0.054689 0.63291097
-1.8218929 -0.15963835 0.47619557 0.58199275 2.1354177 -1.1992252 0.44398353 -0.08640903
-0.38207686 -0.5904757 -0.097837225 -0.54348254 -0.68658364 -0.16408014 -0.068259165 0.3982938
5.658956 -1.1111791 0.32425827 -0.17009874 0.48518026 -1.0400575 -0.65450764 -0.3017703
0.16890095 -0.34580532 -0.19819991 0.035562094 2.9938033 -0.19556396 0.17205437 0.44183192
-2.9620006 0.5179824 -0.868112 -0.10124322 -0.15517837 -0.36214215 -0.23579413 0.28826293
4.5677404 0.2218208 -2.1364803 -0.5418995 -1.0905846 -1.0367981 0.07364451 -0.39093494
0.57359695 -0.8491538 1.9881786 0.35745105 4.7215176 0.54230607 -0.19793044 -0.13968956
-0.26034346 -1.7236274 0.24336728 0.009128424 -0.7728399 -0.4017079 0.30702347 0.12582092

linear1.bias f4 [32]
00000000: 0e41 0d3e f1a2 53be 3e29 5a3c a53d 3d3e
00000010: 0da4 35bf 7bc5 3fbf 3c53 a1bc 6dc4 ee3e
00000020: f1a6 3a3e 57d7 cc3d 9daf acbe 5702 6abe
00000030: 6d67 453e 2a6d bdbe 6e58 883e 2c33 98bd
00000040: 603a 24be e5c5 0dbf 183a 2abf fe7f 77be
00000050: c08c 09bf c252 90bf eb8d cdbe a501 3bbd
00000060: dade d13c 15f6 b5bd 4cc4 24be 9853 643e
00000070: fc4b c63e 9e84 8e3e 5a1f 87be af0f aa3e
0.13794348 -0.20667626 0.013315497 0.18480547 -0.70953447 -0.74910706 -0.01969301 0.46634236
0.18227746 0.1000201 -0.33727732 -0.22852455 0.19277735 -0.36997348 0.26629966 -0.07431635
-0.16037893 -0.5538009 -0.66494894 -0.24169919 -0.5373039 -1.1275256 -0.40147337 -0.045655865
0.02561896 -0.08884827 -0.16090506 0.22297513 0.38729846 0.27835554 -0.26391107 0.3321509

encoder.layers.0.self_attn.linears.0.weight f4 [32, 32]
00000000: 1894 8fbf dbfd 22be 4b6b d03e e71c 9e3d
00000010: ff08 a53e d9cc 253f ce7c bebe a697 72bf
00000020: 99da 33bf e051 04be ad16 06be 19dd 35be
00000030: e477 1b3e 7673 e93b 6ba8 b03e 781c c63e
00000040: 7b5d d2be adfb 583e 8125 fb3e baae 37bf
00000050: bdf1 b5be 2570 5e3e c8f5 e5be 8708 7dbd
00000060: 85a1 7dbf c7cd 683e 01d7 8bbc 1938 d0bd
00000070: 371a 143f a8ad 1dbf be96 463f 4026 c3be
00000080: 7d45 bf3e 029a d2be 02cc 94be 2103 42be
00000090: a619 c6be 8ca1 5abf e331 1b3e 4a15 f93e
000000a0: d782 08bf 4eed 4cbf 35ed 5c3e 5565 cebe
000000b0: f201 35be 1376 9a3e 24f3 5ebf a206 aabf
000000c0: 5a0e 063d 4627 b23e 5aea 97bd b1cf 043f
000000d0: 7fbd 14bf 40dc 3bbf 4c1c ccbd 4e8c cabe
000000e0: 1da6 d6bc 8706 cabf ae50 c1bc e392 9bbe
000000f0: e1f4 8fbf 5e82 d63c a68a 82be f572 af3d
00000100: ef23 eebd 84cc 343e e1e9 343e 5244 be3e
00000110: c623 ac3e f78b 383f 5b49 3f3e 46e6 a03f
00000120: 432d 213d d59a 0c3d 00c8 193f d391 9dbd
00000130: b8fc 9bbe dc91 293f da94 0c3f 8a91 cc3e
00000140: bab7 003b f58c dc3e 4577 813e c1ff da3e
00000150: 29b3 c63e 1727 603f c6f7 d93e 7fea 22bd
00000160: 50a8 94bb 89db 983e 7bbb 1e3c 5aa7 353e
00000170: 0d0b 27bf 7a50 df3e 58a8 fd3e 0600 50be
00000180: cf59 a03e 557c d23d 71f3 9f3e abe5 3ebe
00000190: 8d1b 1cbf c3a7 25bf 5dbd 46be bf3f 523e
000001a0: f094 0c3f 0258 953f aa94 71be 80c3 533d
000001b0: c7fd a23e 042f 82bf 70fc 55be 460e 2cbf
000001c0: 3da1 233e 262d 19bf 8b60 d6be ba26 793e
000001d0: 91db 15be 2095 29bf 6cf6 8e3e e696 3fbc
000001e0: 42f8 4c3e ea68 933e b64c 2d3e ac69 24be
000001f0: a8e4 403f 1f7c c73e 5636 5abf 87b7 40bd
00000200: 5d57 933f ff09 93bb 5bfd 363f 0638 d43d
00000210: c954 2e3e 91ff 903f 43f1 013e c042 3e3f
00000220: 14a2 0a3f fedd 2b3f 2e5a 023f 8a7f 1a3e
00000230: 173d b53d 70ff 123f cc22 d43e 36f7 2b3e
00000240: 9f41 883f ff72 423f 34aa 793f f9dd 273e
00000250: ad8c 073e 0854 8f3f 6e2e e2be 824c 4f3e
00000260: e5e4 b93f 4d37 b2be 9b22 e9bd 1499 d03e
00000270: 0d54 e13e 2e9f 96be 140a cbbe bb12 0b3f
00000280: 8691 163f a580 863e 2415 86bd 5663 8a3f
00000290: 8891 403e 2225 f2be 00e9 393f 21f6 bcbe
000002a0: c9be 81bf e4e0 fbbd 17e3 583d 6636 b7bc
000002b0: dc50 9abc 2b5e dabe 1c41 9f3e 676f d53e
000002c0: 1785 c43f d0c1 d43d a498 b4be 429c 6a3e
000002d0: 93e6 80bd af30 b83e 1a80 ce3e b3a4 453e
000002e0: ff76 85be 3760 eebc c278 be3c 4b92 7ebe
000002f0: 9946 85bd e515 f53e 38ce 8abe 982a b7bf
00000300: d4d2 0fbf 86df a4be 766b 44bc b047 eebe
00000310: aa81 50be 7f2d 05ba 6ff7 e4bd 85f5 763f
00000320: 2228 31be 6e74 023e 6a91 d7bd c755 41be
00000330: 0c6d 1c3f 856e 4e3f 2146 b0be a723 393f
00000340: 6eb4 71bf 4582 233f 6e51 41be 6f85 fa3d
00000350: e640 3ebe 8c38 0dbe 241d 0bbe 31d4 f5be
00000360: 34a6 ed3d 9926 8a3f a636 06bd 4db8 16be
00000370: 2dde c5be 3dee 02bf 33ee 073f 8752 323f
00000380: b278 1cc0 f713 a73e eef7 9dbe 4b44 e4be
00000390: 4bb4 d4be d118 7bbf e308 72bf 4532 87bf
000003a0: 503c 733e 4ae2 3d3e e1c3 2fbf b589 a7bd
000003b0: c89e 13bd 6550 52bf 8558 0e3d 27f9 33bf
000003c0: 3167 56c0 0164 d4bf db06 11bf 2642 56bf
000003d0: 5ea4 96be e766 99bf 8c14 efbc ee9f fe3d
000003e0: 2510 e2bf 0390 6bbf 5f39 ba3d e477 6abe
000003f0: e33a f83e 4f0d 523e 9e00 df3e 6710 dcbe
-1.121707 -0.1591715 0.40706858 0.077203564 0.32233426 0.647657 -0.37204593 -0.9476265
-0.7025543 -0.12921858 -0.13094588 -0.17760123 0.15182453 0.0071243597 0.34503493 0.38693595
-0.41086945 0.21189757 0.4905205 -0.71750987 -0.35535994 0.21722467 -0.4491408 -0.06177571
-0.99074584 0.22734748 -0.017070295 -0.1016695 0.578525 -0.61593103 0.77573764 -0.3811512
0.37357703 -0.41133124 -0.29061896 -0.18946506 -0.38691443 -0.8540275 0.15155749 0.48649055
-0.53324646 -0.800496 0.21574862 -0.40311685 -0.17676523 0.30168208 -0.87089753 -1.3283274
0.03272853 0.34795588 -0.07417746 0.5187941 -0.5810165 -0.7338295 -0.09966335 -0.3956017
-0.026202256 -1.5783242 -0.023598041 -0.30385503 -1.1246606 0.02618521 -0.25496405 0.08566848
-0.116279475 0.17656142 0.17667343 0.371615 0.33621043 0.7208857 0.18680327 1.2570274
0.039349806 0.034327347 0.600708 -0.076938294 -0.30466247 0.6623819 0.5491463 0.39954787
0.001964076 0.43076292 0.25286308 0.4277325 0.38808563 0.87559646 0.4257185 -0.039774414
-0.004536666 0.29854992 0.0096882535 0.17739621 -0.6525124 0.43616086 0.495425 -0.20312509
0.3131852 0.10277621 0.3124042 -0.18642299 -0.6097954 -0.6470911 -0.19408174 0.2053213
0.5491476 1.1667483 -0.23591867 0.051700115 0.31834242 -1.0170598 -0.20897079 -0.6720928
0.15979476 -0.59834516 -0.4187053 0.2433118 -0.14634539 -0.6624317 0.2792238 -0.011693692
0.20016578 0.2879098 0.16923794 -0.16055936 0.753489 0.38961884 -0.8523916 -0.047050025
1.1511036 -0.0044872756 0.7148034 0.10362248 0.1702453 1.1327993 0.1268969 0.743206
0.5415356 0.6713561 0.50918853 0.15087715 0.088495426 0.57421017 0.41432798 0.16793522
1.0645026 0.7595672 0.97525334 0.1639327 0.13237257 1.1197519 -0.44176048 0.20244029
1.4522978 -0.34807816 -0.113835536 0.4074179 0.44009438 -0.2941832 -0.39656126 0.54325455
0.588158 0.26270023 -0.06547001 1.0811565 0.18805516 -0.47293955 0.72621155 -0.3690653
-1.0136348 -0.12298754 0.052950945 -0.022364806 -0.018837385 -0.4264997 0.31104362 0.41686556
1.5353116 0.10388529 -0.35272706 0.2291117 -0.062939785 0.35974643 0.4033211 0.19301109
-0.2606735 -0.029098613 0.023250941 -0.24860494 -0.06507606 0.47868267 -0.27110457 -1.4309874
-0.56181073 -0.32201785 -0.011988511 -0.46539068 -0.20361963 -0.0005080327 -0.11180007 0.96468383
-0.17300466 0.12739727 -0.105257824 -0.18880378 0.6110389 0.8063739 -0.34428504 0.72320026
-0.9441594 0.6387065 -0.18878719 0.12232482 -0.18579444 -0.13791102 -0.13585335 -0.48013452
0.11603966 1.0793029 -0.03276696 -0.14718743 -0.3864607 -0.5114477 0.5309784 0.69657177
-2.4448667 0.3263242 -0.30853218 -0.44583353 -0.41543803 -0.9808474 -0.9454481 -1.0562216
0.23753476 0.18543354 -0.6865826 -0.081805624 -0.036040097 -0.8215392 0.034752388 -0.7030205
-3.3500483 -1.6593019 -0.56651086 -0.83694685 -0.29422277 -1.1984528 -0.029184602 0.12432848
-1.7661177 -0.9201662 0.09092974 -0.22897297 0.48482427 0.2051289 0.43555158 -0.42981264

encoder.layers.0.self_attn.linears.0.bias f4 [32]
00000000: 0018 cdbe dc74 45bd da03 e73d 8416 483f
00000010: e381 d33e 2976 89be c443 f4be 4928 9a3d
00000020: 14f2 23be 562a ae3d 436a 03bf 2a6e 8cbe
00000030: 36b5 49bd 0390 abbd 457a 863e c1b7 a1bd
00000040: e8c1 40be b698 d33e 9ee5 e5be 4581 86be
00000050: 94b8 57be e1d8 15be 5029 383c 0586 3cbd
00000060: faca 4d3e 0585 2e3e c6ff 4b3e 3932 133c
00000070: fbdb 583d ce3f 80be aeaa 163e 84a2 efbc
-0.40057373 -0.04820715 0.112800315 0.78159356 0.41310033 -0.26847962 -0.4770795 0.07527215
-0.16010314 0.08504169 -0.5133402 -0.27427799 -0.04924508 -0.083770774 0.2626516 -0.078963764
-0.1882397 0.41327447 -0.44901747 -0.262705 -0.21066505 -0.14633514 0.011240318 -0.04602625
0.2009696 0.1704293 0.19921789 0.008984142 0.052944165 -0.2504868 0.14713547 -0.029252298

encoder.layers.0.self_attn.linears.1.weight f4 [32, 32]
00000000: b7e7 31be 2dc6 6fbe 6a88 8e3f 58d0 8bbe
00000010: 5ae7 c6be dcdf 7b3e 4c6f 1fbe d50a 69be
00000020: f914 043e 9c1d 2fbf 9f51 b63e 881b a7be
00000030: 5f0e 71bd 708a 14be b2f6 91be 2e8e 8a3e
00000040: 98c6 2dbf a60c 9d3e 27e9 acbe d45b 30bd
00000050: 04d4 083e 9468 c83e 29c6 cfbe b029 99bd
00000060: b0e6 cf3e 98b3 e5be 6388 81be 5ebe 45be
00000070: cdf6 efbd ade5 2ebe 0815 43be b903 ab3e
00000080: d374 8bbe 3f4a c53e 47b3 56bf 834c 8bbd
00000090: 7768 ac3e bc51 61be bf87 fcbd 9c99 503e
000000a0: d876 833e 25fb 7b3e e8d6 83be 3176 233f
000000b0: 9386 283f 3311 c13d 8a61 233f c539 203d
000000c0: 5ab1 ca3e 90a3 a9be c24e 813e 1f2a c5be
000000d0: 30db f33d 3659 eebe eee1 3e3f b9d8 be3e
000000e0: 5849 35bf ce06 70be ecd3 eb3e b489 f23e
000000f0: 76cb 433e 4dbe 593e 21e4 8cbe 247f 393e
00000100: b22c f2bd 9049 ec3d c081 283f e3ec 94be
00000110: 1d80 bfbe f324 023f bce7 9f3e 135e b8be
00000120: 0f2d 8cbf d4c4 e13e bdbe 6cbe 78f4 35be
00000130: 21a9 96be 48e9 b3bb 248d 2c3e 379d 4dbf
00000140: 6d59 3dbd d5d4 073d 4240 aabd 2b84 103e
00000150: 0feb acbe a722 283f 0555 0fbe 6fe8 8e3a
00000160: 83ee b6be 4c91 563f 62f2 ff3c c340 b23d
00000170: 2557 693d f6ff bdbe d615 e03e 5cbb 73bf
00000180: 771d c5bc 8f76 86be 5ed6 2abf b54a 463f
00000190: 4088 023f 81b5 cebe cf8a 60bf fc18 5f3f
000001a0: e5b9 473e 4055 083e 8549 b53c 826f 5ebd
000001b0: 15e4 18bf 5cf7 9bbe e475 ab3e d82a 90be
000001c0: cd1b af3e 4e39 9dbe 610b e83d f533 df3e
000001d0: db9c 0fbe 0cf2 4fbf 3cad e13d 3b28 93be
000001e0: e647 2d3d f815 33bf da99 bc3d ac59 acbe
000001f0: 3019 403d c434 2f3f eb5d c23e 62d4 12bf
00000200: 7c88 7c3f 9b58 85be 394d 17bf e0ee 97be
00000210: 245a 12be 764b b0bd 4fe0 2c3e 978b b9bd
00000220: f408 59be 9139 0a3e 522f bb3e da1d 8fbe
00000230: e5b1 05bf eedd 623e 4688 8fbe 1b13 f4be
00000240: 7c20 db3d cf00 b43e 446a a5be f38d 623f
00000250: 192d 903e e773 123d 83ab 2dbf be59 63be
00000260: 598c 0a3f f9f0 53bf e706 f1be 20be 9abe
00000270: b3f4 d03e d8cf 41ba fdf2 90be fb6f 9abe
00000280: efef 5bbf d801 363f 24a3 e13d 4eea 0bbf
00000290: ec7e 50be 7cd5 33be a8fa bb3e 695e cebd
000002a0: a12c 1c3f 1bd3 90be 7566 62be fbc2 583e
000002b0: d740 563f 9c86 373f d8a7 ba3e aaae fb3e
000002c0: 5bfe febe aa68 edbe 6573 613f 8cad bcbe
000002d0: c0ef a4be 2de4 643e aec1 bb3e 931f e73e
000002e0: d5e7 19bf f94a fcbd 9bef 283f 8b31 173f
000002f0: a3fd 71be 8c32 f9be 5c0e 453f 3b98 dc3d
00000300: ffe2 57be ab28 543d 925b 463f 392b 423f
00000310: b2d2 043f bdd6 953e b89d 4ebf f52a 033f
00000320: d976 88be 283b a1bc c0a9 423e ed9d f73e
00000330: 8a5d fb3e bc2e eabd 7e32 90bd 0a87 123f
00000340: 846b 173e e192 c0be c9f2 733e 5a9f f8be
00000350: 2e57 30be db41 143e 8ed7 093f 7683 bd3d
00000360: b11c 81be f4d8 623f 9b12 993e 20fb b93e
00000370: 5c37 adbe 90fc 09be ad51 083f 0751 c13d
00000380: 833a 5dbf c479 193f 30fe 0e3f 24e6 aa3e
00000390: aec5 45be c246 34be e050 95bd ec6a 33bb
000003a0: 4b04 48bd 36b2 643e 2005 c7be e7f0 ca3e
000003b0: a3bb f13e 44dc 93be ccf4 103f a9b3 0a3f
000003c0: 1305 71be b5a3 12bf 7e5c 53be 3271 80bf
000003d0: b73b 81be d593 49be eb1b ba3e 80b0 063f
000003e0: 563e c6be 7072 363f 4a84 dc3e e0d7 653e
000003f0: 6b3a d5bd d669 b83e 8af6 cd3e 75de c93e
-0.17373548 -0.23415442 1.113538 -0.2730739 -0.38848382 0.24597114 -0.155698 -0.22758038
0.12898625 -0.68404555 0.35609147 -0.32638192 -0.058851596 -0.14505935 -0.28508526 0.270616
-0.67881155 0.30673712 -0.3377163 -0.043056324 0.13362128 0.39142287 -0.40580872 -0.074786544
0.40605688 -0.44863582 -0.25299367 -0.193109 -0.117169954 -0.17079802 -0.19050992 0.33401278
-0.27237567 0.38533208 -0.83867306 -0.06801703 0.3367345 -0.22003835 -0.12330579 0.20371097
0.25676608 0.24607523 -0.25749898 0.6385222 0.65830344 0.094271086 0.6382071 0.039117593
0.39588434 -0.331326 0.252554 -0.38508698 0.11907041 -0.46552438 0.7456349 0.3727472
-0.7081504 -0.23440096 0.4606012 0.47370684 0.19120583 0.21264 -0.275178 0.18114907
-0.11824931 0.115374684 0.6582298 -0.2908698 -0.3740243 0.5083763 0.31231487 -0.36009273
-1.0951251 0.4409548 -0.23119636 -0.17769039 -0.2942591 -0.005490456 0.16850716 -0.80318016
-0.04622786 0.033161957 -0.083130375 0.14112918 -0.33773085 0.65677875 -0.13997276 0.0010903011
-0.35728845 0.83815455 0.031243507 0.087037586 0.056967873 -0.37109345 0.4376666 -0.9520776
-0.024061901 -0.26262328 -0.6673335 0.77457744 0.5098915 -0.40372851 -0.87711805 0.871475
0.19504507 0.1331377 0.022129783 -0.05430556 -0.59723026 -0.30462158 0.3348838 -0.28157687
0.34200898 -0.30707783 0.11330295 0.43594328 -0.1402468 -0.8122871 0.1101937 -0.2874163
0.042304896 -0.69955397 0.09209032 -0.33662164 0.04689902 0.6843989 0.3796228 -0.5735532
0.9864576 -0.26044163 -0.5910221 -0.29674435 -0.14292198 -0.08608143 0.16882442 -0.09059828
-0.21194822 0.13498522 0.3655954 -0.27952462 -0.5222457 0.22154972 -0.28033656 -0.47670826
0.10699555 0.35156867 -0.32307637 0.8849785 0.28159407 0.035755064 -0.6783983 -0.22202203
0.54120404 -0.8278957 -0.4707558 -0.3022318 0.4081169 -0.0007393337 -0.28310385 -0.3016356
-0.85912985 0.71096563 0.11017445 -0.54654396 -0.20360917 -0.17561907 0.36714673 -0.10076601
0.610056 -0.2828606 -0.22109397 0.21168129 0.8369269 0.7168977 0.3645618 0.49156696
-0.49803433 -0.46368915 0.88066703 -0.36851156 -0.32214165 0.22352667 0.36671203 0.45141277
-0.6011937 -0.123189874 0.6599061 0.5905997 -0.23631911 -0.48671377 0.76975036 0.10771223
-0.21082686 0.051796596 0.77483475 0.758472 0.51883996 0.29265395 -0.8070941 0.5123742
-0.26653174 -0.019681528 0.19010067 0.48362675 0.49094802 -0.11434695 -0.070408806 0.57237303
0.14787108 -0.3761206 0.23823084 -0.48559076 -0.17220756 0.14478247 0.53844535 0.0925359
-0.25217202 0.88612294 0.29897007 0.36324406 -0.33831298 -0.13475251 0.5324963 0.09439283
-0.86417407 0.59951425 0.5585661 0.33378708 -0.1931369 -0.17605117 -0.07290816 -0.0027376963
-0.04883222 0.22333607 -0.38871098 0.3963692 0.47213468 -0.28878987 0.5662353 0.5418039
-0.23537092 -0.5728105 -0.20640752 -1.0034544 -0.2524087 -0.196853 0.36349425 0.5261307
-0.38719434 0.7126837 0.4306968 0.22445631 -0.10411533 0.36018246 0.40227157 0.39427534

encoder.layers.0.self_attn.linears.1.bias f4 [32]
00000000: 0f17 a7be 725e 3f3e 971b 1d3d 1662 6a3e
00000010: 9704 95be 4bc6 5e3e a49d 963c e49b 653e
00000020: ee7f 483e 40a0 553e d1db bcbc f83b 373e
00000030: 2868 22be ec51 00be 5853 2f3e ed6f 31be
00000040: e0e3 85bc 1e37 093e 0d34 1b3e ff3b 77be
00000050: b026 1a3d b3bc b6be 6f83 d63e cc9f 933e
00000060: 4b46 ffbd 930d 8dbd 5ada 153d c586 0a3e
00000070: e4ba 2f3e a482 c83e 30e3 133e 06fc b43e
-0.3263478 0.18688372 0.03835639 0.2288898 -0.29105064 0.2175533 0.018385716 0.22422749
0.19580051 0.20861912 -0.023054035 0.1789397 -0.15860045 -0.1253125 0.17121637 -0.17327853
-0.01634401 0.13399932 0.15156575 -0.2414398 0.03763455 -0.3569084 0.4189715 0.28832853
-0.12464579 -0.06887355 0.03658519 0.13527973 0.17161137 0.3916217 0.14442134 0.3534853

encoder.layers.0.self_attn.linears.2.weight f4 [32, 32]
00000000: 41aa 4fbe ef1d 953c 48a4 eabd 7601 9c3e
00000010: 5a70 66be 4103 ecbd 0bdb a33c e3dc d03d
00000020: df86 ccbd 610b e9be 08a1 03be f6f0 283f
00000030: af0c e43d fc9c 4d3e 433f 613e 82f1 4cbe
00000040: f0c4 04bd dcb4 ab3e 10ec b9bd dd0b 6a3a
00000050: 4e98 453e 9ed5 b6bd e00d b6bc 15e9 8f3d
00000060: fdb8 743e 7b14 7d3e 08fb b73d 7fb1 42bc
00000070: 2ecf e8be 644c 76be d7b2 6b3e e7fb 10be
00000080: 9a31 10be eac6 c1be 3567 a13c 4074 5fbd
00000090: c10e cd3e 6547 c8bc ce32 f93d 93dd 2bbe
000000a0: 0104 503e 1315 a8be 7477 073e 89ed ffbd
000000b0: a385 f7be b194 abbd 0bfc f5bd 99be eabc
000000c0: e1bb aabd 6efe 09be 6054 133e 4f88 0c3e
000000d0: bb0a ae3d b5e7 103e 5ce8 e43e 9df8 04be
000000e0: e313 2bbe aa99 0fbf 18a8 6fbd 0826 33be
000000f0: 92f7 8c3e 53a7 983e b721 43be 8e82 f1bc
00000100: fc3a 14be ba11 b6bc 1a42 9d3c 1b62 1cbe
00000110: e48c ab3d 80f0 56be 6db8 603e aad0 803d
00000120: 5db1 babe 8537 463e 26c1 8b3e fdf9 603c
00000130: 2576 293d e127 18bd e726 933d b9c0 e6be
00000140: 5e1a 103e 77f5 603c 83a2 a9be f887 6c3e
00000150: 950d 3cbd fcf8 3a3c e6ff 6c3e 0044 2dbe
00000160: 2825 013e 2e02 923e c70c ce3d ab95 543e
00000170: 6cf5 3dbe a0f1 aa3c 9d46 a43d dc13 063d
00000180: 813a df3d d8a5 f9bd f9cf 54bd 2ba5 4abe
00000190: d409 683d b6ed d7b9 1bea 1c3e 3da3 82be
000001a0: 7b58 6f3e f115 283f 602d fa3d 4b6b 87bf
000001b0: 4966 80bd d93a 2e3e e721 a9be 0fb1 4bbe
000001c0: 071a 873d 17db 22be 8d9b 853e 2e5e dc3e
000001d0: 8d00 a1bd 9ca6 88bd 658c 94be 4aac acbe
000001e0: 54bb 063e 028f bc3d bacb c83c 1308 53be
000001f0: ed2b 133f f1ac e73d 9a62 45bd 27c8 ea3d
00000200: 1217 c2be 375c e03d 7f4b 09be f736 2b3d
00000210: dc27 6a3e fca6 36bf ac6d 4f3d 6120 943c
00000220: b74b fa3e efa0 893e af30 0d3e 017d 6dbe
00000230: 5825 8dbe d37a 243f efdc e4bd fc23 4fbb
00000240: 9ba7 12be ca5c 743e c304 d03d 464f db3e
00000250: 073d 80bd d08f adbe 4398 c93e b34a 073e
00000260: 11db 7dbe f4e7 503e e971 a4bd 4909 db3d
00000270: 17b4 8a3e ca9c c6bd 846b 5f3e d41e ac3d
00000280: d8c2 dc3e 60dc 04bc 0c74 423e f545 09be
00000290: fe77 02bf 5a95 07be 228b 22bd d993 67be
000002a0: 06e9 68bb 1c7d 5c3e eb96 04bc e2bd 2dbe
000002b0: a88d 373f 0133 cd3d 33e6 3fbd cb37 ea3d
000002c0: 5b27 893e a430 3abe 8552 24be bd69 c7bd
000002d0: 2b5f 31be bd13 29bd 84d9 86bc 6a9c dcbc
000002e0: 34e8 7a3e 33f0 d73d 630a 3a3e d68c 483e
000002f0: 9c31 cc3e c02b e3be 93d3 ccbd 42f9 bf3d
00000300: 5e33 2fbe b78d 273e a35f 2cbd d084 23be
00000310: b501 cbbe e88e 54be 0151 363e 6236 0e3f
00000320: 77f4 543e 6c3a 4b3e b57e 00be 05cd b83d
00000330: efca 2e3e 9f3b e73e bf00 ac3d 892d 18bd
00000340: 15e8 98be 7787 b23e 3f98 40bc 5e8b 7e3c
00000350: f7aa 7ebe 06b3 7f3e 6704 f2bc 1345 903c
00000360: a960 dfbd 60be 59be aa62 80bc 736e aa3d
00000370: d7e3 793d efea bcbc 33e4 c23d d9e2 753e
00000380: cc90 f73d f511 11bc c082 703e 6d7f 823d
00000390: 83e2 a8be 0544 4c3d ea85 473d 4035 aebc
000003a0: 5e24 afbe 21cc 133e 0d64 913d d1bf 693d
000003b0: 485d 9d3e a7dc f53c 5e48 383e df55 73be
000003c0: 38d1 f4bc ba8b abbe 8df2 91bc 1855 b3be
000003d0: eb60 3abe 15bd ae3d 8a5d 41bc 614b 483d
000003e0: faa6 b63e 57d3 50be 8588 283e ca37 fc3c
000003f0: 6456 d23e 5f5a 06bd eed7 b1be a8c0 683e
-0.2027979 0.01820275 -0.114571154 0.30469865 -0.22503796 -0.11524058 0.020001909 0.10198381
-0.09986662 -0.45516494 -0.12854397 0.6599268 0.11135232 0.20079416 0.21996789 -0.20014003
-0.032414377 0.33536422 -0.090782285 0.00089281594 0.19296381 -0.08927463 -0.022223413 0.07026879
0.23898692 0.24714844 0.08983427 -0.011883139 -0.45470566 -0.24052578 0.2301744 -0.14158593
-0.14081421 -0.37847072 0.019702533 -0.054554224 0.4005032 -0.024448106 0.12167893 -0.16783743
0.20314027 -0.32828578 0.13229162 -0.12496478 -0.48344144 -0.0837797 -0.12010964 -0.028655337
-0.08336616 -0.13475963 0.14387655 0.13723873 0.084981404 0.14150889 0.44708526 -0.12985463
-0.16706805 -0.5609385 -0.058509916 -0.17494977 0.2753263 0.29815158 -0.1905583 -0.029481199
-0.14475626 -0.02222525 0.019196559 -0.152718 0.08376482 -0.20990181 0.21945353 0.062897995
-0.36463442 0.19357117 0.27295798 0.013731477 0.041372437 -0.037147406 0.071851544 -0.4506891
0.14072558 0.013730398 -0.331318 0.23098743 -0.04591139 0.011411902 0.23144493 -0.16920471
0.1261183 0.28517288 0.10061031 0.20760219 -0.18550652 0.020867169 0.08021281 0.032733783
0.108998306 -0.12189835 -0.05195615 -0.19789569 0.056649998 -0.00041185104 0.15323679 -0.25515166
0.23373596 0.6565848 0.12215686 -1.0579618 -0.06269509 0.17014636 -0.33033678 -0.19891761
0.06596761 -0.15903889 0.26095238 0.43040603 -0.07861433 -0.06672403 -0.29013363 -0.33725196
0.13157398 0.09206964 0.024511207 -0.20608549 0.574889 0.11312283 -0.048189737 0.11463957
-0.37908226 0.109550886 -0.13407706 0.041800465 0.22866768 -0.7134855 0.0506417 0.018081846
0.4888589 0.26880595 0.13788103 -0.23192216 -0.27567554 0.64249915 -0.11174952 -0.0031607142
-0.14321749 0.23863521 0.10157158 0.42833918 -0.0626164 -0.33898783 0.3937398 0.13212089
-0.24790598 0.20400983 -0.08029539 0.106951304 0.27090523 -0.09697874 0.21818358 0.084043175
0.43117404 -0.008109182 0.18989581 -0.13405593 -0.50964344 -0.13240567 -0.03968347 -0.22614993
-0.0035539283 0.215321 -0.008092622 -0.16966966 0.71700525 0.10019494 -0.046850394 0.11436423
0.26787838 -0.18182617 -0.16047104 -0.09736965 -0.1732146 -0.04127859 -0.016461141 -0.026930053
0.24502641 0.10543861 0.18168025 0.19584975 0.398816 -0.44369316 -0.10001292 0.09373714
-0.17109439 0.16362654 -0.042083394 -0.15968633 -0.3964974 -0.2075764 0.17804338 0.5555173
0.20796381 0.19846505 -0.12548335 0.09023479 0.170696 0.45162675 0.0839858 -0.0371528
-0.29864565 0.34868976 -0.011755048 0.015536157 -0.24869905 0.24970636 -0.029543115 0.017611062
-0.10907108 -0.21264029 -0.015672047 0.08321848 0.0610083 -0.023061244 0.09516182 0.24012317
0.12088165 -0.008854379 0.23487377 0.06371961 -0.32985315 0.049869556 0.048711695 -0.021265626
-0.34207433 0.14433338 0.07099161 0.057067696 0.3073523 0.030012442 0.17996356 -0.23763226
-0.02988492 -0.3350504 -0.017815853 -0.3502586 -0.18201034 0.08532158 -0.011802087 0.048900012
0.35674268 -0.2039312 0.16458328 0.030788321 0.41081536 -0.03280103 -0.34735054 0.22729743

encoder.layers.0.self_attn.linears.2.bias f4 [32]
00000000: 4b4a 80bd 3946 d23b 5a9e f4bd 53a7 4d3d
00000010: c024 96be aee7 f33c 007a b4bd 1cb5 003e
00000020: 3b68 ed3d 3219 f33c a67a a5bc 2319 ba3d
00000030: 4c26 d83d efd5 c5bd 433f c0bd ab03 823c
00000040: acdf 663d 6b44 bb3d a5d6 f03d 3eb9 abbc
00000050: 2cc8 39be 4539 cebd 2ea3 923d 12f9 2ebe
00000060: 9916 9dbb 05cf bd3d 467d e53d ae41 be3d
00000070: be09 ccbb 2071 44bd f5ca 193d b671 af3c
-0.0626417 0.0064170626 -0.11944266 0.0502084 -0.29324913 0.02977356 -0.08812332 0.12569088
0.11592146 0.0296751 -0.020200085 0.09086826 0.105541795 -0.09659945 -0.09387066 0.01587089
0.056365654 0.09143909 0.1175969 -0.020962354 -0.18142766 -0.10069517 0.0716003 -0.170872
-0.0047939536 0.092680015 0.11205535 0.09289871 -0.0062267473 -0.047959447 0.03754707 0.021416526

encoder.layers.0.self_attn.linears.3.weight f4 [32, 32]
00000000: 0f3c 92bd f224 1a3e 48b2 c6bd e33f 123e
00000010: cb68 81be fb40 b1be f578 aebe 3725 83bd
00000020: ab26 953e d0a4 38bd 8f73 523d 0d01 d93e
00000030: 081d d53e 6e3f 57bd 5d79 acbd 3277 963e
00000040: bb92 1b3e c3f3 41bd 9fdc cebe 919c de3d
00000050: 5820 74be 6297 b83e 21cd 8e3d 4e17 d1bd
00000060: 4b64 6b3e 7594 693e ddd0 a8be f3ea 12be
00000070: f060 033b c91c 4d3e 3c6b 083d f17c 61be
00000080: 4b55 01be 4047 443e 7995 573d 6ac6 0f3f
00000090: 282c 253f 0c50 ebbd 6238 433e ae52 4fbe
000000a0: 5dea a0bc 3e27 0a3e 7e0a 043e b94d 4e3e
000000b0: 1c60 383d 4c80 60bd f745 e03d 6e0c 66be
000000c0: 7017 af3d ce04 04be b494 843e 6713 89bd
000000d0: 9099 0dbd 7cf2 0d3e 2ca9 5c3e db80 1dbe
000000e0: 9753 c83b 098c d7be da20 e4bd c798 d23e
000000f0: 6c5d 26be 1cf2 833e 188e bc3d 6a33 133e
00000100: 170b 11be 41cc acbd 596b 76be 55a5 95bd
00000110: e644 45be f3f2 413e 6fc0 d5bd c878 cf3b
00000120: e886 47bc 9878 80bd bd92 16bf 9c56 36bd
00000130: 5ab5 a8be 6799 dd3b 79d0 eb3e 7340 59be
00000140: 34a2 383f 0acb c63d 3da9 393e a2fb 29bf
00000150: 6002 0e3c b953 b33b 206c 05be 0eae 1abd
00000160: deea ff3d fbb1 8bbd 1950 7c3e 313a 33be
00000170: 2aa2 dc3c d3d9 a53e 7cf4 b5bd c49a 37be
00000180: 5d1a c0bd fed4 1e3b 4248 23bd 8e2e 783e
00000190: a5cb 883e c959 16bc a3ea a43c 7c18 073e
000001a0: 8fb1 093e 175c 83bd 7114 a2bd b97a 1cbe
000001b0: 8992 1cbd 207d ef3d 6434 4ebe 185c d4bd
000001c0: 9132 a5bd 1218 3bbe bcc7 163e 1e25 eebd
000001d0: 8eac 443e c914 023d a9ad 483e 559c 6a3a
000001e0: 6224 1ebe 24c4 4ebd 04ca 89bd 4865 233d
000001f0: 3397 bbbd 45df 6f3c a3c0 2d3d cfba e2bd
00000200: 1efd c53d d7b6 61be f7a5 033e d20e a53d
00000210: bcce 38bd d297 31be e0c4 3c3e c68d 643c
00000220: e0f5 123e 08c7 8fbe 2c4b afbe 3925 7ebd
00000230: 0e2b 52be f3a5 553e a43f 6bbe 57e0 aabe
00000240: 2b19 e03d 6c9e 9cbd 86eb 55bd 889f a9bd
00000250: e176 113e 2778 0fbe 3e85 1d3e 4ff9 5d3e
00000260: 5a76 803d 0a0e 8b3d bab6 45bd f9fd 323c
00000270: 9bb1 503c 9e8d c73d 6159 903b 1aec c13c
00000280: e742 3c3e e84a 073e 9d80 0d3d 94f3 aebd
00000290: e6f3 14be 012a 603e bd64 46be 4c09 933d
000002a0: faef e1bd 8ca1 d83d 8389 a93e 1d5e 7fbc
000002b0: 44c8 c7bb 417d a13d 45d6 76be 7b05 7b3e
000002c0: 0cc9 d03d 7dd3 c2bc 468d 17bd 27eb 243d
000002d0: 4f79 5dbd 7533 003e e86e 8bbd 0227 81bd
000002e0: eb9c 47be 289f aabd de9c 1ebd 2668 b4bd
000002f0: 0b88 6d3e 6db7 18be 4a59 c63d 78b3 93bd
00000300: 33b8 98be 7266 73be 04b2 233d a962 843c
00000310: ac00 853d be80 d73c b370 8f3d 6e4f 75bd
00000320: 69e5 12be b51c 7e3e 8606 e7bd 449f 43bd
00000330: 4889 3fbd 1fb6 ad3e d192 60bd ae96 c33d
00000340: ddcc 97bb 1d10 713e ce58 05be 4ab7 e5be
00000350: 9c57 26bd a978 e63e 6bc5 cc3e d515 9f3d
00000360: 40bd 2abe c3e2 62be d184 783e b10e 3a3e
00000370: 0520 283c 7804 f33e bf16 c6bd 7f75 753d
00000380: 796d b0bd f755 4ebd 2127 213e 0d3e 9f3e
00000390: 4da2 b43c d69b dfbc d288 8d3d 36ec 04be
000003a0: 6805 d3bd 1a0d b63d 1c79 673e 10b5 8ebe
000003b0: bf25 343e afcc 25be a24e f9bd 0f5c 433e
000003c0: 5473 42bd aab3 20bd 0670 cc3e a0f5 44bd
000003d0: bfdf 233d f9ab 03be 8956 543e 2faa 243e
000003e0: b7ef 563d dc26 213e a735 233d 0e00 933d
000003f0: 1ec4 913d 4d68 d63d 9933 b23d c84f 3e3d
-0.071403615 0.15053156 -0.09701973 0.14282183 -0.25275263 -0.3461989 -0.34076658 -0.064035825
0.29131064 -0.045079052 0.051379737 0.42383614 0.41623712 -0.052550726 -0.08421586 0.29387814
0.15192692 -0.04735161 -0.40402696 0.108697064 -0.23840463 0.36052996 0.06972719 -0.10209523
0.22987477 0.22810538 -0.3297185 -0.14347439 0.0020046793 0.20030512 0.03330539 -0.22020318
-0.12630193 0.19167805 0.052632783 0.5616213 0.645205 -0.11489877 0.19064477 -0.20246384
-0.019643003 0.13491532 0.12894627 0.20146836 0.045013532 -0.054809853 0.10950845 -0.22465679
0.08549392 -0.12892458 0.258947 -0.06693154 -0.034570277 0.13862032 0.21548909 -0.15381186
0.0061134803 -0.42099026 -0.111390784 0.41132185 -0.16246575 0.25770652 0.0920679 0.14375082
-0.14164387 -0.08437396 -0.24064387 -0.07306925 -0.19264564 0.18940334 -0.104370944 0.006331537
-0.01217816 -0.062730014 -0.58817655 -0.04451619 -0.3295086 0.0067626718 0.4605749 -0.21215992
0.721225 0.097066954 0.18130966 -0.66399586 0.008667558 0.005472627 -0.13029528 -0.037763648
0.12495969 -0.068210565 0.2463993 -0.17502667 0.026932795 0.3239275 -0.08884522 -0.17930132
-0.093800284 0.002423584 -0.039863832 0.24236509 0.26717868 -0.00917668 0.020131415 0.13192934
0.1344664 -0.06414049 -0.07914055 -0.1528119 -0.038225684 0.116937876 -0.20137173 -0.10369128
-0.080662854 -0.18270901 0.1472463 -0.11628173 0.1920645 0.031758104 0.19597496 0.0008949687
-0.15443566 -0.050480023 -0.067279845 0.03989151 -0.09159698 0.014640634 0.04242004 -0.11070787
0.09667419 -0.22042404 0.1285628 0.080594674 -0.045119032 -0.17343071 0.18434477 0.013949817
0.14351606 -0.28081536 -0.3423704 -0.062047217 -0.20524237 0.20864086 -0.22973496 -0.33374283
0.109423004 -0.07647404 -0.052226566 -0.08282381 0.14205505 -0.14010678 0.15382859 0.21677135
0.06272574 0.06789787 -0.048269965 0.01092481 0.012737657 0.09743808 0.004405186 0.023672152
0.18384896 0.13212168 0.034546483 -0.085425526 -0.14546165 0.21891023 -0.19374366 0.071795076
-0.110321 0.105776876 0.33112726 -0.015586403 -0.0060968716 0.078852184 -0.24105175 0.2451381
0.10194597 -0.023782486 -0.036999963 0.04026332 -0.054070767 0.1251963 -0.06808263 -0.06306268
-0.19493453 -0.08331138 -0.03872382 -0.08808927 0.23196428 -0.14913721 0.09684999 -0.07211965
-0.29828033 -0.23769549 0.03996469 0.016160326 0.06494269 0.026306506 0.070039175 -0.059890203
-0.14345326 0.24815638 -0.11280541 -0.04775931 -0.04676178 0.3392801 -0.054827515 0.09550224
-0.004632576 0.23541303 -0.13022158 -0.448664 -0.040610895 0.4501393 0.39994368 0.07767836
-0.16673756 -0.22156815 0.24269415 0.18169667 0.01026154 0.47464347 -0.09672307 0.059926506
-0.0861463 -0.05037495 0.15737583 0.31102028 0.022050047 -0.027295988 0.06910862 -0.12980732
-0.103037655 0.08889218 0.22604793 -0.27872515 0.17592524 -0.16191362 -0.12173201 0.19078086
-0.047473267 -0.03923384 0.39929217 -0.04808581 0.040008303 -0.12858571 0.20736136 0.16080545
0.052474704 0.1573748 0.03984609 0.07177745 0.071174845 0.104691125 0.08701248 0.046462804

encoder.layers.0.self_attn.linears.3.bias f4 [32]
00000000: f8f3 5ebd 7a9a 09bc 7b66 933b 80d2 c63d
00000010: 8fa7 49be 3892 0f3e 9b33 a4bb e383 2dbd
00000020: 5927 4d3c 7f57 853c e94a 013d 1a74 793e
00000030: 2a2a f6bd 4cd5 81bd a98b df3d 0cd6 3c3d
00000040: 3c77 203c ee77 56be 58ae eebd 9ca5 923c
00000050: e5b0 80bd 4114 9cbd 813b 3bbe d25e 053e
00000060: 251e 353e 9407 41be 04b7 003e 9b1c ab3d
00000070: a9b6 0f3d 9e4c 083d 3772 93be 6542 163e
-0.054431885 -0.0083986465 0.0044983006 0.097081184 -0.19692825 0.14020622 -0.0050110347 -0.042362105
0.012521588 0.016277073 0.03156558 0.24360695 -0.12019761 -0.06339511 0.1091531 0.04610257
0.009794053 -0.20944187 -0.11654347 0.017901234 -0.0628374 -0.076210506 -0.18284418 0.13024452
0.1768728 -0.18850547 0.12569815 0.083550654 0.035086308 0.033276193 -0.28798077 0.14673765

encoder.layers.0.feed_forward.w_1.weight f4 [128, 32]
00000000: e156 b83e 7ade 0e3c 0d8a 9b3e ba05 28bf
00000010: 665a 9fbe 7939 933d 37e2 253e a474 b5bd
00000020: 1e39 f53d f3b9 cb3e 699b a9be e44a 66be
00000030: 47d0 2b3f 7fae b6bd aaab 633e 135e 9a3c
00000040: 460c 863e ab03 643e f389 d6be 768d 04bd
00000050: 9ac5 993e c94d 05be 4f51 92bd 95a7 06be
00000060: b239 993e 44e5 01be 6d6b 7bbd b94c c83d
00000070: cdc8 033f 67ee 63be 62e7 3ebe 1686 963e
00000080: 4474 48be ef95 aabe 6f37 613e 3844 e03e
00000090: ebe0 debe 9b9b b63c 5681 f43b 5cbb 8cbd
000000a0: 9250 833e ac70 0ebe cc52 e43d c0ae 473f
000000b0: 12ba 32bd 6899 313d 2d2b b93d b05c 8dbd
000000c0: fb26 4f3e 7781 1dbe 3d75 723e 3ee3 99be
000000d0: 4ee9 19be 336c bf3c dd28 79be 3537 fb3e
000000e0: 7d11 3ebe f7c9 babd 7437 023f 9c37 da3e
000000f0: 6972 57bd 5c15 093f ae0d 33be 3d87 b5ba
00000100: 268f 73be ab35 01bf 295c bb3e 3efb 8a3e
00000110: f0f4 4a3e 7d0a 163c 30b7 0bbf e952 893f
00000120: c778 833e ff08 55be 74b9 263e 23ae 06bf
00000130: 7802 d5bd b708 4c3f c79b 34bd 6578 053e
00000140: a4d3 963e bd2d b83e edfc 6f3e 1439 e1be
00000150: 7f1c cbbe 2181 cb3e 5d1f 53be a8d8 41bc
00000160: 0d20 84be 253c 233f fc89 4c3f 0d80 943e
00000170: 618b b83d 952b 4dbe 5930 96be 118d cb3e
00000180: 69e4 073f d4ad 403e 75cd cd3d 1254 77bf
00000190: c8a4 65bd f3c5 2d3e 9f58 6bbd 700e 90bd
000001a0: 7dd9 09bf 280f c83e 6253 913c 01c0 07be
000001b0: b26e 5c3e 0701 143e 8f02 f5be 3806 ddbd
000001c0: c97e 983d 6dff a23e 0644 f6bd a233 8bbe
000001d0: 21c6 bb3d 16aa cc3e 198a b93e ece7 f0bd
000001e0: 6edb 253d ca71 55be 21f4 fe3d 4557 043e
000001f0: 0d47 35be 4662 d3be 6cd9 c33e 4e84 8dbe
00000200: cdc1 4c3e d4c1 f83c 8013 06bd 2657 d23d
00000210: c884 b33e f7dc 183e 5640 e1be d2a7 473e
00000220: 8365 d8be 5697 463d 44fb 29be 1503 aabe
00000230: c2b2 a73e 7ad2 10be cc14 c43d a3b7 623d
00000240: 35d4 98be 26e0 563d be30 823e e5a0 b13d
00000250: 9eef ca3d 853a 483e 1455 433e 8958 ff3c
00000260: e6ba 10bf d3ba 5b3e 2f08 a6bb eb23 1f3d
00000270: 98ed a43d 9051 0b3f c307 823e 823d 833c
00000280: 00e7 3e3e 2842 9d3d 127d 353d b38c dfbe
00000290: 0faf 71bf cdb8 ab3e 2cab 6ebe 4919 cfbe
000002a0: edd9 853e 0bfd 0a3f dc08 33bf 19d0 6ebe
000002b0: 1f8c 4e3e a1b7 f5be be58 e93d baa1 d3bd
000002c0: e54d e03d d67a c23c fbb6 2cbf fdad 24bd
000002d0: 7af9 163e 9fef 3cbe aa91 66bb 9c7f 313e
000002e0: 395b 1a3e 4949 a23d 911f a0bd 4f86 aa3b
000002f0: 09b5 8d3e 2f1a f0be f6a1 1d3c 4202 3fbb
00000300: 0b7c 4dbe 6a88 c1bd 07eb 583c 41c9 193e
00000310: 88ae cebe b180 16be 7ee0 8ebd 4c9b 363f
00000320: fcbf 243f 767b b0be d47d 1e3b 0fe0 073e
00000330: b724 4b3d 2696 283e 0b34 5d3d a18e 903e
00000340: e991 5f3e a1a4 e73d 5762 05be 710f cd3e
00000350: de03 a2be f694 61bf a259 d1bd 103c d53d
00000360: 6c5a 0dbe 6567 ea3d 6d0a 093e ea29 653e
00000370: 1bb5 3c3f bc5e c03d cf08 253e b44e 303e
00000380: 9b27 2d3e e783 493e f7eb 673e ac2b 33be
00000390: 72b7 04bf 54bb a3bc 1d07 e83e 3e3a ad3e
000003a0: 9879 d0bd fb28 0abe 7b45 4ebe 3c70 663e
000003b0: c664 bc3e 5978 05be 0547 2ebd 6de7 acbd
000003c0: 4ef4 9abe 36bc e73d 33f9 e3be 27da 4a3e
000003d0: 6d48 b1bb a2f5 82bd 6351 a2bc 28f9 453e
000003e0: 5f83 703d 8696 42be b5a1 133e 2bc9 4d3e
000003f0: 738f 2c3f 7c8b 8cbe a98f 87be bc3b 013f
0.36003783 0.008720035 0.30378762 -0.6563374 -0.31123656 0.071886964 0.16199575 -0.08860138
0.11973785 0.39790305 -0.3312638 -0.22489506 0.6711468 -0.08920001 0.22233453 0.018843686
0.2618124 0.22267024 -0.41902122 -0.03236147 0.3003357 -0.13017954 -0.07144415 -0.13149865
0.2992683 -0.12685114 -0.061381746 0.09780259 0.5147827 -0.22258912 -0.18642953 0.29399174
-0.19575602 -0.33317515 0.21993802 0.43802047 -0.43530974 0.022290995 0.007461707 -0.068716735
0.25647408 -0.13910168 0.11148605 0.7800102 -0.04363448 0.04335919 0.09041438 -0.06902444
0.20229714 -0.15381418 0.23677535 -0.30056185 -0.15030405 0.023367023 -0.24331994 0.49065557
-0.18561359 -0.09120553 0.50865865 0.42620552 -0.052599344 0.53548217 -0.17485687 -0.0013849508
-0.23785076 -0.50472516 0.3659375 0.27144808 0.19819999 0.009157774 -0.54576397 1.0728427
0.25678083 -0.20804213 0.16281682 -0.5260946 -0.104008615 0.797008 -0.044093873 0.13034208
0.29458344 0.35972396 0.23436327 -0.4398886 -0.39670178 0.39746955 -0.20617433 -0.01183144
-0.25805703 0.6376365 0.7989805 0.29003945 0.090109594 -0.20036156 -0.2933376 0.39756063
0.530829 0.1881631 0.100489534 -0.96612656 -0.05606535 0.16970043 -0.057457563 -0.07034004
-0.53847486 0.39074063 0.017739955 -0.13256837 0.21526602 0.14453517 -0.47853515 -0.10792202
0.07446057 0.318355 -0.12024693 -0.2718783 0.091686495 0.39973515 0.36238173 -0.117629856
0.040492468 -0.20844188 0.12448908 0.12923916 -0.17702885 -0.41285914 0.38251817 -0.27640003
0.19995804 0.030365862 -0.03273344 0.102705285 0.35062242 0.14928041 -0.43994397 0.19497612
-0.42264947 0.04848417 -0.16599756 -0.33205476 0.3275357 -0.1414279 0.09574279 0.05535091
-0.298494 0.05245986 0.25427812 0.08673266 0.099089846 0.19553573 0.19075423 0.031170147
-0.56535184 0.21457987 -0.0050668935 0.038852613 0.0805313 0.5442133 0.25396547 0.01602054
0.18642807 0.07678634 0.04430873 -0.43662032 -0.94407743 0.3353943 -0.23307484 -0.4044898
0.26142827 0.5429236 -0.69935393 -0.2332157 0.2017064 -0.4799166 0.11393879 -0.10333581
0.10952357 0.023740213 -0.67466706 -0.04020499 0.14743605 -0.18450783 -0.0035182037 0.17333835
0.15073861 0.07924134 -0.07818521 0.005203999 0.2767718 -0.46894976 0.009621134 -0.0029145633
-0.2006685 -0.09449847 0.013239629 0.15018179 -0.40367532 -0.1469753 -0.06976412 0.71330714
0.64355445 -0.34469193 0.0024183886 0.13269065 0.04959556 0.16463527 0.05400471 0.28233817
0.21833004 0.11310697 -0.13025795 0.40050843 -0.31643575 -0.8811792 -0.10222174 0.10411847
-0.13804024 0.11445502 0.13382883 0.2237927 0.73713845 0.09393069 0.16116641 0.17217523
0.1690964 0.19679223 0.22648607 -0.17497128 -0.51842415 -0.019986786 0.45317927 0.33833498
-0.10179442 -0.13492195 -0.20143692 0.22503752 0.36795634 -0.1303419 -0.0425482 -0.084425785
-0.30264515 0.11315195 -0.4452606 0.19809781 -0.005410245 -0.06394507 -0.019814199 0.19333327
0.058719035 -0.19002733 0.14417155 0.2009627 0.67406386 -0.27450168 -0.26476792 0.5048177

encoder.layers.0.feed_forward.w_1.bias f4 [128]
00000000: 3ae8 acbd e0b4 4bbe 5c4c a63e 989d d5bd
00000010: 54cb d2bc 6cff a53c b1c7 b3be 4543 eabc
00000020: b479 79bd 2ef1 a3bd 0c3e 18be 6adf 923c
00000030: 9655 b5ba 6718 fdbe fbae ccbe 24ad 4fbe
00000040: dcfb b4be 0737 e63c 6591 e6bd 9224 e3be
00000050: f87f 393c 08f7 61be 57c5 dabd 12a5 9f3c
00000060: 5e60 aa3d 8e97 27bd ef9d 3c3d 270f 273e
00000070: 7778 a8be 2877 5cbd a6a8 c0bd 3f92 bfbe
00000080: 4b55 13be a664 05be 7cec 8cbd 20b5 37be
00000090: b124 01bd 4c3f c83d 6237 5dbe a06b 07bf
000000a0: 73c0 23be d015 40be 44e2 adbd 1cee 17be
000000b0: d40b 64be c030 88be 999e 5fbe 7958 0a3d
000000c0: 9441 78bd f6d7 ccbd 16ed 04be c5ed c83b
000000d0: 5b87 2a3d 1f92 1abe f025 b8bd 46f9 e23c
000000e0: 33c0 263d 2945 173e ac69 c93d 4243 c7be
000000f0: b468 c8bd 001e f5bd 542a 11be a27f e7be
00000100: 9dbe abbe 9c14 44be 2f8f a0bb d888 d2be
00000110: f61a dd3b 6bd8 acbe d053 54be 5bd3 babe
00000120: f2b0 cabd 95bf 6ebe 8472 a0be 2a8a 7fbe
00000130: 4a5d 89be 9218 f63a 87b2 b5be 8701 a1bd
00000140: c7c0 88bd 2596 39be b8a4 5abc f4ec cebd
00000150: 6c76 4b3d 6e8f 9bbe f16f 80be ede7 0fbe
00000160: c892 15be 3100 aabe bfe5 9fbd c54f a3be
00000170: 4656 113e 30b3 a8be edcd 193d fee2 b2bc
00000180: 0421 c2be 195a 66be d13c a4be 019c efbe
00000190: 5494 a0bd 6301 debd f87a f7bd a1e6 83be
000001a0: afae 283d bb67 4dbe 2e0d 47bd e3cf 67be
000001b0: 75c3 7fbd 1032 1cbe 558d aabd 17ce 9fbd
000001c0: 0db2 63bd 5fe5 bd3d 4c26 83bd 2d15 30be
000001d0: dbbf debd f9eb 70be a44c 333d a900 78bd
000001e0: 5bfb 00be 4318 33be 9b7b 3ebe 9fc7 30be
000001f0: 148c 8dbe 1bdf afbe 2ba4 28bc f418 c9bc
-0.08442731 -0.19893217 0.32480133 -0.10430449 -0.02573172 0.020263396 -0.3511329 -0.02859653
-0.06090708 -0.08004986 -0.14867419 0.017928798 -0.0013834711 -0.4943268 -0.3997725 -0.20280892
-0.35348403 0.028102411 -0.112582006 -0.44363838 0.011322014 -0.22066891 -0.10682171 0.019487891
0.08319162 -0.04091602 0.046049055 0.16314374 -0.32904407 -0.053824574 -0.09407167 -0.37416264
-0.14388005 -0.13026676 -0.06881043 -0.17940187 -0.031529132 0.09777698 -0.21603158 -0.528986
-0.15991382 -0.18758321 -0.08490422 -0.14836925 -0.22270137 -0.26599693 -0.21837844 0.03377578
-0.060609415 -0.10002129 -0.12981066 0.00613186 0.04163299 -0.15094803 -0.08991611 0.027706753
0.04071064 0.14772476 0.098346084 -0.389185 -0.097855955 -0.11968613 -0.14176303 -0.45214564
-0.33543864 -0.19148487 -0.0048998813 -0.41120028 0.0067475988 -0.33758864 -0.20735097 -0.36489376
-0.09897031 -0.2331527 -0.31337368 -0.24955049 -0.26828986 0.0018775633 -0.35487768 -0.078616194
-0.06677394 -0.18123682 -0.013344936 -0.10103789 0.049673483 -0.30382866 -0.25085405 -0.14053316
-0.14606774 -0.3320327 -0.078074925 -0.31896797 0.14193067 -0.3294921 0.0375499 -0.021836754
-0.37915814 -0.22495307 -0.3207765 -0.4679871 -0.07840791 -0.10840108 -0.12084001 -0.25761893
0.041182216 -0.20059101 -0.048596554 -0.22637896 -0.06244226 -0.15253472 -0.08327738 -0.078029804
-0.055589724 0.09272265 -0.06403789 -0.17195578 -0.10876437 -0.23527516 0.043774262 -0.060547505
-0.12595885 -0.17489724 -0.18601839 -0.1726365 -0.27645934 -0.34349903 -0.010293047 -0.024548031
