index_advisor_selector/index_benefit_estimation/index_cost_lib/exp_res/exp_lib_tpch_tgt_ep500_bat2048/model/lib_LIB_300.pt (torch, 413135 bytes, 120 tensors)

S f4 [1, 1, 32]
00000000: 7eaf 0c3e 3ab0 f43d cbcb 1cbd 9df8 0c3e
00000010: 683f 2dbe 3de2 58be 68b8 343e cb62 6ebd
00000020: e525 49be 0f32 31be 9ab7 0e3e 249b a6ba
00000030: a16f 39be 9d31 b93c e10d 19bd 6750 7fbe
00000040: 37b6 3cbe 6555 04be 4535 01bd 3e61 12be
00000050: 829f 68bd 9100 323e e501 ce3d 13aa 093e
00000060: 1641 1ebc 0399 c3bb 2c38 263d e304 ea3c
00000070: 0a8e 233e 6c23 af3d 0b29 c4bb 4661 173b
0.1373882 0.11947675 -0.03828029 0.13766713 -0.16918719 -0.21180053 0.1764847 -0.058199685
-0.19643362 -0.17304252 0.13937226 -0.001271103 -0.1810899 0.022606665 -0.03736675 -0.24933015
-0.18428884 -0.129232 -0.031544942 -0.14294907 -0.056792744 0.17383029 0.10058955 0.13443784
-0.009659072 -0.005969168 0.040580913 0.028566783 0.15972152 0.08551678 -0.005986338 0.002309875

linear1.weight f4 [32, 12]
00000000: 2b0d 3bbe d359 013d af26 5d3e 1091 693e
00000010: 3b86 df3f 4299 b4bc f3e2 2ebf 8ce2 01bf
00000020: b1a7 833e 13a1 6f3f c41c 4b3e dc17 29be
00000030: ed4c 943d 5afb 263c 4e1c 44bf a76c 13bf
00000040: 63f5 25be ff7c 2d3d d679 f43d bc1f 93bd
00000050: d0dd a93e 83d7 61be c6de dbbe 5edf 933e
00000060: a5dc 8f3d 3b82 dfbe ddcf 6ebe 2aab a73d
00000070: f13f 6740 3b1e 87be 54b6 7cbe dd63 803d
00000080: 8775 96bf 4120 27bf 81dc fa3e f10c 2e3f
00000090: b279 a6be 2bbf 9b3f d444 c0be d313 fdbd
000000a0: 80f4 62c0 c246 e9be 6860 073f 4aca 9dbf
000000b0: 6ab9 3fbf a2c9 9dbe 38f2 283e 8c79 cebe
000000c0: 4645 b03d 863a 96be 0910 aebd 023f 7bbd
000000d0: 82ec 8440 f241 f0be 3de0 f03e 57cd 75be
000000e0: 57b7 4ac0 476b 9ebf bbd2 a6be 0824 0ebe
000000f0: 41a6 8dbf 2013 01bf a001 cd3f f884 213f
00000100: 060d a840 677c f53c 29f1 2a3e bb6b c3bd
00000110: 656a 1d3f 82f4 49bf 8585 12bf d975 1f3f
00000120: 99ba 9d3e d3f3 96be b5e0 61bd fd1c 863e
00000130: 1284 2340 1b28 09bf 743b 943f 0005 61be
00000140: 20de 833e 364c cbbe 7965 ddbe fa43 88bd
00000150: a703 17c0 9fae 843f 1e4b 9d3e 84f8 973d
00000160: 83e2 95c0 efa0 053f a6b2 1fbf 3b13 483f
00000170: e4e8 2c3f dd32 693e de12 38be a6f9 63bd
00000180: 1f3e f33f 84fc 17bf cf88 53bf a151 a4be
00000190: 973e 86c0 30e1 8f3e 762d 353d ae47 8b3f
000001a0: 1d2c 08c0 7e59 973f d87d 65bc aa5c 783a
000001b0: 3a00 45be 39f1 603e 4a9b 27bf 031d 4b3e
000001c0: f80b 193d b5b3 fa3e 335a 003d f3f2 13c0
000001d0: 3972 b63e 4a1a f63e c1dd babe 038c 593f
000001e0: 4053 30bf d132 0ebf e093 fa3c 9049 8c3e
000001f0: ba95 9540 9b0a 72bf ce7c 11bf 3e1e aebe
00000200: da3b 94be df18 5bbf 13ab 83be 8a8f d03c
00000210: 1060 203f 85ae 05be 1f92 d6be 40ac 88be
00000220: 907c a23e 4c22 7a3e 865f b83d ee08 0c3e
00000230: 562a 303f 26c2 2dbe ee0f 62be 6f6d 4ebf
00000240: bd63 a53e dee3 b93e 8b13 483f 5ffc 00bf
00000250: fd0a 13be b657 afbe 4e48 71bb 168d ddbc
00000260: ac85 283f c3b5 133e e674 913e bb28 fd3e
00000270: 8ac6 1bbe 45ad e4bd c242 a6be e8b5 0a3e
00000280: 48ea 6840 c969 36c0 7039 bebe 4321 e63f
00000290: 453a f63e 8899 98bf 4d1d 09bf 657e cd3d
000002a0: 6a87 11bf 5e36 af3e c7e2 513f 758b 5fbe
000002b0: db25 a3c0 05b5 633f 8657 863f 3fed b23d
000002c0: 001d 05be b5fc 81be 3b76 b1be e819 0bbe
000002d0: c467 e2be 2592 5a3c c74e 1f3f 3ca7 b1bd
000002e0: 6ccd bf3e fbe2 dd3e f1f3 2a3e 4ab5 a6bd
000002f0: 74a4 193f dfb5 ae3e 0247 423d 457a 233f
00000300: 6616 e5bf 4aff 26be 9d64 f03e 62df 123f
00000310: b6c5 0840 e5e0 98bf 5c34 e23e 38f7 b0bd
00000320: 3691 bcbe 6a29 17bf 620c d2bd cb57 0abf
00000330: 35c8 26bf 0fdb 22be e7f8 b0bd 9c22 c93e
00000340: 6602 b540 700d 8cbf b0d6 a43e 5d2e 2ebe
00000350: 5361 f63e 9b20 85bf 7225 28bf b54d 99be
00000360: 290d 233e b2ff 93be edf0 50be 13fd 023d
00000370: 1deb 3f40 3178 52be 1047 2e3e cb37 e23e
00000380: 8f33 38c0 7f9a 043f c737 5dbf d6ca c1bd
00000390: 14e7 1ebe b26a b9be 0474 71be 3397 933e
000003a0: ee2a 9240 fe24 633e 18bc 08c0 edb9 0abf
000003b0: 4798 8bbf cdb5 84bf efd2 963d a028 c8be
000003c0: 38cf 0f3f fd34 59bf c656 eb3f 33bb c43e
000003d0: 850f 9740 d2a9 093f a857 4bbe c80a 0fbe
000003e0: a0bb 98be d39f dcbf 678f 753e 480f 233c
000003f0: 1d5e 44bf 7aa1 bdbe 052e ab3e 0d0b c53d
-0.18266742 0.031579804 0.21596788 0.22809243 1.7462839 -0.022045735 -0.6831505 -0.5073631
0.25713876 0.93605155 0.19835192 -0.16513008 0.07241235 0.010191763 -0.7660569 -0.57587665
-0.16206889 0.042355534 0.11937301 -0.07183787 0.33177042 -0.22054867 -0.429434 0.28881353
0.070245065 -0.43654045 -0.23321481 0.08186944 3.6132777 -0.26390252 -0.24678928 0.062690474
-1.1754616 -0.6528359 0.48996356 0.67988497 -0.3251472 1.2167715 -0.37552512 -0.12357297
-3.546173 -0.45561796 0.5288148 -1.2327359 -0.74892294 -0.30817896 0.16498649 -0.40327108
0.08606963 -0.29341525 -0.08499152 -0.061339386 4.1538706 -0.46925312 0.4704608 -0.24004112
-3.1674402 -1.2376488 -0.3258265 -0.13880932 -1.1066362 -0.5041981 1.6016121 0.6309352
5.25159 0.029966546 0.16693558 -0.09542032 0.6149047 -0.78888714 -0.57234985 0.62289196
0.30806425 -0.29482898 -0.055145938 0.2619399 2.554936 -0.5357682 1.1580644 -0.21974564
0.25755405 -0.39706582 -0.4324148 -0.066535905 -2.359598 1.036579 0.30721372 0.074204475
-4.6839004 0.5219869 -0.6238197 0.78154343 0.6754286 0.22773309 -0.17975947 -0.055658005
1.9003333 -0.59369683 -0.8263063 -0.32093528 -4.1951404 0.28101492 0.044232808 1.088125
-2.1276925 1.1824186 -0.014007054 0.0009474257 -0.19238368 0.21967019 -0.6547133 0.19835286
0.03736493 0.4896523 0.03133602 -2.3117034 0.3563402 0.48066932 -0.3649731 0.84979266
-0.6887703 -0.5554629 0.03058809 0.27399874 4.674527 -0.9454743 -0.5683106 -0.34007448
-0.28951913 -0.85584825 -0.25716457 0.02545907 0.6264658 -0.13054855 -0.41908357 -0.26693916
0.3173566 0.24427146 0.09002595 0.13675281 0.688146 -0.16968593 -0.22076389 -0.8063573
0.32302657 0.3630666 0.7815482 -0.5038509 -0.1435966 -0.34246606 -0.0036816779 -0.027044814
0.6582897 0.14424805 0.284095 0.49445137 -0.15212455 -0.11165861 -0.32472807 0.13545954
3.6392994 -2.8502066 -0.37153196 1.7978901 0.4809133 -1.1921854 -0.53560334 0.100338735
-0.5684725 0.34221166 0.8198666 -0.21830542 -5.098371 0.8894809 1.049546 0.08736657
-0.12999344 -0.25388113 -0.34660515 -0.13584101 -0.44219792 0.013340508 0.6222958 -0.086744756
0.37461412 0.43337235 0.16694619 -0.08140047 0.6001656 0.34123132 0.047431 0.63858443
-1.789746 -0.16308323 0.46951762 0.57372105 2.1370673 -1.1943632 0.44180572 -0.08640903
-0.36829537 -0.5904757 -0.10256268 -0.5404021 -0.6514924 -0.15903877 -0.08641224 0.39284217
5.656543 -1.0941601 0.32195044 -0.17009874 0.48121127 -1.0400575 -0.65682137 -0.29942098
0.15922989 -0.28906018 -0.20404406 0.03197963 2.9987252 -0.20553662 0.17019296 0.44183192
-2.878147 0.5179824 -0.86413234 -0.09462516 -0.15517837 -0.36214215 -0.23579413 0.28826293
4.5677404 0.2218208 -2.1364803 -0.5418995 -1.0905846 -1.0367981 0.07364451 -0.39093494
0.56175566 -0.8484648 1.8385856 0.38424072 4.7206445 0.5377475 -0.19857657 -0.13968956
-0.29830647 -1.7236274 0.23980485 0.009952374 -0.76706105 -0.3703726 0.33433548 0.096212484

linear1.bias f4 [32]
00000000: 8db5 0b3e 61de 37be 41cc 383c 1a6e 463e
00000010: 7a8f 36bf 964b 3fbf 758d 24bc 41d0 f63e
00000020: f0cd 3b3e 6ef3 c53d 3b54 afbe 5adf 62be
00000030: 7915 463e 1930 c0be 5ac6 8f3e 7c10 a7bd
00000040: 2a11 29be 875d 0ebf 4835 29bf fe7f 77be
00000050: 3f76 0abf 60f6 8fbf 085a c9be b487 43bd
00000060: 5f83 1d3d 0250 cebd 4cc4 24be e38c 623e
00000070: da3c cb3e 4f8c 8a3e ab98 86be 4664 a73e
0.13643475 -0.17955925 0.011279167 0.19377938 -0.7131268 -0.7472471 -0.010043492 0.4820576
0.18340278 0.09665571 -0.3424395 -0.22155514 0.19344129 -0.37536696 0.28081018 -0.08157441
-0.16510454 -0.5561146 -0.66096926 -0.24169919 -0.5408668 -1.1247063 -0.393265 -0.04773684
0.038455363 -0.10073854 -0.16090506 0.22124057 0.39694864 0.27060172 -0.2628835 0.3269369

encoder.layers.0.self_attn.linears.0.weight f4 [32, 32]
00000000: 1894 8fbf c268 20be e4ee cb3e 6d3f 983d
00000010: 023e a73e fc2e 243f eada bcbe 34db 79bf
00000020: c55f 2ebf fd6f 0dbe 4c37 07be c4dd 31be
00000030: 2b0f 143e d184 e63b d8c5 ae3e 4d09 c33e
00000040: ac08 d6be fb47 5d3e 6d2e fb3e baae 37bf
00000050: df96 b8be 184a 4d3e 4d6d dfbe dede 81bd
00000060: f18b 7ebf 2f93 833e 01d7 8bbc bf5e a7bd
00000070: bc7a 143f b31b 20bf 4ad7 453f a6fd c4be
00000080: 7d45 bf3e ace9 c7be a547 97be 54d9 33be
00000090: 2678 bbbe bd45 54bf bbe8 2d3e 2e69 f73e
000000a0: 47ca 06bf 791c 49bf f021 5e3e b245 cbbe
000000b0: e8eb 1abe 486e 9a3e 57ee 5bbf 4d35 a8bf
000000c0: 8934 663d 8634 c13e f8eb 88bd b1cf 043f
000000d0: 494b 13bf 519a 35bf 38eb aebd 8025 cabe
000000e0: 0f79 0ebd e15c c5bf ae50 c1bc 5314 86be
000000f0: b8b6 8dbf 0231 ee3c 5f10 67be 2928 b33d
00000100: 1024 eebd c90e 353e 0581 363e 3bd6 b83e
00000110: 73f4 993e facd 2b3f 0662 343e 8f6d 9e3f
00000120: 30e0 3b3d 531f 013d 063c 193f 9763 89bd
00000130: ecba 95be 5690 293f b7f9 0b3f 7235 c93e
00000140: 6e38 c3bc 723c d03e e4ac 613e c1ff da3e
00000150: 7bd6 b93e 5c89 593f 7762 db3e feea 28bd
00000160: 1dd9 8abc 6d57 963e 7bbb 1e3c 59bf 3a3e
00000170: 3743 28bf ebf2 df3e 87db ed3e 6128 3ebe
00000180: d959 a03e 8d3b c53d b56a 9d3e a02a 3bbe
00000190: 68f0 18bf a055 20bf 1c09 49be e7b3 7a3e
000001a0: 10b4 073f 7615 953f a2ae 6fbe d431 1c3d
000001b0: 9802 a43e 382d 82bf d600 59be 1027 2cbf
000001c0: fe73 363e d30e 17bf 6459 c8be ba26 793e
000001d0: bc90 0abe 02d8 24bf cb14 8d3e 75ef 81bc
000001e0: 813f 5f3e d0a0 883e b64c 2d3e 7604 35be
000001f0: 73ec 3f3f 4b3e c63e cd37 56bf 6431 68bd
00000200: 197e 933f c716 f6ba 4f58 343f 7217 ef3d
00000210: ebf0 323e 008d 8c3f 38fb 023e c70c 3d3f
00000220: dd06 0b3f db04 2b3f e4f9 053f 7254 133e
00000230: 40c4 253e ae93 163f adb2 d33e 1d26 293e
00000240: 14f7 8b3f 6642 463f f4c1 823f f9dd 273e
00000250: 1d7f 023e 0810 8c3f 99b9 dbbe 1db3 4a3e
00000260: 637f ba3f 6bef 99be 9b22 e9bd 57ef e23e
00000270: 9fe3 e23e 603d 98be 10bc c9be 7b80 133f
00000280: abd9 1a3f 518e 803e 9b28 bdbd 841f 8a3f
00000290: e404 3d3e b9b1 f4be 827e 3a3f c652 babe
000002a0: be36 81bf d0ac 02be d58d 373d d4f3 aabb
000002b0: 43d4 a3bd db98 ddbe 0e44 a13e cdd4 d43e
000002c0: a50f c43f ecb8 bd3d 00cf e6be 429c 6a3e
000002d0: 6a02 9cbd f6dc ab3e d9e6 cd3e 6d40 4b3e
000002e0: 29d8 85be 6588 d2bd c278 be3c e1f8 90be
000002f0: 8bd5 8abd dc12 f93e eab3 8fbe b49d bebf
00000300: f472 12bf d0ad a2be 11b3 15bb 1c52 eabe
00000310: 7d16 45be 2cac b1bc f1f8 dbbd e4bd 7a3f
00000320: eb83 2cbe 34a0 033e 758b fcbd eb5f 39be
00000330: ceab 133f 7ada 493f 0859 afbe fe61 393f
00000340: 425d 79bf 2ac9 213f 4a32 15be 6f85 fa3d
00000350: f0ab 48be 8105 39be 1d03 02be 5872 f4be
00000360: ddca 143e 7794 893f a636 06bd 03aa 03be
00000370: 920d c4be 37bc 02bf f822 053f 1bc0 3b3f
00000380: 0b35 1cc0 05a2 a43e f660 9fbe be3c eabe
00000390: 22fa dcbe c0c7 73bf bd55 73bf 8e9f 88bf
000003a0: ae78 6f3e c09c 3f3e bc4d 2ebf cd06 afbd
000003b0: 3656 5fbc f5ed 50bf 8748 0a3d 55b6 33bf
000003c0: 360c 55c0 ebf6 d1bf 03ac 25bf 2642 56bf
000003d0: de57 91be 296c 93bf 425e 31bd 3ce8 fe3d
000003e0: ed83 e7bf 69ec 69bf 5f39 ba3d 1b5a 6abe
000003f0: 441c f63e 2189 533e dc92 df3e 2bd9 e7be
-1.121707 -0.15664962 0.39830697 0.074339725 0.32664496 0.6413419 -0.36885768 -0.976001
-0.6811488 -0.13812251 -0.13204688 -0.17369753 0.14458911 0.007034876 0.34135318 0.38093033
-0.4180349 0.2160949 0.49058858 -0.71750987 -0.36052606 0.20047796 -0.43638077 -0.06341337
-0.99432284 0.2569823 -0.017070295 -0.08172368 0.5799978 -0.62542266 0.7728163 -0.38474768
0.37357703 -0.39045465 -0.29546848 -0.17563373 -0.36615103 -0.8291891 0.16983311 0.48322433
-0.526524 -0.7855907 0.21692634 -0.3970161 -0.15129054 0.30162263 -0.8591055 -1.3141266
0.056202445 0.37735385 -0.066856325 0.5187941 -0.5753675 -0.70938593 -0.08540958 -0.39481735
-0.03478342 -1.5418969 -0.023598041 -0.2618738 -1.1071386 0.029076103 -0.22564839 0.08747894
-0.11627972 0.17681421 0.17822655 0.36100945 0.30069312 0.6711117 0.17615518 1.2377185
0.0458681 0.031524014 0.59857213 -0.067084484 -0.29244173 0.66235864 0.5467791 0.39298588
-0.023830619 0.40671116 0.22038609 0.4277325 0.36296448 0.8497522 0.4284856 -0.04123973
-0.01694923 0.29363576 0.0096882535 0.18237056 -0.6572756 0.4374002 0.4645655 -0.18570091
0.31318548 0.09630499 0.30745474 -0.18277979 -0.5974183 -0.62630653 -0.19632381 0.2448269
0.5300913 1.1647174 -0.23406461 0.038133457 0.3203323 -1.017005 -0.21191725 -0.67247105
0.17817685 -0.59006995 -0.391307 0.2433118 -0.13531774 -0.643921 0.27554926 -0.015861252
0.21801569 0.2668519 0.16923794 -0.17677483 0.7497017 0.387194 -0.83678895 -0.056687728
1.1522857 -0.0018775099 0.7044725 0.11674394 0.17474715 1.098053 0.12791145 0.7384762
0.5430735 0.66804284 0.5233443 0.14387682 0.16188145 0.5881909 0.41347256 0.16518445
1.0934777 0.77445066 1.021544 0.1639327 0.12743802 1.0942392 -0.42915037 0.19794889
1.4570125 -0.30065474 -0.113835536 0.44323227 0.44314286 -0.29734325 -0.39401293 0.5761792
0.60488385 0.2510858 -0.092362605 1.0790868 0.18458897 -0.47791842 0.72849286 -0.36391276
-1.0094831 -0.12761235 0.044812996 -0.005217055 -0.0799947 -0.43280682 0.31497234 0.41568604
1.5317274 0.09263787 -0.45079803 0.2291117 -0.07617648 0.33567017 0.40215185 0.19848795
-0.2614148 -0.102799214 0.023250941 -0.2831488 -0.06779011 0.486472 -0.2806695 -1.4891877
-0.57206655 -0.31773233 -0.0022842328 -0.4576577 -0.1924686 -0.021688543 -0.10740841 0.97946
-0.16847198 0.12854081 -0.12331287 -0.18102996 0.5768403 0.78848994 -0.34247613 0.7241515
-0.97407925 0.63197577 -0.14569965 0.12232482 -0.19596839 -0.18068506 -0.126965 -0.47743487
0.14530511 1.0748433 -0.03276696 -0.12857823 -0.38291603 -0.51068443 0.52006483 0.73340005
-2.4407375 0.3215486 -0.31128663 -0.45749468 -0.43159586 -0.9522667 -0.950527 -1.0673692
0.2338588 0.18712139 -0.68087363 -0.08546219 -0.013631394 -0.81613094 0.033760574 -0.7020009
-3.3288703 -1.6403478 -0.64715594 -0.83694685 -0.2838735 -1.1517383 -0.043302782 0.12446639
-1.8087136 -0.9137636 0.09092974 -0.22885935 0.4806844 0.2065778 0.43666732 -0.45282874

encoder.layers.0.self_attn.linears.0.bias f4 [32]
00000000: 911a ccbe afcf d9bc f3cf dd3d dd58 473f
00000010: 61f3 d43e f319 8cbe fcf4 efbe 78fc 8e3d
00000020: b7b2 23be 6bca b23d 4a5c fcbe 80ba 8cbe
00000030: 4996 42bd 0c8d c1bd 9bd5 793e a127 b1bd
00000040: 99cc 3dbe 610b d13e 7608 e1be 750d 84be
00000050: a466 59be f77b 1bbe 45cc 9b3c 757e 06bd
00000060: 4153 593e 5282 2f3e bc9e 573e 016e 923b
00000070: 7380 e03c aeec 62be 2f86 ec3d f0fe 74bd
-0.3986402 -0.026588289 0.10830679 0.7786997 0.41591933 -0.27363548 -0.46866596 0.06981748
-0.15986143 0.087300144 -0.4928916 -0.27486038 -0.047506604 -0.09450731 0.2439789 -0.08650137
-0.18535079 0.40828994 -0.43951768 -0.25791517 -0.2123056 -0.15184008 0.019018302 -0.032835443
0.21223165 0.17139557 0.21056646 0.00446868 0.027405 -0.22160599 0.11549031 -0.05981344

encoder.layers.0.self_attn.linears.1.weight f4 [32, 32]
00000000: b0ec 37be 049c 5fbe e3da 8b3f 14f1 85be
00000010: 985f c4be 230b 7e3e df13 27be 751d 72be
00000020: 7cd5 2c3e 8013 30bf ee0a b13e 74b6 a7be
00000030: 5924 87bd f354 16be 416b 8abe 6e17 8c3e
00000040: 4baf 30bf 1765 903e 1f9d 9bbe 6e74 41bd
00000050: 4469 0c3e 3d65 c93e 2adc ccbe c87c 8cbd
00000060: d18b cb3e 71c5 dbbe 8fad 83be e940 7ebe
00000070: 7861 dfbd 3ee4 2fbe 292d 4bbe c725 a13e
00000080: 173e 8ebe 308f c63e 78d2 4fbf ccb5 94bd
00000090: df91 b03e 872c 63be 73cd f3bd 1885 4b3e
000000a0: 66cb 723e 30ad 833e 4d83 86be 699c 233f
000000b0: f016 243f c4d4 bd3d 5bf5 253f 92f1 283d
000000c0: 59e6 ca3e 1899 a8be 8bb9 803e 9a31 c7be
000000d0: 909f ef3d 0523 eebe 06ea 383f 6f74 bc3e
000000e0: 2ead 32bf ff3d 92be 07ce e93e 89dc f63e
000000f0: c767 3d3e daf9 643e e9bb 8bbe 2f6c 3a3e
00000100: 0876 d5bd fa5b dd3d e999 213f 284b 8ebe
00000110: 310a c4be fd82 003f d8b1 a03e c593 b3be
00000120: 703d 88bf b27b d83e 2fbf 5cbe 4cab 36be
00000130: 6302 90be 56e4 933b 327a 283e 42aa 4fbf
00000140: 1941 30bd 1d6c ef3c 44e0 acbd 434f 1d3e
00000150: f973 aebe 217a 263f 3327 debd e862 4c3b
00000160: 6ad0 b8be e901 603f 0f08 333d 4895 9a3d
00000170: 1c5d 883d 6ffb c2be b66d e13e 08b1 72bf
00000180: f7f5 e9bc b4b5 8abe 4118 2bbf 6f23 423f
00000190: 1502 033f 7914 cabe e7c4 60bf 76c7 5e3f
000001a0: dc69 313e aedb 093e 4b74 8a3c f9a6 88bd
000001b0: 655e 0ebf 0227 a1be 4934 983e e88d 90be
000001c0: 98b8 b43e a4ae 8cbe 0ff7 cc3d 4dc5 db3e
000001d0: 21ea 0ebe 6560 4fbf 78ff ee3d 64ab 96be
000001e0: 146b f53c ae9b 26bf 36e8 ae3d 221c 8ebe
000001f0: cb5c 3f3d 49f0 2a3f 4703 c53e f65e 0fbf
00000200: 441b 7d3f bba6 85be b473 17bf dbca 93be
00000210: 5adf 0cbe f9cd bbbd 1b49 2e3e 7c27 b7bd
00000220: 347a 56be 2e94 ff3d 77bd bd3e cdc4 8dbe
00000230: 6a63 02bf df4a 673e 4b92 8fbe b401 f9be
00000240: 5383 f63d ff78 b73e 2d20 a7be 26fa 623f
00000250: 768e 8d3e 9e55 ff3c 4198 2cbf efbe 6cbe
00000260: 85b0 0a3f 1745 57bf 7134 f0be de8a 99be
00000270: 32cc d23e a6ba 3538 cbfc 8ebe 14dc 93be
00000280: 5d23 5dbf d40a 363f a993 d53d 776e 0dbf
00000290: 83fc 4bbe 727a 31be 5782 b83e 3593 d8bd
000002a0: 6ce3 1b3f d1b5 8dbe 22ca 64be 0124 6f3e
000002b0: 8963 573f 5ec7 363f 7e8c b83e 6ce9 fd3e
000002c0: 1706 00bf 6900 ecbe 8869 603f 0457 bfbe
000002d0: c83f a3be c531 683e 4074 b93e fa2e ec3e
000002e0: 0e2f 1bbf a3d5 01be 3098 273f 329b 153f
000002f0: 0f62 77be acc2 f9be db9d 433f 0407 eb3d
00000300: e30c 55be 449a 603d 610e 493f 026d 423f
00000310: a9a9 023f 9b69 963e 2dea 4cbf 38e1 033f
00000320: 1387 88be 0dd8 90bc 6191 443e f88c ec3e
00000330: a908 f83e e835 e6bd 375f 8dbd b208 133f
00000340: da3d 163e 06b4 bfbe 900d 713e 0617 f7be
00000350: 32d5 31be 1eb2 123e e2d6 093f 7e63 b13d
00000360: 4d5f 7fbe 2199 673f f69e 9a3e b5f3 bb3e
00000370: 88c7 abbe a082 0abe 6e11 093f ab41 b33d
00000380: 3f2f 5dbf af79 173f ef33 083f 052c ab3e
00000390: d74c 39be ac2a 36be 9ae6 a2bd 720f 6a39
000003a0: e7e7 4abd 92ff 613e 1834 ccbe 4f2e c93e
000003b0: 658f ed3e 816d 97be f916 123f 833d 0a3f
000003c0: ddf2 75be 5e78 16bf a1fa 38be 2a35 80bf
000003d0: b006 7ebe 70e2 44be ed24 bf3e 667a 073f
000003e0: 4071 c4be 1651 323f d680 dd3e fa0d 643e
000003f0: 803d d4bd ccca b73e 344c cc3e bf23 c23e
-0.17961383 -0.21836859 1.0926174 -0.2616049 -0.38354182 0.24808936 -0.16316174 -0.2364405
0.16878313 -0.68779755 0.3457865 -0.32756388 -0.0659873 -0.14680843 -0.27034953 0.27361625
-0.69017476 0.28202125 -0.3039331 -0.047230177 0.1371203 0.3933505 -0.40011722 -0.06859738
0.3975511 -0.42924073 -0.25718352 -0.24829449 -0.109072626 -0.17176911 -0.19841446 0.31474134
-0.27781746 0.38781118 -0.81180525 -0.072612375 0.3448629 -0.22184955 -0.11904421 0.1987499
0.23710403 0.2571807 -0.2627205 0.6391054 0.640975 0.092690974 0.6482751 0.041246004
0.39628866 -0.329293 0.25141558 -0.3890503 0.11700356 -0.46511093 0.7223209 0.36807582
-0.697955 -0.28562924 0.45665 0.4821513 0.18496619 0.22360936 -0.27291802 0.18205331
-0.10422903 0.10808559 0.63125473 -0.27791715 -0.38289025 0.5019987 0.31385684 -0.35073677
-1.0643749 0.42281872 -0.21557306 -0.17838782 -0.2812682 0.0045133037 0.16452864 -0.8111917
-0.043030832 0.029226357 -0.08441213 0.15362267 -0.34072855 0.65030104 -0.108473204 0.0031186882
-0.36096507 0.87502915 0.043708857 0.075480044 0.06658384 -0.38082454 0.44029015 -0.9480138
-0.028559668 -0.27091753 -0.66833884 0.7583532 0.5117505 -0.39468744 -0.8780045 0.87023103
0.17325538 0.13462707 0.016901156 -0.066724725 -0.55612785 -0.31475073 0.2972739 -0.28233266
0.35297084 -0.2747699 0.1000806 0.42923966 -0.139565 -0.8100646 0.116698205 -0.29427636
0.029958285 -0.650813 0.085403845 -0.2775584 0.046719354 0.66772896 0.38479063 -0.56004274
0.9886973 -0.26103768 -0.59160924 -0.28865704 -0.13757077 -0.091701455 0.17020075 -0.08943078
-0.20945054 0.12479435 0.37058613 -0.2768921 -0.50932944 0.22587155 -0.280413 -0.48634112
0.12036767 0.358345 -0.32641736 0.88662946 0.27647752 0.031168755 -0.6741982 -0.2311971
0.541756 -0.840898 -0.4691501 -0.2998876 0.41171414 4.3327593e-05 -0.2792724 -0.28878844
-0.86382085 0.7111027 0.104285546 -0.5524668 -0.19920544 -0.17331865 0.3603694 -0.105749525
0.60893893 -0.27677777 -0.22342733 0.23353578 0.84136254 0.7139796 0.36044687 0.4959215
-0.5000929 -0.46094063 0.8766103 -0.37371075 -0.318846 0.22675236 0.36221504 0.4612959
-0.60618675 -0.12679152 0.65466595 0.58439934 -0.241585 -0.48781335 0.76412743 0.114759475
-0.20805697 0.05483462 0.78537565 0.7594758 0.5104013 0.29377446 -0.80044824 0.5151553
-0.26665553 -0.017681146 0.19196083 0.462013 0.48444107 -0.112407506 -0.069029264 0.57435143
0.14672032 -0.37442034 0.2354033 -0.48259753 -0.17366484 0.14325759 0.5384351 0.08661555
-0.24938698 0.9046803 0.30199403 0.3670937 -0.33550668 -0.13526392 0.5354222 0.087527595
-0.86400217 0.5917005 0.53204244 0.33432022 -0.18095718 -0.17789716 -0.0795414 0.00022321733
-0.049537566 0.22070149 -0.39883494 0.39293143 0.46398464 -0.29575732 0.57066303 0.5400011
-0.24018426 -0.58777416 -0.18064357 -1.0016224 -0.24807239 -0.19227004 0.3733286 0.5292114
-0.38367653 0.6965498 0.43262357 0.22270957 -0.10363293 0.3589691 0.39901888 0.37917897

encoder.layers.0.self_attn.linears.1.bias f4 [32]
00000000: 4926 a9be ac8d 413e 07d2 023d 8b2e 713e
00000010: da2b 92be cb66 723e f573 a63c 9176 583e
00000020: 7c69 583e d538 463e 7890 453b 02dd 3b3e
00000030: f120 17be ff9b d9bd 7376 2d3e 5bd7 2ebe
00000040: d0ea c4bc 57ca 013e de40 163e 4b67 70be
00000050: 49be 393d 55bd b5be 40b9 d23e a729 923e
00000060: 2ef5 e7bd c30b 82bd 7d1b 363d 9deb 0a3e
00000070: 2116 243e 7cc5 c93e af08 063e b745 af3e
-0.33037022 0.189017 0.03193858 0.23552911 -0.2854908 0.23672025 0.020318964 0.2113898
0.21133989 0.19357617 0.0030145925 0.18346027 -0.1475866 -0.10625457 0.16939716 -0.17074339
-0.024037749 0.12674843 0.14673182 -0.23476903 0.045347486 -0.3549601 0.4115696 0.28547403
-0.11326061 -0.063498996 0.04445981 0.13566442 0.16024067 0.3940848 0.1308925 0.34232876

encoder.layers.0.self_attn.linears.2.weight f4 [32, 32]
00000000: c528 53be 61bc 1d3d fb02 f7bd b548 9f3e
00000010: 9f2e 6bbe 4f74 febd 0806 a83c eff9 d23d
00000020: 3a71 cdbd 538b e6be f4eb 04be 6f4e 273f
00000030: ec76 ec3d 68c8 503e 629f 623e 9716 49be
00000040: c767 92bc 0640 ae3e 01c8 bcbd 2f54 34bb
00000050: 1c85 453e 63e1 babd 9da8 bcbb a61a 9d3d
00000060: 9f50 753e e2c4 793e 2eaf ba3d 8d65 da3c
00000070: cb93 e7be 0fbb 79be db67 6b3e e4e2 12be
00000080: a16c 10be 9d5a bbbe dc8a 593c 354f 14bd
00000090: 5155 cc3e 03ef 34bd ca08 fc3d 3a3d 2cbe
000000a0: 7f3f 523e d12a abbe 9b6a 053e 277e e9bd
000000b0: 15d5 f8be be44 afbd fb8e e8bd adc3 f4bc
000000c0: 436d 94bd 9cf3 0abe 0a77 103e 7891 0b3e
000000d0: 7622 9a3d 47ee 023e 60ca ec3e c594 03be
000000e0: ddc6 2abe d32f 17bf a42c 51bd f503 19be
000000f0: 119b 8e3e 9976 9b3e 2e3e 42be 53d8 f0bc
00000100: d767 0fbe db2a 9dbc a7b7 b83c a850 1fbe
00000110: 4154 a23d 5159 62be a228 5a3e 467a 873d
00000120: ccf5 b5be 41ff 423e 950a 8f3e f117 0f3d
00000130: a4f9 0d3d 74ec edbc a327 8c3d a161 e9be
00000140: 84b7 123e 190a 273c 34b1 a5be c08e 703e
00000150: f2e0 11bd fed6 9a3c c88c 743e e972 26be
00000160: f15a 053e ff68 883e 3da9 d43d 2e80 503e
00000170: af0f 44be 2c9f 9b3c 65fe 963d fe4f 173d
00000180: 1da3 e13d 7d38 0ebe e5db 40bd b788 55be
00000190: 7095 8b3d 3816 a23b 7368 1e3e b376 84be
000001a0: 7db8 6f3e 2d60 253f 237b f73d ee57 86bf
000001b0: 94f9 83bd 27a6 273e e654 aabe 2264 50be
000001c0: 2c32 743d fad4 1ebe 355a 863e b3ca dc3e
000001d0: 139b aabd bf30 90bd f9e5 9abe 6fad afbe
000001e0: 2c13 043e 47f9 cf3d 9703 a13c 286b 71be
000001f0: 1413 133f 89ac dd3d 1445 35bd 79b6 e83d
00000200: 1be6 c0be af73 ba3d 1dfc 01be 32a1 853d
00000210: 33fd 6c3e f8c7 3cbf 3ffe 493d aeb4 a43c
00000220: 6512 fc3e 50a4 803e 32f2 0e3e 6578 5dbe
00000230: e99c 86be 23da 243f 2e78 e7bd 16d0 3dbc
00000240: e85a 08be 18df 763e 6eb3 dd3d d80c dc3e
00000250: 3d19 a1bd c53f b9be 6dca d03e a670 003e
00000260: 5c59 79be 7f64 4c3e dd36 9ebd aa3b bd3d
00000270: a2b9 893e bc08 c0bd 6e1b 613e 4d39 b23d
00000280: 83fc db3e c210 bf3c 57dd 3c3e 8c6e 15be
00000290: a208 02bf f5e2 f2bd f1b3 1ebd e5de 68be
000002a0: a1cf a0bb b8c1 653e aaac 0cbc e9d1 20be
000002b0: c085 343f a78f cf3d f27a 2ebd c417 f93d
000002c0: bd35 823e caad 3cbe 2e0f 27be 94bd c9bd
000002d0: 3a0b 31be 5f1a 06bd aa86 d2bb 7e7f d3bb
000002e0: 2b3c 793e 4030 e23d 3554 383e d824 293e
000002f0: d171 cc3e 6a4e e7be 5e1f cabd b9ea bc3d
00000300: 6e05 2fbe 7314 203e 1b98 13bd 390f 20be
00000310: 6bac c9be 1714 5fbe e29e 343e 5088 0e3f
00000320: 661e 553e 97bd 4a3e 1a31 00be 68af b33d
00000330: 527d 383e 03f5 e63e f560 ad3d eee9 1fbd
00000340: dd4f 99be 7676 b13e 0605 22bb d9da 7d3c
00000350: b703 83be 8fa9 743e 74c4 15bd 0357 393c
00000360: bea3 d9bd c4a8 53be 1b35 95bc 5fbc 8a3d
00000370: 2fd2 783d 2179 80bc c2c8 c03d b4b9 763e
00000380: 9a17 013e cdee f3bb d148 6f3e 6d0f 903d
00000390: 756c b0be d4f7 563d 29f4 443d 7603 9cbc
000003a0: 942e adbe c646 103e d4a0 973d f687 8c3d
000003b0: 1c3f 9e3e ee83 fe3c 3f88 343e 34e6 76be
000003c0: c8f0 e8bc f08e acbe a403 f6bc febc b0be
000003d0: 3f8a 33be c487 b33d 5d64 86bc 6ad5 373d
000003e0: 6184 b73e 2815 61be ba7a 303e 3544 203d
000003f0: e023 d13e 529c 15bd 3fee b1be b454 6e3e
-0.20621021 0.03850973 -0.12061115 0.3111016 -0.22967003 -0.12424528 0.020510688 0.10301577
-0.10031362 -0.4502817 -0.12980634 0.65354055 0.1154612 0.20388949 0.22131112 -0.19637524
-0.01787175 0.3403322 -0.09217835 -0.0027515998 0.19289058 -0.0912502 -0.005757405 0.076710984
0.23956536 0.24391511 0.09115444 0.026659751 -0.45229945 -0.24387763 0.22988836 -0.14344364
-0.14103939 -0.3659257 0.013277736 -0.03620835 0.3990884 -0.04417325 0.12306364 -0.16820231
0.20532034 -0.33431104 0.13028948 -0.11401015 -0.4860007 -0.085580334 -0.11355396 -0.029878462
-0.072474025 -0.13569492 0.1410791 0.1362971 0.07526104 0.12786208 0.4624815 -0.1284972
-0.16677423 -0.5905735 -0.051067963 -0.14942916 0.2785268 0.3036392 -0.18969032 -0.029400026
-0.14004456 -0.019185474 0.02254851 -0.15558112 0.079262264 -0.22104384 0.21304563 0.06615119
-0.3553909 0.19042684 0.2793776 0.03493494 0.034661904 -0.029043414 0.068434976 -0.45582297
0.14327818 0.010195279 -0.32361758 0.23491955 -0.035614915 0.018901344 0.23881829 -0.16254772
0.13022973 0.26642606 0.10383842 0.20361397 -0.19146608 0.018996798 0.07372741 0.03694152
0.110174395 -0.13888736 -0.047084708 -0.20852934 0.06815612 0.0049464963 0.15469532 -0.2587181
0.2341022 0.6459988 0.12084033 -1.0495584 -0.064440876 0.16371976 -0.33267897 -0.20350698
0.05961816 -0.15510932 0.26240698 0.43123397 -0.08330359 -0.070405476 -0.3025358 -0.34312007
0.12897938 0.10154968 0.019655032 -0.23576033 0.57450986 0.10823924 -0.04425533 0.11362929
-0.37675557 0.09104096 -0.1269383 0.06524886 0.23143463 -0.7374263 0.049314734 0.020105686
0.49232784 0.2512536 0.13959578 -0.21627958 -0.26291588 0.6439535 -0.11302219 -0.011585256
-0.13315928 0.24108541 0.10825239 0.4297855 -0.07866142 -0.36181465 0.4077944 0.12542972
-0.24350494 0.19960211 -0.07725308 0.09239896 0.2689944 -0.09376666 0.2198312 0.087023355
0.4296609 0.02332342 0.1844381 -0.14592952 -0.5079442 -0.11859695 -0.038745824 -0.22741278
-0.004907564 0.22437179 -0.008586088 -0.15705074 0.70516586 0.101348214 -0.04259772 0.12162736
0.25431624 -0.1842567 -0.16314384 -0.09850612 -0.17289439 -0.032739993 -0.0064247446 -0.0064544072
0.24339359 0.11044359 0.18000872 0.16517961 0.39930585 -0.45177013 -0.09869264 0.09224457
-0.17091915 0.15632801 -0.03603373 -0.15630807 -0.39389357 -0.21785007 0.17638734 0.55676746
0.20812377 0.19798885 -0.12518731 0.087736905 0.18016556 0.45108804 0.08465759 -0.039041452
-0.29943743 0.3466069 -0.0024722232 0.015494072 -0.25588772 0.23892806 -0.036564305 0.011312249
-0.106269345 -0.20669848 -0.0182138 0.0677421 0.06074732 -0.015682759 0.094132915 0.24094278
0.1260666 -0.0074442388 0.23367621 0.07034192 -0.34457746 0.05248244 0.04808441 -0.019044619
-0.338246 0.14089498 0.074037224 0.0686187 0.30907524 0.031068768 0.17630099 -0.24111253
-0.028435126 -0.33702803 -0.030031033 -0.3451919 -0.17533205 0.087661296 -0.016405279 0.044881262
0.35843185 -0.21980727 0.17234316 0.039127547 0.40847683 -0.03652603 -0.3475208 0.23274499

encoder.layers.0.self_attn.linears.2.bias f4 [32]
00000000: a2b3 6dbd 7136 153c 43c4 fcbd f3c9 453d
00000010: d4b5 96be c966 fc3c 2075 b5bd f3fe f73d
00000020: f936 e93d 2c45 f83c 4891 92bc 6a52 b93d
00000030: 9ebe d83d c076 c5bd d600 bebd 5090 933c
00000040: 3539 6a3d 62af c33d e3fd ed3d b17d b5bc
00000050: 265a 37be 815f cabd 5756 933d 1637 2ebe
00000060: 531e 83bb 4800 c93d bfc7 db3d 74ff bb3d
00000070: a86a d0bb 3b3b 4ebd 3ed7 273d 88c5 a33c
-0.05803264 0.009107218 -0.123421215 0.048288297 -0.294356 0.03081073 -0.088602304 0.121091746
0.11387438 0.030306421 -0.017891541 0.09048922 0.10583232 -0.096417904 -0.09277503 0.01801315
0.057183463 0.09554936 0.11620691 -0.02215466 -0.17905483 -0.09881497 0.071942024 -0.17013201
-0.0040014177 0.09814507 0.10731458 0.09179583 -0.0063603707 -0.050349455 0.040976755 0.019991651

encoder.layers.0.self_attn.linears.3.weight f4 [32, 32]
00000000: a904 9dbd e7c4 1e3e 6bef d8bd f47b 013e
00000010: 1c37 6bbe 17c8 aabe 09f6 b7be 5313 77bd
00000020: 45e8 923e c3de 69bd f965 923d f4cd d63e
00000030: 72c8 d93e aedf 79bd bc41 d0bd 1615 983e
00000040: b239 0e3e f5a0 4bbd f587 c8be b59f d93d
00000050: 0761 61be 2fde b43e fc19 943d bd48 b0bd
00000060: 218f 763e b74e 643e 4b47 aebe f972 21be
00000070: ada9 e93c 2fcb 643e fb61 623d 6100 51be
00000080: 853f f9bd c9e7 403e 0da3 883d 57b9 0f3f
00000090: 04bb 2b3f c1dd f3bd cf85 433e a5ba 4bbe
000000a0: 7d95 0dbd b746 063e 3839 ff3d 60b2 4d3e
000000b0: e864 463d ad1c 53bd 6fdf c73d ba6b 5ebe
000000c0: 4a96 b13d 214f f6bd fbf2 8d3e f59d 81bd
000000d0: b7f1 0fbd fbfd 033e ab68 4d3e d130 08be
000000e0: 4d5b cfbb 39a0 d4be c5c5 fdbd 0970 cd3e
000000f0: 5aae 32be 31b5 813e ac81 db3d 9994 0c3e
00000100: 9600 13be 0d34 bfbd 6fb7 61be 4c15 87bd
00000110: c8d1 63be d088 323e c28a d4bd 89b3 863c
00000120: 4e1c 52bc 4d27 69bd 1f68 13bf 0f5c 0cbd
00000130: 6319 abbe 19f9 9a3c d327 ed3e 7e5e 60be
00000140: 66db 303f 14a2 d63d ac62 2a3e 939a 25bf
00000150: 21d6 f33b 7810 0ebc 8c68 16be b95d fdbc
00000160: 4ce1 003e 8d07 99bd e1e8 843e 66f2 22be
00000170: 1bf1 e6bb cf4c aa3e e24f 85bd a3a2 31be
00000180: b09e c4bd c9a3 85bc 5d73 39bd 2d55 763e
00000190: e0df 8f3e 5097 983c 9bb5 c63c 0c2a 013e
000001a0: 53aa 0d3e 8043 abbd 355e c3bd 807c 28be
000001b0: 3bc3 3fbd 0228 f13d 439b 53be 9e75 c7bd
000001c0: 5e8c a5bd d780 3cbe 510c 0c3e a754 fbbd
000001d0: 9f47 423e 93f7 393d 2bfa 4b3e d06c 043c
000001e0: a521 1ebe 8de8 6abd eed6 8cbd bfae 163d
000001f0: 725d a5bd 5305 143c a580 383d f444 e8bd
00000200: 7ad8 ba3d 885c 56be ce81 033e 8973 ca3d
00000210: a40f 72bd 632e 32be 7d48 253e 4e08 6f3c
00000220: 7727 163e ea20 99be 14ae aebe 0459 a4bd
00000230: 8342 61be 599d 503e cb4e 65be 608a a8be
00000240: a7d2 e93d ccb6 aebd 75ee 4ebd dd73 c9bd
00000250: 2f6f 143e 898a 09be 811c 203e a726 663e
00000260: 170a aa3d 6cce a43d e335 4bbd fd45 e93c
00000270: b98b b43c c049 c53d 298c 4d3b ec4d bb3c
00000280: 7eda 463e 9825 ff3d 0129 263d c479 dbbd
00000290: 4d82 1bbe ef34 5b3e c054 43be 4907 6e3d
000002a0: 7c9e c2bd 6ae1 ea3d b51e a93e 8db7 50bc
000002b0: 41ff 2c3b 1c7e ac3d 91a4 71be 4a4e 763e
000002c0: 33ab b83d ed37 fabc 6891 73bd 3592 1d3d
000002d0: 3db3 27bd 1441 053e 44cf 96bd 5291 7abd
000002e0: 0910 4bbe ffe8 a0bd 4cee 07bd 1c6f b4bd
000002f0: cb23 583e daac 1cbe 8ce8 cc3d de27 63bd
00000300: 316b 9dbe 8348 82be 2b92 613d 14b6 473d
00000310: 6056 263d fbc3 0db9 7081 863d c09d 11bd
00000320: a294 30be 99ae 853e 34f3 9dbd 9d61 a4bc
00000330: 0691 4dbd a52d a53e c2dd 10bd 10db a73d
00000340: 16b6 7abc 12ee 703e e5fb 01be 2819 e3be
00000350: 90a2 48bd 50b5 ec3e 32d0 c93e 4080 b73d
00000360: e1bd 25be ab41 5cbe d174 853e b336 553e
00000370: 5738 7a3c 113e ea3e 2279 e7bd 54c5 2b3d
00000380: a1e5 8fbd c5c9 44bd d661 1b3e dd20 9a3e
00000390: 55f5 0e3d 2ae4 01bd 8eb9 8b3d 9cca 20be
000003a0: e7c0 bdbd 645f bb3d 39f7 443e 82d1 92be
000003b0: 7331 473e 87e4 1abe 0e7a 0bbe 1d3d 3a3e
000003c0: 3aed 74bd 1b99 66bd 8a33 c83e a193 7ebd
000003d0: 0bab 593d e993 1abe 63e0 4f3e 001d 273e
000003e0: e443 623d 20d3 173e 624f 0a3d b595 8b3d
000003f0: 0383 a03d 4d4c 993d e1d4 bc3d b69a 753d
-0.076669045 0.155048 -0.1059254 0.1264494 -0.22970241 -0.3335578 -0.35929897 -0.060321163
0.28692833 -0.057097208 0.07148356 0.41954005 0.4253574 -0.061004333 -0.10168788 0.29703587
0.13889197 -0.049714047 -0.39166227 0.10626165 -0.22009669 0.35325763 0.072315186 -0.08607624
0.24078037 0.22295652 -0.34038767 -0.15766515 0.02852329 0.22343133 0.055269223 -0.20410301
-0.121703185 0.18838419 0.066717245 0.5614218 0.6708224 -0.119075306 0.19094013 -0.19895418
-0.03456639 0.13112913 0.124620855 0.20087576 0.048436075 -0.05154102 0.097594135 -0.21720782
0.086712435 -0.120268114 0.27724442 -0.06328956 -0.035142627 0.12889855 0.20059459 -0.13299872
-0.0063280226 -0.4152849 -0.12391237 0.4012454 -0.17449322 0.2533355 0.10718092 0.1372856
-0.14355692 -0.093361 -0.2204263 -0.06595859 -0.22247994 0.17435002 -0.103780285 0.01644303
-0.012824131 -0.056922246 -0.5758075 -0.03426748 -0.33417806 0.018917607 0.46319446 -0.21911046
0.69084775 0.10480133 0.16639203 -0.64688987 0.0074412976 -0.008670919 -0.14688319 -0.03092848
0.12585944 -0.07472143 0.25958923 -0.1591278 -0.007047785 0.33261725 -0.06509377 -0.17347197
-0.0960058 -0.01631345 -0.045276035 0.2405593 0.2810049 0.018626839 0.024256518 0.12613696
0.13834505 -0.08362484 -0.09539453 -0.16453743 -0.046817046 0.11775209 -0.20664696 -0.097392306
-0.080834135 -0.18408523 0.13676573 -0.122720055 0.18972634 0.04540212 0.1991965 0.008082584
-0.15442522 -0.057350684 -0.06876932 0.036787745 -0.08074464 0.0090344725 0.04504456 -0.11341277
0.09123321 -0.20933735 0.12842485 0.09885318 -0.059096947 -0.17400508 0.16140933 0.014589382
0.14663492 -0.29907924 -0.34117186 -0.08024791 -0.21998028 0.20372523 -0.22393338 -0.32918072
0.11417132 -0.085309595 -0.05052038 -0.09836552 0.14495538 -0.13431753 0.15635873 0.22475682
0.08302706 0.08047184 -0.049611937 0.028475756 0.022039281 0.09633207 0.003136406 0.022864304
0.19419286 0.12458342 0.040566448 -0.10716584 -0.15186425 0.21406911 -0.19075298 0.058112416
-0.09502885 0.114687756 0.3303124 -0.012739074 0.002639726 0.08422491 -0.23597933 0.24053302
0.09017029 -0.030544246 -0.059464842 0.038469512 -0.04094242 0.13013107 -0.073637515 -0.061173744
-0.19830336 -0.078569405 -0.033186242 -0.08810255 0.21107404 -0.15300313 0.10005292 -0.055457942
-0.30745843 -0.25445947 0.055071037 0.048757628 0.040609717 -0.00013519816 0.06567657 -0.035550833
-0.17244199 0.2610977 -0.07712403 -0.020066077 -0.050187133 0.32261387 -0.035367735 0.0819608
-0.015302202 0.23528317 -0.12693746 -0.4435513 -0.048983157 0.4623208 0.39416653 0.089600086
-0.16185714 -0.21509425 0.26065686 0.20821647 0.0152722215 0.45750478 -0.11302401 0.041936234
-0.0702622 -0.048043985 0.1517404 0.30103198 0.034901936 -0.031711735 0.06822501 -0.1570229
-0.09265309 0.09149054 0.19234933 -0.28675467 0.19452457 -0.15126239 -0.13620779 0.18187375
-0.05979655 -0.056298357 0.3910182 -0.06215251 0.053141635 -0.15095486 0.2030044 0.16319656
0.055240527 0.14826632 0.03376711 0.06815664 0.078374885 0.07485256 0.09220291 0.059961997

encoder.layers.0.self_attn.linears.3.bias f4 [32]
00000000: 3404 6ebd 4ca8 33bb 7034 033c 981f cd3d
00000010: f70a 53be dd88 113e 1d64 28ba 0a23 34bd
00000020: ac1f fe3b 141c 773c 6f4f de3c 4fea 7c3e
00000030: cebc febd 976c 9fbd 4137 e13d 26ed 3a3d
00000040: 3e35 eb3b be50 52be 55de f6bd 5136 a53c
00000050: dbef 7bbd 3c18 9bbd ea35 39be ba42 013e
00000060: fe84 363e 1f00 43be 9c54 fc3d a791 9b3d
00000070: 1fb5 1c3d 3aca 093d cb3f 9bbe 152c 183e
-0.058109477 -0.0027413545 0.008008108 0.10015792 -0.20609652 0.14212365 -0.00064236094 -0.04397873
0.0077552404 0.015082378 0.027137486 0.24698757 -0.124383554 -0.07784384 0.10996867 0.04563632
0.007177978 -0.20538613 -0.12054125 0.020167502 -0.06150804 -0.07572982 -0.18086973 0.1262311
0.1782417 -0.19043015 0.123208255 0.0759614 0.038258668 0.033640124 -0.30322108 0.14860566

encoder.layers.0.feed_forward.w_1.weight f4 [128, 32]
00000000: f608 b73e 49b3 d93b ce4c 993e 8f64 27bf
00000010: 6d6e a1be 2fb2 933d 4d5d 263e 34fa b3bd
00000020: 29c9 f93d cd5d cc3e 9270 acbe fc81 5fbe
00000030: de89 2b3f 2377 bbbd 7623 663e 949d 843c
00000040: d60c 873e f561 5e3e 0e0a dabe 199a 0abd
00000050: d1f7 963e ff50 0dbe 3aa3 90bd a572 05be
00000060: 57ec 993e 5e20 0abe 83af 7bbd 9c09 cb3d
00000070: 56a1 033f 8125 58be 1e0e 3fbe 06d2 953e
00000080: 9a0d 4fbe f954 a5be 7ca4 583e 94f4 da3e
00000090: b5f9 cebe d66a bc3c 80c8 a53b 6370 9fbd
000000a0: 64e5 823e b254 f6bd 692b de3d e6f7 4d3f
000000b0: a7ef 7ebd 1c58 1c3d a9aa bc3d ab22 72bd
000000c0: df1b 513e 4e78 27be d35c 743e ca3d 89be
000000d0: d035 06be 8f47 0c3d a023 7dbe f427 fe3e
000000e0: 7d30 3ebe 6f27 cabd 565e 013f 69b4 d73e
000000f0: f2fb 53bd 9883 0a3f 44ee 3bbe facd 77bb
00000100: 2a0a 62be 6a6b 01bf bce1 b73e 22cd 893e
00000110: a649 4d3e edb6 803c 2b10 0cbf c584 813f
00000120: f7a7 8b3e bc6a 57be 617f 393e ca35 02bf
00000130: 7af6 babd de3a 473f c435 3abd e764 df3d
00000140: 75d5 983e 3308 a23e 1a9f 683e 256d 01bf
00000150: a51c c6be ff01 d53e ce89 54be 8d2e 2e3c
00000160: c3f6 6ebe 0a50 1b3f 5b3c 433f 86b1 983e
00000170: d585 d83d 2a5b 6fbe 2fa1 79be 66cf b63e
00000180: 492e 073f 21f5 4d3e 415c d03d e486 74bf
00000190: 62cb 57bd f6a6 283e 9e1e 6ebd 9bff 8ebd
000001a0: 6168 09bf 90fd d33e 3df6 9b3c 5438 03be
000001b0: 1758 5a3e fc36 193e c1c5 f1be fbdd d1bd
000001c0: 7d63 8a3d 6adb 9d3e d68c f2bd 53f4 8cbe
000001d0: 201b 813d 4fa9 c13e 38c2 b73e 6405 06be
000001e0: d7ed 0a3d 15fd 3dbe 56d3 003e 9858 0b3e
000001f0: a1a7 2bbe e3eb d4be 5b21 c03e d52c 8cbe
00000200: d36c 4a3e 8a67 233d 0438 c5bc 64f2 bb3d
00000210: 9623 b03e 9e7b 163e 9ac8 e2be e0c7 4c3e
00000220: 45db d1be a1d9 8b3d b31a 25be fe28 a9be
00000230: bea1 a73e a16d 0dbe 3b70 b93d d8f6 613d
00000240: 8ce3 96be f301 5d3d a715 873e a4b2 ba3d
00000250: 393c dc3d 9286 593e 3202 453e dfca 023d
00000260: 2aa7 0fbf 0020 5f3e a55e 63bc d9ed 273d
00000270: a999 9a3d 9482 0b3f d51d 783e 50b2 ab3c
00000280: b3e5 3a3e a127 973d 125a 0e3d 8e2a e2be
00000290: c2f2 70bf 6c4b ae3e fd71 6cbe f6af d0be
000002a0: 064a 853e c4b7 0a3f dcca 35bf 311e 68be
000002b0: 98cc 4b3e 349a f9be f785 eb3d 51e9 cbbd
000002c0: 6c89 ec3d c8b7 cd3c b4c8 2dbf 0458 3ebd
000002d0: c7d1 1f3e 1e41 39be 7fce 02bc 0a90 2f3e
000002e0: aee3 1c3e d274 913d ba74 a8bd 5ece 3c3b
000002f0: 49eb 8e3e df8a eebe 8187 6f3c 52f5 babb
00000300: 7f28 4bbe 05b5 bebd 7aba 1c3c f224 1e3e
00000310: 5b5d cebe faf1 1ebe c65b 8dbd 4df0 363f
00000320: 4715 253f eab4 b6be 141d c5bb c3bb 103e
00000330: 4bd0 413d 705c 253e 6c87 533d 0191 833e
00000340: 5bfc 703e 7368 f43d e6fe 06be 5569 c63e
00000350: 43df a0be 93f1 61bf f32b c5bd ed4f d53d
00000360: 6a4d 0bbe 4b96 e03d 38f1 143e 2f45 663e
00000370: c444 3c3f 039a bb3d 3ef0 2e3e 284c 303e
00000380: 30cb 2e3e 4fec 4a3e b227 613e 9097 2dbe
00000390: d5f1 fbbe acfa 82bc 860c e93e be18 ac3e
000003a0: 42d5 c6bd 05e0 00be 503f 58be ede6 5b3e
000003b0: a7b8 b83e 5bdf 08be bd4e 2ebd 8479 a5bd
000003c0: f008 9ebe 33b3 c73d 8be6 ddbe 20e8 533e
000003d0: 1887 a0bc 4f4b 86bd f7f6 93bc d726 3f3e
000003e0: fc83 653d a362 44be 361f 113e f394 4a3e
000003f0: 70c8 2d3f 70a6 8dbe 99bf 84be 3be0 003f
0.35749024 0.006643687 0.2994141 -0.65387815 -0.3152956 0.0721172 0.16246529 -0.08787957
0.121965714 0.39915314 -0.33679634 -0.21826929 0.67007244 -0.09153583 0.22474465 0.01618842
0.2637698 0.21717055 -0.42585796 -0.033838365 0.29485944 -0.13800429 -0.07062383 -0.13032015
0.30063125 -0.1348891 -0.061446678 0.09913942 0.51418054 -0.21108057 -0.18657729 0.29261798
-0.20220032 -0.32291391 0.21156496 0.42764723 -0.40424886 0.023000162 0.005059302 -0.07785108
0.25565636 -0.12027873 0.108481236 0.8045639 -0.06224027 0.038169965 0.09212238 -0.059115093
0.20420788 -0.16354486 0.23863535 -0.26804954 -0.13106465 0.03424793 -0.24720621 0.49639857
-0.18573184 -0.098708026 0.5053457 0.4212983 -0.051753946 0.54107046 -0.1835261 -0.003781198
-0.2207419 -0.50554526 0.3591441 0.26914316 0.20047626 0.015712226 -0.5471217 1.0118643
0.27276585 -0.2103681 0.18114997 -0.50863326 -0.09129043 0.778242 -0.04546143 0.109079175
0.29850355 0.3164688 0.22716942 -0.50557166 -0.3869373 0.41603085 -0.20755693 0.010631216
-0.2333632 0.60669005 0.7626397 0.2982294 0.105724014 -0.2337462 -0.24377893 0.35705107
0.52805 0.2011304 0.10173846 -0.95518327 -0.052684195 0.1646994 -0.058134668 -0.069823466
-0.53674895 0.4140439 0.019038314 -0.12814456 0.21322666 0.14962381 -0.47221187 -0.102474175
0.06757257 0.30831462 -0.118432686 -0.27530155 0.06304002 0.37824485 0.35890365 -0.13087994
0.033918228 -0.18553574 0.12580618 0.13608015 -0.16763164 -0.41586217 0.37525448 -0.27377954
0.19768076 0.039893664 -0.024074562 0.09177092 0.3440215 0.14695594 -0.44293672 0.19998121
-0.40987602 0.06828619 -0.16123466 -0.33039087 0.32740587 -0.13811351 0.090546094 0.05516705
-0.2947048 0.053956937 0.26383707 0.09116104 0.10753674 0.21242741 0.19239119 0.031931754
-0.5611445 0.21789551 -0.0138775455 0.040998314 0.075488396 0.5449612 0.2423013 0.02095905
0.18251686 0.073806055 0.034753866 -0.44173092 -0.9412042 0.34041917 -0.23090358 -0.40759248
0.26033038 0.54186654 -0.71012664 -0.22667767 0.19902265 -0.4875046 0.11500161 -0.09956611
0.11549649 0.025112048 -0.67884374 -0.046470657 0.15607367 -0.18091246 -0.007983803 0.1714479
0.15321228 0.0710236 -0.08225389 0.0028809528 0.27913883 -0.46590325 0.014619709 -0.005705514
-0.19839667 -0.093118705 0.009565944 0.15443781 -0.403056 -0.15521994 -0.0690227 0.7146042
0.6448559 -0.356849 -0.0060154293 0.14134125 0.047317784 0.16148543 0.05164282 0.25696567
0.23533766 0.119339846 -0.13183174 0.38752237 -0.31420335 -0.8825924 -0.09627523 0.10415635
-0.1360375 0.10966166 0.14545143 0.22487329 0.7354243 0.09160235 0.17083833 0.17216551
0.17069697 0.19816707 0.21987799 -0.16952348 -0.4920794 -0.01598867 0.45517367 0.33612627
-0.097086444 -0.12585457 -0.21117902 0.2147481 0.3607838 -0.13366453 -0.04255556 -0.08079818
-0.30866194 0.097509764 -0.43339953 0.20694017 -0.019595668 -0.06557333 -0.018062098 0.1866716
0.056034073 -0.19178252 0.14172062 0.19783382 0.6788397 -0.27666044 -0.25927427 0.5034215

encoder.layers.0.feed_forward.w_1.bias f4 [128]
00000000: 99d5 a8bd e108 48be 3b73 a23e df00 d7bd
00000010: 3f7b f1bc 0e35 c53c 01b8 b4be da79 e1bc
00000020: e52f 7ebd 6a2d a4bd 6010 16be 2b51 a73c
00000030: 9944 ccba dfb8 fbbe 1e01 ccbe fc0e 5dbe
00000040: 9e25 b4be ea2c dd3c 00a1 e7bd 3e3b e1be
00000050: 8d10 503c fb97 51be a0ae d9bd 8893 ae3c
00000060: 5c4f a73d 158d 22bd 3f28 4f3d 7bf6 233e
00000070: eade abbe 92ae 65bd 4054 bbbd 9f09 bbbe
00000080: be9d 0fbe 0c3b 02be 6b32 8abd 1c83 39be
00000090: 3b23 b6bc ccbb d43d cf21 56be 8d2a 0dbf
000000a0: 057e 25be 8ece 3fbe 7ebe bcbd 914d 1ebe
000000b0: 7ab1 62be 8986 81be 4a6d 61be 78fc 153d
000000c0: 71d7 5abd 5478 c1bd 1111 04be 8dda c53b
000000d0: 05b5 2e3d 09de 18be 205e b3bd 956a b23c
000000e0: 325a 143d d484 173e 099a d03d 2285 c7be
000000f0: 7fbf c9bd cbfd edbd 375f 10be c606 e8be
00000100: 6428 adbe 67da 47be c18f 903a 262b d0be
00000110: 769a 1c3b 6f45 abbe 9343 59be 7d90 c0be
00000120: bfdf c0bd 0033 6fbe 269f 9fbe 5c0f 7abe
00000130: 4fe6 86be 5839 8bba 7910 adbe af17 82bd
00000140: 6bcc 87bd 9ffa 38be c112 a4bc 27ef b9bd
00000150: 0dae 133d ed57 9abe af42 81be aaaa 11be
00000160: a74b 11be f8f2 a9be 2586 98bd e60d a0be
00000170: f46b 123e 421b a6be b527 183d ef18 a7bc
00000180: 0014 c3be bec5 62be 73d2 a0be e71b e8be
00000190: 7780 9dbd a690 e9bd 684d efbd fb0a 83be
000001a0: a1cd 1e3d 3174 4abe 27de 4abd 3ac5 5cbe
000001b0: a0d8 91bd b323 1abe b982 afbd cc5d 99bd
000001c0: 2a4c 5fbd 4cad bc3d 9700 88bd 97d2 28be
000001d0: fe7d edbd 5a55 6bbe 77f3 243d 91cc 6fbd
000001e0: 1735 f7bd fc15 2fbe 217c 42be 0119 33be
000001f0: fe0b 8cbe 5694 b0be b933 13bc da8f a0bc
-0.082438655 -0.19534637 0.3172854 -0.10498213 -0.029477714 0.02407315 -0.35296634 -0.027523924
-0.062057395 -0.080164745 -0.14654684 0.020424446 -0.0015584409 -0.49164483 -0.39844602 -0.21587747
-0.3518495 0.026998956 -0.11310005 -0.4399051 0.0126992585 -0.20468132 -0.1062901 0.021310583
0.081694335 -0.039685328 0.05057549 0.16011994 -0.33568507 -0.056074686 -0.09146929 -0.36530778
-0.14025018 -0.12717837 -0.06747898 -0.1811642 -0.022233596 0.10387382 -0.20911334 -0.5514305
-0.16161354 -0.18731138 -0.09216021 -0.15459277 -0.22138014 -0.25297955 -0.22014347 0.036617726
-0.053428117 -0.09446779 -0.12897135 0.006038016 0.042653102 -0.1492845 -0.08758187 0.021779338
0.03621883 0.14796764 0.1018563 -0.3896876 -0.09850978 -0.11620673 -0.14098822 -0.45317668
-0.33819878 -0.19516908 0.001102917 -0.4065792 0.0023895777 -0.3345141 -0.21217184 -0.37610236
-0.09417676 -0.23359299 -0.31176108 -0.24419922 -0.26347587 -0.0010621948 -0.3380163 -0.063521735
-0.066307865 -0.18064354 -0.020028474 -0.09078818 0.03605466 -0.30145207 -0.25246188 -0.1422526
-0.14189015 -0.33193183 -0.07447461 -0.31260604 0.14298993 -0.3244267 0.037147243 -0.020397631
-0.38101196 -0.22145745 -0.3141056 -0.45333788 -0.07690518 -0.114045426 -0.11684686 -0.25594315
0.03877032 -0.19770886 -0.049528267 -0.21559611 -0.07121396 -0.1505268 -0.08569855 -0.074885935
-0.054515995 0.09212741 -0.066407375 -0.16486584 -0.11596297 -0.22981778 0.04027125 -0.0585447
-0.12070673 -0.1709823 -0.18992664 -0.17490007 -0.273529 -0.3448817 -0.0089845 -0.019599844
