index_advisor_selector/index_benefit_estimation/index_cost_lib/exp_res/exp_lib_tpch_tgt_ep500_bat2048/model/lib_LIB_100.pt (torch, 413135 bytes, 120 tensors)

S f4 [1, 1, 32]
0.13558145 0.13150954 -0.021368092 0.14217812 -0.19725385 -0.21764868 0.20016597 -0.07524859
-0.18938969 -0.17025466 0.1454081 0.010815695 -0.19331068 0.018379794 -0.028663429 -0.26510233
-0.18812577 -0.17308657 -0.022991644 -0.14042617 -0.044806335 0.17083694 0.11013277 0.15581493
-0.009970447 0.008967773 0.054240897 0.052043922 0.18411832 0.12500833 -0.01664588 -0.0037716967
00000000: ddd5 0a3e 70aa 063e 230c afbc 2497 113e
00000010: eafc 49be 4cdf 5ebe 4ff8 4c3e ef1b 9abd
00000020: 5fef 41be 3d57 2ebe dce5 143e 5034 313c
00000030: 3cf3 45be 3991 963c 91cf eabc 7ebb 87be
00000040: 0ba4 40be 9b3d 31be f958 bcbc e1cb 0fbe
00000050: d986 37bd e1ef 2e3e 4a8d e13d f38d 1f3e
00000060: 165b 23bc 91ed 123c b42b 5e3d 022c 553d
00000070: 8389 3c3e 2f02 003e f15c 88bc 922e 77bb

linear1.weight f4 [32, 12]
-0.18266742 0.031579804 0.21596788 0.22809243 1.6998128 -0.1344197 -0.5664949 -0.5073631
0.210665 0.93605155 0.15187828 -0.32734573 0.21794274 -0.1949474 -0.61839014 -0.48448837
-0.16498284 0.048348933 0.12657619 -0.07183787 0.3148903 -0.22054867 -0.3018334 0.16000804
-0.31845984 -0.5089575 -0.23321481 0.2569241 3.55721 -0.21060419 -0.24627838 0.062690474
-0.9958014 -0.6528359 0.42870378 0.63248694 -0.21456678 1.2681191 -0.07395845 -0.16248013
-3.4870005 -0.48476177 0.5360423 -1.2327359 -0.5606449 -0.30817896 0.22796346 -0.39409643
-0.16683507 0.17583697 -0.050594088 -0.009018335 4.1493707 -0.5551817 0.46940297 -0.24004112
-2.6391065 -1.2376488 -0.30798542 -0.03639416 -0.983397 -0.6724944 1.1776323 0.49147588
5.2819476 0.037216924 0.15776658 -0.09542032 0.4467246 -0.78888714 -0.58538944 0.5746942
0.32426187 -0.023490349 -0.109543435 0.20464846 2.6266792 -0.41124332 1.2435391 -0.21974564
-0.0700938 -0.39706582 -0.32712686 -0.10370926 -1.7397537 0.93345207 0.56088704 0.03944973
-4.6839004 0.43296272 -0.66762227 0.78154343 0.77106243 0.22773309 -0.043051146 -0.12611184
1.7374749 -0.30498514 -0.3777558 -0.34186515 -4.6896987 0.20377204 0.032133117 1.088125
-1.4387875 1.1824186 -0.033331085 0.08661054 -0.17282306 0.073449746 -0.1288292 0.028982477
0.06698586 0.5388992 0.04651492 -2.3117034 0.46263596 0.48066932 -0.4022431 0.6226442
-0.6887703 -0.5554629 0.03058809 0.27399874 4.6124024 -0.84453934 -0.60877806 -0.34007448
-0.32487306 -0.85584825 -0.31928617 -0.13102892 0.46133146 -0.13725945 -0.20599145 -0.12208574
0.29128143 0.18463899 0.060948394 0.13675281 0.4697585 -0.16968593 -0.17089863 -0.48716083
0.18492734 0.07159233 0.07896336 -0.31113943 -0.08984302 -0.17952836 -0.016951472 -0.027044814
0.5739289 0.14424805 0.29922965 0.30663034 -0.15212455 -0.11165861 -0.32472807 0.13545954
3.6826723 -2.1385777 -0.4397746 1.7978901 0.55663633 -1.1921854 -0.4922364 0.13095318
-0.60328835 0.3514381 0.43925816 -0.030563928 -5.029086 0.8856301 1.1016641 0.08736657
0.21906094 -0.25388113 -0.21780646 -0.019869255 -0.2725542 0.18039848 0.28778997 -0.30991006
0.3915939 0.42686233 0.19478852 -0.08140047 0.74901825 0.34123132 0.024704173 0.65457153
-1.5350869 -0.15672359 0.38521665 0.51568913 2.0844674 -1.1131427 0.4338835 -0.08640903
-0.34016362 -0.5904757 -0.1702566 -0.6217983 -0.4542244 -0.21018931 0.09583527 0.32434356
5.649078 -0.9822261 0.31024316 -0.17009874 0.36644036 -1.0400575 -0.6926719 -0.31069893
0.12006455 0.059496626 -0.07232634 0.08951559 2.9764717 -0.5108659 0.15288185 0.44183192
-2.0854704 0.5179824 -0.82202065 -0.04241508 -0.15517837 -0.36214215 -0.23579413 0.28826293
4.5677404 0.2218208 -2.1364803 -0.5418995 -1.0905846 -1.0367981 0.07364451 -0.39093494
0.5681423 -0.86026704 0.58156735 0.5455808 4.7205486 0.49353233 -0.17936511 -0.13968956
-0.5375116 -1.7236274 0.22842994 0.042229343 -0.6687712 -0.3357125 0.45220244 -0.049894996
00000000: 2b0d 3bbe d359 013d af26 5d3e 1091 693e
00000010: 7793 d93f 51a5 09be cf05 11bf 8ce2 01bf
00000020: 91b8 573e 13a1 6f3f fb85 1b3e dc99 a7be
00000030: 622c 5f3e 4ba0 47be d14e 1ebf dc0e f8be
00000040: 43f1 28be 8809 463d 309d 013e bc1f 93bd
00000050: 4d39 a13e 83d7 61be e889 9abe 26d9 233e
00000060: 2b0d a3be 0a4b 02bf ddcf 6ebe 8e8b 833e
00000070: 54a9 6340 a0a8 57be 6630 7cbe dd63 803d
00000080: d7ec 7ebf 4120 27bf 107f db3e aaea 213f
00000090: 65b7 5bbe ba51 a23f 8777 97bd 3161 26be
000000a0: 042b 5fc0 b232 f8be 113a 093f 4aca 9dbf
000000b0: 6d86 0fbf a2c9 9dbe 416f 693e 02c7 c9be
000000c0: d0d6 2abe 9b0e 343e bf3b 4fbd a3c1 13bc
000000d0: a5c7 8440 6320 0ebf 9655 f03e 57cd 75be
000000e0: 1fe7 28c0 476b 9ebf 44b0 9dbe 0b12 15bd
000000f0: e8bf 7bbf 9828 2cbf a8bc 963f baa2 fb3e
00000100: b705 a940 c670 183d 908d 213e bb6b c3bd
00000110: 16b9 e43e 82f4 49bf 15dc 15bf 291f 133f
00000120: a705 a63e d56e c0bc 4f58 e0bd 5e8f 513e
00000130: 831b 2840 7c8e d2be 4a2c 9f3f 0005 61be
00000140: 578d 8fbd 364c cbbe 2c7d a7be 8565 d4bd
00000150: 40b0 debf b7f6 6e3f 4b96 0f3f 0a96 213d
00000160: 83e2 95c0 4aad dd3e 4be9 2abf 3b13 483f
00000170: 5964 453f dd32 693e 6656 30bd 7623 01be
00000180: 9465 de3f 0327 9cbe 3569 c1be f308 afbe
00000190: 0312 96c0 9ea9 503e 049e 033d ae47 8b3f
000001a0: 302a b8bf 7e59 973f 2d86 08bd de60 b13d
000001b0: 87f8 30be d26c 963d cdeb 03be a96c ed3c
000001c0: e22f 893d 4cf5 093f 6e86 3e3d f3f2 13c0
000001d0: 9fde ec3e 4a1a f63e cff2 cdbe 9c65 1f3f
000001e0: 4053 30bf d132 0ebf e093 fa3c 9049 8c3e
000001f0: cd98 9340 bb33 58bf e1d8 1bbf 3e1e aebe
00000200: c355 a6be df18 5bbf 7a79 a3be 722c 06be
00000210: a333 ec3e be8d 0cbe 6cef 52be 1708 fabd
00000220: d722 953e 0112 3d3e 06a5 793d ee08 0c3e
00000230: 3084 f03e 26c2 2dbe 0d00 2fbe 256d f9be
00000240: 985d 3d3e 009f 923d 8bb7 a13d ab4d 9fbe
00000250: 9eff b7bd 48d6 37be d0dd 8abc 168d ddbc
00000260: 01ed 123f c3b5 133e a134 993e a7fe 9c3e
00000270: 8ac6 1bbe 45ad e4bd c242 a6be e8b5 0a3e
00000280: e7b0 6b40 75de 08c0 232a e1be 4321 e63f
00000290: b87f 0e3f 8899 98bf 6906 fcbe 9718 063e
000002a0: 1b71 1abf b2ef b33e 72e6 e03e 3461 fabc
000002b0: 46ee a0c0 a7b8 623f 5403 8d3f 3fed b23d
000002c0: 8351 603e b5fc 81be a808 5fbe d9c4 a2bc
000002d0: 398c 8bbe 61ba 383e 3559 933e 88ac 9ebe
000002e0: ff7e c83e b38d da3e a476 473e 4ab5 a6bd
000002f0: a9bf 3f3f dfb5 ae3e 6860 ca3c 0092 273f
00000300: ba7d c4bf 267c 20be 1e3b c53e 3404 043f
00000310: ea67 0540 767b 8ebf fa25 de3e 38f7 b0bd
00000320: ed29 aebe 6a29 17bf bf57 2ebe 2c2e 1fbf
00000330: 1a90 e8be de3b 57be 4845 c43d 5c10 a63e
00000340: 3fc5 b440 2b73 7bbf 31d8 9e3e 5d2e 2ebe
00000350: 129e bb3e 9b20 85bf f252 31bf ee13 9fbe
00000360: 67e4 f53d bcb2 733d d51f 94bd f353 b73d
00000370: 837e 3e40 1cc8 02bf 0f8d 1c3e cb37 e23e
00000380: 5978 05c0 7f9a 043f f26f 52bf 6fbb 2dbd
00000390: 14e7 1ebe b26a b9be 0474 71be 3397 933e
000003a0: ee2a 9240 fe24 633e 18bc 08c0 edb9 0abf
000003b0: 4798 8bbf cdb5 84bf efd2 963d a028 c8be
000003c0: c671 113f 763a 5cbf 99e1 143f 2fab 0b3f
000003d0: bc0e 9740 45b0 fc3e 7dab 37be c80a 0fbe
000003e0: 5c9a 09bf d39f dcbf 8ae9 693e adf8 2c3d
000003f0: 9734 2bbf 82e2 abbe 1487 e73e b25e 4cbd

linear1.bias f4 [32]
0.08996127 -0.05195952 -0.04998032 0.2567563 -0.69528663 -0.76028687 0.09524464 0.61876553
0.16407898 0.059385847 -0.40456107 -0.1716899 0.20857614 -0.33199915 0.40960902 -0.10430145
-0.23279862 -0.59196526 -0.61885744 -0.24169919 -0.55224246 -1.0778329 -0.36617875 -0.034787294
0.16240253 -0.19863622 -0.16090506 0.14670849 0.44451922 0.23475875 -0.30300173 0.2876658
00000000: 9d3d b83d 81d3 54bd 2ab8 4cbd 9075 833e
00000010: 4efe 31bf 29a2 42bf 9f0f c33d 6b67 1e3f
00000020: 5204 283e 933e 733d a122 cfbe 7acf 2fbe
00000030: fc94 553e cbfb a9be 46b8 d13e 009c d5bd
00000040: c362 6ebe 098b 17bf 716d 1ebf fe7f 77be
00000050: c35f 0dbf 6ef6 89bf c87b bbbe 1f7d 0ebd
00000060: d94c 263e 4b67 4bbe 4cc4 24be c03a 163e
00000070: 0698 e33e 9964 703e 0b23 9bbe ef48 933e

encoder.layers.0.self_attn.linears.0.weight f4 [32, 32]
-1.115364 -0.12160644 0.14498109 0.03244406 0.3197813 0.59622234 -0.37905753 -1.0218376
-0.4398619 -0.20153147 -0.14095928 -0.07503777 0.17046061 0.006485384 0.30119213 0.33747512
-0.52859116 0.0944314 0.32139996 -0.71750987 -0.28692108 0.269012 -0.24724293 -0.04445531
-0.9318187 0.2567672 -0.017070295 -0.07005315 0.568187 -0.7098462 0.7184996 -0.36071926
0.37366065 -0.2176024 -0.30216056 -0.15456948 -0.34930116 -0.8133951 0.22635752 0.36481637
-0.04781211 -0.60011053 0.22706716 -0.10364538 -0.032502364 0.3020938 -0.73477334 -1.1538674
0.024645746 0.33491865 -0.20528686 0.5187941 -0.34217423 -0.50409746 0.033162627 -0.16896631
-0.13492694 -1.4616113 -0.023598041 -0.052670207 -0.99888307 0.1791049 -0.20881811 0.19191581
-0.11684473 0.11663543 0.46304286 0.22497705 0.106818154 0.5227066 0.07554518 1.1511936
0.088219546 0.052230872 0.5908642 -0.014124449 -0.14529103 0.66195613 0.50131685 0.37239578
-0.09946614 0.35793114 0.21435827 0.4277325 0.28369504 0.7225049 0.21186058 -0.05925861
-0.01574351 0.28804687 0.0096882535 0.10525862 -0.72969234 0.44496685 0.31565258 -0.13874264
0.31389973 0.02331405 0.008114372 -0.14710785 -0.5926079 -0.5861179 -0.22272599 0.34426764
0.28417313 1.1475577 -0.237342 -0.08004592 -0.06196121 -1.0166408 -0.20645703 -0.6968048
0.26912376 -0.50069696 -0.28233716 0.2433118 -0.1864185 -0.69221574 0.08252142 -0.042973194
0.20609269 0.005539728 0.16923794 -0.16367275 0.7113896 0.4244854 -0.8041404 -0.2734587
1.2667031 -0.0051574684 0.7399614 0.15932356 0.26656136 0.9456631 0.116596974 0.77638406
0.5860479 0.6108867 0.6526101 0.12625512 0.23300785 0.94506156 0.37758514 0.1093923
1.0558562 0.69208324 1.0208213 0.1639327 0.21945275 1.1236151 -0.24850632 0.1653384
1.6729108 -0.15070644 -0.113835536 -0.03129153 0.42917258 -0.34914774 -0.35264143 0.6136405
1.0293052 0.15300289 -0.2197659 1.0259901 0.055968944 -0.45572403 0.6880394 -0.22637539
-1.1118786 -0.10769543 -0.07456652 -0.04261175 -0.26610348 -0.73430365 0.3213924 0.42940232
1.6437175 0.2009714 -0.44302073 0.2291117 -0.24800347 0.14797895 0.10342528 0.18582787
-0.23810552 -0.4036311 0.023250941 -0.2186819 -0.10228702 0.5375049 -0.38522556 -1.5535924
-0.7485556 -0.22796832 -0.033800956 -0.4767498 -0.31566978 0.0032681078 -0.104390286 0.73124206
-0.16211617 0.24036792 -0.2795737 -0.07885576 0.43473795 0.39799526 -0.2926558 0.8208599
-1.130128 0.56360906 -0.17485936 0.12232482 -0.11669556 -0.048054084 -0.24979343 -0.3743227
0.05086398 1.0611299 -0.03276696 0.14370069 -0.3462878 -0.44983894 0.35203132 0.88024527
-2.2916045 0.25000435 -0.25862956 -0.52409136 -0.44573462 -0.7680031 -0.9597629 -0.9021167
0.19584389 0.12803681 -0.55657387 -0.11443813 0.07582987 -0.4827866 0.00237742 -0.75411993
-3.1918004 -1.5044296 -0.5119855 -0.83694685 -0.29404208 -1.0899295 -0.08165046 0.07871744
-1.9600034 -0.88675255 0.09092974 -0.24545603 0.4401283 0.17757556 0.5150534 -0.49657694
00000000: 3fc4 8ebf cc0c f9bd ec75 143e 10e4 043d
00000010: 60ba a33e 07a2 183f d413 c2be 93cb 82bf
00000020: 9435 e1be 445e 4ebe a157 10be 67ad 99bd
00000030: 3a8d 2e3e 5883 d43b db35 9a3e 8ac9 ac3e
00000040: c051 07bf 4065 c13d 898e a43e baae 37bf
00000050: 52e7 92be f1bb 893e 402d 7dbe c516 36bd
00000060: ac8b 6ebf fe76 833e 01d7 8bbc 0778 8fbd
00000070: b474 113f 7bb8 35bf 97ef 373f 32b0 b8be
00000080: 7350 bf3e 2ad3 5ebe cab4 9abe 7647 1ebe
00000090: 9ad7 b2be a93a 50bf 44ca 673e 36c9 ba3e
000000a0: a2d6 43bd d8a0 19bf 4b84 683e 0744 d4bd
000000b0: 3321 05bd 0aac 9a3e 1b1a 3cbf edb1 93bf
000000c0: e0e5 c93c 757a ab3e b836 52be b1cf 043f
000000d0: 7631 afbe 880c 01bf 89d5 073d 8105 2dbe
000000e0: 4a2a 0abe 1416 bbbf ae50 c1bc b7bc 57bd
000000f0: cdb6 7fbf 4667 373e 6ad4 55be 9485 443e
00000100: 4a4c efbd 8ede ee3d f413 ed3e 6260 663e
00000110: 7ac3 da3d 1ad0 053f 6eb7 9a3d 505a 933f
00000120: 73ac b43d 0af0 553d e042 173f 3c6a 67bc
00000130: 2cc7 14be f575 293f 4d56 003f a9aa be3e
00000140: e7b4 cbbd c042 b73e bc80 5b3e c1ff da3e
00000150: 7a40 913e 15f6 383f fbf1 583e 28b9 72bd
00000160: 89f8 80bc e17a 933e 7bbb 1e3c d591 d73d
00000170: 1ecd 3abf b2d2 e33e 379d a13e 8d12 0ebe
00000180: 77b7 a03e 1bfd be3c 25f2 043c 71a3 16be
00000190: 27b5 17bf d30b 16bf 4812 64be d943 b03e
000001a0: 247f 913e 2ce3 923f c809 73be 1eef a3bd
000001b0: 0acb 7dbd 4921 82bf 7969 53be cd61 32bf
000001c0: 97ca 893e ad2d 00bf 7f8e 90be ba26 793e
000001d0: 7ee4 3ebe 0d35 31bf fe00 a93d a904 30bd
000001e0: f609 533e 9b86 b53b b64c 2d3e d499 27be
000001f0: a11d 363f 2656 d93e 25dc 4dbf c702 8cbe
00000200: 5423 a23f fbff a8bb 1c6e 3d3f b725 233e
00000210: bb7a 883e fa16 723f 65ca ee3d 1bc1 463f
00000220: 3c07 163f 1263 1c3f 7511 273f 0649 013e
00000230: 9c99 6e3e 8eef 713f d752 c13e 1209 e03d
00000240: 4c26 873f 5e2c 313f 46aa 823f f9dd 273e
00000250: 39b8 603e 9fd2 8f3f 7178 7ebe 784e 293e
00000260: f121 d63f ca52 1abe 9b22 e9bd 8c2b 00bd
00000270: 82bc db3e 7ec3 b2be 6b8d b4be 8b17 1d3f
00000280: 46c0 833f caac 1c3e 500a 61be a553 833f
00000290: b13f 653d a954 e9be 5a23 303f f3ce 67be
000002a0: 0a52 8ebf 6c8f dcbd 55b6 98bd a989 2ebd
000002b0: b73e 88be 53fb 3bbf 8b8d a43e 9fda db3e
000002c0: 5665 d23f 72cb 4d3e 9dd3 e2be 429c 6a3e
000002d0: 9ff4 7dbe cb87 173e a2d0 d33d a949 3e3e
000002e0: efd1 73be bca8 cebe c278 be3c 26ee 5fbe
000002f0: db7b d1bd ec99 093f 493c c5be 1edc c6bf
00000300: 57a1 3fbf 8770 69be df72 0abd 8d18 f4be
00000310: 789f a1be c02d 563b 93ca d5bd ae32 3b3f
00000320: c801 26be 0223 763e 4924 8fbe 217f a1bd
00000330: f995 de3e 09c6 cb3e fbd6 95be e023 523f
00000340: 09a8 90bf af48 103f 550e 33be 6f85 fa3d
00000350: 15fe eebd 5cd4 44bd d9c9 7fbe 3aa7 bfbe
00000360: c056 503d 1bd3 873f a636 06bd 4626 133e
00000370: a24c b1be 4a51 e6be 733d b43e c157 613f
00000380: a6a9 12c0 9200 803e 186b 84be da2a 06bf
00000390: 5437 e4be da9b 44bf 05b3 75bf 1ff1 66bf
000003a0: 4d8b 483e 151c 033e a07b 0ebf 8a5e eabd
000003b0: b14c 9b3d ce2f f7be 7dce 1b3b 010e 41bf
000003c0: 7546 4cc0 2691 c0bf 7b11 03bf 2642 56bf
000003d0: af8c 96be cf82 8bbf 5b38 a7bd 9c36 a13d
000003e0: 64e1 fabf 3702 63bf 5f39 ba3d d358 7bbe
000003f0: 7f58 e13e 5ed6 353e 8ada 033f 553f febe

encoder.layers.0.self_attn.linears.0.bias f4 [32]
-0.43151286 0.12199436 0.15851955 0.622834 0.36815068 -0.24718478 -0.38474488 0.005454017
-0.1966691 0.0407491 -0.42714906 -0.30227345 -0.12850726 -0.13967296 0.1719106 -0.08737352
-0.16412404 0.37414867 -0.37501377 -0.24490437 -0.20241174 -0.221999 0.12658751 0.04445945
0.17141227 0.08881903 0.3173838 -0.036549933 -0.13705684 -0.1871493 -0.09674042 -0.19915985
00000000: 41ef dcbe 2ed8 f93d f352 223e 0d72 1f3f
00000010: 3f7e bc3e 021e 7dbe 48fd c4be 9cb7 b23b
00000020: a063 49be 87e8 263d 48b3 dabe 96c3 9abe
00000030: 6897 03be 6e06 0fbe 5509 303e e3f0 b2bd
00000040: 2210 28be 6a90 bf3e ce01 c0be 36c8 7abe
00000050: 0645 4fbe b553 63be 28a0 013e 1d1b 363d
00000060: b386 2f3e c0e6 b53d 2180 a23e 62b5 15bd
00000070: a158 0cbe 11a4 3fbe d71f c6bd 8ff0 4bbe

encoder.layers.0.self_attn.linears.1.weight f4 [32, 32]
-0.23832084 -0.23818828 0.73748803 -0.21460384 -0.27419308 0.25078714 -0.17386012 -0.3375862
0.5534647 -0.7315658 0.3282974 -0.26444885 -0.022862207 -0.099368654 -0.47159395 0.2213795
-0.60698026 0.3420722 -0.07009118 -0.06296333 0.089700975 0.35507748 -0.31377858 -0.1320902
0.33850884 -0.45794874 -0.27275783 -0.26419592 -0.06814314 -0.29812017 -0.18289353 0.37939864
-0.29694614 0.44318768 -0.29869893 -0.025509622 0.30124512 -0.30050984 -0.0068352274 0.23298788
-0.0051093055 0.20758243 -0.26148877 0.56979406 0.3804429 0.147407 0.88501114 -0.00832717
0.30275765 -0.39975747 0.08434639 -0.3788327 0.11836124 -0.49314788 0.65756387 0.4051919
-0.4202516 -0.32010362 0.4668688 0.46408546 0.20225401 0.28401744 -0.2448587 0.11919645
-0.008521982 -0.016070912 0.16312082 -0.29245228 -0.34904513 0.54263765 0.21368538 -0.2838426
-0.83158 0.44012988 -0.16338116 -0.094771594 -0.03015671 -0.02594014 -0.11037001 -0.7911909
0.09912171 0.1404369 0.07075763 0.19793753 -0.37190595 0.6442175 -0.0016934527 -0.045189455
-0.46238774 0.8389998 0.087977186 0.13093579 0.021395162 -0.44620416 0.44508338 -0.8786939
-0.05435 -0.15851258 -0.4794515 0.6470807 0.4520572 -0.3151815 -0.9257965 0.8303549
-0.06209558 0.25199887 -0.03003989 -0.19693474 -0.4645668 -0.420297 0.47103718 -0.16218235
0.2608975 -0.3577149 -0.061468903 0.3739545 -0.0778345 -0.73036516 -0.023977492 -0.27251866
-0.17135702 -0.49268538 0.029893883 -0.28374907 0.078217365 0.774629 0.33512828 -0.6338982
0.9669509 -0.40607947 -0.4546063 -0.2051948 -0.0043509733 -0.16648184 0.0655618 -0.08589921
-0.08079228 0.018561572 0.41274574 -0.23107584 -0.4860793 0.28432992 -0.33341655 -0.6236299
0.20160192 0.4092433 -0.22157168 0.86907583 0.2661616 -0.013142544 -0.649948 -0.27176565
0.53511477 -0.6446344 -0.4874386 -0.31980374 0.39543673 -0.0033928868 -0.297523 -0.10766676
-0.9156871 0.60186064 0.22991364 -0.53405553 -0.17596817 -0.18355907 0.27583975 -0.15114933
0.6871221 -0.29114953 -0.21410243 0.3502167 0.8793267 0.732365 0.29242983 0.46479553
-0.48115984 -0.4341233 0.80652064 -0.42517656 -0.28390136 0.22925118 0.31392425 0.49776924
-0.6533588 0.13655157 0.6024936 0.5328586 -0.30581298 -0.5031206 0.7047834 0.28154254
-0.18080969 0.20701267 0.6245703 0.69478035 0.41239867 0.35357857 -0.67699015 0.5344004
-0.38836622 0.07618355 0.15971598 0.34239435 0.4342111 -0.15608422 -0.007531991 0.6966551
0.08503806 -0.4137059 0.19003777 -0.45641875 -0.18416475 0.17042857 0.5295244 0.0866812
-0.23049682 0.6884211 0.328915 0.39446023 -0.2895037 -0.14589268 0.58519864 -0.083412915
-0.8120328 0.6276159 0.44148785 0.34066206 -0.07149758 -0.20171407 -0.044450793 0.029126426
-0.076051 0.17665179 -0.4253554 0.30920106 0.45690414 -0.32906705 0.54497606 0.49891636
-0.22817223 -0.58592844 -0.024800904 -0.9522779 -0.28096074 -0.19614929 0.5214255 0.48879197
-0.3452254 0.5360601 0.48268315 0.27932587 -0.054608375 0.34931734 0.44445094 0.21476044
00000000: 610a 74be a1e7 73be 04cc 3c3f 1cc1 5bbe
00000010: 0963 8cbe 2c67 803e 6308 32be 19d8 acbe
00000020: ddaf 0d3f e547 3bbf 9916 a83e d765 87be
00000030: 8649 bbbc cb81 cbbd c374 f1be 4fb1 623e
00000040: 0f63 1bbf 1624 af3e f78b 8fbd ebf2 80bd
00000050: 25b5 b73d b7cc b53e 96a7 a0be a742 07be
00000060: 0851 ad3e 4278 eabe eaa6 8bbe b044 87be
00000070: a18e 8bbd 35a3 98be 7148 3bbe 8a40 c23e
00000080: 5309 98be 7fe9 e23e 11ef 98be 8ef9 d0bc
00000090: cd3c 9a3e 6ddc 99be 0bfa dfbb 6094 6e3e
000000a0: f66b a7bb 7d90 543e dbe1 85be 06de 113f
000000b0: 69c9 c23e dcf1 163e 1790 623f af6e 08bc
000000c0: 0d03 9b3e 03ad ccbe cdbd ac3d 5cf6 c1be
000000d0: 6167 f23d e17d fcbe 1b56 283f 5075 cf3e
000000e0: 382b d7be 9fe4 a3be 6d09 ef3e 9c9c ed3e
000000f0: ad1b 4f3e bc6a 913e 3dbc 7abe 451d f43d
00000100: c89f 0bbc 25a7 83bc 2509 273e 4ebc 95be
00000110: 0bb6 b2be 4dea 0a3f 57d0 5a3e d153 91be
00000120: 6de2 54bf b458 e13e 644d 27be 9c17 c2bd
00000130: 340b f7bc 6b80 d4bc ac09 e2bd 7d8b 4abf
00000140: 5300 cb3d b1ce 0f3e 60e9 903d 23b0 4a3e
00000150: 756a bebe 70eb 243f d8f6 ddba 9418 39bd
00000160: 16be ecbe b1c8 563f 622d b43d 0814 063e
00000170: e844 af3c df74 e4be f8e1 e33e 15f2 60bf
00000180: 1b9e 5ebd 1f51 22be ab7a f5be 15a7 253f
00000190: 0b74 e73e 785f a1be 0001 6dbf 2492 543f
000001a0: ef57 7ebd ff05 813e 3716 f6bc 43a9 49be
000001b0: b3db edbe 2b31 d7be c92b f13e 2113 26be
000001c0: 5b94 853e 6826 b7be d1c6 7bbd f776 bf3e
000001d0: b267 9fbd 36f9 3abf 726c c4bc 9187 8bbe
000001e0: 3778 2fbe 4241 fcbe 04e4 f43c 8f47 91be
000001f0: 6d30 a03d 164e 463f ef95 ab3e 2747 22bf
00000200: 188a 773f a6e9 cfbe 28c2 e8be 961e 52be
00000210: 9c92 8ebb 377a 2abe 4445 863d edeb afbd
00000220: 6c76 a5bd 700e 983c 6953 d33e 259f 6cbe
00000230: 63df f8be b193 913e 93b5 aabe 36a6 1fbf
00000240: bc70 4e3e 5688 d13e b0e3 62be c17b 5e3f
00000250: 5546 883e d353 57bc fe62 26bf de24 8bbe
00000260: 48fd 083f c306 25bf 8d91 f9be 51bd a3be
00000270: af76 ca3e 325b 5ebb ef54 98be 6480 dcbd
00000280: 786a 6abf 8a13 1a3f 7b6e 6b3e ddb7 08bf
00000290: 0031 34be e9f6 3bbe de3a 8d3e e4c6 1abe
000002a0: 3ce7 2f3f 8d11 95be ab3d 5bbe 9a4f b33e
000002b0: 8e1b 613f 467c 3b3f 5db9 953e aef9 ed3e
000002c0: 955a f6be 6945 debe 2378 4e3f beb0 d9be
000002d0: 855b 91be d2c0 6a3e aeba a03e 9cdb fe3e
000002e0: 8642 27bf 2dd4 0b3e 053d 1a3f 6c69 083f
000002f0: 8593 9cbe 83cc 00bf af6c 343f 5826 903e
00000300: 2d26 39be 21fb 533e d7e3 1f3f 20dd 313f
00000310: eb25 d33e 4008 b53e 3a4f 2dbf 77ce 083f
00000320: f0d7 c6be 1f06 9c3d 968c 233e 504e af3e
00000330: eb50 de3e 8bd4 1fbe ecce f6bb fd57 323f
00000340: 6f28 ae3d 42d1 d3be 4399 423e b8af e9be
00000350: af95 3cbe d484 2e3e e98e 073f ea85 b13d
00000360: 5c07 6cbe 5d3c 303f 8c67 a83e b1f6 c93e
00000370: d439 94be e464 15be 94cf 153f 64d4 aabd
00000380: 62e1 4fbf 70ab 203f b20a e23e 426b ae3e
00000390: 536d 92bd 228e 4ebe 0912 36bd 8b9a ee3c
000003a0: a0c0 9bbd 35e4 343e 2fc8 d9be 9a4f 9e3e
000003b0: 57ef e93e 7a7b a8be 8d83 0b3f f771 ff3e
000003c0: fba5 69be 68ff 15bf 442b cbbc 7cc8 73bf
000003d0: 16da 8fbe 5cdb 48be 247c 053f f142 fa3e
000003e0: 62c1 b0be 3c3b 093f 3f22 f73e cd03 8f3e
000003f0: 08ad 5fbd b9d9 b23e 138f e33e 29ea 5b3e

encoder.layers.0.self_attn.linears.1.bias f4 [32]
-0.3433654 0.21979876 0.0004243253 0.2304176 -0.20264588 0.28597128 -0.055746913 0.15095498
0.17825562 0.16297507 -0.014843164 0.09118758 -0.15755787 -0.11077788 0.1546099 -0.20873992
-0.077704504 0.108721495 0.08856566 -0.20100817 0.030281784 -0.31456155 0.38497168 0.28231788
-0.17350566 -0.1041279 0.0008317849 0.12079295 0.11288243 0.38625738 0.09025904 0.28924236
00000000: 97cd afbe ed12 613e fa77 de39 97f2 6b3e
00000010: 6782 4fbe d46a 923e e056 64bd f193 1a3e
00000020: a488 363e f0e2 263e be30 73bc 8ec0 ba3d
00000030: da56 21be 83df e2bd 0f52 1e3e ebbf 55be
00000040: 8a23 9fbd 60a9 de3d ea61 b53d 16d5 4dbe
00000050: 8111 f83c 360e a1be 021b c53e f88b 903e
00000060: 78ab 31be 0241 d5bd 240c 5a3a 4b62 f73d
00000070: e72e e73d 87c3 c53e bbd9 b83d 9317 943e

encoder.layers.0.self_attn.linears.2.weight f4 [32, 32]
-0.22750318 0.10906365 -0.13766195 0.21095397 -0.14070338 -0.03417437 0.018046962 0.0836978
-0.089885704 -0.36624485 -0.12362141 0.31606683 0.13810052 0.23786308 0.182829 -0.16170286
0.03205096 0.3991201 -0.07638756 -0.02602347 0.1974955 -0.05770374 -0.078706585 0.043236148
0.2194855 0.39590338 0.033261895 0.02587281 -0.43989697 -0.3798592 0.24771978 -0.17083463
-0.13039881 -0.20803265 -0.004992394 -0.025445048 0.22711264 -0.03193563 0.12009468 -0.1868329
0.21982701 -0.14209871 0.13040999 -0.10440572 -0.31639752 -0.089001514 -0.08000685 0.034510985
-0.11040233 -0.16624534 0.09771038 0.14027077 0.05763687 0.10284331 0.30062896 -0.08525909
-0.17699881 -0.62159836 -0.016663859 -0.06300535 0.2949924 0.34057477 -0.20338786 -0.015205842
-0.119353555 -0.017189968 0.06228437 -0.21207689 0.119480036 -0.15149425 0.18664692 0.018518146
-0.31590474 0.2024638 0.31948572 -0.13657962 0.059793517 0.025086101 0.0131368 -0.4695615
0.14394262 0.036932524 -0.26134148 0.24488576 -0.0007468984 0.037681635 0.119714506 -0.23248792
0.08795196 0.35777223 0.06572043 0.12306277 -0.2121794 -0.11762573 0.0755361 0.041070472
0.1138418 -0.26076218 -0.033314828 -0.28544527 0.1236028 0.019262714 0.17009352 -0.29843295
0.2141467 0.46447587 0.100744985 -0.65955824 -0.12634684 0.099081844 -0.35255212 -0.2563156
0.09901088 -0.07076375 0.28136083 0.42629272 -0.08445485 -0.04775899 -0.19988844 -0.31080717
0.09890075 0.11393969 -0.012677178 -0.34201646 0.5463425 0.056460522 -0.0035870979 0.10558824
-0.3670253 0.018106459 -0.094745256 0.17965837 0.24936596 -0.73453975 0.050196394 0.016796308
0.42887595 0.1830217 0.14352217 0.003646078 -0.21203664 0.64193314 -0.10763251 -0.033817466
-0.12614217 0.19748355 0.12260626 0.43349427 -0.13286364 -0.36538166 0.41257218 0.11881927
-0.23597202 0.17844649 -0.07238206 0.062363323 0.2529035 -0.064293034 0.21306813 0.10851319
0.43182582 0.15343736 0.16406478 -0.1752364 -0.45962968 -0.021819672 -0.038566872 -0.23949717
-0.025704365 0.28968048 0.0010935314 0.032283932 0.48063898 0.12050019 -0.0032625878 0.14620791
0.12581868 -0.25450525 -0.1819391 -0.09170608 -0.17315531 0.04938378 0.15542352 0.10386653
0.20636995 0.06758952 0.17904021 0.087308064 0.3892938 -0.4731298 -0.12033165 0.06994181
-0.16320203 0.090728916 0.0069683134 -0.06137144 -0.37825117 -0.22569838 0.1727468 0.56070244
0.14782275 0.19905765 -0.12117968 0.08881735 0.22666018 0.44974327 0.1011209 -0.044974864
-0.31954017 0.28906456 0.010392956 0.015871797 -0.28181595 0.22891304 -0.1004727 -0.021052169
-0.09250011 -0.19077553 -0.02003687 0.04112183 0.056040905 0.06920015 0.07485826 0.25078815
0.1430492 0.077647805 0.21891685 0.11089981 -0.47322413 -0.015102998 0.047135886 -0.01519619
-0.2730648 0.1623474 0.075588465 0.04702971 0.36572284 0.020652482 0.17659773 -0.24103159
-0.019306708 -0.3470654 -0.071399376 -0.32658568 -0.1551512 0.051066328 -0.0128875375 0.034325726
0.35077247 -0.33500364 0.22794779 0.10141304 0.420874 -0.018312655 -0.3512693 0.25479212
00000000: 98f6 68be c35c df3d 41f7 0cbe 5104 583e
00000010: 8c14 10be 6dfa 0bbd 39d7 933c c169 ab3d
00000020: ff15 b8bd 7284 bbbe 392d fdbd 83d3 a13e
00000030: 396a 0d3e 6192 733e 8637 3b3e 6f95 25be
00000040: de47 033d 7859 cc3e 1571 9cbd 2c2f d5bc
00000050: 433c 4a3e c25a 6cbd eb30 a1bd 6318 313d
00000060: cfc0 603e d9b3 ca3e a03d 083d 37f3 d33c
00000070: 2d3a e1be e87c c2be 41aa 7d3e 46ef 2ebe
00000080: 4487 05be 8306 55be 3c97 a3bb 2272 d0bc
00000090: 3790 683e efce 02bd 33f4 f53d 2051 3fbe
000000a0: 551a 613e 5382 11be 328a 053e abd2 d5bd
000000b0: dbfe a1be 6d46 b6bd a2da a3bd 645b 0d3d
000000c0: 9e1a e2bd 383c 2abe 611c c83d 24a3 0f3e
000000d0: a314 6c3d 839f d23d 0aec 993e 519c aebd
000000e0: 2d3f 35be 1221 1fbf a582 88bc f308 81bd
000000f0: 3e09 973e d15f ae3e e844 50be ed21 79bc
00000100: a36f f4bd fad1 8cbc e51d 7f3d af2a 59be
00000110: f3b1 f43d 4f21 1bbe 5f20 3f3e 5eb3 973c
00000120: 44be a1be ac52 4f3e a293 a33e 87db 0bbe
00000130: 0cea 743d 5e81 cd3c bc3b 573c 5d6a f0be
00000140: b265 133e 8f46 173d 8dce 85be 55c3 7a3e
00000150: 81cb 43ba 0f58 1a3d e12c f53d 5011 6ebe
00000160: 2820 b43d ec2d b73e 6f98 863d 5508 fc3d
00000170: 8e45 59be c2e5 f0bd acb2 9a3d 8339 283d
00000180: e425 e93d 9f82 85be 2175 08bd e225 92be
00000190: 7723 fd3d d7cc 9d3c ff2c 2e3e 34cc 98be
000001a0: 4649 5b3e c8cf ed3e 6353 ce3d cfd8 28bf
000001b0: 1161 01be 6ceb ca3d b681 b4be cc3b 83be
000001c0: 37c6 ca3d 96ec 90bd 870e 903e 0a43 da3e
000001d0: aaf6 acbd ee9e 43bd 8eaf 4cbe 1e22 9fbe
000001e0: 7a8c ca3d 3659 e93d f0b3 4fbc c81c afbe
000001f0: 1add 0b3f 2643 673d 8415 6bbb a63e d83d
00000200: bdea bbbe ff53 943c cd09 c2bd 5df8 373e
00000210: ca59 7f3e cc0a 3cbf bc9a 4d3d 6998 893c
00000220: a195 db3e 0a6a 3b3e 7af7 123e 0af3 6e3b
00000230: 2220 59be bb55 243f 6f6e dcbd 2f84 0abd
00000240: 6a2b 01be 2139 4a3e fe18 fb3d f6f2 dd3e
00000250: 680d 08be 4e13 bbbe a93c d33e 8457 f33d
00000260: a6a2 71be adba 363e 0c3d 94bd af70 7f3d
00000270: 917c 813e 11ac 83bd 882e 5a3e 2a3c de3d
00000280: 4618 dd3e af1e 1d3e 9900 283e 2c71 33be
00000290: 9554 ebbe 2bbf b2bc 4cf8 1dbd bf3e 75be
000002a0: f691 d2bc 0051 943e d354 8f3a 283c 043d
000002b0: 5016 f63e cec8 f63d 24d1 55bb 87b7 153e
000002c0: 9dd6 003e 834e 82be 3e4e 3abe 66d0 bbbd
000002d0: a04f 31be a646 4a3d 5827 1f3e fab7 d43d
000002e0: a552 533e 606c 8a3d 5156 373e 92ce b23d
000002f0: 8451 c73e 123e f2be 7170 f6bd a73d 8f3d
00000300: 6f1e 27be 15d0 b93d 7356 e43b 9e60 7bbd
00000310: 23aa c1be 7a1d 67be 8ae4 303e 328a 0f3f
00000320: d95e 173e c5d5 4b3e 0d2d f8bd dfe5 b53d
00000330: 9b19 683e c044 e63e 7918 cf3d 9037 38bd
00000340: c59a a3be 4500 943e 3847 2a3c 9205 823c
00000350: 2e4a 90be 2e68 6a3e a2c4 cdbd 9975 acbc
00000360: b370 bdbd a95a 43be 5d24 a4bc 5d6f 283d
00000370: 268b 653d cfb8 8d3d 4a4f 993d 4e67 803e
00000380: 7d7b 123e d005 9f3d bd2b 603e 711f e33d
00000390: 6f4a f2be 9172 77bc 8f11 413d 71f9 78bc
000003a0: 26cf 8bbe 663e 263e 20ce 9a3d 3aa2 403d
000003b0: 0640 bb3e 652f a93c 09d6 343e fcd0 76be
000003c0: 1a29 9ebc 8eb2 b1be d639 92bd 3d36 a7be
000003d0: f5df 1ebe ed2a 513d 4026 53bc 2299 0c3d
000003e0: 7398 b33e 9985 abbe 256b 693e a4b1 cf3d
000003f0: cc7c d73e 6c04 96bc 92d9 b3be 1d74 823e

encoder.layers.0.self_attn.linears.2.bias f4 [32]
-0.042097513 0.012683493 -0.1431593 0.047162518 -0.29774892 0.02204359 -0.09005052 0.108440325
0.06564352 0.021848764 0.015343535 0.0735414 0.10503498 -0.09797033 -0.08668128 0.028592259
0.06487619 0.10863142 0.11354902 -0.023872647 -0.16140914 -0.0898651 0.07864597 -0.1788468
0.012354796 0.07546037 0.09992596 0.09064379 -0.010285686 -0.07321466 0.04090662 0.038948372
00000000: 716e 2cbd 6dce 4f3c 5a98 12be 7c2d 413d
00000010: 8c72 98be c294 b43c 686c b8bd f615 de3d
00000020: 1c70 863d 2efc b23c 7363 7b3c e09c 963d
00000030: 941c d73d aba4 c8bd f485 b1bd 503a ea3c
00000040: cfdd 843d 267a de3d 638c e83d 9290 c3bc
00000050: 7048 25be 320b b8bd 2311 a13d 9e23 37be
00000060: c56b 4a3c f78a 9a3d fba5 cc3d 74a3 b93d
00000070: 4b85 28bc 91f1 95bd b38d 273d 5488 1f3d

encoder.layers.0.self_attn.linears.3.weight f4 [32, 32]
-0.10443854 0.06358175 -0.11448867 0.1311389 -0.23663466 -0.16299805 -0.2656414 0.058933266
0.39116558 -0.045630485 0.18023066 0.53052324 0.34332183 -0.08837312 -0.13412091 0.2079385
0.19801477 -0.062100936 -0.21408387 -0.016049953 -0.09070861 0.30662328 0.021456474 -0.0042348923
0.20081635 0.08380853 -0.26303366 -0.1470718 -0.11098171 0.09700375 0.15170369 -0.023247877
-0.11061403 0.14855184 0.074425995 0.46164352 0.5431498 -0.19241706 0.27738333 -0.06934609
-0.113504045 0.12236426 0.13459395 0.22011954 0.03709385 0.047372304 -0.015402818 -0.22108951
0.08853598 -0.021493237 0.34230465 -0.06111369 -0.08779913 0.17461531 0.22291453 -0.118240125
0.022926256 -0.37941992 -0.046016805 0.4979738 -0.15672714 0.21475731 0.12665798 0.05930806
-0.038244613 -0.15378202 -0.11036766 -0.12967873 -0.1344787 0.10794604 -0.1708888 0.0053156684
-0.047758497 -0.0568126 -0.4321482 -0.03262819 -0.34986478 -0.009434133 0.56356674 -0.27135098
0.4943007 0.07458461 0.19462869 -0.5332218 -0.02953755 0.116716616 -0.22761403 -0.02481308
0.055316627 -0.1051437 0.22756071 -0.21265933 -0.080972925 0.27465534 -0.01306902 -0.09090784
-0.053847503 0.03714836 -0.04873686 0.08403355 0.267254 0.07026702 0.020987036 0.110499114
0.110571355 -0.14831477 -0.124823034 -0.18574758 -0.14667068 0.109726265 -0.1833116 -0.18449453
-0.05224181 -0.17852618 0.12425669 -0.19421124 0.16166131 0.120769285 0.21865053 -0.028251786
-0.16027792 -0.12543401 -0.10302552 -0.005610368 -0.014437408 -0.017217373 0.11162 -0.09791664
0.18825828 -0.18988353 0.23908727 0.012830051 0.07613289 -0.11604036 0.06596637 0.06867366
0.11941682 -0.3712333 -0.2650766 -0.1401038 -0.1977249 0.14228643 -0.20263872 -0.19790635
0.13883384 -0.095168315 -0.035550065 -0.19839837 0.11679706 -0.0845935 0.17510316 0.16662247
0.105351396 0.15147878 -0.14992158 -0.030789971 0.13506475 0.02241447 -0.002143853 -0.008732071
0.22687583 0.012991318 0.02246976 -0.07904097 -0.09472623 0.14427479 -0.17487621 -0.030931685
-0.026239738 0.015095242 0.2076128 -0.0022762609 0.05320096 0.14025827 -0.16594294 0.32103208
-0.0034923246 -0.078788474 -0.18883476 0.14923525 -0.06363902 0.12947899 -0.06986171 -0.08484634
-0.23757172 -0.10917005 -0.02530897 -0.11340418 0.18392418 -0.14796436 0.008201998 -0.08750552
-0.36066842 -0.29036355 0.06459986 0.25408277 0.11517703 -0.19879103 -0.040181138 0.04185298
-0.25519893 0.32564437 -0.016214231 0.08779614 -0.072440885 0.13986045 0.10688895 0.060430262
0.009773999 0.22861977 -0.05418053 -0.4853611 -0.03879867 0.5159308 0.30274335 0.17819159
-0.027890623 -0.14462334 0.25969353 0.33872086 -0.04909058 0.19996789 -0.25839967 -0.03543101
-0.03887823 0.036266137 0.15773994 0.2397059 -0.08399853 -0.082355596 0.16290094 -0.24271332
-0.080416 0.010909612 0.023027012 -0.36923832 0.18082367 -0.028067192 -0.26557535 -0.16360901
-0.15307276 -0.17145912 0.22876184 -0.04427196 0.13126728 -0.19824369 0.15037696 0.20786802
0.008128233 0.05387419 0.12431145 0.102150336 0.14360231 0.048915733 0.13622113 0.101528175
00000000: e0e3 d5bd 2637 823d 0979 eabd 4749 063e
00000010: 5b50 72be f6e8 26be 2602 88be 0264 713d
00000020: db46 c83e 08e7 3abd 638e 383e 5fd0 073f
00000030: e1c7 af3e f7fc b4bd fe56 09be d5ed 543e
00000040: 62c4 4a3e 8d5d 7ebd cd38 5bbe 317b 83bc
00000050: 70c5 b9bd bafd 9c3e 7dc5 af3c dac4 8abb
00000060: cda2 4d3e cea3 ab3d 59ac 86be fd99 16be
00000070: 614a e3bd e7a9 c63d 3658 1b3e 5572 bebc
00000080: 9c89 e2bd f91d 183e a86c 983d 8a5c ec3e
00000090: de0b 0b3f fa08 45be 3005 8e3e 5305 8ebd
000000a0: cf74 e8bd 1d9a fa3d ffd2 093e 0467 613e
000000b0: b9ef 173d 7609 423d 1a5c 7cbc 4a65 62be
000000c0: 5a52 b53d 9612 b0bc 8e42 af3e 5952 7abd
000000d0: 08d0 b3bd 5bce 323e b543 643e e127 f2bd
000000e0: d8cf bb3c 5443 c2be 1e7c 3cbd 6cf6 fe3e
000000f0: 147d 20be 57e9 5b3e a1b2 013e 02ed 723d
00000100: 62a6 1cbd 0979 1dbe 7108 e2bd 80ca 04be
00000110: c9b4 09be d012 dd3d 79fd 2ebe 0f2f ae3b
00000120: 6a9e 43bd 54b4 68bd 8742 ddbe 23a5 05bd
00000130: 7a21 b3be 9f91 1abc e945 103f 84ee 8abe
00000140: fb14 fd3e d1bf 983d be4c 473e 3981 08bf
00000150: bbf8 f1bc 1f09 ef3d a713 69be cd44 cbbc
00000160: b093 623d 9555 d7bd ad05 693e 5ec3 59be
00000170: 22d5 a5bd a09f 8c3e 711f 56bc e42d babd
00000180: 338f 5cbd e128 183d 4da0 47bd c819 ac3d
00000190: 84d5 883e 28e8 8f3d 01ed ab3c 5c4d e23d
000001a0: 3c73 e23d d4df 17be 38a3 ffbd 9d34 3ebe
000001b0: d730 16be 2ab8 e03d 09b6 3bbe 22ec 3cbe
000001c0: 82fb 55bd 91cf 36be 4b7a fe3d 50df 46be
000001d0: 8b8a 253e e355 f73d ede5 5f3e 4a70 e7bc
000001e0: e51f 24be c671 00be 0bff d2bd 2ed7 b7bb
000001f0: e18a 6cbc 730b 8dbc 0799 e43d 8588 c8bd
00000200: c7c6 403e d470 42be 4bd3 743e 2235 523c
00000210: 90eb 9b3d 91a6 edbd 6019 873d c7a4 8c3d
00000220: ce90 f43d 4b12 bebe 1fb8 87be 5f77 0fbe
00000230: 6578 4abe 89b3 113e 8680 4fbe f6a7 4abe
00000240: 752a 0e3e 9be7 c2bd f29c 11bd f128 4bbe
00000250: 4c33 ef3d 5b3f adbd 3e4e 333e 159f 2a3e
00000260: 79c2 d73d 411d 1b3e 0b85 19be 403b fcbc
00000270: 6a4e 0a3e 8d9e b73c e37f 0cbb f610 0fbc
00000280: 2352 683e 89d9 543c 8112 b83c 3be0 a1bd
00000290: d3ff c1bd c5bc 133e c012 33be 7264 fdbc
000002a0: b8f4 d6bc 0952 773c 7398 543e 522d 15bb
000002b0: 40e9 593d dd9f 0f3e f2ec 29be 515e a43e
000002c0: 7cdf 64bb da5b a1bd e65d 41be 20d1 183e
000002d0: 2d55 82bd 2496 043e a813 8fbd ebc3 adbd
000002e0: 0046 73be 8c94 dfbd c254 cfbc 7340 e8bd
000002f0: 9f56 3c3e f883 17be ac61 063c 1836 b3bd
00000300: 88a9 b8be 88aa 94be ee4c 843d 2317 823e
00000310: efe1 eb3d e08f 4bbe fa94 24bd 086e 2b3d
00000320: 6fa9 82be dcba a63e b5d3 84bc 76ce b33d
00000330: e35b 94bd 9437 0f3e 98e8 da3d b985 773d
00000340: 2023 203c 4d1b 6a3e 67ec 5dbd 4081 f8be
00000350: 5beb 1ebd 0a14 043f 2d01 9b3e db77 363e
00000360: e07a e4bc 2418 14be 8df6 843e d26c ad3e
00000370: 3413 49bd 62c4 4c3e f64c 84be 1b20 11bd
00000380: c73e 1fbd cd8b 143d 9486 213e 7775 753e
00000390: 6c07 acbd 0daa a8bd 81cf 263e d789 78be
000003a0: 25b1 a4bd 3bbe 323c 25a3 bc3c ce0c bdbe
000003b0: d729 393e 2bed e5bc 7ef9 87be 1f89 27be
000003c0: 1bbf 1cbe fb92 2fbe 8b40 6a3e 8456 35bd
000003d0: ee6a 063e 6500 4bbe 6bfc 193e 5bdb 543e
000003e0: 482c 053c 2fab 5c3d 0097 fe3d 3234 d13d
000003f0: 7c0c 133e dd5b 483d 8d7d 0b3e 01ee cf3d

encoder.layers.0.self_attn.linears.3.bias f4 [32]
-0.09367819 0.051430997 0.02321305 0.15429439 -0.19683462 0.09909424 0.016822482 -0.02914632
0.03412551 0.03744503 0.008759985 0.21786451 -0.15592988 -0.12400117 0.10588889 0.02095806
-0.019989656 -0.13082169 -0.106235825 -0.009477428 -0.10612982 -0.058653727 -0.18541597 0.08532949
0.16928205 -0.22547852 0.092995554 0.0346479 0.053748637 0.020067962 -0.32443994 0.13244836
00000000: 5ada bfbd 4fa9 523d 4b29 be3c 59ff 1d3e
00000010: 048f 49be ecf1 ca3d 4dcf 893c 43c4 eebc
00000020: 31c7 0b3d f65f 193d 0a86 0f3c e017 5f3e
00000030: 15ac 1fbe 53f4 fdbd 46dc d83d 3db0 ab3c
00000040: 59c1 a3bc 1ff6 05be 2b92 d9bd 3747 1bbc
00000050: 975a d9bd e43e 70bd afdd 3dbe 3ac1 ae3d
00000060: 4658 2d3e d7e3 66be 7474 be3d f5ea 0d3d
00000070: 8827 5c3d 9165 a43c fe1c a6be 8ba0 073e

encoder.layers.0.feed_forward.w_1.weight f4 [128, 32]
0.35734192 0.016269894 0.31261706 -0.6966644 -0.33506876 0.07629632 0.14874467 -0.079539336
0.15164976 0.42437375 -0.3464221 -0.1890959 0.6788754 -0.0831332 0.20426053 0.0064857635
0.27140036 0.25094253 -0.38332295 -0.037489675 0.28917596 -0.11487868 -0.070270315 -0.11301772
0.31416565 -0.11341976 -0.062913425 0.10809015 0.4908832 -0.20984392 -0.17960371 0.30216092
-0.20250283 -0.32050723 0.16670819 0.45379272 -0.26343247 -0.023358282 0.016988432 -0.13373497
0.2662275 -0.11158731 -0.026309896 0.7358868 -0.14579839 -0.018075345 0.10265193 -0.051650666
0.31796527 -0.18587095 0.21747802 -0.1574837 -0.049914435 0.058731318 -0.23401831 0.40942705
-0.1578305 -0.09657113 0.48790103 0.38579533 -0.0264152 0.5310187 -0.13752009 -0.03418216
-0.011218856 -0.43650848 0.18402041 0.19752946 -0.010284996 0.11199272 -0.530851 0.37482965
0.4894509 -0.100472495 -0.058577098 -0.25817975 -0.11118108 0.28458938 -0.06579324 0.20660365
0.260436 0.10722107 0.11399344 -0.9131179 -0.24572046 0.30010518 -0.24871454 0.21895482
0.18176372 0.019863809 0.46994162 0.39212742 0.29799312 -0.2324286 0.113735795 -0.14802559
0.4848774 0.19409052 0.046350695 -0.9287637 -0.030961202 0.1506946 -0.055059627 -0.10012614
-0.5354671 0.51727736 0.03722471 -0.08251423 0.14129376 0.16098519 -0.3939251 -0.015528429
-0.014527859 0.19417883 -0.118992224 -0.14365923 0.10149624 0.29874665 0.2730849 -0.18767175
-0.0009256168 -0.10349883 0.11986341 0.19793436 -0.12519471 -0.39846542 0.31552082 -0.24002999
0.14104778 0.040147282 -0.057958804 0.17724447 0.26542956 0.05668812 -0.42279765 0.18132976
-0.3806376 -0.01750342 -0.16861066 -0.3006468 0.29342005 -0.16066211 0.10734268 0.05892328
-0.110251345 0.031234141 0.19151902 0.15989652 0.14885582 0.1956495 0.21130444 -0.014699348
-0.5821085 0.24065594 -0.048866007 0.016620712 0.09626756 0.5620089 0.2134246 0.002779576
0.16884772 0.076898 0.0110415965 -0.4940655 -0.960971 0.34425792 -0.23712942 -0.41608456
0.29495516 0.5405686 -0.7376129 -0.15312566 0.17858702 -0.49657732 0.1177934 -0.07125154
0.1071387 -0.011602278 -0.6897063 -0.0027816722 0.22073808 -0.24221453 -0.03305095 0.22442023
0.17349514 0.049705353 -0.076163635 0.0014804397 0.27367947 -0.42282322 0.0022793014 0.004722357
-0.19754164 -0.13222322 -0.0038429264 0.23237936 -0.111605346 -0.18778437 -0.053277418 0.7440136
0.60982376 -0.478471 -0.024247129 -0.0016196151 0.026148306 0.14370051 0.061031107 0.053533923
0.26339918 0.11497362 -0.12877683 0.1248898 -0.48511696 -0.8830556 -0.02451711 0.058709014
-0.17308238 0.11066812 0.15503994 0.21466205 0.7481893 0.1056763 0.25803414 0.12043031
0.1675768 0.17126416 0.18288018 -0.18914187 -0.48124588 -0.0013020114 0.46126068 0.3131513
-0.054297388 -0.12875347 -0.21990596 0.15756999 0.3404774 -0.13493077 -0.0315399 -0.10249783
-0.30454272 0.10075336 -0.40915954 0.30419818 0.03779665 -0.054711595 -0.020801079 0.17861144
0.014776531 -0.1919318 0.122755684 0.17940055 0.6757418 -0.27014384 -0.25436848 0.5053799
00000000: 85f5 b63e 7148 853c 580f a03e 9958 32bf
00000010: 228e abbe 3f41 9c3d 8650 183e 85e5 a2bd
00000020: 134a 1b3e 8447 d93e 3d5e b1be 5ba2 41be
00000030: c7ca 2d3f bd41 aabd ac29 513e 8786 d43b
00000040: fdf4 8a3e 8a7b 803e e842 c4be c68e 19bd
00000050: df0e 943e 8345 ebbd e2e9 8fbd d675 e7bd
00000060: 52da a03e 9e48 e8bd c1d8 80bd 5e5e dd3d
00000070: 0b55 fb3e 53e1 56be 09ea 37be d6b4 9a3e
00000080: e75c 4fbe 8619 a4be 8db5 2a3e 8557 e83e
00000090: 9fe0 86be de59 bfbc 532b 8b3c d2f1 08be
000000a0: f94e 883e e387 e4bd da87 d7bc 1463 3c3f
000000b0: 2c4c 15be bf12 94bc 2d3b d23d a68f 53bd
000000c0: 58cc a23e f454 3ebe 8fb2 5e3e 6843 21be
000000d0: 1473 4cbd 4090 703d 7fa2 6fbe 6ca0 d13e
000000e0: 529e 21be 16c7 c5bd 2ace f93e f786 c53e
000000f0: b164 d8bc d7f0 073f 11d2 0cbe 9802 0cbd
00000100: 4bcf 37bc 0a7e dfbe d96f 3c3e 2a45 4a3e
00000110: 6682 28bc 705c e53d dae5 07bf ace9 bf3e
00000120: 4f99 fa3e 86c4 cdbd 8aee 6fbd 2330 84be
00000130: e8b2 e3bd b3b5 913e 9bbe 86bd e88f 533e
00000140: de57 853e b896 db3d 6575 e93d 18c2 69bf
00000150: 259e 7bbe 63a7 993e 06af 7ebe b135 603e
00000160: 4520 3a3e 6db9 a23c 309c f03e edc4 c83e
00000170: 8e92 983e c301 6ebe 50ee e83d 0594 17be
00000180: da41 f83e aabf 463e 3ada 3d3d 75c3 6dbf
00000190: 59a2 fdbc af4f 1a3e 3486 61bd ef0e cdbd
000001a0: 5f14 09bf 4a6c 043f f078 183d 38fd a8bd
000001b0: 50af 103e 4dd9 243e 8db0 c9be f46a 7ebc
000001c0: 4206 6ebc d1d6 463e 32b2 f3bd 681b 13be
000001d0: 43dd cf3d 52f5 983e c9d1 8b3e 062d 40be
000001e0: 18a5 72ba 32f7 d3bd f37a f53d 4eaf 4a3e
000001f0: 0b33 00be a903 ccbe f28b a13e 6cca 75be
00000200: d46e 103e 7a71 243d 3666 6dbd 937f 353e
00000210: 62e6 873e cd31 683d ef78 d8be 82ae 393e
00000220: eee2 c2be 5563 8fbc 46a8 2cbe 61ee 99be
00000230: 273b 963e 9c84 24be 7bd6 db3d 8a59 713d
00000240: 75cb e1bd bede ff3c 901d 443e eabb 233e
00000250: a96d 183e 5858 483e 3160 583e 89d5 70bc
00000260: 1005 15bf 836e 763e b927 48bd 2928 883c
00000270: ed27 c53d d1df 0f3f fa8b 5a3e 8c29 363b
00000280: 6be6 2c3e b37c 9d3d d0e7 343c 27f6 fcbe
00000290: 3202 76bf 9342 b03e 0ed2 72be 0909 d5be
000002a0: 5d04 973e b462 0a3f 33d4 3cbf f9cc 1cbe
000002b0: 84df 363e 623f febe ab3d f13d 54ec 91bd
000002c0: 896b db3d 7b17 3ebc 9890 30bf b74c 36bb
000002d0: 2a09 623e 1607 78be 6f60 07bd 6bce 653e
000002e0: b6a8 313e d797 4b3d aefb 9bbd 500b c23a
000002f0: b71f 8c3e 497c d8be 5560 153b 00be 9a3b
00000300: 5b48 4abe 8665 07be 9bd9 7bbb dbf4 6d3e
00000310: 5891 e4bd 8c4a 40be 6c39 5abd ad77 3e3f
00000320: 691d 1c3f 27fa f4be eaa1 c6bc 4449 d4ba
00000330: f934 d63c 3a26 133e c1fb 793d 6346 5b3d
00000340: 42dc 863e 4a77 eb3d 13de 03be 39c6 ff3d
00000350: 4061 f8be ef0f 62bf 1bd8 c8bc dd78 703d
00000360: 823c 31be f8a5 e23d cac2 1e3e 5ed0 5b3e
00000370: 5589 3f3f d16c d83d 0d1d 843e 2ba4 f63d
00000380: 4199 2b3e df5f 2f3e f144 3b3e 68ae 41be
00000390: dc65 f6be 41a8 aaba 5c2a ec3e 5e55 a03e
000003a0: f066 5ebd f3d7 03be 072f 61be 075a 213e
000003b0: 0e53 ae3e 4b2b 0abe fb2f 01bd 62ea d1bd
000003c0: 06ed 9bbe c757 ce3d 5c7d d1be ddbf 9b3e
000003d0: a9d0 1a3d 4419 60bd 0667 aabc ebe5 363e
000003e0: 4319 723c c589 44be 5567 fb3d c7b4 373e
000003f0: 6afd 2c3f 4b50 8abe 963c 82be 9460 013f

encoder.layers.0.feed_forward.w_1.bias f4 [128]
-0.085250095 -0.17221841 0.18842094 -0.10039588 -0.009230556 0.03286445 -0.34947208 -0.012363576
-0.027828462 -0.041393552 -0.1513845 0.060954362 0.007683467 -0.45591947 -0.36983117 -0.19702227
-0.34700763 0.03793319 -0.10647234 -0.4283201 0.038546056 -0.16072516 -0.068170734 0.056042917
0.026813356 -0.025696851 0.08059261 0.15917388 -0.3083308 -0.02438197 -0.09048432 -0.35748732
-0.1363925 -0.116310686 -0.06983808 -0.15755787 0.012637735 0.13930275 -0.14969203 -0.5460192
-0.12808985 -0.18494366 -0.092364654 -0.1327153 -0.19455741 -0.15773404 -0.2223158 0.047779884
0.0065578874 -0.053083517 -0.15037522 0.031135775 0.06401379 -0.15648602 -0.08106605 0.0758622
0.04189451 0.117846444 0.12181959 -0.3744223 -0.09104299 -0.08355985 -0.11609536 -0.43698817
-0.26307565 -0.15814433 0.012914383 -0.3911852 -0.08636075 -0.32650375 -0.18328956 -0.39700687
-0.095963374 -0.2043188 -0.31748816 -0.23832488 -0.23536697 0.0010101422 -0.24851424 -0.027590659
-0.06383827 -0.17520517 -0.078118145 -0.11296051 0.01739629 -0.2874875 -0.22876972 -0.11487988
-0.12580036 -0.302232 -0.06613289 -0.25108358 0.17083369 -0.2691796 0.03135161 0.00028142947
-0.34785306 -0.2218294 -0.28508744 -0.42275956 -0.071538344 -0.18388216 -0.12795033 -0.25554356
0.06996712 -0.1702739 -0.04513638 -0.16743512 -0.08048703 -0.123674914 -0.101306796 -0.048000664
-0.013554215 0.07390713 -0.080349796 -0.18595894 -0.09155465 -0.24057858 0.02616245 -0.05938779
-0.09389998 -0.1728409 -0.21084423 -0.14222224 -0.26588 -0.30802476 -0.04338093 -0.00056922605
00000000: 9a97 aebd 065a 30be 6bf1 403e 5b9c cdbd
00000010: c23b 17bc e09c 063d 01ee b2be 9990 4abc
00000020: 84f8 e3bc 498c 29bd 8a04 1bbe 48ab 793d
00000030: 98c5 fb3b 476e e9be 835a bdbe 35c0 49be
00000040: fcaa b1be d55f 1b3d 2c0e dabd c64c dbbe
00000050: 78e2 1d3d 2395 24be 199d 8bbd 428d 653d
00000060: afa7 db3c 3482 d2bc bd0d a53d 7afe 223e
00000070: 89dd 9dbe b2bc c7bc d84f b9bd 9408 b7be
00000080: 7aaa 0bbe 4c34 eebd 4407 8fbd da56 21be
00000090: 810e 4f3c 61a5 0e3e de48 19be eac7 0bbf
000000a0: fc29 03be df61 3dbe ae29 bdbd 85e6 07be
000000b0: 0f3a 47be 0885 21be c1a6 63be d7b4 433d
000000c0: 8ce3 d63b 1a6e 59bd f6fb 19be 7410 ff3c
000000d0: a919 833d df3d 20be f505 a6bd a45d 9b3d
000000e0: 9499 2b3d 7a59 f13d 8d7c f93d 48b4 bfbe
000000f0: bf74 babd 6d21 abbd 67c3 edbd eabc dfbe
00000100: dab1 86be 96f0 21be d996 533c 6d49 c8be
00000110: e8dd b0bd 802b a7be 42b0 3bbe 7c44 cbbe
00000120: 7288 c4bd f338 51be cf8d a2be 700b 74be
00000130: 0a04 71be bf66 843a 847a 7ebe ce05 e2bc
00000140: a4bd 82bd fc68 33be 68fc 9fbd d757 e7bd
00000150: aa82 8e3c 9031 93be 9c42 6abe 2446 ebbd
00000160: cfd1 00be 27be 9abe ae70 87bd 078e 80be
00000170: 07ef 2e3e e9d1 89be 8c6a 003d d38c 9339
00000180: cc19 b2be 3f27 63be fbf6 91be f173 d8be
00000190: b282 92bd 9b4b 3cbe 6905 03be 9bd6 82be
000001a0: ec4a 8f3d 485c 2ebe ede0 38bd 1d74 2bbe
000001b0: 62d6 a4bd 4649 fdbd f079 cfbd 589c 44bd
000001c0: 8012 5ebc 9f5c 973d 6f8e a4bd 056c 3ebe
000001d0: 0181 bbbd 3b5a 76be a252 d63c 9c40 73bd
000001e0: a24e c0bd 34fd 30be 8de7 57be b5a2 11be
000001f0: 6c21 88be 6cb5 9dbe 34b0 31bd 1d38 15ba
