index_advisor_selector/index_benefit_estimation/index_cost_lib/exp_res/exp_lib_tpch_tgt_ep500_bat2048/model/lib_LIB_200.pt (torch, 413135 bytes, 120 tensors)

S f4 [1, 1, 32]
0.13410363 0.12703983 -0.036851782 0.14202625 -0.18764529 -0.2198763 0.19730645 -0.06081527
-0.19841774 -0.17234337 0.14466077 0.008978896 -0.19632883 0.021299038 -0.035882507 -0.2548091
-0.18631183 -0.14858638 -0.032702275 -0.13975002 -0.053488582 0.16705438 0.10850025 0.15538801
-0.008399057 0.00041725242 0.040839117 0.034187373 0.1723363 0.10628433 -0.007845142 -0.000734738
00000000: 7652 093e bb16 023e e5f1 16bd 546f 113e
00000010: 1626 40be 4127 61be b40a 4a3e 6f19 79bd
00000020: 052e 4bbe c87a 30be f421 143e 381c 133c
00000030: 6d0a 49be 527b ae3c 89f9 12bd 5776 82be
00000040: 87c8 3ebe 0727 18be d2f2 05bd a11a 0fbe
00000050: d816 5bbd 4e10 2b3e 6135 de3d 091e 1f3e
00000060: 339c 09bc acc2 da39 eb46 273d 0f08 0c3d
00000070: ed78 303e 99ab d93d e988 00bc 6f9b 40ba

linear1.weight f4 [32, 12]
-0.18266742 0.031579804 0.21596788 0.22809243 1.7444024 -0.019757355 -0.6520822 -0.5073631
0.25525436 0.93605155 0.19646779 -0.18045487 0.11432464 -0.047721483 -0.77410036 -0.5447427
-0.14588849 0.041294914 0.11805365 -0.07183787 0.32535726 -0.22054867 -0.3753844 0.24170204
0.04476021 -0.54451436 -0.23321481 0.15714468 3.598266 -0.23925902 -0.25107098 0.062690474
-1.1360552 -0.6528359 0.47450507 0.6582741 -0.31420913 1.2901034 -0.20263408 -0.13674419
-3.529254 -0.46448863 0.5304648 -1.2327359 -0.66480607 -0.30817896 0.18585038 -0.3958179
-0.009335892 -0.036630064 -0.08614915 -0.047569513 4.148973 -0.45800656 0.47036216 -0.24004112
-3.0272195 -1.2376488 -0.32309157 -0.09716566 -1.0519333 -0.5074699 1.4426125 0.5750508
5.259546 0.030811591 0.16400245 -0.09542032 0.5396809 -0.78888714 -0.5694224 0.6101821
0.31619224 -0.23930877 0.034351286 0.21937962 2.5689251 -0.51207644 1.1839217 -0.21974564
0.15812676 -0.39706582 -0.4123598 -0.06194721 -2.139375 0.98892045 0.44292387 0.07796413
-4.6839004 0.49376804 -0.65523285 0.78154343 0.7229055 0.22773309 -0.14037569 -0.067767724
1.871177 -0.49253607 -0.7474931 -0.33519846 -4.2583776 0.25929326 0.041281134 1.088125
-1.9241813 1.1824186 -0.019326711 0.028665794 -0.2203772 0.266613 -0.5213713 0.139947
0.050573274 0.5034606 0.0391753 -2.3117034 0.392289 0.48066932 -0.37244317 0.7738741
-0.6887703 -0.5554629 0.03058809 0.27399874 4.6781836 -0.8666325 -0.5543862 -0.34007448
-0.26800612 -0.85584825 -0.25351208 -0.029405117 0.58932495 -0.16128583 -0.39431754 -0.21514687
0.3118001 0.22214137 0.08244179 0.13675281 0.65215534 -0.16968593 -0.20604023 -0.72964895
0.3693922 0.21975863 0.603218 -0.46677855 -0.12106451 -0.27912146 -0.015056217 -0.027044814
0.7120053 0.14424805 0.29264754 0.4315842 -0.15212455 -0.11165861 -0.32472807 0.13545954
3.6257622 -2.6155741 -0.4215936 1.7978901 0.4807404 -1.1921854 -0.54914755 0.077613845
-0.53595835 0.34230164 0.7574293 -0.17375326 -5.0786586 0.8778479 1.067793 0.08736657
-0.04015346 -0.25388113 -0.30332455 -0.13159864 -0.41279846 0.05641651 0.44206133 -0.1173689
0.37927142 0.4364748 0.17615649 -0.08140047 0.6871663 0.34123132 0.0478072 0.63988835
-1.7021272 -0.12883636 0.5200892 0.534718 2.1267872 -1.1733301 0.438083 -0.08640903
-0.36307448 -0.5904757 -0.12562753 -0.55273676 -0.6360547 -0.12778787 -0.024637908 0.3466631
5.660952 -1.0520959 0.30848926 -0.17009874 0.45773187 -1.0400575 -0.6771173 -0.27970725
0.16978572 -0.13553458 -0.15389402 0.036275953 2.9952872 -0.3559709 0.16367857 0.44183192
-2.6031737 0.5179824 -0.85127574 -0.067785785 -0.15517837 -0.36214215 -0.23579413 0.28826293
4.5677404 0.2218208 -2.1364803 -0.5418995 -1.0905846 -1.0367981 0.07364451 -0.39093494
0.55755335 -0.90973514 1.3546882 0.45939875 4.7233047 0.52396363 -0.19442075 -0.13968956
-0.4038849 -1.7236274 0.23407562 0.013968987 -0.69435966 -0.30267942 0.403827 -0.02243734
00000000: 2b0d 3bbe d359 013d af26 5d3e 1091 693e
00000010: 9448 df3f 2dda a1bc dcee 26bf 8ce2 01bf
00000020: b3b0 823e 13a1 6f3f da2e 493e 29c9 38be
00000030: 0923 ea3d 9a77 43bd 712b 46bf 4274 0bbf
00000040: cb63 15be db24 293d 1dc6 f13d bc1f 93bd
00000050: 3a95 a63e 83d7 61be 6232 c0be bd80 773e
00000060: 7b56 373d 4b65 0bbf ddcf 6ebe 89ea 203e
00000070: fd49 6640 5100 75be 608c 80be dd63 803d
00000080: 426a 91bf 4120 27bf 54f2 f23e a784 283f
00000090: 05e0 a0be 1c22 a53f 4f7f 4fbe ab06 0cbe
000000a0: 4cdf 61c0 74d1 edbe 8bcc 073f 4aca 9dbf
000000b0: bb30 2abf a2c9 9dbe 904f 3e3e a5a8 cabe
000000c0: 92f5 18bc 6809 16bd f76e b0bd 40d8 42bd
000000d0: 63c4 8440 d67f eabe 4fd3 f03e 57cd 75be
000000e0: f7bd 41c0 476b 9ebf 426c a5be cafe c6bd
000000f0: c0a5 86bf 8ce9 01bf 87a7 b83f 8736 133f
00000100: 334e a840 9768 fc3c 42f0 273e bb6b c3bd
00000110: 8728 0a3f 82f4 49bf abc5 11bf e534 1c3f
00000120: f3e3 a13e 5c0d 75be efb3 0c3d 0da5 603e
00000130: 4569 2440 7117 03bf bf8a 973f 0005 61be
00000140: fbeb 213e 364c cbbe d320 d3be 5cbc 7dbd
00000150: 85eb 08c0 e429 7d3f ebc6 e23e a8ab 9f3d
00000160: 83e2 95c0 2acf fc3e 57bd 27bf 3b13 483f
00000170: 5610 393f dd32 693e a5be 0fbe cec9 8abd
00000180: ba82 ef3f b02d fcbe b55b 3fbf 229f abbe
00000190: a144 88c0 16c2 843e 6816 293d ae47 8b3f
000001a0: 934b f6bf 7e59 973f 0d53 9ebc 87d4 ea3c
000001b0: 90aa 61be 8081 883e 9778 05bf 444e 0f3e
000001c0: ec25 4f3d cbe2 003f 4876 203d f3f2 13c0
000001d0: 1bda c83e 4a1a f63e dfb0 bebe 9d1c 463f
000001e0: 4053 30bf d132 0ebf e093 fa3c 9049 8c3e
000001f0: aeb3 9540 a1db 5dbf 41ec 0dbf 3e1e aebe
00000200: 1938 89be df18 5bbf 56cc 81be 00e3 f0bc
00000210: 00de 163f 1d28 25be fde3 c9be 764f 5cbe
00000220: 43a4 9f3e 0779 633e 3ed7 a83d ee08 0c3e
00000230: a7f3 263f 26c2 2dbe 36fc 52be 46ca 3abf
00000240: f920 bd3e 6808 613e 7f6c 1a3f 99fd eebe
00000250: abf0 f7bd 02e9 8ebe 5aae 76bc 168d ddbc
00000260: fb45 363f c3b5 133e e6d5 953e 9bf8 dc3e
00000270: 8ac6 1bbe 45ad e4bd c242 a6be e8b5 0a3e
00000280: 7d0c 6840 9165 27c0 1edb d7be 4321 e63f
00000290: 9b23 f63e 8899 98bf ef94 0cbf 02f4 9e3d
000002a0: 9134 09bf 2942 af3e e3e6 413f 60ec 31be
000002b0: 5f84 a2c0 a4ba 603f 71ad 883f 3fed b23d
000002c0: f477 24bd b5fc 81be 5b4d 9bbe cbc1 06be
000002d0: 525a d3be 0015 673d dd55 e23e 1b5f f0bd
000002e0: dd2f c23e a079 df3e 5e62 343e 4ab5 a6bd
000002f0: 21ea 2f3f dfb5 ae3e 7cd1 433d b9cf 233f
00000300: 4edf d9bf aeed 03be 9124 053f 47e3 083f
00000310: 481d 0840 ae2f 96bf 6a4c e03e 38f7 b0bd
00000320: e6e4 b9be 6a29 17bf 81a4 00be 2880 0dbf
00000330: 7bd4 22bf d3da 02be 70d5 c9bc d37d b13e
00000340: 8526 b540 14ab 86bf 4ef2 9d3e 5d2e 2ebe
00000350: d55b ea3e 9b20 85bf 8f57 2dbf ca35 8fbe
00000360: 4fdc 2d3e 94c9 0abe 6596 1dbe 1896 143d
00000370: c9b2 3f40 d141 b6be 5b9b 273e cb37 e23e
00000380: 669a 26c0 7f9a 043f 35ed 59bf 46d3 8abd
00000390: 14e7 1ebe b26a b9be 0474 71be 3397 933e
000003a0: ee2a 9240 fe24 633e 18bc 08c0 edb9 0abf
000003b0: 4798 8bbf cdb5 84bf efd2 963d a028 c8be
000003c0: d1bb 0e3f 67e4 68bf 6c66 ad3f 5036 eb3e
000003d0: 5025 9740 7b22 063f 3c16 47be c80a 0fbe
000003e0: 00ca cebe d39f dcbf 85b1 6f3e 2ede 643c
000003f0: 8ec1 31bf ccf8 9abe 6ac2 ce3e 83ce b7bc

linear1.bias f4 [32]
0.13455063 -0.12551014 -0.0041792053 0.21464328 -0.7103915 -0.7443198 0.010011504 0.5214409
0.17808329 0.08918537 -0.338787 -0.20683149 0.20199382 -0.38890967 0.32409078 -0.0811982
-0.18816961 -0.5764106 -0.6481126 -0.24169919 -0.5465967 -1.103929 -0.3766412 -0.04442584
0.08509464 -0.1340691 -0.16090506 0.18109794 0.41658506 0.25453395 -0.2677754 0.30501804
00000000: a4c7 093e bb85 00be b7f1 88bb 73cb 5b3e
00000010: 38dc 35bf be8b 3ebf 4b07 243c 277d 053f
00000020: 775b 363e d2a6 b63d 7d75 adbe a2cb 53be
00000030: 78d7 4e3e 2b1f c7be 3aef a53e 3e4b a6bd
00000040: 89af 40be a58f 13bf b5ea 25bf fe7f 77be
00000050: c3ed 0bbf 8c4d 8dbf 1ed7 c0be dff7 35bd
00000060: 1946 ae3d 6949 09be 4cc4 24be bd71 393e
00000070: a34a d53e 4652 823e db19 89be 532b 9c3e

encoder.layers.0.self_attn.linears.0.weight f4 [32, 32]
-1.1223145 -0.13440047 0.39842242 0.031150732 0.32074818 0.6499467 -0.3728353 -1.0711976
-0.56249714 -0.15144026 -0.13898419 -0.116841406 0.13819696 0.006964919 0.32305703 0.37189785
-0.47208866 0.194777 0.46247232 -0.71750987 -0.32111147 0.23174192 -0.40770617 -0.0334104
-0.99690217 0.3342917 -0.017070295 -0.056329817 0.5726796 -0.6627807 0.735691 -0.37719893
0.3741108 -0.3327678 -0.261771 -0.18179642 -0.33847603 -0.77081686 0.19432572 0.44125196
-0.42820796 -0.715844 0.22559895 -0.30505812 -0.067561425 0.30167413 -0.8272215 -1.2554477
0.07540245 0.41633615 -0.06842346 0.5187941 -0.49124455 -0.5961417 -0.07442633 -0.3226785
-0.08246811 -1.4342965 -0.023598041 -0.10902243 -1.0739311 0.05965472 -0.19121824 0.16504137
-0.117679656 0.16745181 0.16053763 0.33963212 0.23443465 0.59006697 0.14846295 1.1531004
0.10344676 0.017625729 0.59195644 -0.024489438 -0.32784227 0.6622981 0.5451799 0.36694944
-0.0633264 0.36675826 0.17916772 0.4277325 0.29788035 0.7835496 0.39480785 -0.05536555
-0.055117257 0.23282559 0.0096882535 0.09758819 -0.67403746 0.45153686 0.4081451 -0.22239065
0.3129439 0.044898733 0.232586 -0.16909488 -0.59767556 -0.630904 -0.2252416 0.3708961
0.39239883 1.1450886 -0.23624964 -0.04537479 0.32845777 -1.0169437 -0.23730136 -0.6916511
0.22216947 -0.5671771 -0.37146834 0.2433118 -0.1504759 -0.6562621 0.23759538 -0.04978753
0.26575702 0.22862011 0.16923794 -0.0916051 0.7166463 0.3738155 -0.80257326 -0.006335819
1.1555071 0.021655664 0.69547015 0.16715133 0.21498704 1.0294499 0.1424628 0.7681103
0.5613669 0.6726152 0.5856104 0.13884751 0.31073764 0.6452414 0.42352098 0.17097965
1.1364433 0.7824368 1.1488972 0.1639327 0.14692615 1.0851848 -0.36840087 0.19986646
1.529149 -0.19874868 -0.113835536 0.49680892 0.46425667 -0.29455778 -0.35265467 0.65840256
0.62574327 0.2038481 -0.20642799 1.054306 0.14831056 -0.47873104 0.7140344 -0.33486268
-1.0425495 -0.14739627 0.004403178 0.0005323818 -0.25017846 -0.46483773 0.30740255 0.3993376
1.540936 0.10521366 -0.61525685 0.2291117 -0.15607548 0.24996263 0.33579898 0.1873418
-0.26186022 -0.32818347 0.023250941 -0.38072985 -0.093430854 0.49280733 -0.32998046 -1.6322463
-0.5863729 -0.29445457 0.034526926 -0.4768574 -0.22848395 -0.046748288 -0.11778065 0.92421573
-0.167598 0.14916982 -0.19416963 -0.1373664 0.46934152 0.7228712 -0.33915618 0.7385948
-1.0743593 0.587491 -0.120510876 0.12232482 -0.18557255 -0.1867939 -0.16055122 -0.4517046
0.14188564 1.0738533 -0.03276696 -0.08178579 -0.38332886 -0.5041393 0.423706 0.7936296
-2.4336116 0.28546733 -0.29653186 -0.4848652 -0.44807187 -0.8877158 -0.9622023 -1.0144029
0.21598825 0.16663945 -0.6292948 -0.12072184 0.05674649 -0.7700902 0.017663168 -0.7202204
-3.251025 -1.5612955 -0.71000844 -0.83694685 -0.28478727 -1.1127694 -0.070339285 0.101032674
-1.8657892 -0.87126607 0.09092974 -0.18957181 0.4609162 0.19319735 0.48771453 -0.47953087
00000000: 00a8 8fbf 47a0 09be 06fe cb3e d22f ff3c
00000010: 1b39 a43e e862 263f 45e4 bebe 011d 89bf
00000020: d0ff 0fbf 2813 1bbe df51 0ebe 8c4a efbd
00000030: 8183 0d3e fa39 e43b bb67 a53e 6569 be3e
00000040: 9bb5 f1be 9f73 473e 2cc9 ec3e baae 37bf
00000050: b968 a4be c14d 6d3e ddbe d0be 58d9 08bd
00000060: fb34 7fbf 4828 ab3e 01d7 8bbc 18ba 66bd
00000070: 219b 123f ffab 29bf 3f56 3c3f 3820 c1be
00000080: 738b bf3e 8b60 aabe d906 86be d728 3abe
00000090: bb4c adbe 4154 45bf 52fd 463e c7eb e13e
000000a0: 133e dbbe 8d41 37bf 6903 673e 9430 9cbe
000000b0: a55d 8abd 0875 9a3e cac4 53bf 83b2 a0bf
000000c0: 9a6c 9a3d 032a d53e 9921 8cbd b1cf 043f
000000d0: 6884 fbbe be9c 18bf d56c 98bd 1e36 a5be
000000e0: 0ae5 a8bd 0797 b7bf ae50 c1bc 2747 dfbd
000000f0: 9376 89bf 8258 743d b7ce 43be 9b00 293e
00000100: 0802 f1bd 7d78 2b3e fa63 243e 43e4 ad3e
00000110: a30f 703e a10e 173f ac06 183e cb98 933f
00000120: e5db d33d d563 903c 758a 173f 139e c8bc
00000130: f1da a7be 5e8c 293f e990 0b3f cce0 bb3e
00000140: 46b1 81bd bdc7 bb3e be77 373e c1ff da3e
00000150: c683 983e b596 483f 4124 ca3e fdc6 62bd
00000160: a2c2 61bd d569 6e3e 7bbb 1e3c 51dc c73d
00000170: b88d 2cbf d72f e73e 65f8 d03e 60ba 63be
00000180: 2f3a a03e bce7 373d 062b 6e3e 3527 2dbe
00000190: 4401 19bf ed82 21bf bca5 66be 18e6 bd3e
000001a0: 80e8 c83e 4392 923f 6deb 71be eada 39bd
000001b0: 9e2b a83e 362b 82bf 21ff 72be 0c10 31bf
000001c0: 6580 633e 8532 11bf 1931 bebe ba26 793e
000001d0: 5b16 1abe cb00 28bf 344c 733e 02ee 4bbd
000001e0: 4e11 883e 641b 6a3e b64c 2d3e 749b bbbd
000001f0: 2276 373f bf64 bf3e 7175 4dbf b49c cfbb
00000200: a8e7 933f 3867 b13c 550a 323f b829 2b3e
00000210: 9025 5c3e 04c5 833f c5e1 113e e0a2 443f
00000220: beb5 0f3f 8230 2c3f 90ea 153f 0b2e 0e3e
00000230: 0119 9f3e 8a2e 253f bed7 d83e 4a15 2f3e
00000240: f976 913f c74d 483f 100f 933f f9dd 273e
00000250: cf73 163e 56e7 8a3f 0a9f bcbe cba9 4c3e
00000260: 28bb c33f c684 4bbe 9b22 e9bd bd5d fe3e
00000270: 0db3 ed3e 47d0 96be 278f b4be 128d 283f
00000280: b630 203f 8ebd 503e dc61 53be 80f3 863f
00000290: b9de 173e 3c1c f5be f5ca 363f 1f73 abbe
000002a0: 4372 85bf 0cef 16be 8948 903b 8a8f 0b3a
000002b0: 6417 80be 36ff edbe de63 9d3e fa75 cc3e
000002c0: 643d c53f 427a d73d 7981 1dbf 429c 6a3e
000002d0: 40d2 1fbe 34f6 7f3e d8ed ab3e 87d6 3f3e
000002e0: 8b12 86be aa07 a8be c278 be3c 06ef c2be
000002f0: ad58 bfbd 3e51 fc3e 33f3 a8be 72ed d0bf
00000300: 891c 16bf c0c2 96be 1b6c 0d3d a726 f4be
00000310: b2f7 69be 227b 3fbd fb36 f1bd 6799 6c3f
00000320: cf9e 2bbe f9bf 183e 67d4 46be c7a9 0cbe
00000330: 884d f03e 160e 393f e1a5 adbe 8c14 3d3f
00000340: 9b84 89bf cf65 163f 68ce f6bd 6f85 fa3d
00000350: bb06 3ebe e646 3fbe 8a67 24be d345 e7be
00000360: 784a 113e 0674 893f a636 06bd 4f7f a7bd
00000370: ae43 c4be 460f 01bf feef d83e 4f2b 4b3f
00000380: 4bc0 1bc0 c628 923e 06d3 97be 4040 f8be
00000390: ad69 e5be 5841 63bf e452 76bf f4d7 81bf
000003a0: 062c 5d3e 88a3 2a3e 7719 21bf 033d f7bd
000003b0: 026f 683d a224 45bf 59b2 903c 5d60 38bf
000003c0: cb10 50c0 88d8 c7bf 1dc3 35bf 2642 56bf
000003d0: a3cf 91be 3a6f 8ebf 0b0e 90bd 38ea ce3d
000003e0: 2ed2 eebf 4b0b 5fbf 5f39 ba3d 1d1f 42be
000003f0: 35fd eb3e 87d5 453e b8b5 f93e 1285 f5be

encoder.layers.0.self_attn.linears.0.bias f4 [32]
-0.40566617 0.035837654 0.061103966 0.76444656 0.4335593 -0.30589145 -0.45207706 0.048512287
-0.16656454 0.07207635 -0.46839988 -0.27881172 -0.04004722 -0.080987655 0.20335172 -0.08815463
-0.17626803 0.3987458 -0.417814 -0.24469034 -0.21642557 -0.17252003 0.059048228 0.0013549625
0.20904127 0.14087296 0.25268382 -0.01844237 0.0028607347 -0.185385 0.030215478 -0.12331963
00000000: 7ab3 cfbe 81ca 123d 2748 7a3d c5b2 433f
00000010: 7cfb dd3e ce9d 9cbe a576 e7be d2b4 463d
00000020: e58f 2abe c49c 933d 1cd2 efbe 69c0 8ebe
00000030: 8e08 24bd dbdc a5bd 6f3b 503e 6a8a b4bd
00000040: 9b7f 34be 6928 cc3e b7eb d5be 1b90 7abe
00000050: aa9e 5dbe 17a9 30be 8edc 713d ff98 b13a
00000060: ea0e 563e 0041 103e c65f 813e 7414 97bc
00000070: 2a7b 3b3b 91d5 3dbe 7386 f73c 018f fcbd

encoder.layers.0.self_attn.linears.1.weight f4 [32, 32]
-0.23613378 -0.18507226 0.97686905 -0.23589875 -0.36622497 0.2987502 -0.15910521 -0.30749086
0.3087563 -0.6660713 0.2927203 -0.3292703 -0.027176699 -0.17956609 -0.29539153 0.3016882
-0.6963378 0.24118821 -0.19987448 -0.093383074 0.11823237 0.37406918 -0.49922192 -0.10677575
0.3446426 -0.42604083 -0.30306077 -0.31735688 -0.046798006 -0.22947828 -0.20302975 0.28409043
-0.27158973 0.35078743 -0.6270705 -0.06244318 0.39998776 -0.29130772 -0.08613404 0.19148836
0.108918324 0.21627235 -0.25459886 0.60172427 0.5226995 0.119682916 0.7273647 -0.00934038
0.3731535 -0.33753055 0.21881849 -0.37483343 0.11678731 -0.46762693 0.77100855 0.38440183
-0.63021415 -0.30402866 0.47080058 0.48756862 0.16817781 0.26684228 -0.25199196 0.22967221
-0.08008713 0.11863276 0.47135532 -0.26395744 -0.43080068 0.5483202 0.30074534 -0.3119178
-0.9358879 0.44072494 -0.1957902 -0.14501484 -0.1806484 -0.0018400057 0.08981791 -0.78138626
-0.007529358 0.037913576 -0.05644872 0.16531186 -0.3588784 0.63195044 -0.13839252 -0.02349182
-0.38439962 0.8641015 0.055418782 0.083438925 0.08852233 -0.4290599 0.4376202 -0.97779524
-0.01059531 -0.25520545 -0.63546467 0.70456564 0.48494476 -0.38903135 -0.91323763 0.9069282
0.09999258 0.1481421 0.03231009 -0.07769258 -0.5117541 -0.31770134 0.27028698 -0.27474114
0.37326595 -0.21616854 0.030289583 0.43895328 -0.1190324 -0.78229266 0.1842748 -0.27760792
0.007984431 -0.5913547 0.09480259 -0.20213349 0.006950509 0.690517 0.37450507 -0.5566202
0.99025774 -0.27063224 -0.60550195 -0.26820332 -0.095370024 -0.10684944 0.15635134 -0.08450481
-0.19695818 0.104143545 0.38099986 -0.29056016 -0.507848 0.23385987 -0.2760387 -0.51293
0.1437779 0.37779346 -0.29808974 0.8858234 0.26433674 0.020763522 -0.66940933 -0.24814095
0.54813933 -0.868101 -0.47023034 -0.30338693 0.4205173 -0.001662551 -0.28962398 -0.2449453
-0.8786775 0.7114408 0.09047986 -0.5665377 -0.18246102 -0.16571674 0.33950108 -0.11861843
0.6119301 -0.2597252 -0.22928746 0.2557114 0.84378815 0.7059511 0.34952018 0.5069705
-0.50368655 -0.44035763 0.8590951 -0.39031196 -0.3123434 0.23414457 0.33832148 0.4801735
-0.6168184 -0.10554734 0.6378737 0.5675831 -0.25331968 -0.49482334 0.73493695 0.15743256
-0.19788954 0.06839119 0.80887276 0.75845075 0.4655933 0.29914886 -0.7752654 0.5202218
-0.2765342 -0.009514205 0.19720875 0.44450358 0.48162973 -0.106700175 -0.06339537 0.58805823
0.14252456 -0.38702196 0.20786707 -0.47155723 -0.17442857 0.14150359 0.5419115 0.08032944
-0.24883704 0.9253502 0.31326628 0.37924543 -0.33152217 -0.1330025 0.55894476 0.05299754
-0.8659368 0.5630929 0.5143796 0.34208217 -0.14144841 -0.18829958 -0.07299663 0.006279527
-0.045338754 0.19406982 -0.42457366 0.38449356 0.476298 -0.31235814 0.5423901 0.51758486
-0.23626097 -0.59670115 -0.12773256 -0.99835455 -0.24603862 -0.18967792 0.42159244 0.5192299
-0.37544522 0.6830412 0.43610412 0.23360704 -0.09917049 0.34514183 0.42040938 0.31981784
00000000: 0ecd 71be 9583 3dbe 1714 7a3f 718f 71be
00000010: d781 bbbe c9f5 983e 7aec 22be 716f 9dbe
00000020: 4e15 9e3e a683 2abf 6fdf 953e 1e96 a8be
00000030: aba1 debc 2ce0 37be 8f3d 97be e076 9a3e
00000040: 3243 32bf 0bfa 763e e5ab 4cbe a03f bfbd
00000050: d023 f23d ff85 bf3e 049a ffbe 3fad dabd
00000060: ff74 b03e 0622 dabe c82a 9bbe 9a7c a2be
00000070: 44af 3fbd 5bfc 6abe 08e7 4fbe 4d74 913e
00000080: cf0d 8bbe 699a b33e b187 20bf 6bc4 7fbd
00000090: 32cb cc3e 4926 95be 0b67 b0bd 8615 443e
000000a0: 9210 df3d 8076 5d3e c85a 82be 9a0a 1a3f
000000b0: a2cf 053f 511c f53d 9334 3a3f 6508 19bc
000000c0: fa0d bf3e ced0 acbe f411 603e 2bea bfbe
000000d0: 2f2e ef3d cc6c efbe d160 453f 51d0 c43e
000000e0: b755 21bf a5a9 9bbe c60c f13e 98a2 f93e
000000f0: ce36 2c3e 8d9f 883e 1705 81be 312f 6b3e
00000100: b904 a4bd bcf5 f23d 7c55 f13e 6e25 87be
00000110: e891 dcbe b65e 0c3f 4bfb 993e b1b3 9fbe
00000120: 5996 6fbf b3a6 e13e 3a7d 48be c57e 14be
00000130: e5fb 38be 592c f1ba 74f2 b73d ee08 48bf
00000140: d5b8 f6bb 444b 1b3d c636 67bd 8347 293e
00000150: e9be b7be 81c7 213f c5b6 0dbe eb71 c0bc
00000160: 07d0 c4be c235 5d3f cefe 623d 07e2 aa3d
00000170: 324b b53d bdad dbbe c10f e03e ca50 7abf
00000180: f397 2dbc 4aaa 82be d0ad 22bf 6a5e 343f
00000190: ae4a f83e 1e2f c7be f1c9 69bf 722c 683f
000001a0: e9c8 cc3d 90b2 173e 9657 043d 4a1d 9fbd
000001b0: 5102 03bf c0a9 a2be 0e63 8a3e dfaa 8cbe
000001c0: b71c bf3e 495b 5dbe dc21 f83c 7cbe e03e
000001d0: 42c7 f3bd 5544 48bf 88b2 3c3e a022 8ebe
000001e0: 22d1 023c 0663 17bf dc27 c23d 15fc 4ebe
000001f0: 18c1 e33b b9c5 303f 21bf bf3e a97e 0ebf
00000200: 8881 7d3f 4f90 8abe 2d02 1bbf f251 89be
00000210: 5c51 c3bd e1d3 dabd 911a 203e dc10 adbd
00000220: 68af 49be 3649 d53d 6a12 c33e 4dc4 94be
00000230: 5402 02bf f678 6f3e f254 8dbe 614f 03bf
00000240: 843a 133e 256e c13e 389f 98be 53c5 623f
00000250: 2557 873e 4318 aa3c 695e 2bbf a918 7ebe
00000260: dc52 0c3f de3b 5ebf 08c2 f0be 8855 9bbe
00000270: 0b4e d73e f4e9 d9ba 9849 94be f1d2 7abe
00000280: 02f1 60bf fc20 363f 814d b93d 9d08 11bf
00000290: 10d7 3abe a6b1 29be 16d3 ad3e 38ee f2bd
000002a0: 73a7 1c3f b4fa 84be 55ca 6abe 9bec 823e
000002b0: 8002 583f 36b9 343f 4ff4 b23e d2c8 013f
000002c0: 9af1 00bf 8e76 e1be a8ed 5b3f f8d6 c7be
000002d0: 79eb 9fbe 98c3 6f3e 7938 ad3e 4dd9 f53e
000002e0: d0e7 1dbf 3429 d8bd b14b 233f 204d 113f
000002f0: 1eb3 81be 7c59 fdbe d424 3c3f 0036 213e
00000300: 8ea3 4abe ae10 8c3d 4912 4f3f d429 423f
00000310: 3f62 ee3e 0a2a 993e cb77 46bf 422d 053f
00000320: e495 8dbe 78e1 1bbc 17f1 493e f995 e33e
00000330: 2c98 f63e 9f85 dabd 6fd5 81bd fc8a 163f
00000340: f5f1 113e be27 c6be 1bdb 543e f36f f1be
00000350: 679d 32be 51e6 103e b6ba 0a3f c383 a43d
00000360: 23cf 7ebe c0e3 6c3f 7064 a03e 752c c23e
00000370: 46bd a9be cf31 08be 0117 0f3f f313 593d
00000380: 09ae 5dbf db26 103f 62ae 033f 6525 af3e
00000390: dad7 10be 9bd1 40be 427f 95bd 7ec4 cd3b
000003a0: 21b5 39bd 3dba 463e b861 d9be 57dc c43e
000003b0: 55dd f33e 68ed 9fbe 14da 0a3f 7180 043f
000003c0: 65ee 71be 68c1 18bf 53cc 02be 2a94 7fbf
000003d0: 8cf1 7bbe ee3a 42be f7da d73e 40ec 043f
000003e0: 5b3a c0be cadb 2e3f 0a49 df3e af36 6f3e
000003f0: e619 cbbd 6eb6 b03e e63f d73e 2abf a33e

encoder.layers.0.self_attn.linears.1.bias f4 [32]
-0.3340054 0.18151245 0.036961984 0.23329954 -0.21172698 0.31516966 -0.056419607 0.15017742
0.20840143 0.1704715 0.004270835 0.16590764 -0.17155029 -0.09838928 0.18046352 -0.2168752
-0.034521334 0.12262906 0.1477972 -0.24443474 0.023762919 -0.32292143 0.38253427 0.28023124
-0.14174666 -0.07415081 0.02736015 0.12858742 0.11662305 0.39326167 0.08942719 0.29385567
00000000: c102 abbe 66de 393e 7365 173d 13e6 6e3e
00000010: f5ce 58be eb5d a13e 3f18 67bd 1cc8 193e
00000020: 2f67 553e 1590 2e3e 5cf2 8b3b b1e3 293e
00000030: e1aa 2fbe 5280 c9bd 6ecb 383e 8814 5ebe
00000040: 3e66 0dbd f224 fb3d 2658 173e 1a4d 7abe
00000050: 74aa c23c f555 a5be 88db c33e 787a 8f3e
00000060: 0926 11be 61dc 97bd 6522 e03c 6cac 033e
00000070: 11d8 ee3d 9859 c93e 9a25 b73d 4074 963e

encoder.layers.0.self_attn.linears.2.weight f4 [32, 32]
-0.20910607 0.07947889 -0.12764555 0.2882389 -0.2432722 -0.11764858 0.017412722 0.10480922
-0.09652157 -0.42450655 -0.12635 0.62082565 0.15418506 0.21594903 0.21086308 -0.18713558
0.01194955 0.35500708 -0.09447309 -0.007028622 0.20204139 -0.077307336 -0.0012668177 0.08257132
0.24070932 0.2675362 0.08918861 0.08661322 -0.45268878 -0.2695433 0.22832763 -0.14565514
-0.13989699 -0.33414444 0.0036222807 -0.0031749913 0.38810655 -0.06672306 0.12410067 -0.17311487
0.21363734 -0.31247133 0.12830785 -0.11008709 -0.4858296 -0.08832218 -0.105893455 -0.025835825
-0.0626489 -0.14177297 0.14251599 0.13546318 0.0634374 0.10688286 0.46163586 -0.12887771
-0.16956298 -0.6333359 -0.037745845 -0.091007285 0.2849198 0.30146405 -0.18943281 -0.025001395
-0.13281089 -0.023063218 0.03495825 -0.15667406 0.09165978 -0.21836133 0.20537204 0.0542601
-0.3396909 0.16517726 0.29233286 0.017261153 0.043406043 -0.0138235 0.046796925 -0.47237462
0.16704173 0.022162931 -0.29274794 0.239608 -0.027424464 0.019196866 0.22930408 -0.19209515
0.119145565 0.2723632 0.09787975 0.19606653 -0.1992041 -0.038302656 0.074453585 0.04294922
0.1136783 -0.18905362 -0.03443626 -0.22873618 0.1067632 0.012179819 0.15693766 -0.27093387
0.23463264 0.58974886 0.11824842 -1.000696 -0.0991307 0.1489309 -0.3405914 -0.22280036
0.04774447 -0.14233716 0.27421793 0.43380743 -0.09003773 -0.0767406 -0.2906395 -0.35145444
0.11791523 0.1194662 0.010125651 -0.30923322 0.5690096 0.091521405 -0.03488069 0.11064652
-0.37555918 0.064323746 -0.11702609 0.10731533 0.22278239 -0.7637788 0.050557237 0.017162886
0.48341757 0.22818112 0.1397541 -0.14576097 -0.24139576 0.64430463 -0.10831207 -0.017849846
-0.12224841 0.23783772 0.11097149 0.428811 -0.10628171 -0.39138794 0.416011 0.12495145
-0.24255209 0.18845189 -0.074911274 0.06993377 0.26638332 -0.07612815 0.22195469 0.08918318
0.42906806 0.1058473 0.1721743 -0.15921201 -0.4870961 -0.07159318 -0.035523046 -0.23443973
-0.011052283 0.23977508 -0.0066606933 -0.1290319 0.6789064 0.10650169 -0.035809454 0.13301945
0.22103769 -0.19193617 -0.16919824 -0.097763374 -0.19639504 -0.025087554 0.04651412 0.019955799
0.23220493 0.13630222 0.17717077 0.0997782 0.40143612 -0.49243844 -0.095099345 0.085636824
-0.17593795 0.14293718 -0.028166428 -0.14352094 -0.3956923 -0.22333328 0.18079223 0.550509
0.19634333 0.19496408 -0.12984177 0.08602139 0.20055333 0.44563422 0.091962196 -0.035781305
-0.29512092 0.34919277 -0.0046540922 0.009757247 -0.2753598 0.21590199 -0.05809405 0.005641777
-0.11088232 -0.17785014 -0.026626233 0.044437863 0.06470696 0.006806432 0.09754473 0.2365593
0.1257304 0.010105782 0.22210363 0.093656406 -0.35518423 0.048097983 0.056147292 -0.024505034
-0.33611006 0.13007887 0.06841076 0.04186084 0.3039146 0.020270389 0.17406496 -0.24391004
-0.011080866 -0.3318144 -0.04511419 -0.34502116 -0.17092365 0.08064859 -0.02244671 0.026399845
0.3515831 -0.26497513 0.17810713 0.06353575 0.41739088 -0.05787762 -0.33608198 0.23748869
00000000: e71f 56be d4c5 a23d 84b5 02be 0d94 933e
00000010: 591c 79be bdf1 f0bd 20a5 8e3c 37a6 d63d
00000020: 1aad c5bd ec58 d9be e561 01be 6eee 1e3f
00000030: b0e2 1d3e be21 5d3e 7eec 573e 78a0 3fbe
00000040: 0cc8 433c 7dc3 b53e 1b7b c1bd 5b50 e6bb
00000050: f0e3 4e3e 4f53 9ebd 590b a6ba 271b a93d
00000060: 817c 763e 81fa 883e 85a8 b63d 4662 b13d
00000070: d3c6 e7be 9401 8abe b8ce 693e 9f26 15be
00000080: 2841 0fbe fb14 abbe c963 6d3b 8413 50bb
00000090: e7b5 c63e 1aa6 88bd 7e28 fe3d 0645 31be
000000a0: bfc3 5a3e 3efc 9fbe 2263 033e 5775 e1bd
000000b0: a8be f8be 42e2 b4bd abde d8bd a7a5 d3bc
000000c0: 114e 80bd ef2c 11be b6ef 113e dcb6 0a3e
000000d0: 78eb 813d 67e5 da3d 895b ec3e 85f8 03be
000000e0: eba1 2dbe 4d22 22bf 639b 1abd 0762 babd
000000f0: 02e1 913e 7f59 9a3e adfa 41be bacf ccbc
00000100: 94ff 07be 13ef bcbc 6230 0f3d 2a6f 20be
00000110: 1fb8 bb3d 1d9a 5fbe 0c4d 523e d73f 5e3d
00000120: f7eb adbe 3a24 293e a7ac 953e 4367 8d3c
00000130: 89ca 313d f67b 62bc 22ae 3f3d 16db f1be
00000140: fd0c 2b3e 098f b53c 0fe3 95be cd5b 753e
00000150: 45a9 e0bc bf42 9d3c b0ce 6a3e 97b4 44be
00000160: 9702 f43d 3073 8b3e 2e75 c83d aac5 483e
00000170: 29fc 4bbe 3fe3 1cbd 1f7b 983d 85eb 2f3d
00000180: 2bd0 e83d 4697 41be 090d 0dbd d139 6abe
00000190: aaa6 da3d dd8d 473c 44b4 203e d8b7 8abe
000001a0: 8a43 703e c8f9 163f 3a2c f23d ce16 80bf
000001b0: 0905 cbbd 5881 183e ff61 aebe c725 64be
000001c0: b58f 433d d5c0 11be 4b66 8c3e 021c de3e
000001d0: b465 b8bd 2d2a 9dbd b3ce 94be d6f1 b3be
000001e0: 8a7d f13d b2aa f43d 0fe6 253c d153 9ebe
000001f0: 9daa 113f 936f bb3d 0edf 0ebd a59a e23d
00000200: 4b49 c0be 2bbc 833d 60ab efbd 24c8 db3d
00000210: 1121 643e 0287 43bf 1b15 4f3d 2e99 8c3c
00000220: 8282 f73e 50a8 693e b31b 0f3e 5d42 15be
00000230: 7330 77be 26f1 243f b8d2 ddbd d739 92bc
00000240: 605d fabd bb8b 733e 0545 e33d 1e8d db3e
00000250: 3aaa d9bd 0064 c8be 65ff d43e 8ce6 ff3d
00000260: 935f 78be 88f9 403e 156b 99bd 7039 8f3d
00000270: 6563 883e 13e9 9bbd 1748 633e aca5 b63d
00000280: cfae db3e 78c6 d83d 764e 303e 7908 23be
00000290: a964 f9be 729f 92bd 9d80 11bd f810 70be
000002a0: a314 35bc 9987 753e f241 dabb f020 04be
000002b0: cfcc 2d3f 8f1d da3d efac 12bd 4036 083e
000002c0: b457 623e ea8a 44be 4e42 2dbe 2a38 c8bd
000002d0: c81b 49be 6a84 cdbc 9785 3e3d 587a a33c
000002e0: 21c7 6d3e cf92 0b3e 416c 353e 8358 cc3d
000002f0: 0989 cd3e e420 fcbe 72c3 c2bd 5c62 af3d
00000300: 1429 34be 205e 123e 48bd e6bc 27f7 12be
00000310: 2e98 cabe 7bb1 64be 9921 393e 28ee 0c3f
00000320: 3a0e 493e aaa4 473e 3ef5 04be fc2b b03d
00000330: da5d 4d3e 2b2a e43e ad56 bc3d 6b8f 12bd
00000340: 171a 97be 65c9 b23e 5b81 98bb dcdc 1f3c
00000350: f6fb 8cbe 6915 5d3e 07f4 6dbd a8de b83b
00000360: 4516 e3bd 591e 36be 421f dabc 7a04 363d
00000370: 1585 843d 7d08 df3b 88c5 c73d 9a3c 723e
00000380: 78bf 003e b992 253c 226f 633e eece bf3d
00000390: b5da b5be 6402 453d b4fa 653d c8be c8bc
000003a0: 9e16 acbe 6533 053e f11a 8c3d 4676 2b3d
000003b0: b29a 9b3e 160e a63c 163e 323e 8ec3 79be
000003c0: 858c 35bc 94e3 a9be a8c9 38bd 9da6 b0be
000003d0: 9c06 2fbe 172b a53d 2ae2 b7bc 7d44 d83c
000003e0: b302 b43e d2aa 87be b761 363e 081f 823d
000003f0: 42b4 d53e 1511 6dbd f012 acbe 3c30 733e

encoder.layers.0.self_attn.linears.2.bias f4 [32]
-0.05318987 0.013177955 -0.13017023 0.042946033 -0.29274967 0.029751774 -0.08346573 0.12149467
0.10328357 0.031153211 -0.0081109535 0.088997185 0.101589076 -0.09658248 -0.092608064 0.021273626
0.059143424 0.09803563 0.11464055 -0.018407611 -0.17628773 -0.101075225 0.072544545 -0.17574182
0.0037521385 0.09217453 0.11626297 0.099025734 -0.010161031 -0.059025194 0.031449698 0.027757483
00000000: 9fdd 59bd 59e8 573c 584b 05be 2ee8 2f3d
00000010: 49e3 95be feb9 f33c 15f0 aabd 33d2 f83d
00000020: 5686 d33d 0535 ff3c cee3 04bc 2844 b63d
00000030: ef0d d03d 09cd c5bd 4ca9 bdbd 0746 ae3c
00000040: 6040 723d e8c6 c83d aac8 ea3d 8fcb 96bc
00000050: c584 34be 8700 cfbd 3c92 943d aaf5 33be
00000060: 70e6 753b 00c6 bc3d 481b ee3d 01ce ca3d
00000070: 747a 26bc 67c4 71bd 66d1 003d a963 e33c

encoder.layers.0.self_attn.linears.3.weight f4 [32, 32]
-0.0857345 0.15348905 -0.11677323 0.13198484 -0.20178561 -0.28583196 -0.3466116 -0.010280314
0.31231597 -0.06651763 0.14215378 0.4578499 0.41570485 -0.050518427 -0.14375587 0.287911
0.14146045 -0.071923144 -0.30791497 0.07188147 -0.21230483 0.30219197 0.09338694 -0.091844074
0.23498501 0.16891944 -0.32091036 -0.16214585 0.013357126 0.22360754 0.08321512 -0.15562084
-0.12257649 0.18969584 0.08568542 0.57221276 0.6652895 -0.14082466 0.22208911 -0.1447344
-0.08196591 0.115706295 0.12644565 0.2093164 0.041501086 -0.031161295 0.11180954 -0.1982393
0.06401401 -0.08354037 0.3442848 -0.032915298 -0.06551366 0.118729405 0.19227377 -0.13225861
0.012514814 -0.42116493 -0.09499166 0.44382516 -0.21076109 0.2614364 0.15094022 0.11843781
-0.08784828 -0.12913696 -0.15277213 -0.08708912 -0.19767709 0.16566147 -0.11213493 0.007249759
-0.022872576 -0.05480981 -0.5441503 -0.025962276 -0.34070477 0.0002058242 0.48424926 -0.24676056
0.644825 0.10208627 0.1457688 -0.6491607 0.020262858 0.039099492 -0.20486884 -0.005793393
0.10477343 -0.07792615 0.22895186 -0.18104853 -0.04788347 0.34512386 -0.02580495 -0.15106565
-0.09003585 0.006651585 -0.041184444 0.23310219 0.29570177 0.04100031 0.059830103 0.11195882
0.13433118 -0.12790422 -0.11901654 -0.18046114 -0.07213708 0.11292508 -0.19764498 -0.11111651
-0.081149116 -0.17972958 0.11437124 -0.13574432 0.18575913 0.047318224 0.20093141 0.010220698
-0.15984099 -0.057181522 -0.09383891 0.016865904 -0.06676045 -0.0067434297 0.059990056 -0.11435493
0.113918 -0.20290439 0.15102664 0.07436403 -0.057935826 -0.15067214 0.1428323 0.0341806
0.1399749 -0.34276542 -0.3172996 -0.11097987 -0.219414 0.18953796 -0.22861373 -0.31663826
0.12573445 -0.08874883 -0.05298328 -0.13889976 0.14220113 -0.10102492 0.16742994 0.2311445
0.07778949 0.11104758 -0.09890394 0.0092839785 0.037588354 0.088945664 0.00064323196 0.025578177
0.23656471 0.0559812 0.036441315 -0.17385717 -0.1517704 0.1987137 -0.18230392 0.036032233
-0.06845816 0.104116954 0.30658552 0.0022083349 0.020750439 0.09610278 -0.20685935 0.23942916
0.05904037 -0.03341661 -0.09358667 0.06396577 -0.04631112 0.13430297 -0.07349783 -0.084218174
-0.20818506 -0.09938105 0.0060647423 -0.07771043 0.2068197 -0.15047018 0.06795824 -0.056975015
-0.3365084 -0.29031152 0.05856902 0.13914086 0.037888322 -0.07369361 0.018925311 0.008436337
-0.20349707 0.30289143 -0.02824279 0.040825017 -0.06544776 0.26464993 0.028722629 0.12426466
-0.037881806 0.23230048 -0.11441346 -0.4247058 -0.067691214 0.49581662 0.37456375 0.1206991
-0.1157494 -0.19339119 0.26827952 0.2867939 -0.0029703763 0.3868031 -0.17889115 0.017547442
-0.046492342 -0.014781108 0.14425929 0.29252255 0.021857467 -0.057129063 0.103248306 -0.2181126
-0.07899676 0.05773367 0.10898805 -0.3136627 0.21838625 -0.1062179 -0.16415074 0.083083086
-0.089211665 -0.096489914 0.30649203 -0.07227406 0.09246286 -0.19369829 0.18511161 0.1928705
0.052330144 0.10783727 0.031558238 0.055565733 0.09169408 0.025050333 0.10190805 0.07286974
00000000: 9295 afbd 3c2c 1d3e ce26 efbd 0927 073e
00000010: e3a0 4ebe 9158 92be 1377 b1be c36e 28bc
00000020: e1e7 9f3e 653a 88bd c390 113e 4d6b ea3e
00000030: 44d7 d43e 69ec 4ebd bd34 13be 1269 933e
00000040: 02db 103e 714c 93bd 08a7 9dbe 9836 933d
00000050: 7066 59be e8b8 9a3e a741 bf3d bf18 bcbd
00000060: e99f 703e 38f9 2c3e 5d4e a4be 9009 26be
00000070: d9d7 5a3c 60f9 643e b06c aa3d 125b 1fbe
00000080: 6209 fbbd a03f 423e d67b af3d 897c 123f
00000090: 6a50 2a3f 5734 10be 546b 633e 4135 14be
000000a0: bedd a7bd 6cf7 ec3d f87a 013e 0a57 563e
000000b0: 0bfd 293d f945 ffbc 66fc e43d 3eff 4abe
000000c0: c719 833d 3717 abbd 1946 b03e 31d2 06bd
000000d0: 072c 86bd 6728 f33d 6ae3 443e cd6e 07be
000000e0: ef0a 4d3c eea2 d7be fd8a c2bd 0d3d e33e
000000f0: c1d1 57be feda 853e 1390 1a3e 868f f23d
00000100: cde9 b3bd 7b3c 04be 4c70 1cbe c85b b2bd
00000110: dd6b 4abe 29a3 293e 00a7 e5bd 638f ed3b
00000120: 455f bbbc 4080 60bd 6f4d 0bbf d7ae d4bc
00000130: db70 aebe 83d2 5739 85ef f73e cdae 7cbe
00000140: 4013 253f 9b12 d13d 6b44 153e 652f 26bf
00000150: 4bfe a53c ca26 203d 23c9 51be 81d6 bdbb
00000160: 7493 d63d bf97 9fbd 5b72 6a3e c964 39be
00000170: 7521 44bd 13b4 b03e e764 d3bc f4b0 1abe
00000180: b764 b8bd 8af5 d93b 05b1 28bd 57b2 6e3e
00000190: 3966 973e f1ef 273d 6910 753d aa4a e53d
000001a0: 1d8e 093e 53f9 02be f2be f3bd ceca 38be
000001b0: 9bbc 93bd 4445 e73d 7263 4abe 0e91 e3bd
000001c0: 8231 a6bd 080b 38be 783b ea3d 8f00 0bbe
000001d0: a437 3e3e c1d0 413d f7c0 4d3e b774 273c
000001e0: 5bad 23be 2c37 6abd 9d2e c0bd 5d2a 8a3c
000001f0: b4b9 88bd fdf7 dcbb 22b8 753d eb32 eabd
00000200: d74d e93d 2bc6 4fbe baa6 1a3e 2b4c 983d
00000210: 1e4e 6dbd cc49 1abe a142 123e f500 0c3d
00000220: 9555 0f3e f37e afbe 1875 a2be 6a49 e3bd
00000230: 10ae 60be 3d16 423e b819 6abe 691e a2be
00000240: 88c0 003e f2c1 b5bd ff04 59bd bd3b 0ebe
00000250: 2c9d 113e 27e6 cebd c172 2b3e 25b1 6c3e
00000260: 1950 9f3d ea6c e33d 268e cabd d41b 183c
00000270: 3ff6 193d 2529 b63d 919e 283a 5389 d13c
00000280: 053e 723e 8b4c 653d 7d43 153d 9d07 32be
00000290: b369 1bbe 9b7b 4b3e e1ad 3abe 8996 133d
000002a0: cb33 8cbd 453b d53d c7f8 9c3e b6b9 103b
000002b0: d3fc a93c 89d1 c43d f0d2 53be eb2c 753e
000002c0: 51d4 713d dbdf 08bd 5eaa bfbd 7c00 833d
000002d0: bbb0 3dbd b886 093e 0886 96bd 947a acbd
000002e0: 772e 55be 4b88 cbbd bfba c63b a526 9fbd
000002f0: 8bc8 533e db14 1abe b12d 8b3d a25e 69bd
00000300: d44a acbe b6a3 94be 12e6 6f3d f17a 0e3e
00000310: c930 1b3d adec 96bd 4109 9b3c 9038 0a3c
00000320: 8961 50be 9614 9b3e 6c5d e7bc 2238 273d
00000330: 7a09 86bd 3280 873e b84b eb3c 787e fe3d
00000340: f429 1bbd 2de0 6d3e 9b51 eabd 0a73 d9be
00000350: b1a1 8abd addb fd3e d2c6 bf3e 1731 f73d
00000360: 050e edbd 5708 46be ef5b 893e a6d6 923e
00000370: a5aa 42bb 0e0b c63e 3e2f 37be a7bf 8f3c
00000380: c16e 3ebd 762c 72bc b5b8 133e 84c5 953e
00000390: 6e0e b33c 2a00 6abd d973 d33d e958 5fbe
000003a0: 0ec9 a1bd 247a 6c3d 2035 df3d 6698 a0be
000003b0: a5a0 5f3e c588 d9bd 2217 28be 7727 aa3d
000003c0: 9bb4 b6bd 819c c5bd 86ec 9c3e 6c04 94bd
000003d0: 2b5d bd3d d858 46be e68d 3d3e d87f 453e
000003e0: 2258 563d c9d9 dc3d 3643 013d e598 633d
000003f0: 1bca bb3d 5b36 cd3c 2bb5 d03d bb3c 953d

encoder.layers.0.self_attn.linears.3.bias f4 [32]
-0.08307023 0.020946998 0.022431197 0.1158914 -0.21339299 0.12830783 -0.0062858467 -0.040017564
0.013292772 0.022465942 0.016390827 0.23990817 -0.13150102 -0.091890514 0.11279128 0.039776143
-0.0072542615 -0.19331867 -0.11240287 0.03286372 -0.07765851 -0.07040424 -0.19371116 0.120554864
0.17857735 -0.21159257 0.11558215 0.06677921 0.047156177 0.031336788 -0.3234967 0.14679804
00000000: ba20 aabd 0a99 ab3c a1c1 b73c 7858 ed3d
00000010: b183 5abe 2163 033e 81f9 cdbb 75e9 23bd
00000020: edc9 593c 7f0a b83c 0e46 863c 7daa 753e
00000030: 34a8 06be 1831 bcbd 1dff e63d 4fec 223d
00000040: 28b5 edbb 54f5 45be 7a33 e6bd 1c9c 063d
00000050: 6d0b 9fbd 1930 90bd 385c 46be 78e5 f63d
00000060: fbdc 363e b9ab 58be 56b6 ec3d 8ac3 883d
00000070: d626 413d 015b 003d 5ca1 a5be 3a52 163e

encoder.layers.0.feed_forward.w_1.weight f4 [128, 32]
0.35912007 0.016926518 0.30273956 -0.6846043 -0.31964883 0.071590856 0.15713082 -0.08273293
0.13229126 0.4106531 -0.34234372 -0.19956562 0.6662173 -0.093408376 0.2147305 0.021519413
0.26654908 0.22816788 -0.40594003 -0.031619802 0.3177714 -0.11117243 -0.06457921 -0.12352706
0.30955875 -0.12974992 -0.06352348 0.10502336 0.50255007 -0.20445909 -0.18501484 0.29484525
-0.19671874 -0.3111845 0.20071281 0.43086192 -0.3442452 0.0028052272 -0.0057622506 -0.08004065
0.26169702 -0.10379935 0.08062956 0.80861 -0.08839944 0.034065925 0.086445056 -0.05347534
0.2466755 -0.17029698 0.24514078 -0.20097087 -0.12523264 0.03534787 -0.23761569 0.48334163
-0.16980278 -0.09822319 0.5186756 0.42870075 -0.05543782 0.5353498 -0.16318268 -0.0023151783
-0.15519533 -0.52868986 0.23614733 0.29161975 0.15041614 0.11157403 -0.5119108 0.77806187
0.3198809 -0.20551978 0.16631778 -0.44873232 -0.096559584 0.62334937 -0.018426685 0.17100865
0.34444937 0.1788328 0.15725526 -0.74016607 -0.38156998 0.40402055 -0.24027145 0.041248694
-0.11845285 0.3978317 0.66602075 0.27969474 0.20508282 -0.257068 -0.06501989 0.108502336
0.5018505 0.20687322 0.08978145 -0.9146294 -0.03053818 0.16397008 -0.048401624 -0.08324724
-0.5451292 0.44657212 0.012378311 -0.1208529 0.17683452 0.15037152 -0.44395056 -0.076573096
0.06403833 0.2869064 -0.12061306 -0.27175707 0.016283462 0.3276018 0.33560246 -0.173142
0.011723292 -0.13183793 0.1184999 0.14697617 -0.13744377 -0.43611598 0.36838058 -0.2715486
0.17836802 0.03985798 -0.023555009 0.097099505 0.29436406 0.13476972 -0.43615267 0.19872315
-0.39849928 0.08868195 -0.16948651 -0.31441608 0.31501582 -0.14394623 0.09681538 0.08004507
-0.27508262 0.030764101 0.24703336 0.09968284 0.1362333 0.24337272 0.18776074 0.031040726
-0.5485506 0.21708341 -0.045348223 0.03121752 0.0828435 0.5660031 0.1827604 0.016231315
0.18279961 0.07699053 0.028884998 -0.4597467 -0.9477333 0.33776745 -0.23524512 -0.4085256
0.27572754 0.54205054 -0.72041285 -0.21005706 0.19520505 -0.4938913 0.113276646 -0.09798097
0.11775606 0.01986815 -0.6827611 -0.030232903 0.1831911 -0.19438945 -0.011431535 0.18687427
0.16274014 0.06068953 -0.079855844 0.0032052088 0.2745692 -0.44219145 0.011524656 -0.0026059714
-0.20121703 -0.10489813 0.004005898 0.17791279 -0.32403475 -0.16342278 -0.06629083 0.72817165
0.6380118 -0.40029758 -0.021626139 0.11278078 0.04298423 0.15170732 0.050477177 0.19583996
0.2504128 0.1236473 -0.12531722 0.2879385 -0.36039382 -0.8816311 -0.072547056 0.09899788
-0.13516971 0.099455245 0.16032971 0.22988555 0.7342008 0.096776 0.20254338 0.1612541
0.1767511 0.19924666 0.21914257 -0.17254949 -0.48920658 -0.02117804 0.45058748 0.33806217
-0.07397618 -0.11900529 -0.19985738 0.18535715 0.36460736 -0.12341103 -0.04854938 -0.08066976
-0.3212493 0.08608756 -0.40622443 0.26662752 -0.036045283 -0.073071465 -0.007551581 0.17704119
0.044749808 -0.17978618 0.14907083 0.20300089 0.67190695 -0.2738268 -0.26023299 0.5177286
00000000: 96de b73e 7ba9 8a3c ae00 9b3e 3a42 2fbf
00000010: 03a9 a3be 3a9e 923d e7e6 203e e26f a9bd
00000020: 5c77 073e 2041 d23e ad47 afbe ee5a 4cbe
00000030: 388d 2a3f e44c bfbd 50e2 5b3e 7b49 b03c
00000040: 1f79 883e d7a4 693e 5fd7 cfbe c483 01bd
00000050: efb2 a23e 5fae e3bd 1b42 84bd c1fb fcbd
00000060: 7c7e 9e3e 2add 04be 9918 82bd 7d16 d73d
00000070: 1fa7 003f b95d 51be 8874 3dbe f5f5 963e
00000080: a370 49be 9353 9fbe a987 4d3e ef99 dc3e
00000090: e840 b0be e7d7 373b 43d1 bcbb 5aec a3bd
000000a0: 27fd 853e c194 d4bd 1c21 a53d 1101 4f3f
000000b0: c40a b5bd b688 0b3d 1b0a b13d f508 5bbd
000000c0: 8198 7c3e 5562 2ebe 2f06 7b3e 4fcb 4dbe
000000d0: fc3c 00be eec8 103d 8751 73be 8e78 f73e
000000e0: c8e0 2dbe 3d29 c9bd edc7 043f aa7e db3e
000000f0: c412 63bd af0c 093f 5c19 27be 3fba 17bb
00000100: 86eb 1ebe 3858 07bf 9bd0 713e 2f4f 953e
00000110: b006 1a3e ed80 e43d 960c 03bf 102f 473f
00000120: 6ec7 a33e c773 52be 354f 2a3e 3ec0 e5be
00000130: 08c1 c5bd d393 1f3f 8ff3 96bc e41c 2f3e
00000140: ab5b b03e f21f 373e 8607 213e 867b 3dbf
00000150: 245d c3be c8db ce3e b809 76be 64f4 283d
00000160: 6897 f2bd 99b0 cb3e 5680 2a3f 2634 8f3e
00000170: 3b01 523e 6b9e 83be 2629 85bd 7936 de3d
00000180: 4679 003f 93d6 533e 56df b73d 2725 6abf
00000190: 352b fabc c6e7 273e c840 46bd 877d aabd
000001a0: 968d 0bbf 1aa5 e43e 66ce 4a3c ba81 f7bd
000001b0: 1c14 353e fefa 193e 7d4d e3be 5bd2 9cbd
000001c0: 8726 833d 65e5 923e fb03 f7bd be23 8bbe
000001d0: e564 853c 6cbb a73e 16d4 ab3e 234c 31be
000001e0: 0d13 403c 8600 07be 13b0 f23d ec80 163e
000001f0: 0fbe 0cbe 984a dfbe 619c bc3e 6b08 8bbe
00000200: 1ba6 363e 1f42 233d 6ff6 c0bc 1bdc c63d
00000210: e3b6 963e 1301 0a3e 674f dfbe 157e 4b3e
00000220: 1908 ccbe e29e b53d df8d 2dbe 25fb a0be
00000230: c149 a13e a466 13be 2447 c63d abee a33d
00000240: a1d7 8cbe ff04 fc3c 50f6 7c3e 8426 cc3d
00000250: be80 0b3e b336 793e 5a44 403e 1f49 fe3c
00000260: d06d 0cbf 1d4b 5e3e 0fbf 39bd e2bb ff3c
00000270: daa9 a93d 94e5 103f 8b25 3b3e 89f7 843c
00000280: d22f 3b3e 36ad 9d3d 3ba0 ec3c eb63 ebbe
00000290: a69e 72bf dbef ac3e 19e4 70be 442a d1be
000002a0: 292c 8d3e d3c3 0a3f fa6c 38bf 3319 57be
000002b0: d5e3 473e 52df fcbe 96fd e73d 3faa c8bd
000002c0: 172a f13d 88c2 a23c 6ec9 2ebf feaa f7bc
000002d0: 7396 3b3e 070e 47be 554b 3bbc f85b 3f3e
000002e0: 5aa5 263e 9695 783d 768b a3bd 7b0e 523b
000002f0: 5694 8c3e eb66 e2be e9d1 3c3c f2c8 2abb
00000300: d60b 4ebe d5d4 d6bd e843 833b c52e 363e
00000310: e2e7 a5be 4d58 27be 7dc3 87bd 7569 3a3f
00000320: be54 233f cef3 ccbe 4d29 b1bc 9cf9 e63d
00000330: 3b10 303d 2a59 1b3e 28c1 4e3d 458a 483e
00000340: 1b36 803e cc3a fd3d 2853 00be ad6c 933e
00000350: 8a85 b8be 93b2 61bf 8d93 94bd 67bf ca3d
00000360: ee69 0abe 31af cb3d 792d 243e 1e67 6b3e
00000370: 95f4 3b3f 7f32 c63d 8867 4f3e cb1f 253e
00000380: 3efe 343e 5107 4c3e e966 603e d0b0 30be
00000390: 4979 fabe 927d adbc 67b3 e63e 7c16 ad3e
000003a0: d380 97bd 0cb9 f3bd 6aa7 4cbe 44ce 3d3e
000003b0: d1ad ba3e ecbe fcbd b7db 46bd 3036 a5bd
000003c0: ca7a a4be ad4e b03d a6fc cfbe 6783 883e
000003d0: 38a4 13bd 7ea6 95bd 4173 f7bb 494a 353e
000003e0: 934b 373d de19 38be 06a6 183e 77df 4f3e
000003f0: 1802 2c3f 0733 8cbe 423d 85be dd89 043f

encoder.layers.0.feed_forward.w_1.bias f4 [128]
-0.08506165 -0.19775817 0.303378 -0.09423499 -0.020001959 0.025634266 -0.3559929 -0.032255307
-0.035291523 -0.06464313 -0.14466494 0.03247694 -0.0044221743 -0.47403678 -0.38973916 -0.21207707
-0.3439933 0.0172634 -0.10655371 -0.44022846 0.027046146 -0.19565105 -0.09362717 0.039683398
0.033658702 -0.03239815 0.06917908 0.16287129 -0.35337374 -0.052252054 -0.103401035 -0.36847678
-0.13254122 -0.119480416 -0.06406693 -0.16910912 -0.01726925 0.12007235 -0.18558781 -0.5478938
-0.15804705 -0.18215702 -0.09071185 -0.15034832 -0.20768368 -0.20797914 -0.22132698 0.040276177
-0.03483303 -0.08401274 -0.13387685 0.005570754 0.049823042 -0.15947619 -0.085630514 0.03178793
0.029846892 0.14354466 0.11268021 -0.37835348 -0.10372994 -0.1069281 -0.12727644 -0.4403842
-0.3110834 -0.18895318 0.0077473135 -0.4158449 -0.041634563 -0.32627425 -0.200282 -0.38206244
-0.08811929 -0.23610911 -0.32801953 -0.25230712 -0.2521042 0.008440952 -0.3253724 -0.037471376
-0.061919037 -0.18085045 -0.047137976 -0.112156436 0.02247601 -0.3001664 -0.25849575 -0.13320258
-0.1358173 -0.32242668 -0.07894626 -0.28619957 0.15138164 -0.3204977 0.03318948 -0.012272748
-0.35628414 -0.22192489 -0.29551122 -0.43107477 -0.07684925 -0.11704883 -0.12741931 -0.24766308
0.052843247 -0.19291581 -0.049345948 -0.1893551 -0.07459348 -0.1405093 -0.08772857 -0.06822094
-0.047527183 0.09115424 -0.08152578 -0.1669067 -0.095075354 -0.22706105 0.034603138 -0.059932668
-0.10041093 -0.17434904 -0.19878814 -0.16338776 -0.25859016 -0.3384722 -0.003894453 -0.016581114
00000000: cd34 aebd 1e81 4abe 5c54 9b3e 46fe c0bd
00000010: 26db a3bc f4fe d13c b444 b6be 241e 04bd
00000020: d88d 10bd 9e63 84bd 0c23 14be 8a06 053d
00000030: e3e7 90bb f3b4 f2be e48b c7be bb2a 59be
00000040: e41f b0be f96b 8d3c d538 dabd a065 e1be
00000050: e18f dd3c c058 48be 9abf bfbd 0f8b 223d
00000060: b5dd 093d ecb3 04bd c3ad 8d3d bbc7 263e
00000070: 67ed b4be 4006 56bd ecc3 d3bd fda8 bcbe
00000080: e3b8 07be 26b2 f4bd 8635 83bd f12a 2dbe
00000090: 3e78 8dbc 7ee8 f53d bb0a 3ebe c542 0cbf
000000a0: 16d7 21be 5f87 3abe 22c7 b9bd e9f4 19be
000000b0: 08ab 54be 7cf8 54be 8aa3 62be a2f8 243d
000000c0: 14ad 0ebd df0e acbd 0317 09be df8a b63b
000000d0: 3f13 4c3d ba4d 23be 0d5f afbd 0f34 023d
000000e0: 7881 f43c 5ffd 123e e2c4 e63d 8cb7 c1be
000000f0: 5d70 d4bd 1ffd dabd c154 02be 0a7a e1be
00000100: 5346 9fbe f17c 41be 2ddd fd3b 9fe9 d4be
00000110: 0189 2abd 6b0d a7be b916 4dbe b09d c3be
00000120: e377 b4bd 96c6 71be 2df2 a7be 662e 81be
00000130: cd13 81be eb4b 0a3c 3697 a6be 967b 19bd
00000140: d19e 7dbd dc30 39be c013 41bd 46b2 e5bd
00000150: 9c1f b83c 69af 99be 8e59 84be 4266 08be
00000160: b113 0bbe 1c15 a5be 94ae a1bd c088 92be
00000170: ca03 1b3e 4618 a4be b1f1 073d a313 49bc
00000180: e06a b6be 4740 63be 3f4d 97be d5b5 dcbe
00000190: 2463 9dbd 4cb7 efbd 357a 02be 649b 7dbe
000001a0: 2972 583d b98b 45be fa1e 4abd 4ee6 41be
000001b0: 77c4 98bd ace1 0fbe 09ab b3bd 6cb7 8bbd
000001c0: ddab 42bd 13af ba3d fdf6 a6bd 97e9 2abe
000001d0: deb6 c2bd b182 68be 05bc 0d3d f57b 75bd
000001e0: 3fa4 cdbd 8e88 32be 1e8f 4bbe 1f4f 27be
000001f0: ee65 84be 3a4c adbe 143a 7fbb 1ed5 87bc
